models/DQNdecay_param3.pth (torch, 45919 bytes, 8 tensors)

hidden_layer1.weight f4 [64, 126]
0.05165024 0.20115829 0.26093328 0.21447179 0.2519494 0.2234866 0.5620468 -0.008741971
0.16019453 0.09537426 0.26072016 0.39286685 0.52028006 0.56404096 -0.036751624 -0.14662968
-0.16553308 0.07562923 0.07755627 0.19455393 0.25708088 0.09728666 0.10470695 0.09719305
0.15683034 0.23886763 0.13424921 0.23072731 0.034559272 0.073733225 0.2274395 0.140044
0.47215295 0.46090305 0.5228813 0.09724725 0.012322432 0.14365517 0.3574247 0.21074967
0.3154672 0.45537212 0.044396125 0.0060826004 -0.1313789 0.08038195 0.23770948 0.19822066
0.15129569 -0.15041079 0.037487935 0.037373096 0.12854327 0.16484782 0.09365052 0.36551794
0.13315246 0.092760466 0.19825096 0.26111802 0.38610628 0.5120004 0.48077407 -0.13534643
-0.025751635 -0.03534896 0.022963438 0.075132005 0.13641949 0.24289334 -0.059907753 -0.117224775
-0.11163106 -0.135093 0.030505138 0.10555852 0.1962782 0.16777904 0.12345721 0.08913721
0.05855169 0.069439344 0.16033049 0.20936266 -0.0055923327 -0.06386391 -0.041694947 0.031003995
0.07131961 0.05834241 0.07726238 -0.27481982 -0.15892893 -0.03280617 -0.13356477 0.049064565
0.20785038 0.36903605 -0.104397595 -0.10144416 -0.0590945 -0.036408596 0.089477256 0.06801038
0.027550677 -0.014128864 -0.057254013 -0.09113917 0.03643834 -0.007565957 0.009985965 -0.0048978296
0.070822194 0.04173725 0.09038102 0.18418571 0.21899818 0.33135444 0.32464153 -0.0087391855
-0.1151444 -0.0027205523 -0.00909239 0.11260278 0.18238556 0.3369313 0.8247864 -0.33171543
-0.22647835 -0.26958764 -0.4243107 -0.4887089 -0.54496586 0.4287114 -0.12834568 0.51560295
0.51542485 -0.781608 -1.009807 -0.8345091 0.89792246 -0.34807524 -0.03620652 -0.24064574
0.106926456 0.29994097 -0.32537538 -0.16071716 0.2907864 0.7641911 -0.30956835 -0.5257032
0.12921828 -0.3668231 0.0779645 -0.023384197 -0.15567543 0.21141502 0.01020076 0.120201126
-0.41360247 -0.20291582 0.7806752 -0.01719997 -0.23412314 -0.147833 -0.14230907 0.19789301
0.10707367 -0.41570607 0.12825166 0.021310149 0.024822662 -0.15029623 0.23860464 -0.0064810864
0.2986874 0.53732973 0.30917126 -0.46010756 0.3237477 -0.61184305 0.052898947 0.453379
0.5732952 -0.16942436 0.07682746 -0.10853697 -0.005530415 0.00451941 0.047624253 0.09287278
0.13112107 0.111821964 0.060374655 0.059491035 -0.25561985 -0.2822271 -0.31858823 -0.25520003
-0.3283119 -0.31145167 -0.39057744 -0.084333256 0.040811602 0.056904204 -0.019901361 -0.01828516
0.0006939635 -0.12726918 -0.1093854 -0.060426183 -0.08183256 -0.2255839 -0.39062092 -0.48825237
-0.59788865 0.33693248 0.29081458 0.041663498 0.004590918 -0.09115026 -0.23732127 -0.27681828
0.4915998 0.40088457 0.2996816 0.3094427 0.2326396 0.12085118 0.07621321 0.22401525
0.11709361 0.025911307 -0.11341934 0.018450264 0.05928524 0.06032561 -0.030970352 -0.049409077
-0.03143259 0.0016209983 0.08244464 -0.15070824 -0.26639473 0.40938404 0.45388064 0.27957818
0.25800508 0.025365436 0.01975892 -0.07328591 0.16531147 0.033837497 0.033016093 -0.12890416
00000000: 348f 533d 70fc 4d3e 0c99 853e 7e9e 5b3e
00000010: 83ff 803e acd9 643e 4de2 0f3f 7c3a 0fbc
00000020: 090a 243e 9453 c33d 1d7d 853e d825 c93e
00000030: 1331 053f fd64 103f df88 16bd 1726 16be
00000040: 8181 29be 7fe3 9a3d d2d5 9e3d 2539 473e
00000050: 1ba0 833e 3a3e c73d 9970 d63d 260d c73d
00000060: 2298 203e b799 743e a078 093e c843 6c3e
00000070: 068e 0d3d 7201 973d e6e5 683e b267 0f3e
00000080: 08be f13e 7cfb eb3e 8ddb 053f 9129 c73d
00000090: 07e4 493c 571a 133e 5f00 b73e c3ce 573e
000000a0: eb84 a13e 8926 e93e b6d8 353d 8d50 c73b
000000b0: 3188 06be 4b9f a43d 1d6a 733e 5bfa 4a3e
000000c0: 42ed 1a3e 4905 1abe f38c 193d 8814 193d
000000d0: d9a0 033e decd 283e d8cb bf3d 2b25 bb3e
000000e0: 1e59 083e 33f9 bd3d 4d02 4b3e 43b1 853e
000000f0: b9af c53e 7512 033f 0528 f63e 4198 0abe
00000100: 18f5 d2bc 12ca 10bd d21d bc3c cfde 993d
00000110: 8db1 0b3e 08b9 783e d561 75bd 8b13 f0bd
00000120: d39e e4bd d255 0abe e9e5 f93c 112f d83d
00000130: 27fd 483e 45ce 2b3e 22d7 fc3d 928d b63d
00000140: e6d3 6f3d 3736 8e3d ad2d 243e 2a63 563e
00000150: e33f b7bb 15cb 82bd 52c8 2abd 17fc fd3c
00000160: 0410 923d 73f8 6e3d bd3b 9e3d 2fb5 8cbe
00000170: 44be 22be c35f 06bd 34c5 08be edf7 483d
00000180: bbd6 543e 4bf2 bc3e 68ce d5bd f5c1 cfbd
00000190: 130d 72bd 2e21 15bd da3f b73d 0749 8b3d
000001a0: f5b1 e13c c07c 67bc 2f83 6abd 2ca7 babd
000001b0: 5e40 153d d9eb f7bb 2c9c 233c f97d a0bb
000001c0: 3a0b 913d aef4 2a3d af19 b93d 2e9b 3c3e
000001d0: 0f41 603e 4aa7 a93e 6a37 a63e cd2e 0fbc
000001e0: d4d0 ebbd 4b4b 32bb 3ff8 14bc 499c e63d
000001f0: 48c3 3a3e 4282 ac3e 3425 533f 9bd6 a9be
00000200: f1e9 67be 6407 8abe 413f d9be 0e38 fabe
00000210: e282 0bbf 1080 db3e 0d6d 03be 8efe 033f
00000220: e2f2 033f 7617 48bf 5b41 81bf 63a2 55bf
00000230: 3fde 653f eb36 b2be 4a4d 14bd d66b 76be
00000240: 42fc da3d dd91 993e 9a97 a6be 0a93 24be
00000250: f4e1 943e 07a2 433f be7f 9ebe 7c94 06bf
00000260: cc51 043e 3dd0 bbbe daab 9f3d 3790 bfbc
00000270: 6169 1fbe 2e7d 583e 1721 273c 022c f63d
00000280: b4c3 d3be 2ac9 4fbe 54da 473f f4e6 8cbc
00000290: fabd 6fbe 8961 17be 78b9 11be 77a4 4a3e
000002a0: 7149 db3d 6dd7 d4be 6754 033e 9f92 ae3c
000002b0: e558 cb3c 41e7 19be c654 743e 4b5f d4bb
000002c0: 8eed 983e 718e 093f b24b 9e3e 3893 ebbe
000002d0: 42c2 a53e bfa1 1cbf 91ac 583d 4b21 e83e
000002e0: 79c3 123f 947d 2dbe b757 9d3d a248 debd
000002f0: 7c38 b5bb 8f17 943b a611 433d 1634 be3d
00000300: 9a44 063e ea02 e53d 6a4b 773d dfac 733d
00000310: 9be0 82be 1280 90be ff1d a3be 94a9 82be
00000320: 7f18 a8be 9876 9fbe c4f9 c7be eab6 acbd
00000330: 112a 273d 6214 693d 2e08 a3bc c3ca 95bc
00000340: 1aeb 353a da52 02be 7405 e0bd 7281 77bd
00000350: d497 a7bd 77ff 66be 77ff c7be 37fc f9be
00000360: 3b0f 19bf 6a82 ac3e a6e5 943e 58a7 2a3d
00000370: 696f 963b fdac babd 5904 73be 20bb 8dbe
00000380: f8b2 fb3e be40 cd3e de6f 993e 466f 9e3e
00000390: 1339 6e3e d380 f73d ac15 9c3d 4164 653e
000003a0: c6ce ef3d f343 d43c 6648 e8bd 0225 973c
000003b0: 14d5 723d fd17 773d 89b5 fdbc 2c61 4abd
000003c0: 76bf 00bd ad77 d43a bcd8 a83d 4353 1abe
000003d0: e464 88be c99a d13e 0b63 e83e df24 8f3e
000003e0: 3e19 843e 2dcb cf3c 75dd a13c ec16 96bd
000003f0: 6947 293e 3099 0a3d e23b 073d 74ff 03be

hidden_layer1.bias f4 [64]
-0.32815588 0.44446704 -0.2622017 1.1711011 0.76402783 0.5405513 -0.07760255 -0.011242424
0.52071714 1.0790261 0.2936736 0.20463717 0.35231873 -0.00815304 0.60363865 0.63116294
0.0075959405 -0.050089475 -0.030068584 0.35423282 0.7718969 1.2656358 0.5767349 0.8122077
0.13846004 0.9014789 -0.018286187 0.30982646 0.7391316 0.6293515 0.6219714 0.5045043
0.52187186 -0.03450523 0.014413566 -0.037012383 -0.051945113 -0.19565119 -0.1346492 0.24721932
0.5362983 0.41358307 0.5976653 0.5135949 0.49240854 -0.0027896327 0.65388095 0.70684344
-0.049545325 0.3117838 0.18134992 0.825881 -0.0015087998 -0.03038592 -0.13924433 0.27561575
0.36367968 0.38684854 -0.26164502 0.24514295 0.5612869 0.62100565 0.14175779 0.46938345
00000000: 0c04 a8be 2f91 e33e 4d3f 86be a4e6 953f
00000010: 5497 433f 9261 0a3f 16ee 9ebd 2532 38bc
00000020: b84d 053f 871d 8a3f 635c 963e 688c 513e
00000030: 1f63 b43e 5494 05bc 1088 1a3f e593 213f
00000040: 5ee7 f83b 9f2a 4dbd 6452 f6bc 015e b53e
00000050: 099b 453f 5b00 a23f e6a4 133f d8ec 4f3f
00000060: 78c8 0d3e 52c7 663f eacc 95bc 93a1 9e3e
00000070: bb37 3d3f 2e1d 213f 8539 1f3f 3227 013f
00000080: 6599 053f 5b55 0dbd e126 6c3c 4c9a 17bd
00000090: 66c4 54bd c958 48be 7be1 09be 1027 7d3e
000000a0: d84a 093f 29c1 d33e 9800 193f f57a 033f
000000b0: f91c fc3e 45d2 36bb be64 273f b1f3 343f
000000c0: 0af0 4abd 20a2 9f3e cbb3 393e f06c 533f
000000d0: ecc2 c5ba e5eb f8bc 1196 0ebe 821d 8d3e
000000e0: 3934 ba3e 0311 c63e 56f6 85be c106 7b3e
000000f0: 80b0 0f3f 3afa 1e3f f428 113e 0753 f03e

hidden_layer2.weight f4 [32, 64]
0.00806711 0.16436666 -0.18592536 1.3250246 0.00094896625 0.32193723 -0.07867611 0.076381266
-0.017673314 0.41156426 0.06110173 1.3142233 -0.38908616 -0.033511892 0.111065224 0.0066963956
0.06429252 0.022612328 -0.031886857 0.693193 0.37373537 0.8306591 0.3968792 0.22707003
0.031624533 0.16220646 -0.12816004 -0.12164288 0.037721787 0.25124705 0.17779101 0.035915643
0.25400165 -0.00910742 0.024576055 -0.051615026 0.0029921194 -0.19715765 -1.1572105 0.13895927
0.209929 0.846478 0.30356216 0.34746176 0.31512758 0.060636424 0.34902716 0.35192642
-0.06539327 -0.017564947 -0.10825257 0.3232673 0.023937555 -0.13911237 -0.2939993 0.22033831
-0.09806597 0.61766577 0.012937856 0.1691536 -0.042811107 0.6534229 0.045790665 0.08648437
-0.071186975 0.010580591 0.033229258 -0.080979705 -0.07360735 -0.059068482 -0.06270608 0.06326398
-0.038212247 0.038079537 0.013916075 0.04672401 -0.057618078 -0.049420763 0.04641974 -0.071237125
-0.04273105 0.033703025 0.046457145 -0.04029825 -0.0012321519 -0.028878262 -0.040042467 0.006505574
-0.030455794 0.036513835 0.037999988 -0.040724024 -0.004191421 -0.07753464 -0.016365984 -0.03193977
-0.05075809 0.003961442 0.05273561 0.0059493803 -0.06716376 0.042547036 -0.028104002 0.0065120794
0.04959859 -0.035997063 -0.013989538 0.059406985 0.042233437 0.0012371343 0.048680123 0.023962434
-0.016661203 -0.024602382 -0.0037884868 -0.04849762 0.006262924 -0.07835453 -0.07116009 -0.053744473
-0.08985099 -0.038990967 0.004376832 0.011876808 -0.024525024 -0.04560732 -0.019121876 0.026592456
-0.115403675 0.055906247 -0.03496554 0.020426394 0.0486925 0.0136804925 -0.025609437 0.007972567
-0.0074800076 0.025358789 -0.012656779 0.016435621 -0.033482105 0.0008356446 0.017467594 -0.080042414
0.041238066 -0.060145583 0.018092496 -0.06251484 -0.024212101 -0.00020833862 0.027107066 0.029008191
-0.051659632 -0.02069761 0.00318647 -0.06239954 -0.08584834 0.04377774 0.0073488597 0.012054717
-0.036436282 0.026131297 0.038505707 -0.06546613 -0.05537284 -0.04093157 -0.008930438 -0.041800287
-0.03699736 -0.09977164 -0.030121781 -0.06981891 -0.050261874 -0.040204428 -0.097749904 0.039818954
0.043945108 -0.0070155957 -0.059777357 -0.010213813 -0.01151842 -0.06382881 -0.027913181 -0.02698478
0.054763313 0.02249846 -0.045731496 -0.11109762 0.010405976 -0.05611795 -0.05449659 0.02792138
-0.061596535 -0.076420486 0.01318789 -0.06860253 -0.08099478 -0.033358775 -0.011858362 0.055751566
-0.083533116 0.038715515 -0.012394135 0.044406284 -0.010900955 -0.058403853 0.040077314 0.01023066
-0.003926669 0.044073764 -0.02917115 -0.00847535 -0.060882904 0.04079986 -0.021783056 -0.07618025
-0.0079623 0.026809597 -0.007592136 -0.050113942 0.030288512 -0.016765872 -0.022902446 -0.09578714
-0.072148465 0.0013688811 0.05257188 -0.060611986 0.022475906 -0.042049285 -0.03280375 -0.09749215
-0.040352374 0.037202775 -0.024435926 -0.08824833 -0.06629298 -0.020772219 0.025184324 -0.063487574
-0.047929376 -0.0659914 -0.07533496 0.04151227 0.035140034 -0.07433527 -0.083722994 0.036461126
-0.08895832 -0.013469217 0.007951667 -0.028496295 -0.0097319065 -0.07595289 0.01365734 0.021344144
00000000: e92b 043c bc4f 283e 3863 3ebe 689a a93f
00000010: 0cc4 783a f5d4 a43e f120 a1bd c86d 9c3d
00000020: a0c7 90bc 8db8 d23e cf45 7a3d 7838 a83f
00000030: 4d36 c7be c443 09bd 2a76 e33d 706d db3b
00000040: ccab 833d 7d3d b93c cb9b 02bd 1975 313f
00000050: 3e5a bf3e 13a6 543f c033 cb3e 0c85 683e
00000060: ba88 013d 7319 263e 633c 03be e71f f9bd
00000070: 2982 1a3d 74a3 803e d90e 363e 481c 133d
00000080: 810c 823e 4a37 15bc b953 c93c 476a 53bd
00000090: 6f17 443b b2e3 49be 791f 94bf 574b 0e3e
000000a0: a1f7 563e c8b2 583f 806c 9b3e 82e6 b13e
000000b0: 6758 a13e e65d 783d b0b3 b23e b32f b43e
000000c0: e8ec 85bd 5de4 8fbc 86b3 ddbd 4b83 a53e
000000d0: b118 c43c 7973 0ebe 1487 96be 5ea0 613e
000000e0: d0d6 c8bd 581f 1e3f 4df9 533c 9a36 2d3e
000000f0: b35a 2fbd b946 273f fe8e 3b3d b81e b13d
00000100: 7aca 91bd 375a 2d3c 671b 083d b0d8 a5bd
00000110: 73bf 96bd cbf1 71bd 0c6c 80bd 8c90 813d
00000120: 7284 1cbd 4af9 1b3d 4000 643c ad61 3f3d
00000130: ef00 6cbd 6d6d 4abd a022 3e3d c5e4 91bd
00000140: c106 2fbd 2f0c 0a3d d949 3e3d c70f 25bd
00000150: 2880 a1ba 1b92 ecbc 9203 24bd b62c d53b
00000160: 6e7e f9bc 888f 153d e0a5 1b3d 3cce 26bd
00000170: 3058 89bb 7bca 9ebd f511 86bc 47d3 02bd
00000180: b7e7 4fbd fcce 813b 4c01 583d 05f3 c23b
00000190: 278d 89bd cd45 2e3d 5d3a e6bc 4863 d53b
000001a0: e427 4b3d a871 13bd 6034 65bc bd54 733d
000001b0: f8fc 2c3d 5727 a23a cf64 473d de4c c43c
000001c0: 137d 88bc ef8a c9bc 4348 78bb 71a5 46bd
000001d0: 3739 cd3b 5778 a0bd 62bc 91bd 2a23 5cbd
000001e0: cc03 b8bd feb4 1fbd 876b 8f3b f196 423c
000001f0: b4e8 c8bc bece 3abd 7ba5 9cbc 6cd8 d93c
00000200: c358 ecbd f3fd 643d 0738 0fbd 4155 a73c
00000210: c971 473d 2524 603c e2ca d1bc 5f9f 023c
00000220: da1a f5bb 3cbd cf3c 615e 4fbc ffa3 863c
00000230: 8824 09bd 290f 5b3a 3318 8f3c 47ed a3bd
00000240: 3fe9 283d 375b 76bd b736 943c c807 80bd
00000250: 7558 c6bc 7975 5ab9 a30f de3c 96a2 ed3c
00000260: 0d99 53bd 098e a9bc 18d4 503b a996 7fbd
00000270: 41d1 afbd 4a50 333d b4ce f03b 2681 453c
00000280: 363e 15bd 4d11 d63c 29b8 1d3d 1b13 86bd
00000290: a2ce 62bd dda7 27bd f950 12bc c736 2bbd
000002a0: 8b8a 17bd 1355 ccbd f4c1 f6bc 37fd 8ebd
000002b0: 65df 4dbd 66ad 24bd 1a31 c8bd 3319 233d
000002c0: c9ff 333d 15e3 e5bb 1ad9 74bd d657 27bc
000002d0: c1b7 3cbc aeb8 82bd 2faa e4bc 2f0f ddbc
000002e0: 7f4f 603d b14e b83c f350 3bbd 2687 e3bd
000002f0: d47d 2a3c efdb 65bd d137 5fbd 61bb e43c
00000300: a64c 7cbd 5882 9cbd 0512 583c 7c7f 8cbd
00000310: 97e0 a5bd 36a3 08bd 9349 42bc c15b 643d
00000320: 6913 abbd 2994 1e3d c510 4bbc 5de3 353d
00000330: eb99 32bc e138 6fbd 1c28 243d 809e 273c
00000340: 49ab 80bb b186 343d 56f8 eebc 32dc 0abc
00000350: 5a60 79bd c11d 273d 6172 b2bc 6404 9cbd
00000360: 4f74 02bc cd9f db3c 74c7 f8bb 4744 4dbd
00000370: 9d1f f83c 9558 89bc e99d bbbc 0c2c c4bd
00000380: 93c2 93bd 076c b33a 9d55 573d 4644 78bd
00000390: 641f b83c df3b 2cbd 3a5d 06bd f7a9 c7bd
000003a0: 8848 25bd f061 183d da2d c8bc 8abb b4bd
000003b0: 9dc4 87bd 802a aabc 5b4f ce3c c605 82bd
000003c0: 9851 44bd 8026 87bd 3749 9abd c508 2a3d
000003d0: ffee 0f3d 173d 98bd f676 abbd 4358 153d
000003e0: c82f b6bd fead 5cbc b547 023c 1071 e9bc
000003f0: 9372 1fbc 308d 9bbd 09c3 5f3c ead9 ae3c

hidden_layer2.bias f4 [32]
1.2517396 -0.088215075 -0.06700052 -0.010204867 -0.019635988 0.44470167 -0.00915233 0.12535232
0.009653353 -0.5100437 0.554498 0.3331362 0.006218769 -0.21453941 0.035036087 -0.0063387966
0.15663208 0.07290689 -0.12544338 -0.05809288 -0.027693745 0.38768953 0.29741034 0.537883
0.7705734 -0.16462338 -0.016837846 0.015705183 0.5076653 -0.040965296 0.19945183 0.013993571
00000000: 0139 a03f 1baa b4bd 9237 89bd 5132 27bc
00000010: a7db a0bc f0af e33e a8f3 15bc 5c5c 003e
00000020: 1929 1e3c 3992 02bf 95f3 0d3f d490 aa3e
00000030: d1c6 cb3b 38b0 5bbe 0082 0f3d aeb5 cfbb
00000040: 2964 203e 3550 953d 3b74 00be cdf2 6dbd
00000050: fedd e2bc 3e7f c63e 2b46 983e b3b2 093f
00000060: 4c44 453f 0893 28be 86ef 89bc 28a8 803c
00000070: 5af6 013f 3acb 27bd 1a3d 4c3e 4a45 653c

hidden_layer3.weight f4 [16, 32]
0.017592276 0.04292798 0.0819962 0.08221261 0.04528699 -0.052643362 -0.12712725 -0.08119385
0.049692977 -0.047666296 0.046683587 -0.002128703 -0.09607303 0.0772892 -0.025530942 0.022213504
-0.003648813 -0.050573993 0.046613798 0.08123522 -0.10741131 -0.07359165 0.07641228 -0.11307281
-0.044251062 -0.061994936 0.009448833 0.11854453 -0.033483144 -0.076155394 -0.08496492 -0.08936048
0.9256644 -0.059635986 -0.025247287 -0.0023838722 0.015565717 0.73812115 0.021207424 0.03284777
0.02866434 0.543293 -0.033175778 -1.7303824 -0.07016578 -0.16315949 0.0024487767 0.026093453
-0.16584913 0.63457495 0.23013642 -1.5136851 0.02176863 0.119585134 0.54949766 0.1495161
0.91602004 -0.40660235 -0.034240685 0.06029299 -0.016501158 0.098175935 0.11496801 -0.79099244
-0.058182452 0.015089263 0.042675287 0.058132257 0.021944787 0.036022667 0.015342541 -0.0271016
0.0028525994 -0.049495988 -0.012368673 -0.037850436 -0.0012720149 -0.044300552 0.05957509 -0.04797335
-0.016499724 -0.091713786 -0.0824463 0.07752737 -0.031808496 -0.07851936 -0.058076084 -0.05265832
-0.022916492 -0.10048667 -0.09711946 0.084534 -0.07573142 -0.086515464 -0.09218335 0.080758244
-0.46279913 0.064884 0.0029647297 0.069985695 -0.06402235 0.14535001 0.21625908 0.07152844
-0.021164423 -2.8557897 0.3755577 1.144708 0.008126678 -0.122298464 -0.034039572 -0.043052077
-0.28706792 0.17641124 0.16550775 0.14400786 -0.022961773 -0.022069745 -0.22045715 0.1682794
-0.7515856 -0.0589061 0.068819 -0.058866046 -0.32388633 0.07379512 0.053657543 1.9428071
-0.18861462 -0.10195787 0.0016009656 -0.05881034 -0.0320399 -0.07733277 0.026200563 -0.084857866
0.058916356 -0.058055382 -0.11658291 -0.07944791 0.06750533 0.036333017 -0.065659 0.01395724
-0.013518328 -0.1603104 -0.099356696 0.029955963 0.004852487 0.04549597 0.0029103071 -0.10657955
-0.086152785 -0.029919388 0.07350184 0.008836738 -0.0355107 -0.11249815 -0.101854585 -0.09641835
0.15833242 0.050997913 0.055041227 0.05732284 -0.010291032 -0.6778699 -0.071031936 -0.25738764
-0.03570608 0.94355875 -0.13235934 -0.019810867 0.0127065 -0.47298717 -0.058441877 0.033296425
-0.25307572 0.6771551 -1.7644851 0.4281722 -0.069338255 -0.3077104 -0.47345504 -0.08871398
0.65862834 0.43466276 -0.11812003 -0.10238421 0.112308234 -0.012722863 -1.4841247 0.7809338
-0.5114107 -0.060956962 -0.089227095 -0.07869721 -0.088129856 -2.1268861 0.06573438 -0.010064458
-0.055849798 0.9661125 -0.1366741 1.2014748 0.027633939 -1.7330523 -0.12470211 -0.013963455
-1.2089841 0.70679194 0.24220315 0.1662954 -0.013809614 0.09352131 0.9534451 0.18532565
-0.36958694 0.77744246 0.03368729 -0.035125174 0.5375934 -0.050813433 -0.3053977 -0.2234755
-0.46628746 0.010154372 0.05107759 -0.07204404 0.031615138 1.4973786 -1.9073734 -2.0180228
0.058477953 1.3104401 -1.7542001 0.8097206 0.0024925629 -0.39786625 0.0626724 -0.07047762
-0.053988177 0.23985256 -0.1652891 1.478848 -0.14893061 -0.9632746 1.876771 -3.0922546
0.23319115 0.79143035 0.0032258274 0.025318302 -1.1391069 -0.0092284605 -0.6162363 -0.053221222
00000000: ad1d 903c 40d5 2f3d a0ed a73d 165f a83d
00000010: da7e 393d 91a0 57bd a52d 02be f648 a6bd
00000020: dd8a 4b3d bc3d 43bd 4a37 3f3d b681 0bbb
00000030: f0c1 c4bd cd49 9e3d 4426 d1bc 18f9 b53c
00000040: ed20 6fbb ad26 4fbd 1cee 3e3d a75e a63d
00000050: 76fa dbbd 38b7 96bd 0b7e 9c3d b892 e7bd
00000060: 9a40 35bd 67ee 7dbd 47cf 1a3c 79c7 f23d
00000070: 9f25 09bd 5cf7 9bbd 1702 aebd a102 b7bd
00000080: 58f8 6c3f dd44 74bd 66d3 cebc bd3a 1cbb
00000090: 5907 7f3c 82f5 3c3f 31bb ad3c 628b 063d
000000a0: 7ad1 ea3c 4015 0b3f 53e3 07bd 2c7d ddbf
000000b0: 14b3 8fbd 4813 27be a87b 203b f0c1 d53c
000000c0: 5bd4 29be 8173 223f e2a8 6b3e 6fc0 c1bf
000000d0: 2054 b23c 0de9 f43d e1ab 0c3f c01a 193e
000000e0: 4a80 6a3f 2f2e d0be f63f 0cbd c8f5 763d
000000f0: 702d 87bc 7710 c93d 5974 eb3d 7b7e 4abf
00000100: b950 6ebd f538 773c 48cc 2e3d 171c 6e3d
00000110: 8ec5 b33c 818c 133d 485f 7b3c 2d04 debc
00000120: adf2 3a3b 4ebc 4abd faa5 4abc 0f09 1bbd
00000130: bdb9 a6ba 7f74 35bd 0205 743d b47f 44bd
00000140: 6e2a 87bc 70d4 bbbd 9bd9 a8bd abc6 9e3d
00000150: a049 02bd c2ce a0bd 30e1 6dbd 40b0 57bd
00000160: 5ebb bbbc f5cb cdbd 91e6 c6bd 2920 ad3d
00000170: 1319 9bbd 052f b1bd a0ca bcbd 9464 a53d
00000180: 02f4 ecbe e7e1 843d e94b 423b a954 8f3d
00000190: 261e 83bd a2d6 143e 0573 5d3e 817d 923d
000001a0: 0361 adbc 42c5 36c0 1949 c03e cb85 923f
000001b0: c225 053c 9e77 fabd 146d 0bbd 6057 30bd
000001c0: 91fa 92be 26a5 343e dd7a 293e cc76 133e
000001d0: 541a bcbc 9ccb b4bc 85bf 61be 6f51 2c3e
000001e0: ea67 40bf 8647 71bd faf0 8c3d 861d 71bd
000001f0: 6ed4 a5be e521 973d 03c8 5b3d e7ad f83f
00000200: 3124 41be 4acf d0bd 7ed7 d13a 1ce3 70bd
00000210: 453c 03bd a560 9ebd 90a2 d63c f6c9 adbd
00000220: 4752 713d 7bcb 6dbd 05c3 eebd 96b5 a2bd
00000230: 3c40 8a3d eed1 143d 3a78 86bd e8ac 643c
00000240: fa7b 5dbc 6928 24be 867b cbbd 3566 f53c
00000250: 9c01 9f3b fb59 3a3d daba 3e3b 6146 dabd
00000260: df70 b0bd 8119 f5bc 2288 963d f7c7 103c
00000270: ab73 11bd 6e65 e6bd 2399 d0bd fc76 c5bd
00000280: e521 223e 30e3 503d e972 613d 5bcb 6a3d
00000290: b79b 28bc e288 2dbf 3179 91bd 50c8 83be
000002a0: 8a40 12bd 118d 713f 3589 07be 664a a2bc
000002b0: ec2e 503c 602b f2be c060 6fbd d561 083d
000002c0: 2493 81be 095a 2d3f a6da e1bf 6339 db3e
000002d0: 3701 8ebd 388c 9dbe b368 f2be adaf b5bd
000002e0: de9b 283f 1e8c de3e eae8 f1bd d0ae d1bd
000002f0: dc01 e63d 8e73 50bc ccf7 bdbf 47eb 473f
00000300: d0eb 02bf 02ae 79bd b2bc b6bd 012c a1bd
00000310: 6d7d b4bd e71e 08c0 bf9f 863d 65e5 24bc
00000320: c2c2 64bd 2653 773f 4cf4 0bbe edc9 993f
00000330: 9260 e23c a8d4 ddbf d263 ffbd fac6 64bc
00000340: febf 9abf 51f0 343f 1a04 783e 5749 2a3e
00000350: b841 62bc 1a88 bf3d fa14 743f 02c6 3d3e
00000360: 803a bdbe 7806 473f affb 093d 6adf 0fbd
00000370: b99f 093f bf21 50bd 165d 9cbe c3d6 64be
00000380: 3bbd eebe 865e 263c bc36 513d d38b 93bd
00000390: e07e 013d 1aaa bf3f d024 f4bf 4927 01c0
000003a0: 9486 6f3d 80bc a73f a189 e0bf d949 4f3f
000003b0: 445a 233b 20b5 cbbe 635a 803d 9256 90bd
000003c0: b522 5dbd e99b 753e 8c41 29be e44a bd3f
000003d0: 4481 18be 2a99 76bf 083a f03f 80e7 45c0
000003e0: a9c9 6e3e 2e9b 4a3f 6768 533b 5468 cf3c
000003f0: 41ce 91bf f832 17bc aac1 1dbf 7ffe 59bd

hidden_layer3.bias f4 [16]
-0.036799464 1.049438 -0.06736313 -0.86692435 0.060937278 0.16159654 -0.0030772728 -1.2882679
0.39305493 0.58401865 -0.12921692 1.2500024 0.1290702 -0.057678517 0.12781765 -0.97527534
00000000: 09bb 16bd fc53 863f aef5 89bd c1ee 5dbf
00000010: 5e99 793d 9079 253e 12ac 49bb f6e5 a4bf
00000020: 7f3e c93e 3f82 153f 7151 04be 1400 a03f
00000030: fa2a 043e 4f40 6cbd a1e2 023e a5ab 79bf

out_layer.weight f4 [2, 16]
0.10555653 0.50105935 0.1366449 -1.9589316 0.016736133 -1.9099777 -1.6733676 -2.951751
-2.2992907 -1.7491956 0.050973844 0.50503415 0.1736679 0.02795317 -2.9033916 -1.085088
-0.010579015 0.82669514 -0.074700505 -2.020536 0.039339043 -0.40830666 -2.8390155 -3.6056612
0.12258993 0.45714208 -0.041569464 0.24327411 -0.00941171 -0.06529688 -0.30098623 -0.42093322
00000000: 062e d83d 6d45 003f a4ec 0b3e 45be fabf
00000010: 371a 893c 267a f4bf e930 d6bf 7de9 3cc0
00000020: 9427 13c0 a4e5 dfbf f3c9 503d eb49 013f
00000030: ffd5 313e 0cfe e43c 2bd1 39c0 2ae4 8abf
00000040: 9b53 2dbc 4ba2 533f 94fc 98bd 7650 01c0
00000050: fa21 213d 920d d1be 6eb2 35c0 27c3 66c0
00000060: 6e10 fb3d 870e ea3e be44 2abd d91c 793e
00000070: 9333 1abc 5fba 85bd de1a 9abe 8f84 d7be

out_layer.bias f4 [2]
2.2889013 -0.22786
00000000: 5c7d 1240 2254 69be
