models/DQNdecay_param2.pth (torch, 45919 bytes, 8 tensors)

hidden_layer1.weight f4 [64, 126]
0.2949768 0.039502222 -0.126562 -0.1029153 -0.41476563 -0.15972042 -0.04368313 -0.2958432
0.12672444 -0.05905415 0.026727848 -0.040528767 0.081095435 -0.12066907 0.2772264 -0.09666991
-0.41115025 0.3261939 -0.18587469 0.024420304 -0.3514187 -0.03337169 0.45120874 0.14994505
0.28489652 -0.29687563 -0.0394774 0.0016599991 0.07995253 -0.008431001 -0.108755924 -0.10042041
0.1856704 0.3316472 0.052801948 0.5580857 0.38494202 0.07686161 0.031082155 0.116477765
0.1523095 0.17654347 0.32444206 -0.0556069 0.12357456 -0.30502424 6.739976e-05 0.08035241
-0.069291 0.119006574 0.18831925 0.32685542 -0.069932155 -0.093947716 -0.10190987 -0.20719294
0.015855627 -0.03289251 0.03907081 0.24318497 -0.21404573 -0.24133193 -0.12341325 -0.04975521
0.04032357 -0.04858942 -0.026983747 -0.08377328 -0.09780757 -0.17038788 0.13162851 -0.012197025
0.16190134 0.12325939 0.011049806 -0.022780633 -0.13456894 0.031079566 0.046130463 -0.0047105895
-0.03265278 -0.1068516 -0.08909478 -0.14972484 -0.052384425 -0.017095428 -0.006060277 -0.06050853
-0.093364164 -0.11374003 -0.07773395 0.26696184 0.21380109 0.13742119 0.09172083 0.10452765
0.025458371 -0.001070292 -0.2071146 -0.18200423 -0.09368265 -0.16406798 -0.15945156 -0.059822857
-0.05490811 -0.055431142 -0.0411314 -0.08578682 -0.1974972 -0.08537412 -0.20940098 -0.31225914
-0.15388994 -0.047411736 -0.08884369 0.029773664 0.075973876 -0.08677573 -0.15459713 0.33322224
0.24341016 0.2429155 0.21112216 0.20104794 0.010240315 -0.12160199 0.55236083 0.16859259
0.28331262 0.046849225 0.2092009 -6.705278e-05 -0.13592578 0.15874061 0.183926 0.3451905
-0.5343842 -0.10625008 -0.84269106 -0.25795558 0.10986353 0.554778 0.19056982 -0.087987974
-0.25645915 -0.2552624 -0.11955622 0.062425096 -0.08935832 -0.26921192 0.0770763 -0.3780913
-0.24744178 -1.250829 0.63353914 0.21691327 0.3375435 0.5269409 0.1571838 -0.28542972
-0.122280434 0.4064357 0.028338695 -0.31158942 -0.3574792 0.16903195 -0.012332119 -0.060488425
0.03957949 0.038274296 -0.070239894 0.058626294 -0.5257909 -0.055417523 -0.7833172 0.45248368
-0.05720062 -0.27211085 0.12133297 -0.036379464 -0.081986874 -0.19850884 0.45008048 0.51917577
0.37219554 0.35936996 0.0815024 0.18785046 -0.2099003 0.10553736 0.019229291 0.07837547
0.02713678 0.08242695 0.1035182 0.1225126 0.43645796 0.2500449 0.19430582 0.14647913
0.064092435 0.024593543 -0.07170755 0.097432286 0.13354322 0.14519022 0.110922195 -0.03769098
-0.037046805 -0.14237803 0.13778977 0.23233701 0.14626959 0.0326394 -0.069281206 -0.05640108
-0.23166378 0.2990883 0.1378003 0.17853452 0.13170345 0.033944286 0.08439911 0.03841537
0.19182037 0.026954437 -0.065232515 -0.13079081 -0.25387198 -0.13738842 -0.19360593 0.04061429
-0.10967691 0.045380674 0.24133843 -0.015695753 -0.023924813 0.11204068 0.05955128 0.107199594
0.045055203 -0.061187413 0.12159026 -0.20556217 -0.2172975 0.36163244 0.28571293 0.08429677
0.059810985 -0.08336748 -0.15313314 -0.031699948 0.77840984 0.3951267 0.21407828 -0.012753604
00000000: 3307 973e 15cd 213d 7899 01be 42c5 d2bd
00000010: 295c d4be c08d 23be 15ed 32bd c378 97be
00000020: 0dc4 013e c4e2 71bd 5cf4 da3c 7e01 26bd
00000030: 5d15 a63d 5821 f7bd 9ef0 8d3e e0fa c5bd
00000040: 4982 d2be e302 a73e ef55 3ebe 170d c83c
00000050: 27ed b3be c1b0 08bd d504 e73e 328b 193e
00000060: f5dd 913e 1500 98be 0eb3 21bd 5494 d93a
00000070: 27be a33d 2e22 0abc 6dbb debd 37a9 cdbd
00000080: 6220 3e3e a9cd a93e db46 583d b4de 0e3f
00000090: 1f17 c53e 9f69 9d3d 01a0 fe3c e58b ee3d
000000a0: 06f7 1b3e d0c7 343e 451d a63e 10c4 63bd
000000b0: a914 fd3d 232c 9cbe f858 8d38 ce8f a43d
000000c0: 71e8 8dbd b8b9 f33d c3d6 403e 9859 a73e
000000d0: 9738 8fbd a967 c0bd 1fb6 d0bd 632a 54be
000000e0: a9e3 813c 4cba 06bd b708 203d 7b05 793e
000000f0: ce2e 5bbe b81f 77be 16c0 fcbd 1ecc 4bbd
00000100: 542a 253d b305 47bd 050d ddbc 5391 abbd
00000110: 564f c8bd 297a 2ebe a0c9 063e 08d6 47bc
00000120: 77c9 253e 6b6f fc3d 3f0a 353c 739e babc
00000130: 71cc 09be 939a fe3c 4cf3 3c3d 4a5b 9abb
00000140: ecbe 05bd 03d5 dabd 5377 b6bd 7851 19be
00000150: 0d91 56bd b60b 8cbc 4a95 c6bb cbd7 77bd
00000160: b635 bfbd 88f0 e8bd fa32 9fbd 39af 883e
00000170: acee 5a3e 24b8 0c3e 21d8 bb3d 9812 d63d
00000180: 138e d03c 0a49 8cba da15 54be 515f 3abe
00000190: b0dc bfbd 7001 28be 4547 23be d008 75bd
000001a0: 54e7 60bd c40b 63bd 6679 28bd 00b1 afbd
000001b0: b53c 4abe a0d8 aebd 366d 56be 6ee0 9fbe
000001c0: 5395 1dbe cf32 42bd aef3 b5bd e6e7 f33c
000001d0: 3198 9b3d 79b7 b1bd b64e 1ebe 1b9c aa3e
000001e0: 8340 793e d7be 783e 6830 583e 83df 4d3e
000001f0: ffc6 273c 770a f9bd 8567 0d3f 89a3 2c3e
00000200: 5a0e 913e f9e4 3f3d c338 563e b09e 8cb8
00000210: 2130 0bbe e68c 223e 1957 3c3e cfbc b03e
00000220: 67cd 08bf a499 d9bd 9aba 57bf c112 84be
00000230: 2100 e13d ee05 0e3f bc24 433e 0a33 b4bd
00000240: 9d4e 83be c1b1 82be e4d9 f4bd 75b1 7f3d
00000250: 7f01 b7bd 25d6 89be 2eda 9d3d 2f95 c1be
00000260: 6161 7dbe 2a1b a0bf 9f2f 223f 831e 5e3e
00000270: 80d2 ac3e 99e5 063f caf4 203e d823 92be
00000280: 2a6e fabd 5718 d03e 8d26 e83c a688 9fbe
00000290: 8407 b7be b616 2d3e a80c 4abc b6c2 77bd
000002a0: 1a1e 223d 82c5 1c3d efd9 8fbd 2022 703d
000002b0: 3c9a 06bf 7cfd 62bd 7a87 48bf f1ab e73e
000002c0: 334b 6abd 1d52 8bbe 6c7d f83d a202 15bd
000002d0: bce8 a7bd e745 4bbe f370 e63e b4e8 043f
000002e0: 6a90 be3e 57ff b73e bbea a63d df5b 403e
000002f0: 1bf0 56be f923 d83d bf86 9d3c 5283 a03d
00000300: f44d de3c 76cf a83d 5a01 d43d e3e7 fa3d
00000310: 6b77 df3e e305 803e 1bf8 463e a0fe 153e
00000320: e542 833d 6678 c93c 68db 92bd 948a c73d
00000330: 8ebf 083e bfac 143e 2d2b e33d db61 1abd
00000340: 64be 17bd 8ccb 11be c318 0d3e c1e9 6d3e
00000350: b2c7 153e e4b0 053d 4ee3 8dbd d204 67bd
00000360: 4539 6dbe 1a22 993e 861b 0d3e c1d1 363e
00000370: 45dd 063e 2a09 0b3d 71d9 ac3d 6f59 1d3d
00000380: 8f6c 443e 8dcf dc3c a098 85bd 07ee 05be
00000390: 82fb 81be 8daf 0cbe a240 46be 2b5b 263d
000003a0: 4a9e e0bd 16e1 393d 6c21 773e 6194 80bc
000003b0: f8fd c3bc 9675 e53d 0bec 733d 768b db3d
000003c0: ce8b 383d a79f 7abd 5004 f93d e47e 52be
000003d0: 3c83 5ebe e327 b93e f748 923e c9a3 ac3d
000003e0: 5dfc 743d 92bc aabd efce 1cbe ced7 01bd
000003f0: de45 473f 0c4e ca3e 5637 5b3e 7ef4 50bc

hidden_layer1.bias f4 [64]
0.5611 0.72702515 0.07317071 0.13150106 0.7353631 -0.059429318 -0.07124704 0.38205603
-0.024135318 0.9768932 0.038709316 0.49668047 0.4063993 0.20271367 -0.041112665 0.23865236
-0.25803998 0.3714526 0.9084156 -0.040966444 0.3843707 -0.055591725 0.06052266 0.7292019
0.16408885 -0.090147875 -0.28432956 -0.10736141 0.7206066 0.14988211 0.6366392 0.3303416
0.6065869 0.4173893 0.5374478 0.7734162 -0.008299148 0.46805573 0.0069311797 0.6533683
0.6344172 0.22096899 0.8941295 0.4167567 -0.07092172 0.26081887 0.0862842 0.4190569
0.2598017 -0.07482693 -0.07445885 0.5434898 0.3003001 -0.04815763 -0.020755664 0.038387857
0.77975786 0.18383235 -0.05107208 0.14434516 0.4967541 0.2166162 0.5726597 0.6369891
00000000: 40a4 0f3f 521e 3a3f 86da 953d 37a8 063e
00000010: c240 3c3f 286c 73bd f8e9 91bd d99c c33e
00000020: 6eb7 c5bc ac15 7a3f a98d 1e3d e74c fe3e
00000030: 9213 d03e 2c94 4f3e c165 28bd 4961 743e
00000040: d11d 84be 092f be3e ed8d 683f 6ecc 27bd
00000050: 3dcc c43e 26b4 63bd 9ce6 773d faac 3a3f
00000060: e806 283e 739f b8bd a593 91be 4de0 dbbd
00000070: ad79 383f b27a 193e c9fa 223f 8922 a93e
00000080: 4749 1b3f 0db4 d53e 2e96 093f 9bfe 453f
00000090: 26f9 07bc 00a5 ef3e f31e e33b 2543 273f
000000a0: 2a69 223f b245 623e ace5 643f 2261 d53e
000000b0: 683f 91bd 0d8a 853e c5b5 b03d a08e d63e
000000c0: ba04 853e dd3e 99bd e27d 98bd 2622 0b3f
000000d0: efc0 993e ef40 45bd c807 aabc 963c 1d3d
000000e0: 369e 473f 8c3e 3c3e f530 51bd 38cf 133e
000000f0: 8e56 fe3e a3d0 5d3e d399 123f b811 233f

hidden_layer2.weight f4 [32, 64]
0.10935698 0.0064182105 -0.19246086 0.14154564 -0.23491101 -0.020985777 0.07091037 -0.058044013
-0.027451396 0.22341494 -0.38857913 0.19762164 -0.31015807 -0.05839503 0.26602677 0.093943186
-0.24601416 -0.021267466 0.100859694 0.034575485 0.08776372 0.05497709 -0.7313152 0.23103134
-0.05979107 0.035301365 0.33013257 -0.44308415 0.19482692 -0.1991093 0.121482186 0.49868828
0.38631654 0.12004718 -0.0012788433 0.14033139 -0.092249446 0.664487 0.04198931 0.33504423
0.25791994 0.236622 0.3638573 0.5211862 -0.05123815 0.0234557 0.13259491 0.06711381
-0.17080677 -0.01715979 0.04352918 0.4991602 -0.07526049 0.07494538 0.18499382 0.10045877
-0.6387987 0.102150045 0.04935736 -0.12945275 0.11550514 -0.49581233 -0.1103099 -0.053820107
0.20719668 0.1162384 0.042583484 -0.14860901 -0.021537345 -0.007870834 -0.021314813 -0.28300893
-0.03647369 -0.38692567 -0.18684265 -0.12477459 -0.016980473 -0.18875197 -0.1693983 -0.12629084
-0.19935153 0.039369456 0.22275893 0.0317852 0.26326004 -0.062853485 -0.63750446 0.04945922
-0.08939219 -0.46106434 -0.20648393 -0.062162984 0.2936744 0.025880616 0.3615852 0.6546606
0.0901162 -0.26911077 -0.09800867 0.027012223 0.10108794 0.3576818 0.045272507 0.77788705
0.10073967 -0.431801 0.38278055 0.34111008 0.009589511 0.3197649 -0.0057218177 0.29235435
0.6148492 0.04459614 -0.019941336 1.0953791 -0.2100179 -0.06686629 -0.40639618 0.35839146
-0.44934484 0.040278956 -0.0072525973 0.1231355 0.8525624 0.12627588 0.39230847 0.08824474
0.055040035 0.22643974 -0.0349299 -0.048210528 -0.3339578 -0.045093134 0.06285714 0.020360516
0.00016430725 -0.015176868 -0.7236536 0.2988004 0.11691488 0.19315152 -0.029544665 0.18989314
-0.20876907 0.3633258 0.10081882 -0.00056842034 0.025590379 -0.043534387 0.34625506 0.28662255
-0.045412373 -0.16467124 -0.014918739 -0.52615917 0.0050857775 0.10760589 0.12102743 0.07282059
-0.015254581 0.11283714 -0.3076113 0.096851945 -0.06201211 0.21075523 0.016866498 -0.101797454
0.20367551 0.10520283 0.27284843 0.15009607 0.02219197 0.10921719 -0.026878959 0.38715816
0.24561898 0.00508431 0.095104724 0.71619576 0.17616367 -0.03206293 -0.29348993 0.1397554
0.13836853 0.030439997 -0.012437324 -0.07076635 0.09784353 0.3956472 0.15634708 -0.031212294
0.039006736 0.21686995 -0.63593054 0.12542588 -0.3483144 -0.024207009 0.011846226 0.38666224
-0.014234243 0.18137358 -2.0451372 0.05415944 0.12799983 -0.18410689 -0.32178637 0.47655335
-0.40879956 -0.3839471 -0.13638738 -0.006880058 0.24427989 0.032118626 0.4668022 -0.10065856
-0.56310326 -0.4617233 -0.4515507 -0.6707073 0.31118825 -0.38273206 0.019784287 -0.22698091
0.056419447 0.024512758 0.20138451 -0.17446068 0.014248572 0.22987734 0.02792533 0.6193276
0.16050059 0.07823831 -0.35203722 -0.20300257 -0.0057395482 -0.019465871 -0.15825209 0.36887243
-0.004099251 -0.09528323 0.103107646 0.9086534 0.11986804 0.030924259 0.74443597 -0.000924996
0.33836317 -0.3514985 -0.09539431 0.007989329 0.36424327 0.14475004 0.31937495 0.1599501
00000000: 8df6 df3d da4f d23b 7614 45be 57f1 103e
00000010: 838c 70be 5dea abbc 7539 913d 8fbf 6dbd
00000020: c0e1 e0bc e3c6 643e d8f3 c6be 545d 4a3e
00000030: 0acd 9ebe a12f 6fbd a934 883e 4965 c03d
00000040: 23eb 7bbe 1c39 aebc 878f ce3d 069f 0d3d
00000050: 77bd b33d a82f 613d 7937 3bbf 7b93 6c3e
00000060: 7be7 74bd 2a98 103d 2307 a93e eddb e2be
00000070: b580 473e 4fe3 4bbe a7cb f83d 1254 ff3e
00000080: 48cb c53e 4cdb f53d dc9e a7ba 08b3 0f3e
00000090: 47ed bcbd d21b 2a3f fcfc 2b3d eb8a ab3e
000000a0: 150e 843e 0a4d 723e 814b ba3e 756c 053f
000000b0: 18df 51bd 2b26 c03c f6c6 073e f772 893d
000000c0: f8e7 2ebe b092 8cbc a74b 323d ed91 ff3e
000000d0: 2c22 9abd f77c 993d 056f 3d3e 54bd cd3d
000000e0: 5088 23bf 0b34 d13d f12a 4a3d 438f 04be
000000f0: f58d ec3d 1ddb fdbe 28ea e1bd 7972 5cbd
00000100: 5e2b 543e 660e ee3d 056c 2e3d f62c 18be
00000110: 166f b0bc acf4 00bc 679c aebc 8ce6 90be
00000120: 7065 15bd 1f1b c6be ae53 3fbe d289 ffbd
00000130: a21a 8bbc 3248 41be bf76 2dbe 6352 01be
00000140: cf22 4cbe de41 213d eb1a 643e 3331 023d
00000150: 05ca 863e 54b9 80bd 7e33 23bf c095 4a3d
00000160: 4113 b7bd a010 ecbe 8670 53be 9d9e 7ebd
00000170: 7e5c 963e 9603 d43c b221 b93e d697 273f
00000180: d88e b83d e3c8 89be c5b8 c8bd bd48 dd3c
00000190: 3207 cf3d 1222 b73e aa6f 393d 9b23 473f
000001a0: 9a50 ce3d 0515 ddbe d0fb c33e fba5 ae3e
000001b0: 531d 1d3c 3ab8 a33e 167e bbbb 78af 953e
000001c0: c266 1d3f 71aa 363d 035c a3bc 6235 8c3f
000001d0: ef0e 57be 32f1 88bd 2913 d0be 167f b73e
000001e0: 8710 e6be 8cfb 243d 32a7 edbb 772e fc3d
000001f0: 8841 5a3f 774e 013e a8dc c83e a9b9 b43d
00000200: a971 613d d2df 673e a812 0fbd 6778 45bd
00000210: 84fc aabe 94b3 38bd 3fbb 803d 19cb a63c
00000220: e449 2c39 66a8 78bc 5d41 39bf 5efc 983e
00000230: 1271 ef3d 83c9 453e a707 f2bc 5973 423e
00000240: 8fc7 55be d705 ba3e 197a ce3d 0b02 15ba
00000250: eaa2 d13c 1d51 32bd 5848 b13e 31c0 923e
00000260: 5302 3abd 949f 28be ba6d 74bc 5eb2 06bf
00000270: 98a6 a63b 7a60 dc3d 3bdd f73d f622 953d
00000280: 5aee 79bc 2917 e73d 3a7f 9dbe 505a c63d
00000290: 6900 7ebd 38d0 573e 9c2b 8a3c 2f7b d0bd
000002a0: 5090 503e 9574 d73d cab2 8b3e c9b2 193e
000002b0: efcb b53c 43ad df3d 4331 dcbc 9839 c63e
000002c0: 8b83 7b3e 499a a63b 44c6 c23d 9b58 373f
000002d0: 4064 343e 6b54 03bd 5044 96be 0a1c 0f3e
000002e0: 7bb0 0d3e 4d5d f93c ebc5 4bbc f3ed 90bd
000002f0: 3062 c83d 4592 ca3e 7319 203e edb0 ffbc
00000300: 87c5 1f3d 2813 5e3e 58cc 22bf a46f 003e
00000310: 4456 b2be c74d c6bc ac16 423c 98f8 c53e
00000320: be36 69bc ffb9 393e 87e3 02c0 4ad6 5d3d
00000330: 6312 033e 8486 3cbe 2fc1 a4be cdfe f33e
00000340: 2d4e d1be b794 c4be 22a9 0bbe 1c72 e1bb
00000350: 8224 7a3e d28e 033d b300 ef3e 1326 cebd
00000360: 8927 10bf ff66 ecbe a731 e7be 79b3 2bbf
00000370: 1154 9f3e 75f5 c3be a812 a23c af6d 68be
00000380: 1418 673d fbce c83c be37 4e3e d2a5 32be
00000390: d872 693c f764 6b3e a9c3 e43c 418c 1e3f
000003a0: 445a 243e 683b a03d 393e b4be e8df 4fbe
000003b0: d212 bcbb e476 9fbc d60c 22be d9dc bc3e
000003c0: 0253 86bb db23 c3bd 1a2a d33d 829d 683f
000003d0: 607d f53d df54 fd3c 5b93 3e3f 6e7b 72ba
000003e0: f03d ad3e 9df7 b3be 185e c3bd ade5 023c
000003f0: 187e ba3e 5b39 143e 1d85 a33e f6c9 233e

hidden_layer2.bias f4 [32]
0.70054 0.4689485 0.5217395 0.84745854 0.39009774 0.013942375 0.21155442 0.415904
0.6282205 -0.07025294 -0.0019664555 -0.07685333 0.10492742 0.057085034 0.88953686 -0.1037304
0.421071 0.008613072 0.34386444 0.62737477 0.49684832 0.43183902 0.17148198 -0.1980999
0.034222074 0.77943516 -0.07396713 0.8092207 0.25501084 0.5056541 0.50800776 0.83505857
00000000: 9756 333f 051a f03e b890 053f 0bf3 583f
00000010: e4ba c73e 8f6e 643c b9a1 583e 5ef1 d43e
00000020: 0fd3 203f c6e0 8fbd a6df 00bb 4765 9dbd
00000030: 30e4 d63d ffd1 693d b0b8 633f 9b70 d4bd
00000040: 9e96 d73e d81d 0d3c 000f b03e a29b 203f
00000050: e762 fe3e 011a dd3e f998 2f3e b3da 4abe
00000060: 722c 0c3d 1089 473f 147c 97bd 1629 4f3f
00000070: c890 823e 8c72 013f cc0c 023f 66c6 553f

hidden_layer3.weight f4 [16, 32]
0.07424332 0.0175152 -0.06645653 0.0010924232 -0.12532268 -0.09826892 -0.1772052 -0.12626037
-0.09241563 0.009149757 -0.07264553 0.07190715 0.027107812 -0.07050994 -0.09469729 0.007555108
0.07104376 -0.118927605 0.009231763 0.02094737 -0.029960196 0.05206235 0.051599756 0.06630647
-0.019458963 -0.00020737264 0.048738945 0.019171903 -0.23490842 0.04549361 -0.060346186 0.020516852
0.25543186 0.17695984 0.25519457 1.0794023 0.30156994 -0.08047583 0.069369085 0.11364371
0.53896075 0.120260194 -0.07348851 -0.015731288 0.08886181 -0.3416838 0.31829938 -0.06126365
0.15546413 -0.09300344 0.18463878 0.33135703 0.199854 0.12502232 0.088388674 -1.4923011
-0.06300168 0.24562864 0.063049726 0.5603308 0.012624546 0.6379925 0.19642349 0.28176716
0.12967137 0.14862227 0.25366798 1.1264327 0.31630358 -0.020537946 0.037850536 0.14565021
0.59475535 -0.03038511 -0.032516755 0.08524253 0.12821887 -0.15133107 0.29812443 -0.07802046
0.0172931 -0.07404641 0.2266693 0.31024966 0.19611187 0.05742107 -0.07697739 -1.4457561
-0.19315389 0.3411793 0.024153344 0.60087377 -0.0073190248 0.6332215 0.12701856 0.28210443
-0.4072718 -1.1265198 -0.027516289 0.08307536 -0.48793536 -0.051234696 -0.04670597 -0.2427215
-0.5585939 -0.045601424 0.049082357 -0.061140615 1.2909708 0.84473085 -0.22166017 0.041862335
-0.27222013 -0.06154995 -0.8550456 -0.48621094 0.13488144 -0.158381 0.12759112 1.0863644
0.6542674 -0.079271935 -0.08561533 1.1778495 0.07812938 -1.6242944 0.010031953 -0.011264677
-0.03550208 0.75437975 -0.16047025 -0.35164344 1.1103765 -0.084686704 -0.8239452 -0.9535392
0.7016935 -0.19081137 -0.026141265 0.041149206 1.8860275 0.5519378 0.12038465 0.019012254
-0.6772665 -1.3337734 -0.27922985 -1.1980174 0.7783898 -1.5859351 -1.3063222 -2.1160042
0.5857758 0.83640456 0.07387901 0.20840803 0.15241407 -2.1212347 -0.94208086 0.049583174
-0.087283485 0.05620661 -0.08764653 0.1086698 -0.09974459 0.026005805 -0.016290888 -0.06601272
-0.06301386 0.018978294 -0.033570964 0.09071609 -0.10201711 0.010954584 -0.032386318 0.06334785
-0.037113614 -0.010110026 -0.050464116 -0.02829827 -0.07168157 -0.047424078 0.007229572 0.034846775
-0.10770991 0.096529365 0.027468074 -0.0045750537 -0.054513603 -0.052169137 -0.009158669 0.04947885
0.21689317 0.11861312 0.31677595 1.211803 0.39083508 -0.039147235 0.05744131 0.04597048
0.448786 -0.0553882 0.020216389 -0.043631554 0.25116685 -0.28086883 0.13678934 0.023258433
0.12618382 -0.07908696 0.1330009 0.39500484 0.11227504 0.10567612 -0.12059182 -1.5785524
-0.052258916 0.46948218 -0.083210155 0.7552825 0.0056820093 0.6564831 0.21385922 0.1943279
0.38424894 -0.8558868 -0.3214244 0.10207211 -0.33002985 0.066495 -0.9382176 -0.088662475
-0.9261977 -0.01669914 -0.1392547 0.10843208 0.96213377 0.42788577 0.3931389 0.015714787
0.33591354 -1.0010775 -0.6615577 -1.3221544 -0.5309547 0.1314229 -0.86531264 -2.7447846
0.6138697 -0.5089192 0.031012133 0.318161 -1.1314951 -0.64898187 -0.21790941 0.5196952
00000000: e20c 983d 097c 8f3c 5c1a 88bd a42f 8f3a
00000010: 9754 00be 3741 c9bd 4875 35be 664a 01be
00000020: 6844 bdbd dde8 153c 2ec7 94bd 0e44 933d
00000030: 3411 de3c 8467 90bd a7f0 c1bd d790 f73b
00000040: 647f 913d 5190 f3bd d240 173c d299 ab3c
00000050: 166f f5bc 553f 553d 445a 533d b0cb 873d
00000060: 6768 9fbc 2b72 59b9 7da2 473d 650e 9d3c
00000070: d58b 70be 8257 3a3d 902d 77bd f512 a83c
00000080: f7c7 823e f634 353e dda8 823e db29 8a3f
00000090: 6067 9a3e 83d0 a4bd 6111 8e3d 09be e83d
000000a0: 55f9 093f fa4a f63d 2581 96bd e7de 80bc
000000b0: 2efd b53d 2ef1 aebe 23f8 a23e 98ef 7abd
000000c0: fd31 1f3e 9678 bebd f311 3d3e a1a7 a93e
000000d0: 87a6 4c3e da05 003e 1f05 b53d b903 bfbf
000000e0: 0607 81bd 1386 7b3e 3720 813d d771 0f3f
000000f0: 2fd7 4e3c 7a53 233f 3d23 493e c943 903e
00000100: 92c8 043e 7030 183e c5e0 813e f22e 903f
00000110: 8bf2 a13e 323f a8bc 2a09 1b3d 5425 153e
00000120: e341 183f 32ea f8bc 4a30 05bd a393 ae3d
00000130: cf4b 033e 88f6 1abe c4a3 983e 31c9 9fbd
00000140: 42aa 8d3c a5a5 97bd ff1b 683e 0bd9 9e3e
00000150: 8dd1 483e 5b32 6b3d 52a6 9dbd 890e b9bf
00000160: 22ca 45be 0eaf ae3e 3cdd c53c ddd2 193f
00000170: 6ed4 efbb ce1a 223f 2711 023e fe6f 903e
00000180: ee85 d0be cd31 90bf d769 e1bc 6a23 aa3d
00000190: aad2 f9be 79db 51bd c24e 3fbd fc8b 78be
000001a0: 0300 0fbf 8fc8 3abd 950a 493d 956e 7abd
000001b0: 883e a53f 4840 583f e2fa 62be d777 2b3d
000001c0: 7060 8bbe cd1b 7cbd 45e4 5abf a4f0 f8be
000001d0: 5c1e 0a3e a12e 22be 3fa7 023e fd0d 8b3f
000001e0: 117e 273f 5359 a2bd 1757 afbd c6c3 963f
000001f0: 4c02 a03d e1e8 cfbf 105d 243c 7b8f 38bc
00000200: a16a 11bd 081f 413f 5052 24be 9c0a b4be
00000210: d120 8e3f 3970 adbd 13ee 52bf 251b 74bf
00000220: 2fa2 333f 0e64 43be 3526 d6bc 128c 283d
00000230: 5969 f13f cc4b 0d3f 3a8c f63d 96bf 9b3c
00000240: 5661 2dbf 16b9 aabf 37f7 8ebe a258 99bf
00000250: 8e44 473f ecff cabf 9135 a7bf 9d6c 07c0
00000260: 67f5 153f 9c1e 563f e14d 973d ea68 553e
00000270: 6f12 1c3e 4fc2 07c0 362c 71bf ba17 4b3d
00000280: afc1 b2bd e738 663d 0680 b3bd 468e de3d
00000290: e446 ccbd 200a d53c 7874 85bc ad31 87bd
000002a0: 690d 81bd 5e78 9b3c b581 09bd 5bc9 b93d
000002b0: 59ee d0bd db7a 333c 84a7 04bd 85bc 813d
000002c0: 7204 18bd 86a4 25bc 76b3 4ebd c6d1 e7bc
000002d0: c9cd 92bd c03f 42bd 0ce6 ec3b 7ebb 0e3d
000002e0: 0397 dcbd 30b1 c53d ba04 e13c 55ea 95bb
000002f0: a849 5fbd 4eaf 55bd 3e0e 16bc 56aa 4a3d
00000300: 3e19 5e3e 6feb f23d 7530 a23e 5c1c 9b3f
00000310: 891b c83e da58 20bd 9447 6b3d 8b4b 3c3d
00000320: 47c7 e53e bdde 62bd d79c a53c 00b7 32bd
00000330: f198 803e 0ace 8fbe 8112 0c3e 7888 be3c
00000340: 5536 013e 58f8 a1bd 6331 083e 133e ca3e
00000350: 75f0 e53d b96c d83d d8f8 f6bd 010e cabf
00000360: 720d 56bd f85f f03e 166a aabd 325a 413f
00000370: 2630 ba3b 470f 283f e9fd 5a3e e5fd 463e
00000380: 47bc c43e 661b 5bbf bd91 a4be 2f0b d13d
00000390: acf9 a8be 882e 883d 072f 70bf ac94 b5bd
000003a0: 4b1b 6dbf a3cc 88bc c998 0ebe a311 de3d
000003b0: 664e 763f d813 db3e 8049 c93e 4cbc 803c
000003c0: dcfc ab3e 4f23 80bf d85b 29bf 5b3c a9bf
000003d0: a6ec 07bf ba93 063e 2185 5dbf 8daa 2fc0
000003e0: 9126 1d3f 8748 02bf 280d fe3c 00e6 a23e
000003f0: d5d4 90bf ad23 26bf a523 5fbe bf0a 053f

hidden_layer3.bias f4 [16]
-0.075411804 0.75916165 0.91731477 0.49005127 0.21648136 -0.01580851 0.8986511 0.044360623
0.7603096 0.41816616 -0.09281249 0.5593681 0.46799815 0.033400446 0.20541157 -0.5799074
00000000: 8171 9abd 6b58 423f 24d5 6a3f 00e8 fa3e
00000010: 4aad 5d3e d980 81bc 000e 663f 7cb3 353d
00000020: a6a3 423f e019 d63e 7a14 bebd bf32 0f3f
00000030: 749d ef3e e8ce 083d 6957 523e d074 14bf

out_layer.weight f4 [2, 16]
-0.06386252 0.3593931 0.42554897 -2.1832154 -2.9394777 0.10905236 0.37747875 -2.9528916
0.395291 -3.5099406 -0.020267421 0.21852057 0.53334975 -0.0035170007 0.85062927 -0.59889114
-0.032510046 0.2398712 0.28955728 -0.069335334 0.075760074 0.00040422412 0.27092862 -2.2758458
0.32593316 -1.640417 -0.053337086 0.33435562 0.49033138 0.061812814 0.66073924 0.72015196
00000000: 5aca 82bd 5f02 b83e 8ee1 d93e cdb9 0bc0
00000010: 6720 3cc0 d856 df3d e544 c13e 2dfc 3cc0
00000020: 9563 ca3e dea2 60c0 dd07 a6bc dbc3 5f3e
00000030: 9c89 083f 7b7d 66bb d7c2 593f ee50 19bf
00000040: 4129 05bd cca0 753e da40 943e afff 8dbd
00000050: 1928 9b3d 0bee d339 28b7 8a3e 75a7 11c0
00000060: b6e0 a63e 2ff9 d1bf fd77 5abd a930 ab3e
00000070: b70c fb3e 6f2f 7d3d 3526 293f e15b 383f

out_layer.bias f4 [2]
1.356066 0.20025396
00000000: 9293 ad3f 600f 4d3e
