models/DQNdecay_param2.pth (torch, 45919 bytes, 8 tensors)

hidden_layer1.weight f4 [64, 126]
00000000: f671 d1bd 6329 a53d 78a8 573e 833b 843e
00000010: 612a 63be 0875 d6bd fb77 db3d eda1 cebd
00000020: 32dd 90be c277 883e 675b a6be 3763 08be
00000030: f201 9f3d 8a8f d0be 3b9d 4e3e a3d1 bdbe
00000040: 12c6 dfbc 325d acbd 412e d2bd 103b cabd
00000050: fafa 7bbe 7f58 323e 8494 a03e fd46 9e3e
00000060: f528 123e 6ddf c43e bece a6bc 9059 a93b
00000070: e468 6a3e b83e 403e a43f 963d 8d36 7b3e
00000080: b6b7 043f 9277 473e 6767 443e b42f ee3c
00000090: 92de d83d f12f 89bd 11e8 2ebe 763c 8dbc
000000a0: 464b ef3c 67f2 63bd 183d c53e 9834 bc3e
000000b0: 3cd2 8a3c 2f5b 09be ac53 123d 9cb8 a6be
000000c0: 6c8f 06be b459 86be 0832 10bd ccc0 82be
000000d0: 451b 9b3d 46b7 95be 9e5d f3bd 9906 1abe
000000e0: dc88 72be 2c7f 9bbd 5ad2 00bc 1ff9 4ebe
000000f0: ada9 85be 5bf0 38be 071b 8cbe 4b5a 033e
00000100: bbdb 0c3e 087a 903d b379 bebc 72c1 8f3c
00000110: de28 c2bd 8898 47be 4835 063e a32c 083d
00000120: 873f ad3d 5c18 333e fc66 f93d 189e df3d
00000130: e8e7 983d 61a1 833e 3e62 a73e 9124 0d3e
00000140: eb3c 383e 6408 733d 7b12 513e 4cc2 223d
00000150: 93a6 343e 1b45 f03d a109 a63d 4208 293d
00000160: a6a7 8e3a 2ea5 76bd 3c77 55bd 06d3 3abd
00000170: 7af9 b5bc 65ac d2bd afb4 c9bd 26a4 9abc
00000180: b9b4 aabd 9ec9 11be c361 8dba 599f 69bc
00000190: ef39 a0bc a29e cfbd 54b9 bdbd 596c 22bd
000001a0: fad0 08be a6ea 9e3e 0029 a13e e2df 4b3e
000001b0: de18 7c3d 659f 0f3e a7e6 8b3d c498 ffbc
000001c0: f7c3 b5bb 8445 0c3d 318c 53bd e907 96bc
000001d0: 88fd 42bd 903b 18be 1ad9 59be 45bc b43e
000001e0: 1d98 593e c9fc 553e f44f 3e3e d85e 493e
000001f0: 3ad0 e23d 1659 b13c 07fd 703d 2e1d 103e
00000200: e2d7 aa3e e87c d63e 0a61 983e dcdd 0f3f
00000210: 880a 853e 0aa2 95be 7457 17be 00f1 18be
00000220: 9ab6 f3bc 91c4 143e a016 d33e 73d6 5b3e
00000230: f454 94be 3f8b 06be 489f 4dbe e3ac a03e
00000240: 21db 96be 868f 18be 09d7 0ebe 97c8 abbc
00000250: 3d3f a3bd dc87 94bd 1c3e 1d3e a093 713e
00000260: 6d0a 043d e8d9 ae3d b942 5dbe 006d 81bd
00000270: 4756 bdbe bef1 0cbe be46 2cbe 0200 a03e
00000280: e1ee 86be bf92 92be 8551 d1bb dfb2 31be
00000290: b8b9 6c3e 493a 453e e9b6 7bbd 47ac 173d
000002a0: 3e47 bcbe ef69 42be 9c1a d93e 7984 8a3e
000002b0: 4a76 f8be a926 cabd 70c6 cfbd 7d74 493d
000002c0: 1572 04be 58e8 77be 57e9 d5bc 2622 bcbe
000002d0: 1451 27be faad 52be 8d88 1abe c037 49be
000002e0: 2e21 993d 3569 bf3c 87a6 a93d 597f a1be
000002f0: c244 4a3e b304 82bd 3138 30be 3923 dcbd
00000300: fd53 87be e5b0 adbe 971d d7be ecc8 12bf
00000310: abee 753e 9a8a 043d 34d2 e9bc 22b8 3ebe
00000320: 2a4d 3bbe 8fd3 79be 86ea 67be 6cbd b93c
00000330: c18c f33c 0bc4 fe3d b6e8 fd3d 27b3 b3bd
00000340: 1dab 79bc 899b 4cbe 758a c93e b4f1 e43e
00000350: 2ccb 8d3e 1b8b 1f3e 9527 2f3d 23e1 a73d
00000360: 3269 253d abd6 353e 087b 393e 89f9 0f3e
00000370: 6985 a53d 15a1 1a3d fcf9 843b c4f8 e0bd
00000380: b749 883e f6b7 bc3e 06de 243e 227c 1b3e
00000390: a77a dabb a060 18be cbc1 91be 8668 bc3c
000003a0: 5d56 9abd 16f5 1b3d 2d61 1a3e 09e2 fd3c
000003b0: 74ab 50be b130 1ebe caad c73e 5196 8d3e
000003c0: 3d4f 4c3e cee1 97bc 48d0 6bbc 09f2 18be
000003d0: 9fa2 06be 25ff 75bc a88c 9d3c 33d9 953d
000003e0: 51e5 313e 5543 f33d 79d6 263e ec02 323e
000003f0: 530d 873e 3919 183f b06c 783e 55e1 cf3e
-0.102268144 0.080645345 0.2106036 0.25826654 -0.22184135 -0.10471541 0.10716244 -0.10089479
-0.2829376 0.26653868 -0.3249161 -0.13319097 0.07764043 -0.40734512 0.20177166 -0.37074003
-0.027316127 -0.08416213 -0.102627285 -0.098745465 -0.24607459 0.17416571 0.31363308 0.30913535
0.14273436 0.3845171 -0.020362254 0.0051681474 0.22891575 0.18773925 0.07336357 0.24532528
0.5184282 0.19479206 0.1918007 0.029075481 0.10589327 -0.06698597 -0.17080714 -0.017240744
0.029210698 -0.055651095 0.38523173 0.36758876 0.01694595 -0.1341369 0.035724327 -0.3256272
-0.13140649 -0.26240313 -0.035203964 -0.25537717 0.075735606 -0.2924139 -0.118830904 -0.1504158
-0.2368502 -0.075926155 -0.007862652 -0.2021222 -0.26106015 -0.18060438 -0.2736437 0.12827413
0.13755696 0.070545256 -0.02325139 0.017548297 -0.09480451 -0.1949178 0.13106263 0.033245694
0.084593825 0.17489761 0.12177846 0.10918826 0.074661076 0.2570906 0.3269214 0.1378348
0.17991988 0.059334174 0.20417206 0.039736077 0.17641668 0.11731931 0.08107305 0.04126764
0.0010883703 -0.06021612 -0.052115664 -0.045611404 -0.022213686 -0.10286788 -0.09848916 -0.0188771
-0.08335251 -0.14237067 -0.0010786582 -0.014259183 -0.019558875 -0.10137679 -0.09263864 -0.03965411
-0.13360968 0.31038398 0.31476593 0.19909623 0.061547153 0.14025648 0.06831103 -0.031200774
-0.0055470425 0.034245983 -0.05164737 -0.018314319 -0.047605067 -0.14866471 -0.21274224 0.35299888
0.21249433 0.20897211 0.18585187 0.19665086 0.11074872 0.021648925 0.058835056 0.14073631
0.3336783 0.4189217 0.29761535 0.56197906 0.25984597 -0.29225188 -0.14779454 -0.14935684
-0.029750157 0.14528109 0.412282 0.21468525 -0.28971064 -0.13139056 -0.20080292 0.31381902
-0.29464057 -0.148985 -0.13949217 -0.020969672 -0.07971046 -0.072524756 0.15355724 0.2359147
0.032236505 0.08537656 -0.21607484 -0.06319618 -0.36979887 -0.13764092 -0.16823861 0.31250006
-0.26354125 -0.28627583 -0.0063878917 -0.1735339 0.23117721 0.19260515 -0.061453734 0.03702953
-0.36773103 -0.18985723 0.42403114 0.27054194 -0.48527747 -0.09870655 -0.10145271 0.049183358
-0.12934144 -0.24209726 -0.026112242 -0.36744803 -0.16339523 -0.2057418 -0.15091152 -0.19650173
0.07477032 0.023365596 0.08283716 -0.3154247 0.19752792 -0.063485526 -0.17208935 -0.10748906
-0.26431265 -0.33924022 -0.42014763 -0.5733783 0.24016826 0.032358743 -0.028542615 -0.18624929
-0.18291155 -0.2439711 -0.22648057 0.022673331 0.029730203 0.12439736 0.12397902 -0.08774405
-0.0152385505 -0.19981207 0.39363447 0.44715655 0.2769407 0.15580408 0.042762358 0.08197238
0.040383525 0.1775767 0.18113339 0.14060034 0.080820866 0.037751276 0.004058121 -0.10984948
0.2661874 0.368591 0.1610032 0.15184072 -0.0066674533 -0.1488061 -0.28468165 0.02299906
-0.07536004 0.03807553 0.15076132 0.030991571 -0.20377904 -0.15448262 0.38999778 0.27653745
0.19952102 -0.01854029 -0.01439292 -0.14936079 -0.13147973 -0.0150144445 0.01923211 0.07316818
0.17372634 0.11878077 0.16292752 0.17383927 0.26377353 0.59413487 0.24260211 0.40601602

hidden_layer1.bias f4 [64]
00000000: 0228 003f 8351 bb3f 7188 003f b2a6 e73e
00000010: dfdd 0c3f 3102 6fbd 0b6a 093f 9bd4 bfbd
00000020: c53e d7bc 330d 233f 5641 3abe eb25 073f
00000030: 9f9c af3e e830 9cbd 519e d83e f50f 2f3e
00000040: e6f6 4bbe a2bc 163e 4eeb de3d 4942 2dbd
00000050: 38fe 293f 5371 64bd 4222 423f 1677 563f
00000060: 9f66 41be bf11 5fbe b97b 2f3e 155a e5bd
00000070: baca 77bd 7237 7d3f 352e ea3e bde1 c73e
00000080: cd3a a93d b138 e73e a4ef d13b c82d 153e
00000090: 0077 083e 14c3 df3e 4487 983b b2c3 0d3e
000000a0: b46a 313f da43 933f 45b6 243f d3fc d93e
000000b0: ee9a 95bd 95da 9fbe c94a 8abe da20 243f
000000c0: 6029 293e 5721 96bd 2563 94bd 6be9 603e
000000d0: 6f63 903e d2b1 733e df98 263e 3812 ae3e
000000e0: 85ce 1b3f dd2e 3d3e 5606 59bd ecab 913e
000000f0: f782 d43e 2de2 103f 3294 e73c 8646 303f
0.5006105 1.463425 0.50208193 0.45244366 0.5502605 -0.0583517 0.53677434 -0.09366723
-0.026275048 0.63692015 -0.18188986 0.52792233 0.3429918 -0.076265156 0.42308286 0.17095931
-0.19918403 0.14720395 0.108847246 -0.042299543 0.6640353 -0.055772137 0.75833523 0.8377546
-0.18886803 -0.21784113 0.1713704 -0.111988224 -0.06049607 0.9891273 0.45738378 0.39039412
0.082631685 0.4516044 0.006406741 0.14568245 0.13326645 0.4370352 0.004654797 0.13844183
0.6930344 1.1505082 0.6434062 0.42575702 -0.07304941 -0.31221452 -0.27010182 0.6411263
0.1651969 -0.07330578 -0.07245473 0.21964042 0.28200862 0.23798302 0.16269253 0.33998275
0.60862 0.18474908 -0.052984558 0.28451478 0.41506168 0.56595117 0.028268907 0.6885761

hidden_layer2.weight f4 [32, 64]
00000000: 07a6 64bd c296 443e 0ea6 a73e 420f 80bd
00000010: 7537 653c 8379 b9bc 546e 3c3e 4b1a 21bd
00000020: 40dc b5bc 1620 a8bd ffef 9ebd 4183 823e
00000030: a8af 7abc 5146 dcbd 1a3e 1f3e 2606 bb3d
00000040: 75af 22be 2e7b 36ba 2574 eabd edd8 243d
00000050: 1b63 643c 5b2d 903d 7fac 6b3e ade8 623e
00000060: 6315 bdbd 30cc b13d 3fa8 a73d f454 afbe
00000070: 23fa a3bc a26b 443e 3f6c af3e f43f c23e
00000080: 35d4 d33c b500 bb3e e536 c4be 5f14 87bd
00000090: fd20 143e db03 013f 82ff 273d 4921 043e
000000a0: 3a34 733d 5f76 423e 142f b23d e99c 0b3e
000000b0: 1e6d 62bd 47a5 653e d53f 3abe ee8f 2f3d
000000c0: 36ce 85bd afb8 b4bb 5bac 2a3d e86d c93e
000000d0: a6bc 6dbc fad7 6b3c 0216 ccbb 3cbd 783e
000000e0: af6c 8dbe ef93 133e f2b5 4a3d a769 7dbd
000000f0: bef5 573f 58ec fdbd a421 b8bd 6908 e5bd
00000100: e834 4c3e b9b7 113d 0c78 db3a 7107 a8be
00000110: 92c8 d0bd ee0c 0cbc 302b 5d3e fc93 e43c
00000120: b3d6 06bd ac03 8a3d 5254 4e3e 91f2 e73c
00000130: 6418 843e 32a1 fa3d 9ce1 963d 3a10 ed3d
00000140: b6d8 a8bd 5de8 d8bd 2f2e 69bb 3b43 3c3d
00000150: 9899 ab3e 6717 bebd b32b 913d 3d9f 5f3e
00000160: 2446 b13c 7746 cebd 9e92 f8bd 01fd a73c
00000170: 3f0d 433d b663 c83d f115 073f 4d0a 61be
00000180: 5d43 483e b49b c63d 2b6e c1bd 28f7 bf3d
00000190: 166e 63bd 9d37 933f a94d 303d 7481 0e3e
000001a0: 35c2 2c3e 855e 37be 61e7 00bc 0ea9 bd3e
000001b0: 83a0 0d3c 9e8b 843b 55cf 80be e235 743f
000001c0: d91e c53d 885c 5f3d 32b1 b7bc 900f ca3e
000001d0: 7393 84bb 20f2 8d3f 0715 2bbe e81e 083c
000001e0: 6a14 04bf 1983 1abd 7a31 02bc ce51 993d
000001f0: 50a2 a03e ba0b da3f a8a8 083e 3a8a 81be
00000200: 75db 5cbd 3682 be3e a256 6a3d 42de eebd
00000210: 9b25 acbe bcb8 36bd 25ec 2b3c eaaa ab3e
00000220: 8a70 013b fed8 9c3e 0ff5 ea3d 211d de3d
00000230: 4b40 56bd 4f62 fc3d 30d3 1a3e a74f 463e
00000240: 8da6 c0ba 51c2 b13e 89b1 003e 59c7 0cbc
00000250: fa50 113e 44fd 1abd f9b5 cb3d 84fe a3bd
00000260: cb31 513e 92fd 793c 0f66 663d 5e4f 93bd
00000270: 67ef 91bd 491f d33d 6c2f 023f 0344 5fbe
00000280: fb94 153e 04f2 1ebe d665 99bd 13dc d33d
00000290: 7e40 42be 22ac 83be f93b 903c 34f8 11bd
000002a0: fab4 323e 2d61 b6be fe48 e53d ddd5 003f
000002b0: d707 b43c 732b c5bc 9a5f c9be 3d59 7c3e
000002c0: 99bd 8e3e 9235 8e3b a6d4 c13d 4d70 d23e
000002d0: 5a31 aa3d 8e02 253f 2ca1 653e 5d02 93be
000002e0: 1879 573d ee8e 2a3e a73f 3fbc 91e4 7e3e
000002f0: b925 563d 5795 ba3e a835 28bd b913 803e
00000300: 9dd8 be3e 4883 863e 6751 173e 4e9d 3c3d
00000310: 37fe 253e ba73 c8bc a9d9 543e c0e0 e43e
00000320: 14be 50bc 129f 573e 59d1 ef3d ca8f 11be
00000330: 55b7 8cbd b08d 34bd 236e 893c acbe 70bd
00000340: 7c66 5fbf c583 43be ebff 823e c277 68ba
00000350: 87b9 a73e 26fe 0b3d 0f59 3f3c 2ae4 203e
00000360: 5aa7 5bbf ba72 5f3d f34a 18be 47c6 7fbf
00000370: e87d 32bd db0f 5fbe e790 f73d e0b5 b6bc
00000380: d00f 493a 07d9 af3e 14e8 08bf 0573 aabe
00000390: d53a 2e3d 65ec ffbd 0f58 8f3c 1052 06bf
000003a0: e5d7 ec3d 0a75 3ebb deb1 0abe 2425 333f
000003b0: 3684 cbbb 91c2 72be 9d2d 3f3e 375e c3bd
000003c0: 89c7 0cbe 9538 b4bd df15 d03d 00a9 17bf
000003d0: 34fb 0c3e 1e7a e5bd 274f fc3d 4947 29be
000003e0: 1c85 003f 5c63 92be d983 c3bd 1890 0cbe
000003f0: e61c f73e a6b0 cb3f c3ac 92bd e7c6 66be
-0.0558224 0.19198135 0.32743877 -0.0625291 0.013990273 -0.02264095 0.18401462 -0.039331716
-0.02219975 -0.08209245 -0.07760619 0.25490764 -0.015300669 -0.10755599 0.15551034 0.09132032
-0.15887244 -0.0006961104 -0.11447934 0.04024594 0.013939644 0.07039901 0.23015021 0.22159071
-0.09232595 0.08681524 0.08186387 -0.34244502 -0.020016735 0.19181684 0.34262273 0.37939417
0.025858024 0.36523977 -0.3832313 -0.06595682 0.14465709 0.5039651 0.041015156 0.12903322
0.05937598 0.18990467 0.08700386 0.13634075 -0.055279844 0.2242633 -0.18188412 0.04286187
-0.06533472 -0.00551518 0.041668277 0.39341664 -0.014510309 0.014394755 -0.0062282095 0.24290937
-0.27621982 0.14411901 0.049489923 -0.061868336 0.8435935 -0.123985946 -0.089907914 -0.11183245
0.19942057 0.035575602 0.0016744151 -0.32818177 -0.10194506 -0.008548005 0.21598506 0.027902596
-0.032919597 0.067389816 0.20149353 0.028313907 0.2579986 0.12237777 0.0736725 0.115753606
-0.08244459 -0.10591195 -0.0035580506 0.045962553 0.3351562 -0.092818074 0.07088413 0.21838088
0.021639891 -0.10072034 -0.1213734 0.020506384 0.047620054 0.09784643 0.52767855 -0.21976586
0.19556947 0.09697667 -0.09444841 0.09373313 -0.055524908 1.1501347 0.043042812 0.1391657
0.16870959 -0.1790715 -0.007867665 0.3704304 0.008644226 0.004044964 -0.25158182 0.9539472
0.09625024 0.054531604 -0.02242336 0.39464998 -0.0040458976 1.1089516 -0.1670724 0.00830815
-0.5159365 -0.03772268 -0.007946366 0.07486306 0.31373835 1.7034829 0.13345587 -0.2530077
-0.053920228 0.37208718 0.057211526 -0.11663486 -0.3362244 -0.04460977 0.010493313 0.33528835
0.0019750916 0.30634302 0.114725225 0.108454 -0.05230741 0.123234384 0.15119624 0.19366322
-0.0014698074 0.34718564 0.12567724 -0.00859245 0.14191046 -0.03783919 0.09946818 -0.080075294
0.20429151 0.01525821 0.056249674 -0.071928725 -0.071257405 0.103087015 0.5085361 -0.21803288
0.14607613 -0.15522009 -0.07490127 0.1034471 -0.18969914 -0.25717264 0.017606722 -0.035637096
0.1745185 -0.35621014 0.11195563 0.5032633 0.021976395 -0.02406857 -0.3933075 0.24643417
0.27879027 0.004339882 0.094643876 0.41101304 0.08310194 0.64457023 0.22424763 -0.2871274
0.05260572 0.16656086 -0.011672891 0.24891879 0.05228207 0.36442062 -0.041066796 0.25015047
0.37274638 0.26272035 0.14777146 0.046048455 0.16210257 -0.024469245 0.20786156 0.4470272
-0.012740631 0.21056774 0.11709852 -0.14215007 -0.06870905 -0.044080436 0.01677615 -0.05877559
-0.87265754 -0.19093235 0.25585875 -0.0008867943 0.32758734 0.03417792 0.011678948 0.15712038
-0.85802233 0.05455277 -0.14872341 -0.9991192 -0.043577105 -0.21783392 0.12088185 -0.022303522
0.0007669898 0.34345266 -0.53479123 -0.33290878 0.042536575 -0.124962606 0.017498044 -0.5246897
0.11564616 -0.002906146 -0.13544413 0.6997855 -0.006210829 -0.23707034 0.18669744 -0.095394544
-0.13747992 -0.08799855 0.101604216 -0.5924225 0.13767701 -0.11204933 0.123197846 -0.165311
0.5020311 -0.2859143 -0.09546632 -0.13726842 0.48264235 1.5913284 -0.07161858 -0.22536813

hidden_layer2.bias f4 [32]
00000000: 5d5c 173f 3f62 023f deea e93e 3f2a 813f
00000010: 90c2 1f3f 1f57 843c 68fc 7d3e 6893 a33e
00000020: a89b f83d c904 05be eb83 f4bb feb3 97bd
00000030: c246 4f3d 6b54 11bd 6c09 0e3f de11 b8bd
00000040: a409 3c3f 7be3 0f3f 562d 503f b44f ec3e
00000050: 41e5 8d3e 809b 023f 2a48 c53e e9f7 bdbd
00000060: e6b4 6cbe c54e 5c3f ce4f 8e3e d38b c8bc
00000070: ac64 3e3e 0042 ce3f 9cea e53e 6d03 2d3f
0.5912531 0.5093116 0.45687002 1.0091017 0.62406254 0.016154824 0.24803317 0.319484
0.12139064 -0.12990107 -0.007462015 -0.07407378 0.05060459 -0.035480898 0.55483127 -0.08987783
0.7345221 0.5620648 0.8131918 0.4615456 0.2771397 0.51018524 0.3853162 -0.09275801
-0.23115882 0.8605769 0.2779526 -0.024480736 0.18593091 1.6113892 0.44905555 0.6758335

hidden_layer3.weight f4 [16, 32]
00000000: 5089 003f 2e00 7cbf 9201 77be 8fdd a6be
00000010: 67a9 32bf 862b c7bd 7ca3 42bf 8310 9ebe
00000020: 4b5f bb3f bf78 f6bd 67f3 55bd 3e55 903d
00000030: 9fb7 863e 8102 543e a1fa abbe 32f3 033b
00000040: 112e 993e aabd 003f 7411 0fc0 ad03 59be
00000050: 2252 b3bf 25c9 6bbe 81f1 653e b0cb 873d
00000060: af2a 823e a871 88be d852 07bf 440d e9bb
00000070: 9e3b 68bf 1853 3c3f 5c1c f5be f382 c9bc
00000080: 3417 5e3e 574b 363e 0083 2a3e 82fc 663f
00000090: 7cd6 443e 7638 9dbd 68c3 c93d a7e0 103e
000000a0: e611 263e bdfb 373e 2d64 94bd e85d edbb
000000b0: 1f21 cfbe 2cec fdbe 5dd2 6d3e 57b2 ce3c
000000c0: e368 5c3e d4a8 3b3e a66a 7dbe d50d b23e
000000d0: c79b 843d 4fc4 303e 5a72 6c3e 7ea5 943d
000000e0: efa4 aebe 5343 f73c 676c 2c3e 37d4 f4bc
000000f0: c19e ccbd 0e73 993e 3ca7 563e 0b28 6e3e
00000100: 5884 a43d 5ea9 1f3e 58e0 193e 58f3 493f
00000110: 1571 f23d 65e0 9ebc 4cc8 363d 80c2 303e
00000120: 7c41 bd3e d595 793c 1da6 17bd dcba a93d
00000130: 920b 63be 9ba3 9fbe 89d8 493e dac3 203c
00000140: a86b 9d3d ac11 f63d 1973 6cbe 44b5 793e
00000150: 1ef7 e03b 95a0 de3d 65e5 163d 77b8 103d
00000160: f1dc 05bf 6cf4 fa3d f6cd 7d3d 976b 8abc
00000170: 0156 63be 1ad9 db3e bc96 cc3d dc53 893e
00000180: 8942 78be 6354 5abf aa25 413d d13f a8bf
00000190: d7bb 34be de04 71bd 92fa 48bf e238 96be
000001a0: 3884 16c0 5cdc cabd b3eb 2c3d 3ce9 80bd
000001b0: 82d5 cd3e 8088 ff3e 8a50 1bbf 174f b0bd
000001c0: 92ee 66be 39c0 dcbe 44db 6cbf 80c5 a2bb
000001d0: 1605 cbbe 9720 c0be 04b7 41bd e676 64bd
000001e0: e969 003f 3779 893e 4c84 77bf d62e 27bd
000001f0: c18f 0cbe b985 7b3f de02 d7be ce44 833e
00000200: 5a43 943e 2d37 49be def5 1ebf 8e8e 8fbf
00000210: b24c 7bbd eab8 a1bd 811c 15bf 11af e3be
00000220: 039f 98bf 78a1 55be 3343 dbbc 1a96 203d
00000230: c542 c73e 84dd ff3e 7717 93bd 965e 9f3c
00000240: 5e58 9cbd d4c1 f1bc 6b97 b9bf 8f52 b9bd
00000250: 0737 e8be 5168 11bf 1388 adbe c78c 573d
00000260: 2aa8 0a3f d0d5 e93d 14a9 dcbe 0bc7 f83b
00000270: 2b0f 9ebe e17a 5e3f fb0f 24bf 2f70 b8bd
00000280: 1aa1 d0bd 2418 243d e286 d3bd ff5c bd3d
00000290: 6278 e2bd 339e 8c3c 7874 85bc cffe a5bd
000002a0: 690d 81bd 5e78 9b3c b581 09bd 2546 9c3d
000002b0: e7d3 e5bd b6ee 39bb 9718 46bd 85bc 813d
000002c0: 14d9 49bd 86a4 25bc f63d 88bd 4d22 23bd
000002d0: 8293 b3bd d868 7abd ee47 84bb 7ebb 0e3d
000002e0: ab62 e2bd b1a0 a53d ba04 e13c 55ea 95bb
000002f0: a849 5fbd 4eaf 55bd af54 29bc 22cc 073d
00000300: bb0c 3c3e d737 0c3e 4fbc 223e c287 9f3f
00000310: 0c49 7e3e 21f7 0fbd 1c6a 873d 3f5e b03d
00000320: fff3 b1be 0fa2 fcbb 5e64 b33c 6f88 3abd
00000330: 0aed abbe 93fb e6be f8e7 703d 302f d93d
00000340: 42fb 4c3e 36ff c23e 9a81 0cbf 0ecf d03e
00000350: c8a7 e1bc f349 1c3e 1711 053d 6c3e 05be
00000360: 63e4 90be 1218 193e 5527 80bc 2cfe 083e
00000370: 037a 9fbd 2926 4d3e 5c39 683e 430a 1b3e
00000380: fc01 123e 9532 f93d 7bcb b7be 6d69 b5be
00000390: 7a22 b63e a33d 603d 93b3 f2be ab7b 8abd
000003a0: c88e 0940 03a5 1dbd 25eb 0ebe cbd8 d73d
000003b0: d7c1 c73e d330 e33e 6b25 2b3e 128d 8e3c
000003c0: 601b 583e d23a 263f 0594 e3bf 0fd3 b8be
000003d0: 65a7 d2be 8953 713e c74a 4fbd f771 913c
000003e0: b4ae d53e 6983 d4be 56e5 343e fbeb 813d
000003f0: dc05 2ec0 9893 8fbd fc95 01be 93b1 563e
0.5020952 -0.98437774 -0.24121693 -0.3259091 -0.6978974 -0.09725098 -0.7603071 -0.30871972
1.4638456 -0.12034749 -0.05223408 0.07047509 0.26311967 0.2070408 -0.33589652 0.002013397
0.29917958 0.50289404 -2.2354403 -0.21192808 -1.400944 -0.2302595 0.22455408 0.06630647
0.2542319 -0.26649213 -0.52860785 -0.007112177 -0.9071597 0.7356429 -0.478732 -0.024598574
0.21688539 0.17802177 0.16651535 0.90229046 0.19222444 -0.07676785 0.09851724 0.14148198
0.16217765 0.17967124 -0.072456695 -0.0072438605 -0.40454957 -0.49594247 0.23224778 0.025231523
0.21524386 0.18326122 -0.24747714 0.34776178 0.06475025 0.17262386 0.23090497 0.07258128
-0.3411021 0.03018347 0.16838227 -0.029886348 -0.099912174 0.29970592 0.20962232 0.23257463
0.08033055 0.15591952 0.15026987 0.7888694 0.11837975 -0.019394109 0.04462461 0.17261696
0.36964023 0.015233477 -0.037023652 0.08287594 -0.22172382 -0.3117951 0.19711508 0.00981232
0.076865494 0.120150894 -0.23090781 0.24385554 0.006865396 0.10870472 0.03683986 0.03533217
-0.52290255 0.12253651 0.061963998 -0.016897006 -0.22200777 0.42939073 0.09989688 0.26821792
-0.24244131 -0.85285014 0.04715506 -1.3144475 -0.1764978 -0.058842532 -0.7850734 -0.29340273
-2.35182 -0.099053115 0.042216968 -0.06294486 0.40201956 0.4990883 -0.6066977 -0.08608835
-0.22551945 -0.43115404 -0.9252207 -0.0049673915 -0.39652318 -0.37524864 -0.047293678 -0.055777453
0.50161606 0.26850292 -0.96686244 -0.04081615 -0.13726713 0.9825092 -0.41994375 0.2563843
0.28957635 -0.19649954 -0.62093914 -1.1215379 -0.06135244 -0.07896598 -0.5824662 -0.44469503
-1.1923527 -0.20862377 -0.026765442 0.039205648 0.3891813 0.4997369 -0.0718221 0.019454282
-0.07634042 -0.02951137 -1.4499334 -0.0904895 -0.45354483 -0.567998 -0.3389288 0.05262449
0.5416285 0.114177346 -0.43097746 0.007592087 -0.30870947 0.8690625 -0.64086884 -0.09005772
-0.10186978 0.040062085 -0.10328461 0.09246253 -0.110581174 0.017165279 -0.016290888 -0.081052415
-0.06301386 0.018978294 -0.033570964 0.076305665 -0.11222058 -0.0028371043 -0.048363294 0.06334785
-0.049279287 -0.010110026 -0.06652443 -0.039827634 -0.08768369 -0.061135143 -0.004036895 0.034846775
-0.11053976 0.0808729 0.027468074 -0.0045750537 -0.054513603 -0.052169137 -0.010335132 0.03315366
0.18364231 0.13693176 0.15892147 1.2463305 0.24832553 -0.03514779 0.06612036 0.08611726
-0.34756467 -0.0077097486 0.021898445 -0.04554027 -0.33579284 -0.4511381 0.058814973 0.106047034
0.20017722 0.38085335 -0.54885256 0.4078297 -0.027545825 0.15262584 0.032487 -0.13012093
-0.28299245 0.14950588 -0.015643755 0.13378209 -0.07786944 0.20034088 0.22678131 0.15140633
0.1425857 0.12167851 -0.3589743 -0.35431996 0.3557318 0.05474628 -0.4740263 -0.06761869
2.1493397 -0.038487446 -0.13956888 0.10539397 0.39015076 0.44373187 0.16713493 0.017401252
0.21104193 0.649335 -1.7779547 -0.36098525 -0.41143337 0.23567022 -0.050608423 0.017754538
0.4173485 -0.41506508 0.1766561 0.06343838 -2.7191076 -0.07010573 -0.12654871 0.20966177

hidden_layer3.bias f4 [16]
00000000: 8ff3 39bd 34bc 383f 5279 5e3f f039 bd3e
00000010: 3b18 5fbd 8c8c 04bd bf75 503f 3cb3 0d3e
00000020: 0ef9 6a3f 7d62 26bf 25da 683f 4346 693f
00000030: ff12 613f 0f79 0d3d 8256 793d b444 89be
-0.04539829 0.72162175 0.8690387 0.36958265 -0.054466467 -0.0323606 0.81429666 0.13837904
0.9178628 -0.6499403 0.9095786 0.91122836 0.8791961 0.03453928 0.060873516 -0.2681023

out_layer.weight f4 [2, 16]
00000000: 65a8 66c0 92aa ba3e 8a85 a03e 9942 04c0
00000010: 9755 e6bf d856 df3d b28d b13e 33d8 edbf
00000020: 7bfb 883e ced7 06c0 9046 e2bf bdf5 863e
00000030: e071 d63e eeb3 9bbb b35f 803f e9e1 abbe
00000040: 7e7d 35c0 350d 2c3e 068a 8e3e 46ef 28be
00000050: 0a1e abbe 1b05 89bc 8cde be3d 6d66 20c0
00000060: 0536 c63e f7c9 d6bf f8c5 a33e 80f2 5a3f
00000070: 5b8c 463e 731c 6e3d 9431 7e3f 72e3 a93d
-3.604028 0.3645826 0.31351882 -2.0665648 -1.799487 0.10905236 0.34678417 -1.8581604
0.26754364 -2.1069217 -1.7677784 0.26359358 0.41883755 -0.004751674 1.0029205 -0.33570793
-2.8357844 0.16801913 0.2783968 -0.16497526 -0.33421355 -0.016726067 0.09319791 -2.5062516
0.3871309 -1.6780385 0.31986976 0.85526276 0.19389479 0.0581326 0.992944 0.08295335

out_layer.bias f4 [2]
00000000: 846c 323f 2664 5c3f
0.6969683 0.86090314
