models/DQNdecay_param1.pth (torch, 45919 bytes, 8 tensors)

hidden_layer1.weight f4 [64, 126]
-0.009762044 -0.23766929 0.0044957735 0.08379815 0.24972011 0.21069926 0.20747244 0.007334867
-0.035591904 -0.035971172 0.083623074 0.05182671 0.103372626 -0.0035281195 -0.26273546 -0.10568745
-0.24951774 -0.10228375 0.057138477 0.0026551525 -0.06751836 -0.144416 -0.033024892 -0.0055585024
-0.10747432 0.055278044 0.10860568 0.20105822 -0.011607408 0.05774124 0.10148338 0.050784953
0.15152709 0.037100356 0.13035928 0.0021670419 0.078556746 -0.11794248 0.21366641 0.13858591
0.106610596 0.10268105 -0.19649659 -0.12322421 -0.29776677 -0.3435437 -0.1432184 0.08438284
0.14288972 -0.04407571 -0.03211074 0.049103256 -0.015232437 -0.22100408 0.0042112763 0.056321338
0.033105407 0.14639606 0.0665465 -0.025398033 -0.0035738472 0.28166196 0.012290821 0.06038502
-0.052172866 -0.02917478 -0.115386896 -0.05883313 -0.13238125 -0.289899 0.15947536 0.13973644
0.13459674 0.061354514 0.04552131 -7.077411e-05 -0.14568074 0.07165138 -0.026704177 0.046034772
0.090705104 0.13457184 0.103533596 0.08793478 0.1775113 0.21171214 0.10392659 0.1573955
0.0945354 0.039088897 -0.014040125 0.105493024 0.10838603 0.010640229 -0.0037680164 -0.016305253
-0.084983416 -0.17569602 0.018670224 0.017182494 0.05261522 0.00653411 -0.024818502 -0.15901546
-0.24214752 -0.20448877 -0.21449208 -0.18659876 -0.27333567 -0.2589892 -0.30192962 -0.26978028
0.1801078 0.11872388 0.24140978 0.2321395 0.21524175 0.06516823 0.012269746 0.23607863
0.10880574 0.18675594 0.14251846 0.043865275 0.11451005 -0.040656783 0.22874445 -0.08709884
0.23784547 -0.04523782 -0.05243014 0.17238852 -0.069070324 0.035858795 -0.010062444 0.13086136
0.00030986915 0.030543765 -0.01360194 -0.25785944 -0.3818408 0.31735235 0.71847194 0.09273146
-0.16273868 0.33975935 0.1497229 -0.072541475 -0.47093177 -0.16910182 -0.116366886 0.091260225
-0.33147943 -0.3104669 -0.13389869 0.057514593 -0.04802686 -0.0019789056 0.09869053 -0.0011745327
0.009104824 0.5029457 0.46754494 -0.3615452 -0.27802038 0.32826954 -0.036455795 -0.2925717
0.012059669 -0.064173296 -0.35453153 0.105314486 0.16160886 -0.033019263 -0.027536105 -0.12525123
-0.24682403 0.26131028 -0.19790994 -0.25323 0.18445846 0.23153992 0.13147931 -0.059779424
0.025708253 0.034579877 0.31834725 -0.08800863 -0.057221845 0.16265386 0.11268646 0.0772241
0.068368435 0.04662161 0.021466319 -0.13570908 -0.07628889 0.042429507 0.11081845 0.00020538035
0.073544465 -0.03764191 -0.23480181 -0.08786043 -0.13165487 -0.154964 -0.20964529 -0.08228868
-0.12715036 -0.21449788 0.2523206 0.091537856 0.12905456 0.11016139 0.089115076 0.19579887
0.048680518 0.39274213 0.21688469 0.22040671 0.17201956 0.21685134 0.14635997 -0.10734964
-0.124977715 0.026886176 0.09831386 -0.042075895 -0.2559018 -0.30740792 -0.40185124 -0.52438897
-0.23180114 -0.1571884 -0.26848936 0.07492571 0.1518591 -0.2155053 0.13611943 -0.13049288
-0.09688755 -0.08613328 -0.2549518 -0.22563258 -0.060161624 0.32160735 0.28623265 0.059270367
0.06189732 0.054262668 -0.020240933 -0.16904986 -0.06724616 -0.14222649 0.16497982 0.024748312
00000000: fbf0 1fbc 945f 73be 4851 933b 5d9e ab3d
00000010: a1b6 7f3e 8cc1 573e a873 543e 5359 f03b
00000020: d1c8 11bd 8256 13bd 9342 ab3d 3f48 543d
00000030: 07b5 d33d 0638 67bb 4385 86be a972 d8bd
00000040: 9481 7fbe 257a d1bd 090a 6a3d 1102 2e3b
00000050: 1147 8abd cae1 13be 1c45 07bd 1924 b6bb
00000060: 7f1b dcbd 3b6b 623d a86c de3d 35e2 4d3e
00000070: ff2c 3ebc 1482 6c3d 85d6 cf3d e203 503d
00000080: eb29 1b3e 8bf6 173d e77c 053e ee04 0e3b
00000090: 5ce2 a03d d48b f1bd 5ecb 5a3e 77e9 0d3e
000000a0: a856 da3d 714a d23d 6736 49be fa5c fcbd
000000b0: e374 98be f6e4 afbe d8a7 12be e9d0 ac3d
000000c0: af51 123e bb88 34bd 8d86 03bd 7f20 493d
000000d0: 7991 79bc e54e 62be bffe 893b 34b1 663d
000000e0: 8999 073d d9e8 153e 8849 883d 890f d0bc
000000f0: 3537 6abb ff35 903e 715f 493c 4856 773d
00000100: 37b3 55bd f3ff eebc f74f ecbd 02fb 70bd
00000110: f38e 07be a46d 94be 824d 233e 1217 0f3e
00000120: bad3 093e df4e 7b3d 8e74 3a3d 906c 94b8
00000130: 552d 15be f5bd 923d b8c2 dabc f58e 3c3d
00000140: 99c3 b93d 33cd 093e 6c09 d43d 2617 b43d
00000150: 86c5 353e 11cb 583e 77d7 d43d 492c 213e
00000160: c79b c13d ae1b 203d 8d08 66bc ba0c d83d
00000170: 7ff9 dd3d 5b54 2e3c d3f0 76bb 9892 85bc
00000180: c90b aebd a8e9 33be 4cf2 983c 4dc2 8c3c
00000190: 0f83 573d 161c d63b 2c50 cbbc f3d4 22be
000001a0: 85f5 77be 8165 51be d0a3 5bbe bf13 3fbe
000001b0: a7f2 8bbe 3c9a 84be 8596 9abe a420 8abe
000001c0: 2e6e 383e 8125 f33d 2034 773e fab5 6d3e
000001d0: 5568 5c3e ec76 853d 0b07 493c 99be 713e
000001e0: 8bd5 de3d f33c 3f3e 5cf0 113e 13ac 333d
000001f0: 3f84 ea3d ba87 26bd fc3b 6a3e e060 b2bd
00000200: c38d 733e 4b4b 39bd fdc0 56bd 9e86 303e
00000210: be74 8dbd ace0 123d f3dc 24bc 8500 063e
00000220: ef75 a239 eb36 fa3c acda 5ebc 2706 84be
00000230: a380 c3be 027c a23e c7ed 373f fee9 bd3d
00000240: f8a4 26be f0f4 ad3e f650 193e a090 94bd
00000250: f81d f1be 0729 2dbe c351 eebd a4e6 ba3d
00000260: acb7 a9be 84f5 9ebe bd1c 09be 6c94 6b3d
00000270: d0b7 44bd 87b0 01bb 431e ca3d c7f2 99ba
00000280: 662c 153c 0dc1 003f 0d62 ef3e 741c b9be
00000290: b058 8ebe f212 a83e ac52 15bd f5cb 95be
000002a0: eb95 453c 4a6d 83bd 2885 b5be 1faf d73d
000002b0: cb7c 253e 353f 07bd 6693 e1bc dc41 00be
000002c0: 70bf 7cbe 76ca 853e e7a8 4abe 5da7 81be
000002d0: aee2 3c3e cd18 6d3e 83a2 063e 45db 74bd
000002e0: 1d9a d23c a1a3 0d3d 69fe a23e de3d b4bd
000002f0: 7461 6abd bc8e 263e 29c8 e63d ab27 9e3d
00000300: c004 8c3d 4df6 3e3d 22da af3c 52f7 0abe
00000310: 593d 9cbd 90ca 2d3d c9f4 e23d 5e5b 5739
00000320: 7b9e 963d 672e 1abd e36f 70be 2bf0 b3bd
00000330: 89d0 06be e2ae 1ebe 41ad 56be f886 a8bd
00000340: b433 02be 55a5 5bbe 2a30 813e 3378 bb3d
00000350: e126 043e 4b9c e13d f781 b63d 807f 483e
00000360: 3965 473d 7f15 c93e 0517 5e3e 4cb2 613e
00000370: e525 303e 470e 5e3e 63df 153e 21da dbbd
00000380: 51f4 ffbd 6640 dc3c c758 c93d c657 2cbd
00000390: 9005 83be 9264 9dbe 72bf cdbe 5b3e 06bf
000003a0: 475d 6dbe fff5 20be 7077 89be a772 993d
000003b0: f480 1b3e 6cad 5cbe e462 0b3e ed9f 05be
000003c0: fb6c c6bd a566 b0bd 0b89 82be 3a0c 67be
000003d0: 096c 76bd b8a9 a43e 168d 923e 7cc5 723d
000003e0: 0b88 7d3d 8842 5e3d 50d0 a5bc 681b 2dbe
000003f0: 5bb8 89bd d2a3 11be 78f0 283e f9bc ca3c

hidden_layer1.bias f4 [64]
1.0015607 0.35465452 0.6345556 -0.056190114 0.17686254 -0.17905506 0.43780485 0.4992865
0.28231186 0.42165923 0.45059195 0.1325402 -0.17132907 -0.01574647 0.739145 -0.03533544
1.2728084 0.14265716 0.4759419 0.63009596 0.9413829 -0.104617834 0.12131741 0.64154106
0.6239672 -0.04382779 0.49373078 0.07698815 -0.071441755 0.8489495 0.31453496 0.44402185
-0.11474807 0.51456845 0.44811332 -0.09016195 -0.009715016 -0.068340525 -0.043268375 -0.20745236
0.023819298 0.5983634 0.12563482 1.2372577 0.48860532 0.6429419 0.49706313 1.7285864
-0.16073555 0.58467734 0.17616181 0.24276741 0.0017177537 0.47403774 0.17531508 0.43079984
-0.06485096 0.0035064088 0.091643356 1.2388688 1.1009203 0.019943038 -0.1305702 0.37571347
00000000: 2433 803f 4795 b53e 3c72 223f 9b27 66bd
00000010: 741b 353e 365a 37be f527 e03e 7ba2 ff3e
00000020: 2e8b 903e b8e3 d73e fdb3 e63e 9eb8 073e
00000030: e370 2fbe befe 80bc 9b38 3d3f e5bb 10bd
00000040: 63eb a23f b814 123e a8ae f33e f84d 213f
00000050: 78fe 703f e041 d6bd 4375 f83d 093c 243f
00000060: 50bc 1f3f c584 33bd 48ca fc3e f7ab 9d3d
00000070: 0e50 92bd c154 593f ba0a a13e d556 e33e
00000080: 0901 ebbd c2ba 033f 1c6f e53e d4a6 b8bd
00000090: bb2b 1fbc 1ef6 8bbd 2e3a 31bd 646e 54be
000000a0: b020 c33c 582e 193f 6aa6 003e 765e 9e3f
000000b0: 7a2a fa3e d797 243f 0f7f fe3e 5242 dd3f
000000c0: dc97 24be 6aad 153f c363 343e 0598 783e
000000d0: 4026 e13a 13b5 f23e cc85 333e cc91 dc3e
000000e0: 95d0 84bd c7cb 653b 83af bb3d 4193 9e3f
000000f0: f5ea 8c3f 955f a33c 32b4 05be 845d c03e

hidden_layer2.weight f4 [32, 64]
0.44145882 -0.06836022 -0.31040975 -0.031746894 0.52925605 0.100392096 0.047677577 0.23835622
0.013648075 0.026582822 -0.6677284 -0.07398678 0.071010984 -0.040538292 0.9473175 0.0013461215
0.29884937 -0.17037818 0.22096886 0.21146971 0.09853296 -0.07148318 0.45945445 0.6322526
0.59057057 0.20134136 0.011183254 -0.020914922 -0.0059360736 0.22099958 0.19910711 -0.0044200458
-0.03981205 -0.109285906 -0.26465756 -0.4337458 0.040319312 0.053551726 0.07079558 -0.45151767
0.024058584 0.15892383 0.2384346 0.6684051 0.11033411 0.223305 -0.051615357 0.37473512
-0.001027843 0.13036779 -0.028820548 0.32911977 0.37641114 0.17732696 -0.05505857 0.20054093
0.0005499148 0.15363973 -0.25617576 0.55024916 -0.049346697 0.0076055326 -0.026061768 -0.035764936
-0.03087162 0.044523366 -0.05979014 -0.070480324 -0.07403446 0.02301486 0.05148013 -0.021025054
-0.036784224 -0.02257871 0.032955576 -0.01732031 0.034400996 -0.07037367 0.028120454 -0.029046295
-0.06259312 -0.078233056 -0.06699284 -0.07494155 0.0018576818 0.050631896 -0.06867677 0.03608142
0.02446248 -0.026500082 -0.057088353 -0.090294406 0.017451199 -0.061001178 -0.061793502 0.041823797
-0.006738988 -0.05625832 -0.093010366 -0.021874297 0.037732493 0.005916501 -0.04768445 -0.0091875335
-0.032147124 0.033215784 -0.06894146 0.0036917466 0.021912787 -0.008911604 -0.007166104 -0.06376486
-0.059642196 -0.08833196 -0.039920393 -0.0055184844 -0.06060733 -0.011377025 -0.02864133 -0.0055233487
-0.029228957 -0.032056052 -0.007038456 -0.06893441 0.031245468 -0.089329414 -0.022113204 -0.0518812
-0.1554647 -0.002242888 -0.10121209 -0.0770261 0.13616005 0.020731984 -0.028360296 -0.13847505
-0.10585846 -0.07934088 -0.1704134 -0.050551623 -0.10939056 -0.04782824 -0.246915 0.022173325
-0.10843975 -0.0038393354 0.15309678 -0.08700212 -0.09108405 -0.063779056 -0.14296038 -0.009241785
0.05987098 -0.09256891 -0.15072028 -0.119373165 -0.008299865 -0.09261786 0.029845318 -0.13752978
-0.11286206 -0.11520881 0.04931564 -0.11483039 -0.06779737 0.024845108 -0.024069931 -0.008872675
0.014726826 -0.043363426 -0.11771552 -0.07573136 -0.1791852 -0.017107682 -0.13498533 -0.10553628
-0.09246148 -0.05049432 0.020343566 -0.08968353 0.04954888 -0.09680131 0.007360518 -0.024972493
0.03470878 -0.037275482 0.050694827 -0.11163862 -0.19880453 -0.046007436 -0.14724505 0.032759752
-0.21267074 -0.19015382 -0.15981343 0.06950718 -0.085396156 -0.12435497 -0.14835665 -0.09638429
-0.120393984 -0.14281224 -0.23080516 -0.14635299 -0.07406319 0.029938586 -0.23651932 -0.11686467
-0.1649665 -0.11706708 -0.12797272 -0.11021033 -0.15951282 -0.20495808 -0.16214871 0.09068628
-0.153862 -0.03863874 -0.08790906 -0.08943584 0.0016388532 -0.13942963 -0.11687446 -0.08606436
-0.09136893 -0.19981521 -0.14417495 -0.07074828 0.038432486 0.0036001522 0.05193883 -0.20449269
0.044532627 -0.15211111 -0.14022347 -0.13860473 -0.15094173 -0.06518297 -0.05539632 -0.11033796
-0.24793984 -0.10560685 -0.20483512 -0.13424431 -0.13321848 -0.063885696 -0.041603517 -0.101653226
-0.04768718 -0.21280488 -0.057201825 -0.24047883 -0.19769539 0.032773267 -0.17105459 -0.10136164
00000000: e406 e23e 7100 8cbd 07ee 9ebe 0809 02bd
00000010: 537d 073f 5f9a cd3d 9049 433d a713 743e
00000020: 2d9c 5f3c 38c4 d93c 40f0 2abf 6286 97bd
00000030: 356e 913d 7b0b 26bd 6683 723f 5870 b03a
00000040: c902 993e 9e77 2ebe a945 623e 848b 583e
00000050: a6cb c93d c665 92bd 9d3d eb3e 4edb 213f
00000060: a22f 173f 6e2c 4e3e f839 373c c555 abbc
00000070: 6583 c2bb b74d 623e bce2 4b3e 08d6 90bb
00000080: f611 23bd 4ad1 dfbd 3281 87be ee13 debe
00000090: dd25 253d 0e59 5b3d 46fd 903d 532d e7be
000000a0: 8216 c53c eebc 223e 3328 743e 991c 2b3f
000000b0: daf6 e13d 11aa 643e a06a 53bd 48dd bf3e
000000c0: b0b8 86ba 227f 053e 1219 ecbc 6382 a83e
000000d0: f6b8 c03e 3395 353e 1885 61bd 9a5a 4d3e
000000e0: 2828 103a bc53 1d3e 7829 83be 21dd 0c3f
000000f0: c31f 4abd d537 f93b 7d7f d5bc 417e 12bd
00000100: 7be6 fcbc 225e 363d 81e6 74bd fd57 90bd
00000110: 619f 97bd a989 bc3c d4dc 523d bc3c acbc
00000120: 0eab 16bd fdf6 b8bc 6dfc 063d 53e3 8dbc
00000130: 0fe8 0c3d 1220 90bd de5c e63c 7ff2 edbc
00000140: d230 80bd a738 a0bd 8b33 89bd f57a 99bd
00000150: 757d f33a 6463 4f3d 68a6 8cbd 1cca 133d
00000160: 8a65 c83c b316 d9bc 7ad5 69bd 46ec b8bd
00000170: d1f5 8e3c 5fdc 79bd 2f1b 7dbd 6e4f 2b3d
00000180: bbd2 dcbb 206f 66bd 387c bebd ba31 b3bc
00000190: 638d 1a3d 35df c13b c550 43bd 4f87 16bc
000001a0: b4ac 03bd 460d 083d 2e31 8dbd 3bf1 713b
000001b0: 7282 b33c fa01 12bc a3d1 eabb 2797 82bd
000001c0: 604b 74bd 63e7 b4bd 9183 23bd 67d4 b4bb
000001d0: 643f 78bd b466 3abc 39a1 eabc 35fd b4bb
000001e0: 9171 efbc 354d 03bd d9a2 e6bb 7c2d 8dbd
000001f0: 7ff6 ff3c 57f2 b6bd c026 b5bc 6281 54bd
00000200: 2332 1fbe 6bfd 12bb 4948 cfbd dcbf 9dbd
00000210: 8a6d 0b3e 1fd6 a93c da53 e8bc 67cc 0dbe
00000220: 52cc d8bd 797d a2bd da80 2ebe 380f 4fbd
00000230: 2808 e0bd 8be7 43bd 49d7 7cbe d5a4 b53c
00000240: a915 debd 5c9d 7bbb 67c5 1c3e 2b2e b2bd
00000250: 468a babd 989e 82bd 3564 12be db6a 17bc
00000260: 463b 753d c594 bdbd 6b56 1abe eb79 f4bd
00000270: 28fc 07bc 6fae bdbd 2b7e f43c 9bd4 0cbe
00000280: 3924 e7bd 99f2 ebbd 32ff 493d 322c ebbd
00000290: 59d9 8abd f887 cb3c 4e2e c5bc b25e 11bc
000002a0: c948 713c d99d 31bd d614 f1bd 0b19 9bbd
000002b0: 537c 37be 6925 8cbc 9839 0abe 6823 d8bd
000002c0: 725c bdbd 22d3 4ebd 8da7 a63c 00ac b7bd
000002d0: c4f3 4a3d c43f c6bd 8030 f13b 1d93 ccbc
000002e0: cb2a 0e3d 2dae 18bd 61a5 4f3d caa2 e4bd
000002f0: 6a93 4bbe 4b72 3cbd 68c7 16be 172f 063d
00000300: 5cc6 59be afb7 42be 22a6 23be c859 8e3d
00000310: 2ee4 aebd d2ad febd ceea 17be 2065 c5bd
00000320: 1f91 f6bd 5f3d 12be 3058 6cbe 8fdd 15be
00000330: 71ae 97bd c441 f53c 1f32 72be be56 efbd
00000340: faec 28be dec0 efbd 480b 03be f4b5 e1bd
00000350: 5457 23be 88e0 51be 500a 26be bab9 b93d
00000360: 008e 1dbe a843 1ebd aa09 b4bd 232a b7bd
00000370: cace d63a a4c6 0ebe e05b efbd 8342 b0bd
00000380: a21f bbbd 5c9c 4cbe 99a2 13be 79e4 90bd
00000390: 626b 1d3d 88f0 6b3b d0bd 543d 8866 51be
000003a0: d867 363d 04c3 1bbe be96 0fbe 66ee 0dbe
000003b0: 7890 1abe a67e 85bd 40e7 62bd def8 e1bd
000003c0: f1e3 7dbe 6748 d8bd 4cc0 51be 5777 09be
000003d0: 6d6a 08be 81d6 82bd 7368 2abd 912f d0bd
000003e0: a253 43bd 86e9 59be 764c 6abd 1540 76be
000003f0: a970 4abe 433d 063d ef28 2fbe b196 cfbd

hidden_layer2.bias f4 [32]
1.2231765 0.0127964625 0.010096533 -0.2331078 0.048179857 0.9964899 0.018296648 -0.36386287
-0.027934592 -0.052779634 -0.05877261 0.014670513 1.0518414 0.46837685 -0.011890728 -0.104033895
-0.001324705 -0.051126856 1.200722 -0.37683737 -0.056930568 -0.081675604 -0.06767889 -0.03349211
0.0035985678 0.33490476 0.8483228 0.6581989 1.5400206 -0.058110684 0.60458773 -0.055321466
00000000: 0c91 9c3f 41a8 513c ee6b 253c d0b3 6ebe
00000010: 3e58 453d f619 7f3f dae2 953c 3c4c babe
00000020: 16d7 e4bc 752f 58bd 8cbb 70bd 975c 703c
00000030: bda2 863f 17cf ef3e 54d1 42bc b90f d5bd
00000040: b9a1 adba 656a 51bd 42b1 993f d4f0 c0be
00000050: 0730 69bd 8a45 a7bd 3b9b 8abd 062f 09bd
00000060: f3d5 6b3b a378 ab3e af2b 593f b97f 283f
00000070: 651f c53f 7805 6ebd 43c6 1a3f c398 62bd

hidden_layer3.weight f4 [16, 32]
0.44948635 -0.058944903 -0.108230285 -0.15842529 0.0032701867 0.4819581 -0.043567985 -0.043973964
-0.009404258 0.07344742 0.08046149 -0.03760372 0.39275205 0.19335197 -0.0666411 -0.32607827
-0.04096412 0.15391825 0.27331167 0.14019437 -0.05723059 -0.042805057 0.038261384 0.20714882
-0.368184 0.2598271 0.34570655 0.28246424 0.29138532 -0.04363863 0.3625427 -0.10033744
0.22922343 -0.05316577 0.06908163 0.046971105 -0.07636013 -1.221205 -0.005848221 -1.6341329
0.020299548 0.10289252 -1.4169924 -0.10716109 -0.5069511 -0.43366128 -0.024757322 0.636051
-0.051859792 -0.20880415 -0.27140307 0.18693179 0.021293474 -0.06281361 -0.0746977 -0.4050137
0.53787196 -1.0412173 0.07647809 0.28801894 0.41184193 -0.008706192 -1.7136601 0.011485868
0.42441094 -0.07414938 -0.2451039 -0.09064151 -0.02172069 0.3671548 0.02782444 -0.18791406
0.016624961 -0.11094792 0.03525973 0.03516949 0.18699282 0.20593269 -0.08146472 -0.058840096
0.022121135 0.20287047 0.27592817 0.006502178 0.013502788 0.06231228 0.026274389 0.084729105
-0.17749806 0.083388746 0.3698754 0.29594934 0.39619732 0.021539267 0.17186321 -0.006424553
-0.088779256 0.015817072 -0.06703953 0.07695358 0.019537903 -0.08558559 -0.04948727 0.010131281
-0.009781889 -0.087012336 -0.08007914 -0.010778259 0.07239774 -0.04446266 0.0031946 -0.088534586
0.08614554 -0.010267091 0.095000185 0.024927242 0.03185713 0.10160372 -0.06403592 -0.017668895
-0.052176207 -0.04972824 -0.10094513 0.028713817 -0.036092818 -0.08040189 0.060838822 0.053837646
0.34396496 -0.006260687 0.0020806892 -0.029033238 0.066251904 0.37430152 -0.0031934918 -0.0913299
0.001659539 0.102634214 -0.08895174 0.07701044 0.42835575 0.24378866 0.02663039 -0.30355605
-0.074496105 0.121188484 0.22502168 0.089575484 -0.04482723 0.10988911 0.08897478 0.15225664
-0.22277983 0.16395177 0.31080872 0.18044622 0.19821618 -0.06053012 0.28585628 0.0017182351
-0.008389859 -0.0027763585 0.075020164 0.0012609904 0.04576273 -0.06637736 -0.06817812 0.07011407
-0.075981826 -0.068697065 0.006483056 0.06781266 0.006001465 -0.071102984 0.01711608 -0.1555565
-0.03972284 0.01282004 -0.001931291 -0.06928575 -0.041325584 -0.05206001 0.089218386 0.021685908
0.053161528 -0.05638843 -0.049274415 -0.06876414 -0.052333124 -0.052180365 0.0055104895 0.049501617
0.015493025 0.03973067 -0.1180341 -0.051636107 0.023318976 0.048300117 -0.054722793 -0.10567869
-0.03557618 0.017058901 0.044695083 -0.039735485 -0.09776214 -0.018014746 0.07303161 -0.13311844
0.037454523 0.07646846 -0.12961267 0.023057457 -0.110883065 0.035819918 -0.039311998 -0.08678452
-0.0050723837 -0.078085616 -0.04180949 0.029663006 -0.0619243 -0.050918367 0.039882924 0.048528753
-0.023748817 0.036926217 0.005648134 0.040758364 0.05147027 -0.06252289 -0.108434424 0.06410346
-0.020932807 0.0032313846 -0.030349862 0.070596516 -0.11953 0.01894155 -0.053640835 -0.09114234
-0.07997392 0.07228757 -0.07580208 -0.10480351 -0.047741838 -0.04971495 -0.11406914 -0.09491754
-0.11770303 0.05034965 -0.010941176 -0.008732572 -0.09117598 0.0065129558 0.07243336 -0.04575688
00000000: 1323 e63e 3670 71bd d7a7 ddbd 3d3a 22be
00000010: a150 563b 36c3 f63e 5874 32bd 0b1e 34bd
00000020: 5114 1abc 9a6b 963d fec8 a43d 5c06 1abd
00000030: cc16 c93e 0ffe 453e 217b 88bd bbf3 a6be
00000040: fec9 27bd bf9c 1d3e 82ef 8b3e 1d8f 0f3e
00000050: a06a 6abd 5b54 2fbd f8b7 1c3d d21e 543e
00000060: 9d82 bcbe 0f08 853e 7300 b13e 279f 903e
00000070: 7530 953e 6cbe 32bd 329f b93e b77d cdbd
00000080: 8cb9 6a3e 5ac4 59bd ab7a 8d3d c664 403d
00000090: b362 9cbd 7250 9cbf 6fa2 bfbb 442b d1bf
000000a0: 3d4b a63c 50b9 d23d 0260 b5bf 4677 dbbd
000000b0: 8cc7 01bf da08 debe decf cabc 3dd4 223f
000000c0: ef6a 54bd c1d0 55be 58f5 8abe 0c6b 3f3e
000000d0: a76f ae3c 6ca4 80bd 1cfb 98bd f55d cfbe
000000e0: fab1 093f 9c46 85bf 8ba0 9c3d 3877 933e
000000f0: f2dc d23e 6aa4 0ebc 3759 dbbf 392f 3c3c
00000100: 644c d93e a1db 97bd 84fc 7abe 42a2 b9bd
00000110: 97ef b1bc b7fb bb3e 14f0 e33c 8b6c 40be
00000120: 1231 883c aa38 e3bd 826c 103d e20d 103d
00000130: 0c7b 3f3e 05e0 523e fad6 a6bd 5002 71bd
00000140: 6237 b53c 47bd 4f3e 7546 8d3e 3910 d53b
00000150: cc3a 5d3c 293b 7f3d 633d d73c 7486 ad3d
00000160: 0dc2 35be b8c7 aa3d 4f60 bd3e ac86 973e
00000170: 60da ca3e 1e73 b03c e9fc 2f3e 0f85 d2bb
00000180: e6d1 b5bd ce92 813c 054c 89bd d799 9d3d
00000190: f40d a03c 7f47 afbd 2ab3 4abd acfd 253c
000001a0: 3744 20bc 8633 b2bd 8800 a4bd 4b97 30bc
000001b0: 4445 943d 7a1e 36bd 7f5c 513b 9f51 b5bd
000001c0: 136d b03d 4d37 28bc 758f c23d 3734 cc3c
000001d0: 9f7c 023d 9c15 d03d 4425 83bd 5cbe 90bc
000001e0: b8b6 55bd d7af 4bbd 52bc cebd 3d39 eb3c
000001f0: 10d6 13bd bfa9 a4bd 2132 793d dd84 5c3d
00000200: 2d1c b03e 7326 cdbb 2c5c 083b 1dd7 edbc
00000210: 14af 873d 73a4 bf3e e749 51bb 2c0b bbbd
00000220: e384 d93a e331 d23d 542c b6bd a6b7 9d3d
00000230: 7251 db3e bca3 793e fa27 da3c b36b 9bbe
00000240: 6a91 98bd ab31 f83d 156c 663e 5a73 b73d
00000250: c29c 37bd 8b0d e13d 6938 b63d 2ae9 1b3e
00000260: 6520 64be f9e2 273e 5222 9f3e e5c6 383e
00000270: 2ff9 4a3e 6eee 77bd c15b 923e 6736 e13a
00000280: 9f75 09bc 91f3 35bb 2ca4 993d d147 a53a
00000290: b371 3b3d daf0 87bd f8a0 8bbd f797 8f3d
000002a0: 5c9c 9bbd 0cb1 8cbd d16f d43b 5de1 8a3d
000002b0: f0a7 c43b 719e 91bd 0537 8c3c 344a 1fbe
000002c0: 6bb4 22bd 250b 523c 5f23 fdba b0e5 8dbd
000002d0: 0445 29bd e13c 55bd 21b8 b63d a5a6 b13c
000002e0: e7bf 593d 8ef7 66bd f8d3 49bd 37d4 8cbd
000002f0: 425b 56bd 14bb 55bd 5691 b43b 35c2 4a3d
00000300: 75d6 7d3c a1bc 223d ddbb f1bd 6280 53bd
00000310: 7007 bf3c 58d6 453d 0225 60bd 126e d8bd
00000320: 54b8 11bd 1cbf 8b3c 3112 373d adc1 22bd
00000330: 8437 c8bd a993 93bc 9991 953d 3350 08be
00000340: ea69 193d 7f9b 9c3d 2fb9 04be fee2 bc3c
00000350: a916 e3bd e8b7 123d 9e05 21bd 15bc b1bd
00000360: 3d36 a6bb 5aeb 9fbd 6e40 2bbd d5ff f23c
00000370: 56a4 7dbd c78f 50bd 475c 233d 16c6 463d
00000380: e18c c2bc f23f 173d fb13 b93b 3ef2 263d
00000390: 7dd2 523d 000c 80bd de12 debd ad48 833d
000003a0: 477b abbc a3c5 533b 46a0 f8bc e894 903d
000003b0: 25cc f4bd 4f2b 9b3c 7eb6 5bbd d6a8 babd
000003c0: 5ec9 a3bd 810b 943d 1f3e 9bbd 39a3 d6bd
000003d0: f28c 43bd e7a1 4bbd 159d e9bd 2164 c2bd
000003e0: 490e f1bd 6f3b 4e3d 9e42 33bc 1013 0fbc
000003f0: 79ba babd a26a d53b f157 943d 916b 3bbd

hidden_layer3.bias f4 [16]
1.1349782 0.16496646 0.84150416 -0.075464554 1.2822067 -0.045137305 -0.017955855 0.024623279
0.6003234 -0.87804097 0.047739025 2.1166468 1.2255795 1.4532299 0.008061299 -0.801405
00000000: f746 913f f8ec 283e d16c 573f 298d 9abd
00000010: 591f a43f e5e1 38bd 2818 93bc c2b6 c93c
00000020: cbae 193f 4bc7 60bf ff89 433d 2477 0740
00000030: cadf 9c3f 7003 ba3f 8a13 043c e128 4dbf

out_layer.weight f4 [2, 16]
0.4947741 -3.7053897 0.26041946 0.09987088 0.32579553 -0.112575755 -0.07833988 -0.1016972
-2.5382395 -0.21756683 -0.060961157 -1.3718046 0.27660978 -2.3251855 -0.110296965 -0.81557924
0.3287443 -3.114813 0.3819613 0.04432403 0.23135002 -0.039539635 -0.078473374 0.032653775
-0.3375536 -0.35283765 0.13422777 -2.851396 0.34377012 0.46479857 0.057739507 -0.068491444
00000000: 0853 fd3e 1b25 6dc0 b355 853e 1b89 cc3d
00000010: acce a63e 1e8e e6bd a970 a0bd 9f46 d0bd
00000020: 8472 22c0 d7c9 5ebe 68b2 79bd 4b97 afbf
00000030: cc9f 8d3e d7cf 14c0 60e3 e1bd cdc9 50bf
00000040: 2c51 a83e 1959 47c0 6e90 c33e 1d8d 353d
00000050: 05e7 6c3e 50f4 21bd a6b6 a0bd f7bf 053d
00000060: d3d3 acbe 23a7 b4be 0173 093e 467d 36c0
00000070: a302 b03e 14fa ed3e 4380 6c3d 3e45 8cbd

out_layer.bias f4 [2]
1.2352844 0.63003093
00000000: cd1d 9e3f b549 213f
