models/DQNdecay_param3.pth (torch, 45919 bytes, 8 tensors)

hidden_layer1.weight f4 [64, 126]
000000 da 63 ff bb 48 ee a7 3c 4a 6e 0d bd 2d ec 3f 3d
       -0.0077938857 0.020499364 -0.034529008 0.046856094
000010 a6 7c cc 3c 49 d9 ad 3d f1 57 b7 3d b6 ff 44 bc
       0.02496178 0.084887095 0.0895232 -0.012023857
000020 ca 9d e1 3d 83 f4 de 3d 8b 47 54 3e 58 fe a0 3e
       0.11016424 0.10886481 0.20730416 0.3144405
000030 4d 4d 86 3e d7 97 18 3e f1 5c 57 3d c3 7d 0b bc
       0.2623085 0.14901672 0.05257887 -0.008513871
000040 91 12 7b bd 3d 99 38 3d 29 52 9f 3d 00 a8 3a 3e
       -0.061297003 0.045068014 0.07779343 0.1822815
000050 cb 7a 7f 3e 88 30 1f 3d 0b c6 75 bd 7f 6b aa bd
       0.24949186 0.038864642 -0.06000332 -0.083212845
000060 06 d2 54 3d 79 89 03 be 97 f2 93 bb d7 8d 40 bc
       0.051958106 -0.1284541 -0.004515003 -0.011752567
000070 4d 08 8c 3d 1f 4c cc 3d ba 55 86 3d e2 5c 66 bd
       0.06837521 0.099754564 0.0655932 -0.056240924
000080 e9 fd 16 bd 4f 4c af 3c b9 7e f2 bd a7 10 55 3d
       -0.03686324 0.021398691 -0.11840577 0.052017834
000090 0b 03 8d bd 0e da 4a 3c 1e f3 5a 3d 6f 0f 8f 3d
       -0.06885346 0.01238109 0.05345451 0.069853656
0000a0 eb f1 db 3d 34 a5 6b 3d bf 0c 8c bd a2 02 1d 3d
       0.107395016 0.057530597 -0.068383686 0.03833259
0000b0 0b 56 93 3d 37 b8 34 bb 92 8c 4d 3d 0e 95 e6 3d
       0.07194146 -0.002757562 0.050182886 0.11258899
0000c0 9e b3 56 bc d0 9c 55 bd 7a ed 50 3b 8f 7d 84 bb
       -0.0131043475 -0.0521515 0.0031879828 -0.004043288
0000d0 39 c3 e3 3d ac 8b 35 be 09 7d bd bc fe 86 08 3d
       0.1112122 -0.17729062 -0.02313091 0.033331864
0000e0 1c 6e 63 3d 65 47 d3 bb 9a b9 60 3d 43 cd 9a 3c
       0.05552493 -0.00644772 0.054864503 0.018896705
0000f0 7f 1e ee bc 1d d2 11 3c 5e be fc 3c b6 34 90 bd
       -0.029067276 0.008900193 0.030852493 -0.07041304
000100 95 7c cf 3c e9 2f 14 3c fc e6 e4 bc 9a 17 eb bc
       0.02532796 0.009044626 -0.027942173 -0.028697778
000110 78 dd 91 3d 12 e2 46 3e 21 57 16 be 55 a8 0e be
       0.0712232 0.19422176 -0.14681675 -0.13931401
000120 f6 ed 30 bd 2b f6 ae bd fe bf 89 3d 91 92 42 3e
       -0.043195687 -0.085430466 0.06726073 0.19001223
000130 d1 27 a4 3e a8 12 fb 3d 74 f7 88 bc 98 a5 ac 3d
       0.32061628 0.12259418 -0.016719557 0.08430022
000140 59 17 b2 bd fa 0f 35 bc 7b 3f 38 3d 72 3b be 3d
       -0.086958595 -0.011051172 0.044982415 0.09288682
000150 db 7f 7c 3d d2 23 07 bd fd b1 89 3b b3 9d 74 3d
       0.06164537 -0.032993145 0.004202126 0.059720706
000160 2d dd 3a 3c ec 1d 97 3d 39 99 97 3d 21 ce 02 be
       0.0114052715 0.07378754 0.07402272 -0.12773944
000170 77 b3 b0 bd a4 9b 3b 3c 27 e9 77 bc 15 b0 07 3e
       -0.0862798 0.011450682 -0.015131271 0.13250764
000180 45 dd 21 3e d3 b5 92 3e ba 86 95 3a d8 de 7a bd
       0.15807064 0.28654346 0.001140795 -0.061247677
000190 94 e5 10 bd 11 cf e9 bc a3 89 e4 3d 7e cb 50 3e
       -0.035375193 -0.02854112 0.111590646 0.20390126
0001a0 c0 4f 25 3e 9c 14 e2 bb be cf b3 bd ec d3 97 bc
       0.16143703 -0.0068994295 -0.08779858 -0.01853367
0001b0 5d b7 bd bc 8b ff b7 3d d2 b4 c5 3d 1d a7 d4 3d
       -0.023158723 0.08984288 0.09653629 0.10383437
0001c0 3b 82 d2 bd 87 a4 14 bd 85 0b 5f 3d 51 2b 26 bc
       -0.10278746 -0.036289718 0.054454345 -0.010142163
0001d0 bc b9 56 3d 5e 12 3c 3e a8 b9 2c 3e 27 51 50 bd
       0.052423224 0.18366382 0.16867697 -0.050858643
0001e0 92 10 02 be 85 d6 3e bd a9 23 04 bd 66 d5 0a 3e
       -0.12701634 -0.0465913 -0.03226057 0.13557968
0001f0 41 f6 13 3e 41 2a a8 3e 6c 2f cb 3d 8d aa 8b bf
       0.14449407 0.32844737 0.099211544 -1.0911423
000200 d2 3d 28 be 21 78 3b be 16 6e ea be 2a db 0b bc
       -0.16429833 -0.18307544 -0.45787114 -0.0085361395
000210 03 8c 8c be 92 88 9d 3e b8 32 cb bc ae fb 8a 3e
       -0.2745057 0.30768257 -0.024804458 0.2714514
000220 16 6b 9f 3c 98 e7 37 3e d6 a0 c5 be eb c3 74 3d
       0.019460242 0.1795944 -0.3859927 0.059757154
000230 7c 97 c5 3e 74 80 55 3d b1 9d 1f 3f 39 7c 83 3e
       0.38592136 0.052124456 0.62349993 0.25680712
000240 29 77 e2 3e b7 7f db 3e 81 e6 bb 3e 61 a0 77 3e
       0.44231537 0.42870876 0.36699298 0.24182273
000250 4a 39 b2 3e 63 fd 08 3e b5 97 c7 be 70 e6 bf 3e
       0.34809333 0.1337791 -0.3898293 0.37480497
000260 ae 97 96 be 22 d0 b0 3e 3b 7f c8 be 9f 83 b2 3d
       -0.29412597 0.34533793 -0.3915957 0.08716511
000270 91 d4 a1 be 1a 23 2a 3e b9 1d 04 be cb 54 fe 3e
       -0.31607488 0.16614953 -0.12901963 0.49674067
000280 08 49 aa 3e 4b 13 af be f8 86 87 3b eb 6d aa 3d
       0.33258843 -0.34194407 0.0041359626 0.083217464
000290 4c b6 2d bd 4c bd 08 3e c4 01 90 3e d7 47 f2 3e
       -0.04241018 0.13353461 0.28126347 0.47320434
0002a0 25 06 0d 3f c3 90 bc 3e 87 ab 82 3d a9 ee 8a 3d
       0.550875 0.36829194 0.063803725 0.06783802
0002b0 fa 85 74 be ea 4a b6 3e bf 60 36 3e 71 1a 9d 3f
       -0.23879233 0.3560403 0.17810343 1.2273694
0002c0 60 8c 00 3f db d0 54 3f a6 32 ce be 4f 14 72 3e
       0.50214195 0.8313119 -0.40273017 0.2364056
0002d0 65 a6 96 3c 63 55 a8 be b7 53 54 be b8 d6 82 3e
       0.01838989 -0.32877645 -0.2073506 0.25554442
0002e0 53 0e 32 3e 82 53 2e be d1 81 4d 3e 1e b3 b6 be
       0.17388277 -0.17024043 0.20069052 -0.3568353
0002f0 7f 87 68 be be 2e a6 3e 37 d9 92 3e 45 8d 26 3e
       -0.22707938 0.32457536 0.28681347 0.16264828
000300 d5 ce 32 3e 11 c3 da 3d 92 47 d2 bd ce 79 05 be
       0.17461713 0.10681737 -0.10267557 -0.13034746
000310 86 fc 08 bf 11 e3 02 bf e0 77 22 bf 43 0f ff be
       -0.5351032 -0.51127726 -0.63464165 -0.4981633
000320 db 35 36 bf bd 29 08 bf 74 1a 1e bf 00 9a 8f 3d
       -0.71175927 -0.5318869 -0.61759114 0.07011795
000330 62 6b 3f 3e 02 bd 29 3e 8a f1 22 3e df 6f 31 3d
       0.18693307 0.16576007 0.15912452 0.04331958
000340 51 39 e7 3d 74 bf be 3d f3 92 32 bf d9 4b c3 be
       0.11290229 0.093138605 -0.69755477 -0.38143805
000350 75 28 cc 3e 39 b5 83 be f6 54 7e be f5 00 c3 be
       0.39874616 -0.257242 -0.24837098 -0.38086668
000360 91 b6 8d be 9b 92 d1 3e 15 bd cd 3d 15 57 74 be
       -0.2767835 0.40932164 0.1004583 -0.23861344
000370 a7 1e 7a be 06 c1 11 bf ed 13 00 bf f7 00 ee be
       -0.24425755 -0.56935155 -0.50030404 -0.4648511
000380 87 d1 4d 3e 41 b2 0f 3e 33 b8 40 3e 66 17 5f 3e
       0.2009946 0.14032842 0.18820266 0.2178627
000390 9d 43 33 3e 10 22 2a 3d 39 ae 6e 3e ff ac 09 c0
       0.17506261 0.04153639 0.23308648 -2.1511838
0003a0 2b 04 26 be a7 a6 a8 3f aa 8d 56 be eb 72 fc bf
       -0.16212527 1.3175858 -0.20952478 -1.972257
0003b0 03 a2 04 c0 4a b4 74 3f e3 20 45 c0 1b 47 0f c0
       -2.0723884 0.955876 -3.0801322 -2.238715
0003c0 7b e6 26 c0 5a 4f 28 bf 02 30 81 bf a2 26 9f bc
       -2.6078174 -0.6574608 -1.0092776 -0.019427601
0003d0 9f 48 e4 3f 1b 95 f5 be c1 3f 20 bf 87 d1 a3 be
       1.7834662 -0.4796532 -0.6259728 -0.31995794
0003e0 51 9e 23 3c c1 44 5e be e2 77 f4 3c 60 42 09 bf
       0.009986476 -0.21705915 0.02984232 -0.53616905
0003f0 54 bd 13 3e 62 90 e3 bd df a5 04 3e 43 31 53 3d
       0.14427692 -0.11111523 0.129539 0.05156065

hidden_layer1.bias f4 [64]
000000 0f 29 6c be 7e c6 30 3f 9d 94 fd 3e 2e e5 f9 3e
       -0.23062538 0.69052875 0.49527445 0.48807663
000010 b1 9d fb 3e 14 b3 e8 bc 60 18 2a bd 83 1c 84 bc
       0.49143746 -0.028405704 -0.041527152 -0.016126877
000020 81 67 17 3f 2d e9 c9 bc e0 7d f9 3e 24 d8 2e 3f
       0.5914231 -0.02464732 0.48728848 0.68298554
000030 05 84 27 be 7e 8c 07 3f 41 fb f8 3e 27 1d a3 3e
       -0.16358955 0.5294875 0.48629192 0.3185818
000040 9c 6d 2e 3c 48 12 ee 3e 50 92 36 bd b1 59 bd 3e
       0.01064625 0.46498322 -0.04457313 0.36982492
000050 d4 4f 1e 3f ed 13 96 3c 18 db b6 3e 1f 18 93 3e
       0.6184056 0.018320048 0.3571403 0.2872934
000060 cb ad 1e 3f ee df 34 3f c0 6c 99 bc 4d b7 b6 bd
       0.6198394 0.7065419 -0.018728614 -0.089216806
000070 f0 61 22 3f 7b a9 13 3f 66 4c b9 3c 14 46 a2 3f
       0.6343069 0.5768048 0.022619437 1.2677636
000080 a2 67 ef 3e 26 48 30 bd a7 f4 9a 3c 7e bc 02 3f
       0.46758753 -0.043037556 0.018915487 0.51068866
000090 ea e5 87 bd ca 38 c0 3e 38 00 0d be 46 2a 27 3f
       -0.066356495 0.37543327 -0.13769615 0.6529888
0000a0 2c 17 12 be a4 9a 6b 3f 6d e3 80 3f 65 ff 1d 3e
       -0.14266652 0.9203284 1.0069405 0.15429457
0000b0 7e 8d fc 3e 05 24 a4 ba 69 c5 2c 3f 66 13 20 3f
       0.493267 -0.0012522942 0.67488724 0.625296
0000c0 05 cb 84 bd 19 a4 4b 3f 49 81 c6 3e 8f c5 2e 3f
       -0.064840354 0.7954727 0.38770512 0.682702
0000d0 85 15 ae bb bf 5c ba 3e d3 bc ed 3e 72 25 49 be
       -0.005312624 0.36398885 0.46433124 -0.1964319
0000e0 c8 f3 00 3f 40 03 cd 3e 63 59 8a 3e 9e c3 02 3f
       0.5037198 0.40041542 0.27021322 0.5107974
0000f0 d1 0e 64 3f 22 60 cd 3f c0 52 1b 3f d3 75 e8 3e
       0.8908511 1.6044962 0.6067314 0.45402393

hidden_layer2.weight f4 [32, 64]
000000 e2 54 15 bd af 9c ab bc 59 cd fd bd bb 2f ac bc
       -0.036457904 -0.020948736 -0.123926826 -0.021018853
000010 f7 ec 00 bd 7c 68 4b bd ca a0 88 bd b8 1c 8d 3d
       -0.031475987 -0.04966019 -0.06671293 0.06890243
000020 71 64 d8 bd 68 5c 05 bd 2b ff 6a bd df e3 ab 3b
       -0.10566033 -0.03255883 -0.057372253 0.00524567
000030 3d 79 b9 bd cd b9 b9 bd c0 d4 c9 bd 56 ff e0 bd
       -0.090563275 -0.09068642 -0.09855032 -0.109862015
000040 06 74 91 3d cf 2b 58 bc 59 e4 22 bd 5a 42 00 be
       0.07102208 -0.0131940385 -0.03976855 -0.12525311
000050 2e 81 a3 3c 90 cc eb bd 52 57 62 bd 21 46 83 3b
       0.019959059 -0.115136266 -0.055259056 0.0040061628
000060 70 4a 9f bd d9 7c 2e bd 76 93 8f bd 13 5f 79 bd
       -0.0777787 -0.042599533 -0.07010548 -0.060881685
000070 ae db ec bd 3f ff 0b 3c 7a 61 d7 3c 0b 41 ab bd
       -0.11565338 0.008544742 0.026291598 -0.08362015
000080 66 e2 e3 3c 83 0d 17 bd 28 23 fc 3c 42 3e 2e bd
       0.027817916 -0.03687812 0.030778483 -0.042539842
000090 0e 98 22 bd 3f 0f 8a bd d3 27 df 3a c7 56 19 bb
       -0.039695792 -0.06741189 0.0017025418 -0.002339767
0000a0 5a 91 ea bd 54 0c c3 bd d0 2b 97 bd 5d ac 0c 3d
       -0.11453505 -0.09523836 -0.073814034 0.034344066
0000b0 a5 14 b7 bc 0d f4 74 3d ea 2e 28 3d 07 33 46 3c
       -0.022348711 0.059803057 0.041060366 0.012097127
0000c0 bd 28 bd bd aa cb 15 bd fc 67 c5 bd 06 c8 34 3d
       -0.09236286 -0.036571182 -0.09638974 0.04413607
0000d0 26 96 f5 3c 0b aa b7 bd 0e 60 05 be f3 b1 f6 bd
       0.029978823 -0.0896798 -0.13024923 -0.1204566
0000e0 30 8c be bd 0e 2f a5 3d 06 1a 9e bd 74 39 84 bd
       -0.093040824 0.080656156 -0.07719807 -0.06456271
0000f0 97 e4 b0 bd ca ac 88 3c b2 80 f8 bd 37 6f ce bd
       -0.0863735 0.016683955 -0.12133922 -0.10079806
000100 89 4d c7 bd e3 63 c3 3c da da 46 bb 28 5f d6 bd
       -0.097315855 0.02385134 -0.0030342848 -0.10467368
000110 06 9a b0 bd bc 80 97 bd 4d 9e 93 bd 81 43 a2 3d
       -0.08623128 -0.07397601 -0.07207928 0.079230316
000120 fc 7a 2b bd 7c 56 43 3d 1e c9 50 3c fb 9b a2 3d
       -0.041865334 0.0476899 0.012743263 0.07939907
000130 7d 7a 8c bd 79 14 65 bd 23 49 66 3d 68 2a aa bd
       -0.068593 -0.055927727 0.056222092 -0.083088696
000140 be 0b 99 bc e1 63 58 3d f0 5d 49 3d 83 ec c6 bd
       -0.018682357 0.052829627 0.04916185 -0.0971308
000150 4a 21 aa bb 28 07 11 bd f6 d2 0e bd 75 07 f1 3b
       -0.0051919566 -0.035407215 -0.034869157 0.0073556253
000160 78 f7 25 bd 14 41 e0 3b 06 ee 42 3d 59 0a 3a bd
       -0.040519208 0.0068436954 0.047590278 -0.045420025
000170 a1 1f 13 bc d0 01 d1 bd 69 0a 5e bc 69 85 92 bd
       -0.008979709 -0.10205424 -0.013552287 -0.07154352
000180 20 5a 82 bd b8 91 a2 3b 95 b1 ae 3d e1 21 59 3c
       -0.06364846 0.0049612187 0.08529965 0.013252706
000190 5a 63 b9 bd 61 60 2f 3d 80 2a 10 bd 3b 0d f6 3b
       -0.09052153 0.042816523 -0.03519678 0.0075089014
0001a0 77 d3 7b 3d c1 a7 38 bd 94 75 6e bc bb d5 4f 3d
       0.061480965 -0.045081858 -0.0145544 0.05074094
0001b0 64 fd 6c 3d d0 13 cb 3a f9 f2 30 3d 78 e0 13 3d
       0.05785884 0.0015493575 0.043200467 0.036102742
0001c0 c0 7f 96 bc f3 bc 0b bd b6 5c c4 bb 2d 2b 7d bd
       -0.018371463 -0.034115743 -0.0059924973 -0.061808754
0001d0 5e 96 36 3b db 5e df bd 4f 14 ae bd 7a 46 82 bd
       0.0027860622 -0.10906764 -0.08499967 -0.063610986
0001e0 81 10 e5 bd b9 f4 bc bd 5d ae 99 3b 46 98 55 bc
       -0.111847885 -0.09226365 0.004689975 -0.013036793
0001f0 8c 5f e0 bc ec b3 5f bd 40 a4 e4 bc 91 69 08 3d
       -0.02738931 -0.054614946 -0.027910352 0.0333038
000200 ff 11 4b be a3 ca 74 bd 68 fd 0b bd 07 16 87 3d
       -0.19831084 -0.059763562 -0.034177214 0.06595998
000210 c1 85 82 3d 10 b8 6b 3d ca 3a e4 bc af 96 23 3c
       0.06373168 0.057548583 -0.027860064 0.009984656
000220 16 49 e9 bc b0 c4 93 3d 4c 32 70 bc 45 b6 8c bd
       -0.028477233 0.072152495 -0.014660429 -0.06870703
000230 b5 9d 00 be 00 ae b6 bd 7f 7c c2 3c 0a a1 c7 bd
       -0.1256016 -0.089199066 0.023741005 -0.09747513
000240 4f 8a 53 3d d9 36 3e be 1c 98 25 3d 3b e4 1c bd
       0.051645573 -0.1857561 0.040428266 -0.038303595
000250 79 ea 09 bd 3f 16 c5 bc 3f f7 17 bd 43 68 19 3d
       -0.033670876 -0.02405846 -0.037101027 0.037452947
000260 57 63 84 bd 45 8b d6 bc 15 c4 82 3b 26 2d 4f be
       -0.0646426 -0.026189456 0.00399066 -0.20232067
000270 72 a6 bb bd b4 82 6f 3d bf d6 3c 3c f2 76 e9 bd
       -0.09162606 0.058474258 0.011525809 -0.1139964
000280 9c b5 b7 bd f6 0b 06 3d 29 86 45 3d 89 34 a2 bd
       -0.08970186 0.03272625 0.04822365 -0.079201765
000290 23 06 8e bd 87 13 50 bd fe 7e e5 3c 56 fc 5a bd
       -0.06934764 -0.050799873 0.028014656 -0.053463303
0002a0 2d 20 14 be 9e 66 4c be e9 58 b4 bd ff b3 7c bd
       -0.14465399 -0.1996102 -0.08806021 -0.061695095
0002b0 ce 6e 77 bd ec 3c 4e bd aa 69 90 bd d4 dd 52 3d
       -0.060408406 -0.05035107 -0.07051404 0.051481083
0002c0 91 da 58 bd 9f d5 0e bc 18 b7 d2 bd 3b 05 b8 bc
       -0.052942816 -0.008717923 -0.102888286 -0.022463432
0002d0 80 58 6c bc 10 4d a4 bd 6f 7d 92 bc 75 75 1a be
       -0.014425397 -0.08022511 -0.017882077 -0.15083869
0002e0 c3 74 42 3d 4b 56 9a ba 74 27 9f bd 92 9f 50 be
       0.047474634 -0.0011774985 -0.07771197 -0.20373371
0002f0 66 36 64 bd 24 16 2b be 29 db 40 bd ef d7 99 3d
       -0.05571594 -0.16707665 -0.047084007 0.07511889
000300 5f 55 9e bd 59 98 db bd 4f d7 d6 3c f9 f5 a5 bd
       -0.07731127 -0.107224174 0.026225714 -0.08103556
000310 64 24 d5 bd b9 0f 36 bd b0 35 89 bc 74 9d 9a 3d
       -0.104073316 -0.044448588 -0.016749233 0.07549563
000320 5c 43 d8 bd 4d e9 80 3d 08 00 80 bc 9f 99 48 3d
       -0.10559723 0.062944986 -0.015625015 0.04897463
000330 35 91 70 bc 9b fd 99 bd 52 fb 3c 3d b6 fd 4d 3c
       -0.014683058 -0.075190745 0.046138115 0.012572696
000340 cc c3 58 3c 05 e4 92 3d 95 3f 18 bd 6d 89 3e bd
       0.013230275 0.071723975 -0.03717001 -0.04651778
000350 3e 33 9e bd 8a 6e 73 3d 6b ba b9 bc 03 19 c0 bd
       -0.077246174 0.05943159 -0.022671899 -0.093797706
000360 46 08 29 bb 6b 2c 05 3d 70 c7 57 bc 86 87 47 bd
       -0.0025792285 0.032513063 -0.013170108 -0.04871323
000370 af a7 0b 3d 63 b9 ff bc 15 ae ac bc 66 5b f1 bd
       0.034095462 -0.031216329 -0.021079103 -0.11785011
000380 87 38 9b bd 13 6f 64 bb 64 c0 5a 3d 34 6f 70 bd
       -0.07579141 -0.0034856244 0.053406134 -0.0586998
000390 f4 70 1a 3d 5c e9 6a bd 9f 79 59 bd 3b 6c e5 bd
       0.037705377 -0.057351455 -0.053094503 -0.11202284
0003a0 d4 d3 67 bd 88 d4 51 3d 93 6a 03 bd bc 1e e6 bd
       -0.0565985 0.051228076 -0.03208406 -0.11236331
0003b0 48 09 ad bd c4 35 df bc 4d 21 e8 3c 58 10 a8 bd
       -0.08449036 -0.027247317 0.028336192 -0.08206242
0003c0 c4 a8 3f bd 54 a3 b0 bd 1f 49 c3 bd 39 b3 58 3d
       -0.046791807 -0.08624902 -0.09535431 0.052905295
0003d0 f5 ce d5 3c ca 91 da bd ed db df bd f1 17 5c 3d
       0.026099661 -0.10672338 -0.109306194 0.05373377
0003e0 bc 24 d9 bd a6 e3 8d bc 5a ce e6 3b b7 e2 12 bd
       -0.1060271 -0.017320465 0.007043642 -0.035860743
0003f0 7b f6 79 bc 42 62 c9 bd 73 9c 67 3c 41 2d d5 3c
       -0.015256519 -0.09833194 0.0141364215 0.026022555

hidden_layer2.bias f4 [32]
000000 f3 69 f9 bd a0 68 dd bd 65 f8 f0 bd 8a 01 66 bc
       -0.12178411 -0.10810971 -0.117661275 -0.014038453
000010 47 63 a7 be b9 25 37 3f f4 bd 15 3f 5c ae 16 3f
       -0.3269293 0.71541935 0.5849297 0.588598
000020 e7 61 66 3c 65 a6 bf bd 89 5e b6 3e e5 30 bb 3c
       0.014061428 -0.09357909 0.35619 0.022850463
000030 ed 4a d9 bd be 90 ed 3e 4b 90 1c 3d 0c 97 fd bb
       -0.10609994 0.46399492 0.038223546 -0.0077389535
000040 a4 bd 8c bd ef 87 ee be 64 1e 1f 3f 39 29 d8 be
       -0.068721086 -0.46588084 0.6215575 -0.4221895
000050 54 6a 20 3f f8 b0 0a 3f e5 d6 4c 3e f1 81 21 3f
       0.62662244 0.5417628 0.20003851 0.630889
000060 58 57 25 3e 50 84 29 3d e2 9b a5 bc 34 64 b4 3c
       0.161466 0.04138595 -0.020215932 0.022020437
000070 97 61 42 bd f0 c8 99 bd da dc a2 3f a8 b9 27 3d
       -0.04745635 -0.07509029 1.2723649 0.04094854

hidden_layer3.weight f4 [16, 32]
000000 36 ab 24 3d 55 2d dd 3c 34 4f d2 3d 46 dd d2 3d
       0.040202342 0.026999155 0.10269013 0.10296111
000010 99 a9 ff 3e 10 85 42 c0 7e 89 65 be c9 1c 26 be
       0.4993408 -3.0393715 -0.2241573 -0.16221918
000020 68 e9 7e 3d 88 d0 2c 3d 90 db 6d 3d ff b6 2e bb
       0.062234312 0.04219106 0.05807072 -0.0026659367
000030 44 46 60 c0 66 92 e8 3e 8f f7 02 bd 00 a9 41 3d
       -3.5042887 0.45424193 -0.03197437 0.04728031
000040 aa b6 8d bd 72 6c 67 3e f2 38 1a 3e c9 96 00 3f
       -0.06919606 0.22599962 0.15060785 0.5023008
000050 c4 58 46 bf fb 7d a2 be 88 2b 97 3e a3 22 9a be
       -0.77479196 -0.3173674 0.295254 -0.3010455
000060 10 57 08 3f 49 02 9f bd 14 40 cf bb e7 b0 17 3e
       0.53257847 -0.07764108 -0.0063247774 0.14813577
000070 53 bb dc 3c 39 a3 e9 bd 8e e8 7d bd 9b 32 e5 bd
       0.026944792 -0.114080854 -0.06198936 -0.11191293
000080 61 eb bd 3d d4 0d fd bd f2 b6 65 bd b6 82 0c ba
       0.092734106 -0.12356153 -0.056082673 -0.00053600536
000090 a3 19 88 be 8b e4 3d 3f da ec 5f 3e b9 0f 60 3e
       -0.2658206 0.74176854 0.21867695 0.21880998
0000a0 33 f6 01 3d 48 ef 09 3c 3a c6 51 3e e8 d7 de 3c
       0.031728934 0.0084188655 0.20485774 0.027202561
0000b0 9e e9 2c 40 f2 84 36 bc d2 76 50 ba af af 05 3d
       2.7017589 -0.011140095 -0.0007952276 0.032638248
0000c0 55 b2 80 3c b7 4a d1 be e5 6e b0 3e cc 14 e1 be
       0.015710035 -0.40877315 0.34459606 -0.4396118
0000d0 3d 74 fb 3e ff cd 9d 3e 77 99 b1 3e 31 e9 a1 3e
       0.4911212 0.30821225 0.34687397 0.31623223
0000e0 4c 2c 53 be 56 c4 7a 3d 11 24 1c bd 0c 89 91 3d
       -0.20622367 0.061222397 -0.038120333 0.07106218
0000f0 68 9d 9d bd 03 61 92 3d 6f 73 f8 3d 54 92 e8 3d
       -0.076960385 0.0714741 0.12131392 0.11356035
000100 ff 3a 95 bd d0 ce 9a 3c ab e9 5a 3d 00 1a 95 3d
       -0.07286643 0.018897444 0.0534455 0.0728035
000110 4d 24 e1 3c 70 c9 38 3d 06 68 9d 3c 2a 06 0b bd
       0.02748313 0.04511398 0.019214641 -0.033941425
000120 14 21 6a 3b bb e6 7d bd c3 ca 7d bc 9d 29 42 bd
       0.0035725283 -0.06198762 -0.015490237 -0.047402967
000130 98 cd d0 ba 07 40 63 bd 66 cd 98 3d 24 17 76 bd
       -0.0015930412 -0.055480983 0.07461052 -0.060080662
000140 40 47 a9 bc d4 3b eb bd bc 76 d3 bd f1 d8 c6 3d
       -0.020663857 -0.11486021 -0.10325381 0.09709347
000150 47 2b 23 bd 44 64 c9 bd 20 f5 94 bd c9 0f 87 bd
       -0.039836194 -0.09833577 -0.072733164 -0.06594808
000160 71 1c eb bc 1a de 00 be 30 19 f9 bd 87 d1 d8 3d
       -0.028700085 -0.12584725 -0.12163007 0.10586839
000170 ae 3d c2 bd 8f e6 dd bd 22 70 ec bd 56 22 cf 3d
       -0.09484421 -0.10834991 -0.11544825 0.10113971
000180 4d 32 59 3d 67 2c 1e 3d e5 43 8a 3b 05 b0 a8 3d
       0.053026486 0.038616564 0.0042195194 0.08236698
000190 f4 4a 84 bd 70 4b 09 bd c4 ff 14 3d ca 66 8d 3c
       -0.06459609 -0.03351921 0.03637673 0.017260928
0001a0 f3 d4 d6 bc 02 4e f3 3d 4e 7b 79 3b d1 ed 81 bc
       -0.026224589 0.11880113 0.003806788 -0.01586047
0001b0 d7 22 8b 3c 0b d0 f3 3c a1 bd 18 bd f0 e3 dc bd
       0.016984386 0.029762289 -0.03729022 -0.10785663
0001c0 3d 99 9d 3d 6e ab 16 be ce bc 12 3d 2c bc 16 be
       0.076952435 -0.14713833 0.03582459 -0.1472022
0001d0 1b ce 04 bd f7 ce 8e bd 9d 01 d6 bd 48 5a 9c bc
       -0.03242312 -0.06973069 -0.104495265 -0.019086018
0001e0 0a 89 38 be fe 7a c6 3d 92 21 c6 3d 3b 5c 6b bd
       -0.18021026 0.09691428 0.09674372 -0.057461005
0001f0 98 a9 4e be ad 40 ab 3d 5b 2b d7 bb 29 ea c6 3c
       -0.20181882 0.08361945 -0.0065664477 0.024281578
000200 cf d8 85 bd 66 13 f2 bd 85 66 03 3b a0 b1 9e bd
       -0.065354936 -0.11820106 0.002005012 -0.07748723
000210 c7 87 44 bd c4 a4 92 bd e0 74 83 3d e9 49 38 bd
       -0.04798105 -0.07160333 0.064187765 -0.04499236
000220 87 b5 8c 3d d2 39 85 bd 05 fd fe bd 21 f1 fc 3c
       0.06870561 -0.06505169 -0.124506034 0.030876698
000230 7c ae 76 3d f6 24 d2 3d ea 00 d4 bd ba 9d 1a 3b
       0.060224995 0.10260956 -0.10351737 0.0023592548
000240 c2 af 04 3d 79 77 0e be 25 96 ee bd ff 48 86 3c
       0.03239418 -0.13912763 -0.116497315 0.01639223
000250 5d 2d 97 bc 59 d9 73 3d 1d 39 46 38 1a fd d7 bd
       -0.018454248 0.05953345 4.726007e-05 -0.10546322
000260 29 75 54 bd d6 f3 20 bd 9d eb bf 3d 8c 44 28 bb
       -0.051869545 -0.03929504 0.093711115 -0.0025675623
000270 fa 95 fe bb a9 0d b0 bd b2 ea 05 be f5 2b f2 bd
       -0.0077693434 -0.085963555 -0.1307781 -0.118247904
000280 4f e0 02 bd 68 54 8b 3d 61 f5 af 3d 76 00 8b 3d
       -0.0319522 0.068032086 0.08591724 0.06787197
000290 75 24 ba 3e 29 1e 42 be 53 5c 64 bd c2 28 52 bd
       0.3635594 -0.18956818 -0.05575211 -0.0513084
0002a0 dd 12 31 bd 7a b1 6d 3e 7a f6 4b bd 06 89 d1 bd
       -0.04323088 0.23212233 -0.049795605 -0.10231213
0002b0 d3 a9 c8 bf 64 f9 a8 bd 14 81 8f bd bd d2 21 3d
       -1.5676826 -0.082506925 -0.070070416 0.039507616
0002c0 d3 87 37 be 7e 6f 3e 3f c3 ce a0 bd 73 0d 8f 3e
       -0.17922907 0.74388874 -0.07851937 0.27939948
0002d0 0e f7 05 be d0 87 ae bc 14 30 8a 3e 47 05 c3 bc
       -0.13082525 -0.021304995 0.26989806 -0.023806227
0002e0 bb f5 36 3f 98 1f 9f bc 25 bd 1a be 7b 8f cc bd
       0.71468705 -0.019424245 -0.15111215 -0.09988304
0002f0 36 d8 66 3e 2e 10 43 bc 76 5a 3d 3e 38 38 93 3d
       0.22543415 -0.011905713 0.1849154 0.07188457
000300 2e cf 0f 3d 33 73 9b bd c7 94 e3 bd 80 00 b6 bd
       0.03510969 -0.07590332 -0.111123614 -0.08886814
000310 e9 e9 bf 3e 95 2a c5 3e 37 92 d6 be ad 41 be be
       0.37483147 0.3850905 -0.41908428 -0.37159482
000320 dc 6d 8d bd 91 25 97 bd 23 e5 6d bd df fe 9e 3d
       -0.0690572 -0.07380212 -0.05807985 0.077634566
000330 c0 be 11 c0 f2 b3 fc 3e 7e e0 1a be 22 83 7d bc
       -2.2772675 0.49356037 -0.151247 -0.015473159
000340 ee 25 ad 3d b7 5a 21 3f 8b e0 30 be 2c 9e e7 3e
       0.084545 0.63029045 -0.17273156 0.45237863
000350 f9 6d d1 be 2a 8c 98 bd 77 57 e8 3e ad 1e 85 be
       -0.40904215 -0.07448609 0.4537923 -0.25999966
000360 6d 55 0b 3f 35 2a f6 bd aa 89 18 3d 63 6f 14 3b
       0.54427224 -0.12019769 0.03724066 0.00226494
000370 85 af 79 3e 35 c4 9a bd cd 3b a7 bf 2e 3a 0d bd
       0.24383362 -0.07556955 -1.3065125 -0.034479313
000380 a9 2b ac 3d 78 fa 5f 3c c6 1e 84 3d ae 56 b8 bd
       0.08406765 0.013670556 0.06451182 -0.09000908
000390 01 ed 38 3e 37 0a 44 bf 99 6a 96 be d8 88 11 be
       0.1805916 -0.76578087 -0.29378203 -0.14212358
0003a0 3e 3f 95 3d be 8f df 3d 59 e1 e9 be 2b e3 99 bd
       0.07287453 0.109160885 -0.4567974 -0.07514032
0003b0 08 11 2a c0 00 52 1d 3f 8c 06 9b 3d af f1 b3 bd
       -2.6572895 0.6145325 0.07569608 -0.08786332
0003c0 56 cb 31 3d 94 ba 86 3e ad 70 92 3c 2f 96 a4 3e
       0.043406807 0.26314223 0.017875994 0.3214583
0003d0 c1 38 31 bf 02 29 bd be 80 bc 52 3e 4c 75 04 bf
       -0.69227225 -0.3694535 0.2057972 -0.5174148
0003e0 b0 e0 67 3f bf a9 b7 3d c3 3f e7 39 ba 45 13 3d
       0.9057722 0.089679234 0.0004410726 0.03595517
0003f0 09 08 1f 3e b3 17 ba bc 21 92 d6 3e 4d 70 ce bd
       0.15530409 -0.022716379 0.41908363 -0.100800134

hidden_layer3.bias f4 [16]
000000 61 bc 93 bf 24 e2 7f 3f 02 c7 ac bd f3 fa f8 bd
       -1.1541864 0.9995444 -0.08436395 -0.1215724
000010 d8 55 be 3d d5 4d bb be bf cc fa be cb 5b 1e 3f
       0.09293717 -0.3658282 -0.48984334 0.61858815
000020 4d 06 38 bb 8d 1e 4e 3c aa 70 e0 3e ad 68 1c 3f
       -0.0028079927 0.012580526 0.43835956 0.6109722
000030 a8 a9 67 3e 62 77 75 bd e6 ed 14 bf d2 de 92 bd
       0.22623312 -0.059928305 -0.58175504 -0.07171406

out_layer.weight f4 [2, 16]
000000 43 44 13 c0 59 7c 17 3f f3 3c 2f 3e 51 57 a6 bc
       -2.3010414 0.59174114 0.17113094 -0.020305308
000010 92 2a ac 3c a5 83 21 bf d5 07 34 40 77 bc 03 c0
       0.021016393 -0.630915 2.812978 -2.058378
000020 40 b9 10 be 13 eb 16 be 40 84 03 c0 ce 15 93 3e
       -0.14133167 -0.14738111 -2.054947 0.28727573
000030 22 88 60 3e ec b9 12 ba ec f6 fe be 3b e3 f4 bd
       0.2192693 -0.00055971625 -0.4979776 -0.11957403
000040 75 e0 a7 bf 37 0e 6f 3e ca 98 bf bd 9c 73 8d bc
       -1.3115374 0.23345266 -0.09355314 -0.01726704
000050 90 7e 5c 3d 79 b7 0b bf 21 b5 0c c0 3f 59 cd bd
       0.053831637 -0.5457683 -2.1985552 -0.10026788
000060 64 b3 a9 bd d3 a9 a7 bd 18 85 0a 3f 90 40 08 3f
       -0.08286169 -0.08186688 0.54109335 0.53223515
000070 db de 35 bb 3c 4f 1a be c1 87 91 be f0 29 ac 3b
       -0.002775124 -0.15069288 -0.28423885 0.005254023

out_layer.bias f4 [2]
000000 93 51 98 3f 61 5d a8 3d
       1.1899894 0.082209356
