models/DQNdecay_param1.pth (torch, 45919 bytes, 8 tensors)

hidden_layer1.weight f4 [64, 126]
0	0x3d546058	0.051849693
1	0xbda09082	-0.07840063
2	0xbcbb96d9	-0.022899078
3	0xbdffc8f8	-0.124895036
4	0x3d05463b	0.03253768
5	0x3d8b3bd2	0.06798519
6	0xbd9cac3e	-0.0765004
7	0x3dddb40c	0.10825357
8	0x3c6d2c17	0.014475844
9	0xbcb8691c	-0.022511058
10	0x3c9764e9	0.018480735
11	0x3da05b99	0.07829971
12	0x3e178cab	0.14799754
13	0x39ceaa16	0.00039418106
14	0xbd9fb3f7	-0.077979974
15	0xbc4d8a90	-0.012545243
16	0x3d59b391	0.053149763
17	0xbdc84f75	-0.0978078
18	0xbdd037fc	-0.10166928
19	0xbdc82eac	-0.09774527
20	0xbdc3a595	-0.09553067
21	0x3d2f7320	0.0428344
22	0xbd35cf1b	-0.044386964
23	0x3c8098f0	0.015697926
24	0x3dd4425f	0.10364222
25	0x3cf63171	0.030052872
26	0x3dc16e8a	0.09444912
27	0xbd5eff46	-0.054442666
28	0x3c9bf652	0.019038353
29	0x3d4e1af2	0.050318666
30	0x3c6a35ae	0.014295025
31	0x3d34755d	0.04405724
32	0x3e30b5c2	0.17256835
33	0x3dcf479b	0.101210795
34	0x3c6d12f7	0.014469854
35	0x3e484d4b	0.19560735
36	0xbd259a13	-0.04043014
37	0x3d01f4f1	0.031727735
38	0x3d2de625	0.04245581
39	0x3cf68aa4	0.030095406
40	0x3c62c855	0.013841708
41	0x3d34911c	0.0440837
42	0xbe0e0e85	-0.13872726
43	0xbd832b0a	-0.064046934
44	0xbca31de2	-0.01991171
45	0xbc05b417	-0.008160613
46	0x3d58272c	0.052771732
47	0xbc6027d0	-0.013681367
48	0x3d454255	0.048158962
49	0x3d94193d	0.07231376
50	0x3dae002f	0.08496129
51	0x3d4f46ca	0.05060462
52	0x3d5c5adf	0.0537976
53	0x3b5807f0	0.0032963715
54	0xbc1785dc	-0.009248223
55	0x3dc9f9e5	0.09862117
56	0x3c895a94	0.016766824
57	0x3d95e64c	0.07319316
58	0x3d13190a	0.03591255
59	0x3e11c94d	0.14236946
60	0x3d227b2a	0.03966824
61	0x3d9d4ee6	0.07681064
62	0xbd409a8c	-0.047022387
63	0x3dc6b2f8	0.09702104
64	0x3d49cb20	0.04926598
65	0x3cda111f	0.026619492
66	0xbd4f98e5	-0.05068292
67	0xbc2ae2f4	-0.010430086
68	0xbd70cc7a	-0.058788754
69	0xbe3bbdc0	-0.18334103
70	0x3e5e5ce1	0.21715118
71	0x3e228ee4	0.15874821
72	0x3e453ade	0.19260737
73	0x3dade46d	0.084908344
74	0x3c75dff8	0.015007012
75	0x3d132db4	0.035932258
76	0xbd858ac2	-0.065206066
77	0x3c5085ce	0.012727214
78	0xbdbe518c	-0.092928976
79	0x3ba01e91	0.0048864563
80	0x3d915156	0.07095592
81	0x3d7b3851	0.061333004
82	0x3d70b89d	0.05876981
83	0x3d5348fa	0.051583268
84	0x3e02b30d	0.12763615
85	0x3d983e90	0.07433808
86	0xbd5d455c	-0.054021224
87	0xbc71d3b1	-0.014759944
88	0xbda30ad5	-0.079610504
89	0xbd162a2e	-0.03666132
90	0xbdee4fb9	-0.116363
91	0x3d823398	0.06357497
92	0x3d96e65f	0.073681585
93	0xbbb52c47	-0.00552896
94	0x3c7d8440	0.015473425
95	0xbd8844d0	-0.0665375
96	0xbcbf4ea4	-0.023352928
97	0xbd99eec0	-0.07516241
98	0x3c18f8a8	0.009336628
99	0xbbfbbbb1	-0.0076822867
100	0x3c8c3cdf	0.01711887
101	0x3d057848	0.032585412
102	0xbae5e2ed	-0.0017538943
103	0xbdaf20ba	-0.08551164
104	0xbda7d01a	-0.08193989
105	0x3cf0ad46	0.029379498
106	0x3c292b8a	0.010325322
107	0x3d6a7116	0.057236753
108	0xbcc4e837	-0.02403651
109	0xbc5a9ea4	-0.013343487
110	0xbca7c409	-0.020479219
111	0xbcfe199d	-0.031018073
112	0x3e531d21	0.2061658
113	0x3e2142ed	0.15748186
114	0x3d8c47be	0.06849621
115	0x3d593ac3	0.053034555
116	0x3dd7590d	0.10515032
117	0x3ca53021	0.020164551
118	0x3df195e5	0.11796168
119	0x3db4a4df	0.08820509
120	0x3d920eaa	0.07131703
121	0x3da81904	0.08207896
122	0x3d415958	0.047204345
123	0xbcb75ac8	-0.022382155
124	0x3d4cda9b	0.050013166
125	0xbdc52d17	-0.09627741
126	0x3d822d07	0.063562445
127	0xbe3468fc	-0.17618173
128	0xbe1ba014	-0.15197784
129	0xbea58f77	-0.32336017
130	0x3e43451e	0.19069335
131	0xbd9756b6	-0.07389586
132	0x3e559426	0.20857295
133	0xbd8ffe90	-0.07030976
134	0xbd1e61bc	-0.038667426
135	0xbe0d48da	-0.13797322
136	0x3e052fe8	0.13006556
137	0xbeb8716d	-0.36024037
138	0x3dd95abd	0.1061301
139	0x3c55c16b	0.013046603
140	0xbbc14765	-0.0058984035
141	0x3d59a988	0.053140193
142	0x3e8db95d	0.27680483
143	0xbd810d13	-0.06301322
144	0x3ed6de6f	0.41966578
145	0xbe4c370f	-0.19942878
146	0x3e4999e3	0.1968761
147	0x3e11dbef	0.14244054
148	0x3e1f5d0e	0.15562841
149	0x3db91b05	0.09038357
150	0xbeae4696	-0.34038228
151	0x3ee3b163	0.44471273
152	0x3e395a81	0.18100931
153	0x3ecec5ce	0.40385288
154	0xbd8bb3ec	-0.06821427
155	0x3dc589c9	0.09645421
156	0x3e2d68a9	0.16934456
157	0xbe1508bd	-0.14554115
158	0xbd38f392	-0.04515416
159	0x3dc704d6	0.09717719
160	0x3ebb0760	0.36529064
161	0xbb9dd818	-0.00481702
162	0x3ea1a09d	0.3156785
163	0x3d061196	0.032731615
164	0xbd0db509	-0.034596477
165	0x3e2e7341	0.17036153
166	0xbd50a1c8	-0.050935537
167	0xbd805865	-0.0626686
168	0xbc8d5b46	-0.017255437
169	0x3f5949eb	0.84878415
170	0xbec899af	-0.3917975
171	0xbea58df7	-0.32334873
172	0x3d72bc7d	0.059261788
173	0x3e09edb5	0.13469584
174	0xbc4c4bb2	-0.012469219
175	0xbdd55528	-0.10416633
176	0xbeadca03	-0.33943185
177	0xbf0eef05	-0.55833465
178	0xbef2cb9a	-0.4742096
179	0x3e10c411	0.14137293
180	0xbeac99fe	-0.33711237
181	0xbebdda4e	-0.37080616
182	0xbebf6c68	-0.37387395
183	0x3e6117a3	0.21981673
184	0x3e6a2ba9	0.22868218
185	0x3cb40d24	0.021978922
186	0xbe70f9db	-0.23532812
187	0xbcc5935d	-0.02411812
188	0xbe75a189	-0.23987402
189	0x3e0caabd	0.13737006
190	0x3e51af24	0.20476967
191	0x3e779cfa	0.24180976
192	0x3e0e6dd7	0.13909088
193	0x3e561c6c	0.2090928
194	0x3e3b2890	0.18277192
195	0x3dbdfcdb	0.09276744
196	0x3e86bc66	0.26315612
197	0x3e37276b	0.1788613
198	0x3e5eab61	0.21745063
199	0x3e0e4201	0.13892366
200	0x3d83c182	0.06433393
201	0x3be33976	0.00693434
202	0xbe71092e	-0.23538658
203	0x3e1da17f	0.15393637
204	0xbce97184	-0.028496511
205	0xbbb68fa0	-0.0055713207
206	0xbdd4dc79	-0.10393614
207	0xbd9e0c7b	-0.07717224
208	0xbc87706a	-0.016533095
209	0xbbad8cec	-0.00529634
210	0x3e1f1daf	0.15538667
211	0xbd893055	-0.06698672
212	0xbcd8e43d	-0.02647602
213	0xb9536eb0	-0.00020163762
214	0xbd210d05	-0.039319057
215	0x3d1965ed	0.03745072
216	0x3a5c65ee	0.00084075227
217	0x3e464de4	0.1936565
218	0x3e018028	0.12646544
219	0x3e019a28	0.12656462
220	0x3d15d741	0.036582235
221	0xbd141f5a	-0.03616271
222	0xbd7aa21f	-0.061189767
223	0xbe8b8fcd	-0.2725815
224	0xbeaff636	-0.34367532
225	0xbe7a3e5f	-0.24437855
226	0xbea6b01d	-0.3255624
227	0xbe87d039	-0.2652605
228	0xbeb4894c	-0.35261
229	0xbe855c7b	-0.2604712
230	0xbe88ba8b	-0.2670482
231	0x3d2c02b3	0.04199476
232	0x3e41cb88	0.18925297
233	0x3e0fe3ff	0.14051817
234	0x3d1a4314	0.037661627
235	0xbd6b1a97	-0.057398405
236	0xbd8fd9cd	-0.07023964
237	0x3bef37eb	0.007300367
238	0x3e78913a	0.2427415
239	0x3e17d51d	0.1482739
240	0x3e374f92	0.17901447
241	0x3d178949	0.03699616
242	0x3de8d8d3	0.11369481
243	0x3d92e036	0.07171671
244	0x3ce1c9e9	0.027562099
245	0x3d92e972	0.071734324
246	0xbca29dc9	-0.019850628
247	0x3d863a5a	0.065540984
248	0x3d11a64d	0.035558987
249	0xbd3f18c1	-0.046654467
250	0xbe2a6cb0	-0.16643023
251	0xbe4a758a	-0.197714
252	0xbc96172d	-0.018321598
253	0xbc8c360b	-0.017115613
254	0xbd69de2a	-0.057096638
255	0xbe3ee372	-0.18641451

hidden_layer1.bias f4 [64]
0	0x3e90eec2	0.28307158
1	0x3dfb1e25	0.12261609
2	0x3ee9ac72	0.45639378
3	0xbd8bc22b	-0.06824144
4	0x3eb44bf6	0.35214204
5	0x3c992359	0.018693613
6	0x3dd87418	0.10569018
7	0x3eb245da	0.34818918
8	0x3d9c3378	0.076270044
9	0x3ea342c4	0.31886876
10	0x3d8fcaa8	0.070210755
11	0x3e617756	0.2201818
12	0xbc03f042	-0.008052887
13	0x3f030527	0.51179737
14	0xbe94d943	-0.29072008
15	0x3eb7b7e9	0.358825
16	0x3e637cef	0.22215627
17	0x3efcfe60	0.49412823
18	0x3e9b40ab	0.30322775
19	0x3ecf9d19	0.40549543
20	0x3f22357d	0.63362867
21	0x3f047cbc	0.5175283
22	0x3f74a5f0	0.955657
23	0x3de07e60	0.10961604
24	0x3f1cc5fa	0.6123959
25	0x3d808055	0.062744774
26	0x3e7176d8	0.23580492
27	0x3debc549	0.115122385
28	0x3ec6893f	0.38776585
29	0x3f021c0a	0.50824034
30	0x3f30050b	0.68757695
31	0x3ef703b8	0.48245025
32	0x3e4fc0df	0.20288418
33	0x3ef84fdf	0.48498437
34	0x3f230112	0.6367351
35	0x3e3dae28	0.18523467
36	0x3e908d31	0.2823272
37	0xbda607ee	-0.08106981
38	0xbc1ba8d7	-0.009500704
39	0x3d8f03aa	0.06983121
40	0x3f809c80	1.004776
41	0x3e7873f6	0.24262986
42	0x3dc2f692	0.09519686
43	0x3e98eb2e	0.29866928
44	0x3ef1bbeb	0.47213683
45	0x3f4187ad	0.7559765
46	0x3e62ddeb	0.22154967
47	0x3f5e00d7	0.8672003
48	0x3e42e02b	0.19030826
49	0x3dfcabbe	0.12337445
50	0x3d85cdda	0.06533404
51	0x3f0aa417	0.5415663
52	0x3e742e11	0.23845698
53	0x3e697f9e	0.22802588
54	0xbebdfa1d	-0.37104884
55	0x3e4463a8	0.19178641
56	0xbd97da6a	-0.07414706
57	0x3e2d4ebc	0.16924566
58	0x3e000844	0.12503153
59	0x3ed0e764	0.40801537
60	0x3ea10ff9	0.314575
61	0x3f02a356	0.5103048
62	0xbd0f05c1	-0.034917597
63	0x3f14dc76	0.58148897

hidden_layer2.weight f4 [32, 64]
0	0x3e28d901	0.1648903
1	0x3f20a19c	0.62746596
2	0xbe4fa364	-0.20277172
3	0xbcfe598f	-0.031048564
4	0x3ee039b2	0.43794018
5	0xbe1cf701	-0.153286
6	0xbdc8503b	-0.09780928
7	0x3e318a56	0.17337927
8	0xbcf67b63	-0.030088132
9	0xbbfb0065	-0.007659959
10	0x3db97b29	0.09056694
11	0x3d74c0af	0.05975407
12	0xbef3802e	-0.4755873
13	0x3e870053	0.26367435
14	0x3f40fc5a	0.7538506
15	0x3ed6d05b	0.41955838
16	0x3d8f0298	0.069829166
17	0xbdd343ff	-0.103157036
18	0x3f0bfdd2	0.54684174
19	0x3d56ed1d	0.052472223
20	0x3da150b1	0.07876719
21	0x3e2a9323	0.1665769
22	0x3dc77e7d	0.097409226
23	0x3d1000d8	0.035157055
24	0x3ed4c118	0.4155357
25	0xbee1e4b1	-0.4411979
26	0x3eccc456	0.39993542
27	0x3db94530	0.090463996
28	0x3e5f4423	0.21803336
29	0x3e9b21fe	0.3029937
30	0x3f7bddfe	0.9838561
31	0x3e552f23	0.20818762
32	0xbe8b885c	-0.2725247
33	0x3eb10f41	0.3458195
34	0xbe2afc58	-0.16697824
35	0xbe2f70ec	-0.1713292
36	0x3ec49861	0.38397506
37	0x3d3ad5b2	0.045613952
38	0x3ef23f86	0.4731409
39	0xbf148a35	-0.5802339
40	0x3f91ece6	1.1400421
41	0x3d319790	0.043357432
42	0xbe94d0cf	-0.29065558
43	0xbdbacac7	-0.09120708
44	0x3e1aa150	0.15100598
45	0x3eba32df	0.36366937
46	0xbcca2cbe	-0.024679538
47	0x3e83d656	0.25749463
48	0xbd1618b2	-0.036644645
49	0xbc6d5d5e	-0.0144875925
50	0x3daff3ed	0.08591447
51	0x3f49e15b	0.7885949
52	0x3e2d8c12	0.16947964
53	0x3d768afb	0.060191136
54	0xbea2f98b	-0.3183101
55	0xbd0af905	-0.03392889
56	0x3a9e5737	0.0012080435
57	0x3d702bb9	0.058635447
58	0xbf7a580b	-0.9779059
59	0x3dfecc59	0.1244132
60	0xbd00bf4c	-0.031432435
61	0x3eb070c0	0.3446102
62	0xbefd7b30	-0.49508047
63	0x3e60438a	0.21900764
64	0xbd0fddae	-0.03512352
65	0x3d5478af	0.051872905
66	0xbd8e8737	-0.06959384
67	0xbda98343	-0.08276989
68	0xbdaf8514	-0.085703045
69	0x3cd4c230	0.025971502
70	0x3d749673	0.059713792
71	0xbccadc16	-0.024763148
72	0xbd2a20de	-0.04153525
73	0xbcd2decf	-0.025741009
74	0x3d1d2d0f	0.03837305
75	0xbcafd6d2	-0.021464739
76	0x3d254104	0.040345207
77	0xbda5e6c1	-0.081006534
78	0x3d07a166	0.033112906
79	0xbd0c80d1	-0.034302536
80	0xbd97cdeb	-0.074123226
81	0xbdbbcf90	-0.09170449
82	0xbda0ba88	-0.07848078
83	0xbdb2976f	-0.0872029
84	0x3a2f47a5	0.0006686396
85	0x3d70d2ed	0.058794905
86	0xbdc85875	-0.09782497
87	0x3d2dde4b	0.042448323
88	0x3ce8c6cd	0.028415108
89	0xbcfca5b8	-0.03084074
90	0xbd8851cb	-0.06656226
91	0xbdd64c6b	-0.10463794
92	0x3c90c71f	0.017673073
93	0xbd91c40a	-0.071174696
94	0xbd8c82a6	-0.06860857
95	0x3d437cf6	0.047726594
96	0xbbfe54dc	-0.007761581
97	0xbd87734b	-0.06613787
98	0xbdd7e949	-0.105425425
99	0xbccbea1f	-0.024891911
100	0x3d2ec9c3	0.042672884
101	0x3bef2828	0.007298488
102	0xbd672930	-0.056435764
103	0xbc2a320b	-0.010387908
104	0xbd1bbe96	-0.038023554
105	0x3d1d0609	0.038335834
106	0xbda35337	-0.07974856
107	0x3b91549c	0.004435135
108	0x3cd9ff92	0.026611123
109	0xbc2a9814	-0.010412235
110	0xbc09358a	-0.008374581
111	0xbd956509	-0.072946616
112	0xbd8e91a4	-0.069613725
113	0xbdd31ac3	-0.10307839
114	0xbd406851	-0.046974484
115	0xbbcb8052	-0.0062103653
116	0xbd91a70f	-0.07111942
117	0xbc50a907	-0.012735612
118	0xbd071532	-0.032979198
119	0xbbe2f725	-0.0069264346
120	0xbd0b491e	-0.034005277
121	0xbd19509e	-0.0374304
122	0xbc689d73	-0.014197695
123	0xbda4a698	-0.08039588
124	0x3d14179f	0.03615534
125	0xbdd75372	-0.10513963
126	0xbcd37de2	-0.025816862
127	0xbd74b6e9	-0.05974475
128	0x3e2b3621	0.16719867
129	0xbdccfb43	-0.10008862
130	0x3cb10772	0.021609996
131	0xbda99ad4	-0.08281484
132	0xbd9c8218	-0.07642001
133	0x3ea79421	0.327302
134	0xbe1b736d	-0.1518075
135	0xbeb6d091	-0.35706
136	0xbfa1c511	-1.2638265
137	0xbe1604ab	-0.14650218
138	0xc09aa718	-4.832897
139	0xbd8bfed6	-0.068357155
140	0x3ef08af5	0.46981016
141	0x3f6046a0	0.87607765
142	0xbeab020b	-0.33399996
143	0x3f20f098	0.62867117
144	0xbeb05496	-0.34439534
145	0x3e503731	0.20333554
146	0xbd2f03f2	-0.042728372
147	0xbf22feda	-0.6367012
148	0x4000e091	2.0137064
149	0xbe106f0e	-0.14104864
150	0xbf35d48d	-0.7102745
151	0xbe2a6578	-0.1664027
152	0xbc513a89	-0.0127703035
153	0x3f644d3c	0.8918035
154	0xbf88adb4	-1.067801
155	0xbfc61b30	-1.5477047
156	0xbd4bf0c4	-0.04979016
157	0x3f802eed	1.0014321
158	0x3fab8080	1.339859
159	0xbd579396	-0.052630983
160	0x3eace30e	0.3376698
161	0x3ffc0bf0	1.9691143
162	0xbd7573d9	-0.059924934
163	0xbf0a5224	-0.54031587
164	0x3c26e016	0.010185262
165	0x3d102ef3	0.035201024
166	0xbf77f159	-0.9685264
167	0xc05a2b00	-3.4088745
168	0xc0241206	-2.5636
169	0xbe9358f1	-0.28778794
170	0x3da38843	0.07984974
171	0x3f3e8e3d	0.7443579
172	0x3e99bd5d	0.30027285
173	0xbe1ee576	-0.1551722
174	0xc052cfcf	-3.2939336
175	0xc043f093	-3.0615585
176	0x3ea575a4	0.32316315
177	0xbefc5025	-0.49279895
178	0xbd2f90eb	-0.042862814
179	0x3ee343f6	0.44387788
180	0xbee4477f	-0.44585797
181	0xbf7a8799	-0.97863156
182	0x403e63a3	2.9748313
183	0x3e0fa301	0.14027025
184	0x3d24f6e6	0.040274523
185	0xbe8ff807	-0.28118917
186	0x3dd93198	0.106051624
187	0xc03d8aa9	-2.9615881
188	0x3f4fc39c	0.8115785
189	0xc014b9bd	-2.3238366
190	0x3eb6a441	0.3567219
191	0xbd39dabb	-0.045374613
192	0xbdc62b71	-0.096762545
193	0xbd96b9ef	-0.07359683
194	0xbd01bfc8	-0.031677037
195	0x3da6062a	0.081066445
196	0x3c7bfc36	0.015379956
197	0xbcf0e722	-0.029407088
198	0xbd77871d	-0.06043159
199	0xbd28dc2a	-0.04122559
200	0x3c3be70b	0.011468659
201	0x3c9d83f8	0.019227967
202	0xbd9d1d5f	-0.07671618
203	0x3d1c7a32	0.038202472
204	0x3b24259b	0.0025046829
205	0x3d0ca2e7	0.034335043
206	0x3d1d5f15	0.038420755
207	0x3cac2549	0.021013873
208	0xbd416df4	-0.047224
209	0xbd79c404	-0.06097795
210	0x3d37fb67	0.04491749
211	0xbc11aa84	-0.008890752
212	0x3c0664c1	0.008202733
213	0xbb7bf001	-0.0038442614
214	0xbda5fbac	-0.08104643
215	0xbdbd03fb	-0.09229275
216	0xbbbecf9e	-0.0058230897
217	0x3d822cad	0.063561775
218	0x3b7fc4a9	0.003902713
219	0x3d13ee60	0.036116004
220	0xbc9367a1	-0.01799375
221	0xbdb630e6	-0.088960454
222	0xbc22d78d	-0.009939087
223	0x3d819ef3	0.06329145
224	0x3cb6f0c7	0.022331608
225	0xbdc88cb1	-0.0979246
226	0xbdbe3e8a	-0.09289272
227	0x3d3fa7eb	0.046791
228	0x3d36ae79	0.044599984
229	0xbc817611	-0.015803369
230	0x3d769d4c	0.060208604
231	0xbd1ef535	-0.038808066
232	0x3d5374c5	0.051625032
233	0x3af2a38c	0.0018511876
234	0xbdb4b137	-0.088228635
235	0x3ae0b0d4	0.0017142543
236	0xbb85c72a	-0.00408258
237	0xbd499e9a	-0.04922352
238	0x3c5929e8	0.01325462
239	0x3cb2b9dc	0.02181714
240	0xbd92dea1	-0.07171369
241	0x3d15f7ea	0.036613382
242	0xbccd95ca	-0.025095839
243	0x3d4fc3fe	0.050724022
244	0x3d1b716b	0.03794996
245	0x3d18a14b	0.037263196
246	0x3dc3bbe0	0.09557319
247	0x3c3856ef	0.011251195
248	0xbdc3147c	-0.095253915
249	0xbdcb68e1	-0.099321134
250	0x3d32cbe0	0.04365146
251	0xbd4d261d	-0.050085176
252	0xbcdabc96	-0.026701253
253	0x3d1bcfdd	0.03804003
254	0xbda90022	-0.082519785
255	0xba0c7fa0	-0.0005359594

hidden_layer2.bias f4 [32]
0	0x3eeec5e1	0.46635345
1	0x3c711603	0.014714721
2	0x3e93a60c	0.2883762
3	0xbdb922be	-0.0903983
4	0x3d48b8f9	0.04900453
5	0x3ef9e61e	0.48808378
6	0x3c7313b4	0.014836241
7	0x3e3dbc9f	0.18528984
8	0xbd0405bb	-0.032232028
9	0xbdc8e408	-0.098091185
10	0x38c50b4a	9.395795e-05
11	0x3c815926	0.01578958
12	0x3eef0d4a	0.46689826
13	0x3e23767d	0.15963168
14	0x3ac62a4b	0.0015118805
15	0xbcc73418	-0.024316832
16	0xbab42ff5	-0.0013747202
17	0xbd191094	-0.037369326
18	0x3ecd22ae	0.4006552
19	0x3f005a96	0.50138223
20	0xbd8e8ea0	-0.06960797
21	0xbdc49198	-0.09598082
22	0xbdc42696	-0.09577672
23	0x3db68562	0.089121595
24	0xba59e88b	-0.00083125447
25	0x3e3db23f	0.18525027
26	0x3ed3851a	0.41312486
27	0x3e621d50	0.22081494
28	0x3ef5ef7e	0.4803428
29	0xbde52c45	-0.11190084
30	0x3e91d430	0.284822
31	0xbe231510	-0.15926003

hidden_layer3.weight f4 [16, 32]
0	0x3eef1caf	0.4670157
1	0xbd8c3360	-0.068457365
2	0x40214559	2.5198576
3	0xbc846f57	-0.016166372
4	0xbb6143b5	-0.0034372632
5	0x3eeff3bf	0.4686565
6	0xbd44a5c6	-0.048009656
7	0x3e04f368	0.12983477
8	0xbc441414	-0.011967678
9	0xbc8d6217	-0.017258687
10	0xbd033f48	-0.03204277
11	0xbd29ae4c	-0.041425988
12	0x3ec9ba7d	0.39400092
13	0x3e62a030	0.22131419
14	0xbd8a29bd	-0.06746242
15	0xbed885ac	-0.42289484
16	0xbd42eead	-0.0475909
17	0x3dfbd732	0.122969046
18	0x3e7353db	0.23762457
19	0x3e95e639	0.29277208
20	0xbd897e8c	-0.0671359
21	0xbcfc5768	-0.030803397
22	0x3d66a317	0.05630788
23	0x3e4a5157	0.19757591
24	0xbecfd656	-0.40593213
25	0x3e979e64	0.2961303
26	0x3ed0f0bb	0.40808663
27	0x3e93368e	0.2875256
28	0x3e868062	0.26269823
29	0xbd0c6ffd	-0.034286488
30	0x3ec70e17	0.38877937
31	0xbd6ded64	-0.05808772
32	0x3e57a57d	0.21059223
33	0xbd82d332	-0.063879386
34	0x3da6044d	0.08106289
35	0xbe03888f	-0.12845062
36	0xbde0bfaf	-0.10974061
37	0xbeca36a6	-0.39494818
38	0xbd85d947	-0.06535583
39	0xbfb6bec0	-1.4276962
40	0x3c35215c	0.011055317
41	0x3df4fd5f	0.11962389
42	0xbff49bbe	-1.9110029
43	0xbe013eb8	-0.12621582
44	0xbe92dd62	-0.28684527
45	0xbe8fc3bd	-0.28079024
46	0xbceba41c	-0.028764777
47	0x3f1aa065	0.6040099
48	0xbd75cc72	-0.060009427
49	0xbe0a3ebf	-0.13500498
50	0xbf1edd57	-0.6205649
51	0x3eb05cb0	0.34445715
52	0x3b119234	0.0022212388
53	0xbd91b788	-0.07115084
54	0xbd9cb613	-0.076519154
55	0xbf0f27b3	-0.5591995
56	0x3f062054	0.5239308
57	0xbeb6d923	-0.35712537
58	0xbd155d52	-0.03646595
59	0x3e2386ff	0.15969466
60	0x3e4ba957	0.19888817
61	0x3c1ced2f	0.009578033
62	0xbf529637	-0.8226046
63	0xbd9823bf	-0.07428693
64	0x3eaea089	0.34106854
65	0xbdafbcb5	-0.08580915
66	0x40702ba6	3.752664
67	0x3d0eec4e	0.034893326
68	0xbcead121	-0.028664174
69	0x3eacb63c	0.33732784
70	0x3d0d8743	0.034552824
71	0xbd8854a2	-0.066567674
72	0x3c8badcb	0.017050644
73	0xbe718b0e	-0.23588201
74	0x3d2dd9a1	0.042443875
75	0x3dd9025c	0.10596153
76	0x3df0225a	0.11725302
77	0x3e447de4	0.19188648
78	0xbd3382ab	-0.043825787
79	0xbecc1070	-0.3985629
80	0x3cdf29ee	0.027241673
81	0x3d25a6b7	0.040442195
82	0x3e8ca279	0.27467707
83	0x3e83296a	0.25617534
84	0x3c85ed8a	0.016348619
85	0x3d802079	0.06256194
86	0x3d5dacbb	0.054119807
87	0x3e11e9b7	0.14249311
88	0xbed83dfb	-0.42234787
89	0x3e138d4b	0.14409368
90	0x3e7e700b	0.24847429
91	0x3e63eb42	0.22257712
92	0x3e9c67d6	0.3054797
93	0x3d1699ab	0.036767643
94	0x3ec2c87a	0.38043576
95	0x3cc40d31	0.023932071
96	0xbdd34028	-0.10314971
97	0x3c968c0f	0.018377332
98	0xbd9f8558	-0.07789105
99	0x3db71c8f	0.08940994
100	0x3cb9f64e	0.022700455
101	0xbdcba6b9	-0.09943909
102	0xbd6b82ad	-0.05749767
103	0x3c40dc06	0.011771208
104	0xbc3a3557	-0.011365256
105	0xbdcf0bd1	-0.10109676
106	0xbdbe8c7c	-0.09304139
107	0xbc4d2cdf	-0.012522905
108	0x3dac454a	0.08411653
109	0xbd539920	-0.051659703
110	0x3b734002	0.003711701
111	0xbdd2ab1d	-0.102865435
112	0x3dccfbd2	0.100089684
113	0xbc4371d8	-0.011928998
114	0x3de20dad	0.11037765
115	0x3ced4205	0.028962145
116	0x3d179bc6	0.03701379
117	0x3df1c43e	0.11805008
118	0xbd985fac	-0.07440123
119	0xbca82c43	-0.020528918
120	0xbd784e9f	-0.060621854
121	0xbd6ca840	-0.057777643
122	0xbdf03313	-0.11728492
123	0x3d08a643	0.033361685
124	0xbd2bc423	-0.041935097
125	0xbdbf5116	-0.09341638
126	0x3d90c42a	0.07068665
127	0x3d801b66	0.06255226
128	0x3ed2c615	0.4116675
129	0xbbe78b37	-0.0070661562
130	0x404a00fd	3.1563103
131	0x3dc3d78f	0.09562599
132	0x3d8d17a0	0.06889272
133	0x3ea004a9	0.31253555
134	0xbaf08517	-0.0018350211
135	0x3e0e3613	0.13887815
136	0x3b3e6095	0.0029049267
137	0x3c418432	0.011811303
138	0xbe832e0e	-0.25621074
139	0x3d7ddf47	0.061980512
140	0x3ed74b3d	0.4204959
141	0x3e831138	0.25599074
142	0x3e051e73	0.12999897
143	0xbe99aeb3	-0.30016097
144	0xbdb5408b	-0.08850201
145	0xbd4a7dd4	-0.049436405
146	0x3df0c447	0.11756187
147	0x3e4dc6e1	0.20095398
148	0xbd77a317	-0.06045827
149	0x3e0d5252	0.13800934
150	0x3debf002	0.11520387
151	0x3de0e336	0.10980837
152	0xbe33909d	-0.17535634
153	0x3e5a491a	0.21316949
154	0x3eee6940	0.46564674
155	0x3e0eac1e	0.13932845
156	0x3e1f9578	0.15584362
157	0xbdaa2c3e	-0.0830922
158	0x3eb23da9	0.34812668
159	0x3c917f51	0.017760905
160	0xbc817009	-0.015800493
161	0xbb536773	-0.0032257705
162	0x3db282cd	0.087163545
163	0x3aac1707	0.0013129421
164	0x3d59c906	0.053170227
165	0xbd93079e	-0.07179187
166	0xbda23af3	-0.079214
167	0x3d2a5db1	0.041593257
168	0xbdb4205a	-0.08795233
169	0xbda3751f	-0.079813235
170	0x3c64ee5c	0.013972845
171	0x3da15c4b	0.078789316
172	0x3bcec152	0.0063096667
173	0xbdace102	-0.08441354
174	0x3ca31d9c	0.01991158
175	0xbdd2313e	-0.102632985
176	0xbd3d0a93	-0.046152662
177	0x3c740acf	0.014895155
178	0xbb9b12dd	-0.0047324733
179	0xbd9c22ab	-0.076238
180	0xbd446d06	-0.047955535
181	0xbd8d65a7	-0.06904154
182	0x3d82d008	0.06387335
183	0x3cc83a52	0.024441872
184	0x3d8d7d82	0.06908704
185	0xbd8fd34d	-0.07022724
186	0xbd815b4e	-0.06316243
187	0xbd8bdc49	-0.068291254
188	0xbd563c1d	-0.052303422
189	0xbd78538a	-0.060626544
190	0x3c2ed062	0.0106697995
191	0x3d6b9440	0.05751443
192	0x3c90ea04	0.017689712
193	0x3d3cb6fc	0.046072945
194	0xbe0e98f3	-0.13925533
195	0xbd768ffc	-0.060195908
196	0x3ce7a6df	0.028277813
197	0x3d65851b	0.056035142
198	0xbd86ba46	-0.065784976
199	0xbe01e610	-0.12685418
200	0xbd275a45	-0.040857572
201	0x3ca28105	0.019836912
202	0x3d56c4f6	0.05243393
203	0xbd41aa21	-0.04728139
204	0xbde7d2f9	-0.11319537
205	0xbcafc42a	-0.021455843
206	0x3dac43a9	0.08411343
207	0xbe1b453e	-0.15163133
208	0x3d321f39	0.043486807
209	0x3db72239	0.08942074
210	0xbe1c22bd	-0.15247627
211	0x3ce63660	0.0281021
212	0xbe05508c	-0.13019007
213	0x3d07e189	0.03317407
214	0xbd3f0890	-0.046639025
215	0xbdd04873	-0.101700686
216	0xbbc6c160	-0.0060655326
217	0xbdb34b50	-0.08754599
218	0xbd3eb43d	-0.046558607
219	0x3d0f7229	0.03502098
220	0xbd943ff7	-0.07238763
221	0xbd7948ee	-0.060860567
222	0x3d3717a1	0.04470027
223	0x3d66f238	0.05638334
224	0xbcf81e76	-0.030287962
225	0x3d2f0adb	0.042734962
226	0x3b9f30cd	0.0048581124
227	0x3d257daa	0.040403046
228	0x3d6f87b4	0.058479026
229	0xbd98afa3	-0.07455375
230	0xbe02ffb6	-0.12792858
231	0x3d9ce8e0	0.07661605
232	0xbccc48f3	-0.024937129
233	0x3b76f31d	0.0037681528
234	0xbd105115	-0.035233576
235	0x3da4a2b3	0.08038845
236	0xbe1052ee	-0.14094135
237	0x3c9c4af9	0.019078718
238	0xbd7fa9b1	-0.06241769
239	0xbddc9885	-0.10771278
240	0xbdbf2970	-0.093340755
241	0x3dabab1a	0.083822444
242	0xbdbe4d3f	-0.09292077
243	0xbdfd83be	-0.123786435
244	0xbd692aa9	-0.05692545
245	0xbd843a47	-0.06456428
246	0xbe073e30	-0.13207316
247	0xbde96374	-0.11395922
248	0xbe0d7212	-0.13813046
249	0x3d61a2fc	0.055087075
250	0xbc94e37f	-0.018174885
251	0xbc499d89	-0.012305626
252	0xbddd3020	-0.10800195
253	0x3bfa621e	0.007641091
254	0x3daa66c6	0.08320384
255	0xbd59c3d5	-0.053165276

hidden_layer3.bias f4 [16]
0	0x3f2f0edf	0.68382066
1	0x3d05bed6	0.0326527
2	0x3e366365	0.17811354
3	0xbdb3917a	-0.08767982
4	0x3f7b8dfd	0.9826353
5	0xbd46df5f	-0.048552867
6	0xbca65e31	-0.020308586
7	0x3cda24f7	0.026628954
8	0x3eb3f278	0.35145926
9	0xbf49a707	-0.7877049
10	0x3d8127ed	0.06306443
11	0xbdd0af10	-0.101896405
12	0x3d264fdb	0.0406035
13	0x3f048abf	0.5177421
14	0x3c07eb69	0.008295872
15	0xbf0b3c57	-0.54388946

out_layer.weight f4 [2, 16]
0	0x3f0213f4	0.50811696
1	0xc0217507	-2.5227678
2	0x3e98a6b9	0.298147
3	0x3deda4b1	0.11603678
4	0x3ec6b889	0.38812664
5	0xbe1677a9	-0.14694084
6	0xbdba921c	-0.091098994
7	0xbdefcb48	-0.11708695
8	0xc0286676	-2.6312537
9	0xbf223b25	-0.633715
10	0xbd8e554e	-0.06949864
11	0x3cecaea4	0.028891869
12	0x3e20ac75	0.15690787
13	0xc01261a5	-2.2872097
14	0xbe033cee	-0.12816212
15	0xbf057530	-0.5213194
16	0x3ebb2767	0.365535
17	0xc04be294	-3.1857042
18	0x3ecd3767	0.4008133
19	0x3d52f03b	0.051498633
20	0x3e1e1e7e	0.1544132
21	0xbd5c6154	-0.053803757
22	0xbdb3acf0	-0.087732196
23	0x3d1e2c74	0.038616613
24	0x3ea53962	0.32270342
25	0xbdaabeb8	-0.08337158
26	0x3e21b18e	0.15790388
27	0xbd8b74f9	-0.0680942
28	0x3ef707a2	0.4824801
29	0xbef5f07d	-0.4803504
30	0x3d8a16a3	0.06742599
31	0xbeba86a2	-0.36430842

out_layer.bias f4 [2]
0	0x3ff0bb6f	1.88072
1	0xbf135796	-0.5755552
