models/DQNdecay_param1.pth (torch, 45919 bytes, 8 tensors)

hidden_layer1.weight f4 [64, 126]
00000000: ecbb db3c 4a2c 6dbd 0454 fabc 60fd 163d
00000010: 2e08 80bd 48dd 2bbd fe85 88bd d8eb 3d3c
00000020: 8c22 7f3d b0b4 f8bb 147c 3a3d 12f9 99bd
00000030: c828 bf3c d015 5e3d a2b5 97bd 0c4e 323d
00000040: 285f 203d be9d 953d 00ef f9ba 08aa 583d
00000050: 8434 9a3c 1144 81bd 7830 f2bc 30da afbd
00000060: ae8a 47bd 8491 6b3d 0025 d0b9 a2b7 963d
00000070: d2c1 8fbd 3e84 ab3d e16e 55bd a868 a5bd
00000080: 306a 32bc 0090 b037 70d7 a2bd dadf a83d
00000090: 1791 55bd 1622 abbd 8a31 a3bd eaca 023d
000000a0: 4821 293d 545f b1bc 40d5 f8bb 3c82 693d
000000b0: d0df 053c aca2 943d a022 c4bb e599 9cbd
000000c0: e410 2f3d e49b 7fbd 1456 0b3d f0dd 663c
000000d0: 1025 573c 486f 13bd a214 0f3d 802e 8ebd
000000e0: eca1 4a3d a04c 9c3c 8ccb 953d e862 8fbc
000000f0: 7cf7 6a3d 42aa 97bd d82a 683d 6376 20bd
00000100: 8461 73bd 1089 773d 603c 983d 28fc bd3c
00000110: 4006 09bc 605b ab3d 10f4 3a3c f7a5 adbd
00000120: 580b 8cbc e009 ce3c 68fa ab3d aafd 8c3d
00000130: a0b5 92bc e805 253d 4cea ed3c 786a d63c
00000140: 0052 893b c8fb 4c3c 944d 91bd d9e8 a4bd
00000150: 1c80 f03c 40bd 503d 504c 7fbd c685 a0bd
00000160: 1997 67bd 2783 b4bd 806d 893d 4899 d93c
00000170: e17d b2bd 5529 8ebd 489c 2d3d b82c 6e3d
00000180: aaa5 113d f136 83bd e497 6a3d 9e53 f7bc
00000190: acf5 5c3d 3c44 743d 3633 54bd 08c9 c7bc
000001a0: 7451 9dbd b8ef 8cbc 45d4 51bd 1ef5 a13d
000001b0: a4cc 203d e84d 2cbc 742f a93d 041f e33c
000001c0: dc12 bf3c 7836 d0bc cebc 883d 7ab1 af3d
000001d0: abf6 48bd c833 61bc 802d 8bbb ecfa a73d
000001e0: 0a09 96bd aab1 edbc 1a22 99bd a4db 9f3d
000001f0: c6ef 9ebd 90d3 433d 5044 29bd 20ca b53d
00000200: 9f58 14bd ae79 9f3d e41b ccbc fc96 b73c
00000210: 9072 1d3c c6e4 0f3d 6957 a4bd 5c4c 443d
00000220: 38d2 1e3d 782c 2e3d 841c 293d 4441 aebd
00000230: ce1a 873d e407 ef3c 2729 4fbd 40f0 4cbb
00000240: 80a9 e9bc 1246 a73d c6a0 9c3d d0ab 983b
00000250: 4694 8dbd c00d 813b 8225 dabc 040f 02bd
00000260: f19b 31bd 8784 69bd cc4d 563d e8e6 853c
00000270: 28b8 42bd d8f3 96bc 80bf 6aba 609b a63d
00000280: d5dc 48bd 68bb 993d f299 afbd d4f5 c9bc
00000290: b4a8 753d 6e91 96bd 582d b5bc 5881 523d
000002a0: 0ba2 87bd ac13 893d f86c 83bc 2a31 813d
000002b0: 029f 9cbd 25ff 46bd c82d a83d e066 0bbc
000002c0: 4051 a7bd a487 6abd 40ae 703d 184b 743d
000002d0: 0cd6 80bd b099 c5bb 295d 13bd 70ea 453d
000002e0: 4cee a9bd 6c0a 9cbc 1155 80bd bd8c 30bd
000002f0: 60f4 2e3d e493 29bd 5040 0d3d b67f ffbc
00000300: 6ce9 2a3d 32f8 a4bd 2caa 3cbd 0007 c43c
00000310: c890 fb3c dcc1 4a3d 78b8 d1bc 6f7d 83bd
00000320: 1230 913d 9eea b3bd 3cfd b6bc 78b8 503d
00000330: c896 4cbc 5872 4ebc 5879 d13c dc5d 033d
00000340: 68d0 ad3d 006c 8038 3897 213c c0fb 373d
00000350: 0e68 983d e0a7 88bb 1e23 40bd aee6 b3bd
00000360: b03b 253d d53c 0abd 70c9 82bb d84e 893c
00000370: 8846 22bd bc89 84bc 49a7 b1bd f09e 72bc
00000380: 6020 c1bb de3a 803d f7fd 13bd 90a6 82bc
00000390: 00dc 38bc 4478 223d 6064 b5bc f026 113c
000003a0: b048 ce3c 16d7 883d f038 9e3b 70f8 70bc
000003b0: e6f1 adbd 2ea9 aabd 18b3 553c 20d5 df3c
000003c0: 0896 5b3d 5cde 333d ac24 9d3d 95b3 9dbd
000003d0: 7c63 433d a137 44bd 731d 31bd e0a9 a13c
000003e0: 88e5 a5bd 9c8a 203d 90bd 133c 0017 823d
000003f0: e210 3bbd c084 613b f074 7e3d 78b6 373d
0.026823007 -0.057903565 -0.03055764 0.03686273 -0.0625156 -0.041959077 -0.06666182 0.011591874
0.062288806 -0.007589899 0.045528486 -0.075182095 0.023334876 0.05422002 -0.074076906 0.043531463
0.039153248 0.073054776 -0.001906842 0.05289653 0.01882387 -0.06311811 -0.029564127 -0.08586538
-0.04871624 0.05751182 -0.0003970042 0.07359244 -0.0701939 0.083748326 -0.052107695 -0.08076602
-0.010889575 2.104789e-05 -0.07951248 0.08245821 -0.05214032 -0.08356111 -0.07968433 0.031931795
0.041291505 -0.021651901 -0.0075937808 0.057008967 0.008171037 0.0725759 -0.005985573 -0.076465406
0.042740718 -0.06240453 0.034017637 0.014091 0.013131395 -0.035994798 0.034931786 -0.06942463
0.049470827 0.019079506 0.07314214 -0.017503217 0.057364926 -0.07405521 0.056681484 -0.039175402
-0.05941917 0.060433447 0.074333906 0.023191527 -0.0083633065 0.08367038 0.011410728 -0.08478921
-0.017095253 0.025151193 0.083973706 0.0688432 -0.017908871 0.040288836 0.029042386 0.026173815
0.0041906834 0.012511201 -0.07094875 -0.08052225 0.029357962 0.050961733 -0.062328637 -0.07838015
-0.056540582 -0.08814078 0.067103386 0.026562348 -0.08715416 -0.06941477 0.04238537 0.058148116
0.03555838 -0.064069636 0.05727376 -0.030191239 0.05394523 0.059635386 -0.05180665 -0.024387851
-0.076815516 -0.01720415 -0.051227827 0.079080805 0.03925766 -0.010516621 0.08261004 0.02772475
0.023324423 -0.025416598 0.06676637 0.08578773 -0.049063366 -0.013745256 -0.0042473674 0.082021564
-0.07325943 -0.02901538 -0.074772075 0.07805565 -0.07760577 0.047809184 -0.041324914 0.08876443
-0.03621733 0.077868804 -0.024915643 0.022410862 0.009609833 0.035130285 -0.08024485 0.047924384
0.0387747 0.042522877 0.04128696 -0.08508542 0.065969095 0.029178567 -0.050576355 -0.003127113
-0.028523207 0.08167662 0.076478526 0.0046591535 -0.069130465 0.0039384067 -0.026629213 -0.0317526
-0.043361608 -0.057011154 0.052320287 0.016345456 -0.047538906 -0.01842682 -0.00089549273 0.08135104
-0.049038727 0.07506448 -0.085742846 -0.024653353 0.05997534 -0.07351957 -0.022116348 0.051392883
-0.06622704 0.06693205 -0.016043171 0.063082054 -0.07647516 -0.04858317 0.08211857 -0.008508414
-0.08169794 -0.057258263 0.058759928 0.059641927 -0.06290826 -0.006030284 -0.035977516 0.04831928
-0.08297405 -0.019047938 -0.06266225 -0.04310297 0.042713523 -0.041400805 0.03448516 -0.031188827
0.041726515 -0.08055152 -0.046060726 0.02392912 0.030708686 0.049501285 -0.025600657 -0.06420409
0.07089247 -0.08784984 -0.022337548 0.050957173 -0.012487121 -0.012600504 0.025570557 0.032071933
0.08487016 6.123632e-05 0.0098627135 0.044917822 0.07441722 -0.004170403 -0.04690849 -0.08784233
0.040340126 -0.03374942 -0.0039912984 0.016761228 -0.039618045 -0.016178958 -0.08674485 -0.014808401
-0.005893752 0.06261228 -0.03613087 -0.015948564 -0.011282921 0.039665475 -0.02214259 0.008859381
0.025181144 0.066816494 0.004828565 -0.01470767 -0.08493404 -0.0833305 0.013043188 0.027323306
0.053609878 0.04391323 0.0767301 -0.07700268 0.047702298 -0.047904614 -0.043240976 0.019734323
-0.0810042 0.03919469 0.009017363 0.06352043 -0.045670398 0.00344114 0.06212324 0.04485175

hidden_layer1.bias f4 [64]
00000000: c8e6 193d 58d7 193c ed05 9dbd 443b 353d
00000010: 8024 6b3a 14f6 abbd 18d3 89bc 78e6 663c
00000020: 923b 8abd eeeb 5bbd 6f47 a9bd 648e 223d
00000030: 9c01 dfbc 9026 83bc dcab 903d aed4 a43d
00000040: f8bc 8c3d 005e 55bc 0270 3fbd 0010 2ab8
00000050: 6c15 afbc d5db 36bd f4cc a33d 8cad 63bd
00000060: fb87 4dbd 06fc adbd 1759 b4bd 640c a43c
00000070: dc4c 433d ccda edbc 802f 2ebc d05f 953b
00000080: 8e6b 81bd f76b 0cbd 84e0 583d b004 743d
00000090: 5f31 97bd f8f4 0b3d 5352 4dbd 9036 0e3c
000000a0: ec9e 413d 740d 7c3d 14dd c33c 48d8 103d
000000b0: 20cd 59bb 5038 78bd 4cdb 81bd 50c4 a13b
000000c0: 6443 9d3d 0a22 b03d 16d4 aebd 2e39 83bd
000000d0: 5c0e 9bbc c8e1 293d 5c45 4a3d acb6 833d
000000e0: ac6d 2e3d 7af4 893d f0fb 31bc 929f 953d
000000f0: 34b2 60bd a07a bbbc 06a3 11bd 1411 183d
0.037573606 0.009389721 -0.07667146 0.044245973 0.00089699775 -0.08396545 -0.01682429 0.014093034
-0.067496434 -0.053691797 -0.08265578 0.039686576 -0.027222447 -0.016009599 0.070640296 0.08048378
0.068719804 -0.0130229 -0.04673768 -4.054606e-05 -0.02137252 -0.044643242 0.07998076 -0.05558543
-0.05017851 -0.08495335 -0.08806055 0.02002544 0.04768072 -0.029034995 -0.010631442 0.004558541
-0.063193426 -0.03428265 0.05294849 0.059574783 -0.07382464 0.034169167 -0.05012734 0.008680001
0.0472707 0.061536267 0.02390913 0.035362512 -0.0033233836 -0.06060058 -0.06340656 0.0049367324
0.07678869 0.086002424 -0.08536546 -0.064073905 -0.018927746 0.041475087 0.049382553 0.06431326
0.04258506 0.06736083 -0.010863289 0.07305826 -0.054857448 -0.02288562 -0.035555862 0.037125662

hidden_layer2.weight f4 [32, 64]
00000000: fe45 c8bd c04b 413c 2496 eb3d 8c27 9abd
00000010: 2ade ec3d 42ca b3bd a476 68bd f87f 9a3c
00000020: e06a c83c 2e73 acbd c06a 3bbc 943d 31bd
00000030: b889 cb3c 743c 383d ace6 7f3d a884 cbbc
00000040: e2b3 d63d 626b ecbd 1a21 e33d dcd7 273d
00000050: 90e1 28bc d048 e03d 1eaf 9e3d f088 d2bd
00000060: 844b 1b3d 5887 a8bc 9280 bebd b2ea c53d
00000070: 7056 2a3c 746b 3e3d 52e2 f1bd cce4 7a3d
00000080: c481 8bbd 7428 e33d d098 dbbd 2a87 e03d
00000090: d0a3 103d 52f9 e23d b2f2 c0bd 6cb5 c5bd
000000a0: 1454 84bd 4c1b 103d f436 423d 4400 953d
000000b0: f8f9 9f3c 2aa3 943d 56d1 bf3d 9097 913d
000000c0: 30a0 023c f0b0 94bd 16db d5bd 109d a2bd
000000d0: a6f2 d13d 34af c73d 600a c23b 6cf2 9cbd
000000e0: 008d fa3a c0b5 4ebc 9eb9 ddbd 0021 cdbd
000000f0: bc1d 243d a054 dc3c c830 d33d 3862 8dbc
00000100: d4c6 373d 841b f93d 0059 183d 1e21 d1bd
00000110: 34ff e6bd 004a e33b 94dd a6bd 4eee e9bd
00000120: 0070 1e3d 9645 d8bd 10c8 c2bc 98f7 29bd
00000130: d00e 343c f498 ac3d 702a 0bbc 3c10 13bd
00000140: d6b7 8e3d 1061 bf3d f009 6e3d 5203 e83d
00000150: b097 283d 9259 dabd ee87 fa3d 34e0 b33d
00000160: de49 873d 3897 76bd 7a16 edbd 1023 d03d
00000170: 620b 8d3d 300a bcbc bcaf 6abd c83b f1bd
00000180: 6c04 dc3d 80ce 28bb c8d8 cdbc cc64 d2bd
00000190: 9cb2 e53d d087 92bd b897 1dbd 00ce 44ba
000001a0: 7c4b c33d 52d1 f0bd 92a7 d83d e092 c03c
000001b0: bcaa d3bd 4062 30bd 1492 80bd b046 96bd
000001c0: 821c 89bd 002b 7d3c 7855 e73d 505c d1bd
000001d0: 1cd4 8abd 588b 5abd 12ec ce3d 80e5 9fbb
000001e0: 9823 ddbc a046 22bc 8e79 83bd 8c13 283d
000001f0: 761c fbbd c052 dfbb 80b0 34bb 769e b13d
00000200: 4033 10bc 48ad aabc 20f8 533d 8840 d6bd
00000210: e46b ea3d f0fe ed3d 0094 bebb 3455 443d
00000220: 5082 383d 38ef f9bc ec1b 633d 7655 8a3d
00000230: 3856 f83d e81e 193d a474 473d bc9e 4d3d
00000240: cc7d cd3d 2052 d7bb 14fa 88bd 24b9 973d
00000250: b073 19bc 6c8b 54bd dc8f 4ebd eab6 cdbd
00000260: 6415 9f3d 2850 91bd 42f8 923d 7822 823c
00000270: c849 6b3d 9a14 babd 70fc 10bd c0cc 1ebd
00000280: e60a c1bd 3881 d43c fc7b cebd d48b 13bd
00000290: d46e 763d 442d 39bd 76dd debd a094 49bc
000002a0: 2842 d8bc a2c3 86bd d070 3a3d 628d 8fbd
000002b0: 56cd 8bbd 14c4 3a3d 765b 9cbd 3e18 f63d
000002c0: 081b 4cbd 94ea c03d 92e1 fb3d 7672 e9bd
000002d0: 381e 71bd a663 e7bd 901f 3fbc 4005 463b
000002e0: 30df 1a3d 9aab e43d 003a 48ba 422f d5bd
000002f0: ae7f f5bd 2831 c6bd 3e95 c7bd f0de 183d
00000300: ee8d f4bd 002d ad3d 9c87 b5bd 5819 80bc
00000310: c02c 743c f82d e63c 34ef 45bd 8098 92bd
00000320: 78e3 4a3d 88d9 e1bd 6e3d c93d a4ba e93d
00000330: 147e f1bd c022 083c c0fe 02bb e2e4 8fbd
00000340: d4d5 74bd 1ef7 cdbd 64d4 cb3d 4c17 85bd
00000350: 5c9b dcbd 02db c5bd b8bc f53d 40f4 233d
00000360: 40ef 343d a8d3 303d d082 dbbc e048 20bd
00000370: ac15 75bd c495 66bd d833 91bd d0af 433c
00000380: ea7a 8abd 98ed 63bd f0d2 a4bc 8c13 463d
00000390: 22f8 b73d 6ac9 c23d d844 e53c b8a0 e5bd
000003a0: 26d0 893d 7857 a3bc 1068 65bd 06c0 8f3d
000003b0: 9886 d03d 0802 d0bd e0bd cebc 4858 fa3d
000003c0: bea5 99bd e859 dc3d 3273 b2bd 267a af3d
000003d0: a6c3 c2bd 8e5c d0bd 1053 1abd ee46 90bd
000003e0: ecd9 1e3d 38c3 b0bd 3279 d2bd f4f1 313d
000003f0: 769b 9e3d a8c0 523d 223e f4bd 6875 cabd
-0.09778975 0.011797845 0.115032464 -0.07527074 0.11565812 -0.08778812 -0.05675377 0.018859848
0.024465024 -0.08420406 -0.011439025 -0.043271616 0.024845943 0.044979528 0.062475845 -0.024843529
0.10483529 -0.11543919 0.11090298 0.040977344 -0.010307685 0.10951388 0.07748245 -0.10280025
0.037913814 -0.02057235 -0.093018666 0.09663905 0.010396585 0.046489194 -0.11810745 0.061253354
-0.0681186 0.110917 -0.10722506 0.109632805 0.035312474 0.1108271 -0.094212905 -0.09653744
-0.06461349 0.035182282 0.04741569 0.07275441 0.019528374 0.072576836 0.093660995 0.071089864
0.007972762 -0.07260311 -0.10442178 -0.079401135 0.1025136 0.09750214 0.005921647 -0.07663426
0.0019115508 -0.012616575 -0.10826419 -0.1001606 0.04006742 0.026895821 0.10312039 -0.017258748
0.04486735 0.12163451 0.037194252 -0.10211395 -0.11279145 0.0069363117 -0.081477314 -0.11422406
0.03868103 -0.105601475 -0.023777038 -0.04149589 0.01098986 0.08427611 -0.008494005 -0.035904154
0.06968658 0.09344685 0.058114946 0.11328758 0.041160285 -0.106616154 0.12232958 0.08782998
0.06605886 -0.060202807 -0.11576553 0.10162938 0.06886937 -0.022954077 -0.0572965 -0.117789805
0.10743031 -0.002575785 -0.025127783 -0.10273132 0.11215708 -0.071548104 -0.03847477 -0.0007507503
0.09535882 -0.11758675 0.105788365 0.023507535 -0.103352994 -0.04306245 -0.06277862 -0.07337701
-0.066948906 0.0154521465 0.11295599 -0.10222685 -0.06778738 -0.053355545 0.101036206 -0.0048796535
-0.026994511 -0.009904534 -0.06419669 0.041034266 -0.12261288 -0.0068152845 -0.0027571023 0.08672802
-0.008801281 -0.02083458 0.051750302 -0.10461527 0.1144636 0.11620891 -0.005815983 0.04793282
0.04504615 -0.030509576 0.05544655 0.06754582 0.1212582 0.03738299 0.04869522 0.05020021
0.100337595 -0.0065710694 -0.066883236 0.0740836 -0.009365961 -0.051890776 -0.050430164 -0.10044654
0.07767752 -0.07095367 0.07176258 0.015885577 0.05744341 -0.09085961 -0.035396993 -0.038769484
-0.09425907 0.025940523 -0.10082242 -0.036022022 0.060164288 -0.045209184 -0.10882084 -0.012303501
-0.026398733 -0.06580283 0.045517743 -0.070093885 -0.06826274 0.04559715 -0.07634632 0.120163426
-0.049830467 0.09419742 0.122988835 -0.11398785 -0.05886671 -0.11298303 -0.01166524 0.0030215532
0.037810504 0.11165543 -0.0007638037 -0.10409404 -0.119872436 -0.096773446 -0.097452626 0.037321985
-0.119411334 0.08455849 -0.08863756 -0.015637085 0.014903247 0.028098091 -0.048323825 -0.07157993
0.049533337 -0.11027819 0.0982617 0.11412552 -0.117916256 0.008309066 -0.0019988269 -0.07026078
-0.059774235 -0.100568995 0.0995262 -0.06498584 -0.1077182 -0.09660913 0.11998886 0.040027857
0.04417348 0.0431706 -0.026795775 -0.039132 -0.05983512 -0.05629517 -0.070899665 0.011943772
-0.06761725 -0.05564651 -0.020120114 0.048358485 0.089828745 0.09511073 0.027986929 -0.11212295
0.06729154 -0.01993917 -0.056007445 0.070190474 0.10181922 -0.101566374 -0.025237024 0.122238696
-0.07502316 0.10759336 -0.08713378 0.0856822 -0.09509973 -0.101739034 -0.03767687 -0.07044779
0.038782045 -0.08630985 -0.102770224 0.043443635 0.077444956 0.051453263 -0.119259134 -0.09885675

hidden_layer2.bias f4 [32]
00000000: ac77 2cbd a87e b83d 66b5 d6bd ce05 963d
00000010: 1c20 c6bd 3cca a4bd c204 aabd 123a 9a3d
00000020: 087b 2abd 1a76 c1bd 90af ee3c 98f0 b53d
00000030: c0f3 603c 821c f33d e08d 393c 2e7b e8bd
00000040: 56d5 e03d 4622 903d 1028 edbd d095 af3c
00000050: b0ef d7bd 42f4 c4bd 800a fcbb c01c 1ebb
00000060: 0014 a7b9 da51 f0bd 1cfa 6cbd fefe cc3d
00000070: 9618 aebd 405c ab3b f8e3 503d 60e4 f23c
-0.042106315 0.09008533 -0.10483818 0.07325326 -0.09674093 -0.08046386 -0.08301689 0.07530607
-0.041621238 -0.09446354 0.02913645 0.0888378 0.0137299895 0.11870672 0.01132533 -0.1135162
0.109781906 0.07037787 -0.11579907 0.02143374 -0.10543764 -0.09616901 -0.0076916814 -0.0024126023
-0.00031867623 -0.11734362 -0.05785571 0.100095734 -0.08500783 0.005229503 0.050998658 0.029649913

hidden_layer3.weight f4 [16, 32]
00000000: 929c f73d d179 1c3e d081 76bd 7f03 1f3e
00000010: ffdf 2f3e 3eb6 8a3d 2894 21be 7982 ddbd
00000020: 578f 243e c99f d4bd b92f 0f3e 9068 0ebc
00000030: 1e2a 993d 8c0b 15be 9bf3 e0bd 94b0 533d
00000040: 24d0 523d a62c db3d 3118 2c3e 4038 48bd
00000050: 2c5b 23be 8505 0cbe cc57 41bd 4ed0 d3bd
00000060: ba7e eabd aa14 cf3d ca30 853d 714e 1f3e
00000070: f650 2cbe 30a0 e4bd bd39 133e b8b8 21be
00000080: ee67 e8bd fef1 ae3d c091 eabb 5fa1 193e
00000090: 70e6 48bd b9d3 133e 68a0 f7bd d8ce 533d
000000a0: 15f0 9ebd e4b7 29bd d531 1d3e 49c0 2d3e
000000b0: 7554 093e 8741 1abe f60e ebbd 428f cb3d
000000c0: 4640 b63d f747 1dbe 5a12 e93d 742a 623d
000000d0: b787 29be 6854 98bc 282e 57bd ab14 f7bd
000000e0: 99af dcbd e6df b23d a4bb 3a3d 8872 643d
000000f0: 3c15 323d 4f67 8ebd 135b 21be f28e cc3d
00000100: be93 e63d 680f 24bd de4e 9d3d 989d 79bd
00000110: 5a49 c6bd 7bef 0f3e c812 a4bd 8372 2dbe
00000120: 40ab 2f3b b202 06be 27fc 103e 5a00 d73d
00000130: 84e7 613d 144b 0b3d a2a0 a13d 814c 323e
00000140: 1508 c5bd c0f5 333d 5159 80bd 0063 93ba
00000150: 254d 02be 5e80 28be c74b 313e c1ce a8bd
00000160: d09b 25be 2dca 083e 0c0b abbd 1a02 de3d
00000170: e452 c1bd 75a2 afbd 4815 67bd 18f0 2dbe
00000180: 0207 c1bd 8c88 213d 5838 603d 40bf 723b
00000190: c8ee 34be 40b3 fbbb 5c75 1b3d e878 85bc
000001a0: c84f 87bd 08fe 89bc b781 92bd 3836 0abe
000001b0: 064e 01be eff3 97bd 8262 fdbd a077 d1bb
000001c0: 16bd 2ebe e8ff a8bd 6a96 78bd d691 d73d
000001d0: f59b 203e 918a cdbd 5ae9 e6bd 4e1e a73d
000001e0: f0be 82bc 3253 cb3d 7e6f f13d 4ada f53d
000001f0: 84d0 243d c0d1 86bd dba5 283e 48e4 a3bc
00000200: e59c 27be 80df 86bb 802d 6d3c c27b c43d
00000210: 6a6e 24be 4ad0 02be 5bd2 b9bd 8ebc 863d
00000220: 8033 b83b 2408 173d b443 00bd 2b38 d5bd
00000230: 18c9 9e3c b8b0 6b3d 5e63 5cbd cc43 5abd
00000240: 3cf6 fbbd f462 273d 609c 58bc 5c63 3f3d
00000250: 7fc1 08be 00b1 5a3d 0d06 0a3e 28aa 4cbd
00000260: 208d 05bc c033 7bbc 2880 913d 97ee 2a3e
00000270: 1a08 b63d 73f0 163e d12b 1d3e a4a8 473d
00000280: 0d64 273e 8dd2 283e b282 e73d 3cb0 23bd
00000290: a527 b9bd 55c5 babd 7f57 88bd e708 07be
000002a0: 5207 08be 2d08 0a3e 8cc7 25bd b1f9 083e
000002b0: 9610 883d 2043 f63c 4880 96bd cc02 4b3d
000002c0: 009d 023d 8aed cb3d 6cc9 28be 0090 8c39
000002d0: 544c 1ebd dcdc 06bd 287b ce3c 0a2e 9e3d
000002e0: 66ad 2dbe 7ab2 fdbd f063 3a3d 9c1f 0ebe
000002f0: 8859 adbc a0f2 83bb 689d 61bd c802 8abc
00000300: 3d8d 323e 68c3 21bd 4f99 1abe c854 443d
00000310: b0d2 6dbd f5e0 d7bd deec c73d 045f 563d
00000320: b4f3 8cbd d851 9a3c d82d 14bd 4010 16bd
00000330: 9059 1dbc 2050 3e3d 62d8 94bd b30f 163e
00000340: 2142 003e 8de7 063e 4868 fcbd 4418 c7bd
00000350: dcb0 08bd dbca b6bd aa44 cfbd 189d 88bc
00000360: eb74 043e 7e46 d73d 7207 d5bd 2d8d d9bd
00000370: da5e 983d f2ae f83d 2251 af3d e0aa e3bb
00000380: 177d 89bd 551c 1dbe deb2 29be ac5e afbd
00000390: f032 d9bc 0ae7 0abe 83db a2bd 2b9f 073e
000003a0: 6a7f 26be 6e30 f03d 308a 22be 7a32 973d
000003b0: 22a3 f03d f417 43bd d5b7 12be 583b 3ebd
000003c0: b690 a9bd 78df 753d 45d8 163e c146 1cbe
000003d0: 6f17 023e d874 6e3d fe88 1bbe eb51 17be
000003e0: 141c 99bd f3bb 8abd a45c 55bd 2859 f3bd
000003f0: de43 6ebd 28dc 2fbe 40fc 6ebb 5e0e ee3d
0.1209041 0.15280844 -0.060182393 0.15528677 0.17175291 0.06773041 -0.15779173 -0.10815901
0.16070305 -0.10382039 0.13983048 -0.008691922 0.07478736 -0.14555186 -0.10983964 0.05168207
0.05146803 0.107018754 0.16806103 -0.04888177 -0.15952748 -0.1367398 -0.04720287 -0.10342465
-0.114499524 0.10111363 0.065034464 0.15557267 -0.16827759 -0.11163366 0.14377494 -0.15793121
-0.11347948 0.0854225 -0.007158488 0.15002964 -0.049047887 0.14436235 -0.12091142 0.051710933
-0.07760636 -0.041435137 0.1535104 0.16967882 0.13411124 -0.15064059 -0.11477463 0.09939434
0.08898978 -0.15359484 0.113804534 0.055216268 -0.16555677 -0.018594936 -0.052534252 -0.12064489
-0.1077568 0.087341115 0.045589104 0.055773288 0.043477282 -0.06953298 -0.15757398 0.09988202
0.11258648 -0.040053755 0.07681058 -0.06094131 -0.096819595 0.14056198 -0.08011395 -0.16938214
0.0026804954 -0.13086966 0.14158688 0.10498114 0.05515243 0.034007147 0.078919664 0.17411996
-0.09620682 0.043935537 -0.06267036 -0.0011244714 -0.12724741 -0.16455218 0.17314063 -0.0824256
-0.16172719 0.13358374 -0.083517164 0.108402446 -0.09439638 -0.08575908 -0.05641678 -0.1698612
-0.09425165 0.039436862 0.054741234 0.0037040263 -0.17669213 -0.0076812804 0.03795372 -0.016293004
-0.06607014 -0.016844764 -0.071536474 -0.13497245 -0.1262742 -0.074195735 -0.123723045 -0.0063924342
-0.17064318 -0.08251935 -0.06069032 0.10525863 0.15684493 -0.10036195 -0.11274977 0.08160077
-0.015960187 0.099279776 0.117888436 0.12004526 0.04023792 -0.065829754 0.16469519 -0.020006314
-0.16368444 -0.0041159987 0.01447618 0.095939174 -0.16057745 -0.12774768 -0.09073325 0.06578933
0.0056213737 0.036872998 -0.031314567 -0.10411104 0.019382998 0.05754158 -0.0538057 -0.053287312
-0.12302825 0.040865853 -0.013220876 0.046725616 -0.13355063 0.053391457 0.1347887 -0.04996696
-0.008151323 -0.015332162 0.07104522 0.16692577 0.08888264 0.14740162 0.15348746 0.048744813
0.1634676 0.16486569 0.11304225 -0.039962992 -0.09040765 -0.09119669 -0.066573136 -0.1318699
-0.13284042 0.13479681 -0.040473506 0.133765 0.066437885 0.030061305 -0.073486865 0.049563214
0.031888008 0.09957416 -0.16483086 0.0002681017 -0.03864701 -0.03292547 0.02520521 0.07723625
-0.16960678 -0.12387557 0.045505464 -0.13879246 -0.021160856 -0.004026726 -0.055081755 -0.01684703
0.1743669 -0.039492995 -0.15097545 0.047932416 -0.058062255 -0.10540954 0.09761976 0.052336708
-0.0688242 0.018837854 -0.036176533 -0.03663659 -0.009603873 0.046463132 -0.07267834 0.14654426
0.12525226 0.13174267 -0.123245776 -0.09721425 -0.03337179 -0.0892541 -0.101205185 -0.01667647
0.12935226 0.10511492 -0.10401811 -0.1062263 0.074399665 0.12142743 0.08560397 -0.00694786
-0.06713312 -0.15342839 -0.16572139 -0.08562979 -0.026513547 -0.13564697 -0.07952025 0.13244312
-0.16259542 0.11727987 -0.15873027 0.073826745 0.11749865 -0.047630265 -0.14327939 -0.046443313
-0.082795545 0.06002757 0.14730938 -0.15261365 0.12704252 0.0582169 -0.15188977 -0.14777343
-0.074760586 -0.0677413 -0.052090302 -0.118822396 -0.058170192 -0.17173827 -0.003646627 0.11623834

hidden_layer3.bias f4 [16]
00000000: 305b 2fbc 1b37 253e 0a69 f0bd 60d8 3c3d
00000010: 2887 4d3d 856c 223e 3665 df3d 4d46 a2bd
00000020: 6cf5 263d 772a 90bd 9717 123e 2328 d5bd
00000030: f9bd 103e 403d 47bd fa8b dd3d 3ea4 af3d
-0.010702893 0.16134302 -0.117387846 0.04610479 0.050177723 0.1586171 0.10907976 -0.07923565
0.040761396 -0.070393495 0.14266811 -0.10408046 0.14134969 -0.048642397 0.10817714 0.085762486

out_layer.weight f4 [2, 16]
00000000: 9caf 563e 9c3a ecbd a007 b13c 902d f03d
00000010: c614 633e 5c40 ebbd e064 6f3d 820e 1dbe
00000020: 800e bebd 6290 27be 40e8 33bc b040 8d3d
00000030: 7098 e1bd b099 29be 2086 6ebe a261 583e
00000040: 0ec0 163e 8013 babc 488d f3bd 4428 c9bd
00000050: ee5b 03be c096 1d3c ceb2 683e 883f f73d
00000060: f08f a6bd 6cfd 4b3e f0b3 a73c 4a87 733e
00000070: d481 37be ec78 db3d 608f 5f3d 1c67 7fbe
0.20965427 -0.11534616 0.021610081 0.1172744 0.22175893 -0.11486885 0.05844581 -0.15337566
-0.092801094 -0.16363671 -0.010980666 0.06897104 -0.11015403 -0.16562533 -0.23293352 0.21130994
0.147217 -0.022714376 -0.11892182 -0.09822133 -0.12828037 0.009618461 0.22724459 0.120726645
-0.08132923 0.19920892 0.020471543 0.23782077 -0.17920619 0.107164234 0.054580092 -0.24941677

out_layer.bias f4 [2]
00000000: c06a 543d babe 103e
0.051859617 0.14135256
