models/DQNfactorized_param2.pth (torch, 46417 bytes, 8 tensors)

hidden_layer1.weight f4 [64, 126]
000000 eb a0 df 3d dd 4f 0d 3e 42 f9 e0 3d 61 99 7d 3e
       0.109193645 0.13799997 0.10985042 0.2476554
000010 23 cb 0d 3e 4a 8b 52 3e cc ca 94 3e 7e da 7a 3c
       0.13847022 0.20560947 0.29060972 0.015310882
000020 bd 80 d2 3d 8a fb 12 3e 5a 03 1a 3e 49 8c 6b 3e
       0.10278461 0.14353767 0.15040341 0.23002733
000030 51 db 4f 3e 88 3b 38 3e a5 a1 26 3d 19 b4 43 3d
       0.20298506 0.1799146 0.0406815 0.047779176
000040 24 93 4b 3d 9e ef ce 3d 50 f1 de 3d 99 20 8a 3d
       0.04970087 0.10104297 0.108858705 0.06744499
000050 01 d0 10 3e 43 9b 1f 3c 7e 7e 92 3d a5 82 e4 3c
       0.14141847 0.009741607 0.07153033 0.027894327
000060 e6 3b b9 3d cc dd 73 3d 22 e5 11 3e 70 76 25 3d
       0.09044628 0.059537694 0.14247563 0.040396154
000070 12 a6 d5 3d 08 c6 45 3e fb d2 57 3e 63 7e 4c 3e
       0.10432066 0.19313824 0.21076576 0.19970088
000080 8e 52 85 3e f7 b8 37 3e 7e d2 97 3e 1b 17 cb 3c
       0.26039547 0.17941652 0.2965278 0.024791291
000090 88 37 3e 3d dd 6f 48 3e 05 9b 82 3e 2d cc 62 3e
       0.046439677 0.19573922 0.25508896 0.221482
0000a0 cb 02 2d 3e b4 5d 8a 3e f7 99 9f 3d 0a 81 14 3e
       0.16895597 0.27024615 0.07793038 0.1450235
0000b0 b4 82 b9 3c 27 1a ac 3d ee ba 7c 3d c5 77 90 3d
       0.022645332 0.08403426 0.061701708 0.07054094
0000c0 d0 56 da 3d ea 02 ab 3c 0d 26 4e 3d 97 7f ad 3d
       0.106610894 0.020875413 0.050329257 0.084716015
0000d0 a0 f7 c6 3c f0 44 5e bb 84 1d 9c 3d ff b6 cb 3d
       0.024287999 -0.0033915602 0.07622817 0.09947013
0000e0 7e 94 fe 3d 74 e1 aa 3d 81 6f 6a 3e 02 42 bd 3d
       0.124306664 0.08343783 0.22894098 0.092411056
0000f0 91 fd 29 3e 94 4d 92 3e 27 d6 c3 3e 9f 5b e5 3d
       0.16600634 0.28574812 0.38249323 0.11199116
000100 f4 e6 d6 bc d6 6e ce 3d 6f 0f 37 3c 41 fa 52 3e
       -0.026233174 0.10079734 0.011173113 0.20603277
000110 23 64 20 3e 8c e6 ae 3d 4d 00 51 bd 8d e8 11 3c
       0.15663199 0.08540067 -0.051025677 0.008905542
000120 93 6f 1b bd 70 03 c0 3d 73 ed 08 3e 32 d7 ca 3d
       -0.037948202 0.09375656 0.1337183 0.099043265
000130 10 3e 40 3e 0b fe ff 3d b9 a5 ab 3d 31 a4 ed 3c
       0.18773675 0.12499627 0.083812185 0.029008957
000140 bc 63 ef 3d da aa 09 3e 37 65 d0 3d ba 41 07 bc
       0.11688945 0.13444081 0.10175555 -0.0082554165
000150 45 67 29 3e 91 42 8c 3d 5d b5 29 3e b1 0e 8b 3d
       0.165433 0.06848634 0.16573091 0.067899115
000160 db 95 11 3e 1b 50 ba 3d cf d7 1a 3d ae 0d 37 bd
       0.14217322 0.0909731 0.037803467 -0.04469078
000170 29 5a 94 bd ea c8 84 3d 6a 30 e0 3c 76 0a d8 3d
       -0.07243759 0.06483634 0.027366836 0.1054887
000180 57 8c 2a 3e 9f b1 74 3e 2a 4d dd 3d ee 28 16 3e
       0.16655098 0.23895882 0.108057335 0.14664051
000190 ec 72 11 3e 53 37 22 3e 52 18 6d 3d d9 eb 31 3e
       0.14203995 0.15841417 0.05788452 0.17375125
0001a0 cd c3 5d 3d b7 f3 03 3d ee 99 8a 3c 96 74 8e 3d
       0.05414181 0.032214846 0.016919103 0.06955831
0001b0 08 2b 03 3e ef 45 39 3e 3b a1 40 3d e9 b5 ce 3c
       0.12809384 0.18093084 0.04702876 0.025233226
0001c0 24 b9 ef 3d ee 90 c4 3d 39 18 f5 3d c3 43 a2 3d
       0.11705235 0.09597956 0.11967511 0.07923081
0001d0 e2 82 b4 3d 61 1d 94 3b 03 f9 59 3d ec 9a 13 be
       0.088140264 0.004520104 0.05321599 -0.14414567
0001e0 80 f4 9b bd 27 06 76 3d ad 61 3d bd cc 31 31 bc
       -0.07614994 0.06006446 -0.04623573 -0.010815095
0001f0 03 01 fe 3d 40 bf 71 3e 07 58 eb 3d 6b 12 2e 3e
       0.12402537 0.23608112 0.11491399 0.16999213
000200 6f 46 64 b9 f8 bd 00 3e 5a d5 86 3d 77 e4 09 3e
       -0.00021770013 0.12572467 0.06583662 0.13466059
000210 c7 21 90 3c b3 50 0e 3d 26 54 ea 3c f8 45 24 3e
       0.017594231 0.03474493 0.028604578 0.16042316
000220 53 df 60 bb 32 38 95 3d cf 94 e6 3d b1 c4 2e 3e
       -0.00343128 0.07286109 0.11258852 0.1706722
000230 3c 53 86 3e 18 27 1e 3e 67 bd 0b 3e f8 57 84 3e
       0.26235378 0.154446 0.1364647 0.25848365
000240 0f 33 83 3e 46 ea 5d 3e 5c aa 53 3e 1c a3 e7 bd
       0.25624892 0.216714 0.20670456 -0.113104075
000250 e4 3b f5 bc 53 35 21 3d 5a ca f0 bc b0 59 af bc
       -0.029935785 0.039357495 -0.029393364 -0.021405071
000260 47 c4 31 3d 22 66 2b bd 5a f0 a7 bb 7f 12 dc 3b
       0.043400075 -0.04184545 -0.0051250877 0.006716072
000270 f0 7e f7 3c fb 07 bf 3d 79 32 03 3e c9 ac 0a 3d
       0.030211896 0.09327694 0.12812223 0.033856187
000280 41 55 b9 3c 42 d4 c5 3c 50 50 13 bd ef f4 36 3d
       0.02262366 0.024149064 -0.035965264 0.04466718
000290 e3 58 04 3d c2 0d 9e bc eb 5e cd 3d 5a 64 1b 3d
       0.03231133 -0.01929367 0.1002787 0.0379375
0002a0 49 48 a6 bd 40 e6 65 3d 2f d1 dc bc de 9c 33 bb
       -0.08119256 0.056127787 -0.026955215 -0.0027406733
0002b0 21 1b 9e 3d 04 f6 24 3d 9e 0e 8a 3b b3 d7 df 3d
       0.07720018 0.04027368 0.0042131683 0.10929813
0002c0 99 ea fc 3d e6 38 87 3d ac 62 16 3d 6f a4 d4 3d
       0.123494335 0.066026494 0.036715195 0.10382926
0002d0 e4 ab 0c 3e fa 1d 24 3d 96 1f 8c bd 60 87 13 3d
       0.13737446 0.04006765 -0.06841962 0.036017776
0002e0 c7 fb 2b 3c 7c 77 94 3d f2 e0 84 bc 41 d8 c0 3d
       0.01049704 0.07249352 -0.016220544 0.09416247
0002f0 12 be 54 3c 02 b7 32 3e f9 a1 72 3d bc 02 1c 3e
       0.012984769 0.17452624 0.0592365 0.15235418
000300 65 6c 08 3e 04 0d 60 3d 9d b4 76 3d 2b 5e 0b 3e
       0.13322599 0.054699913 0.06023084 0.13610141
000310 1e 9a 16 3e 19 cc 38 3e ee cd a8 3d b9 ff 37 3e
       0.14707229 0.18046607 0.08242403 0.17968644
000320 bf 25 5a 3d d8 e4 91 3d 1e 91 35 3e 52 a4 bb 3d
       0.053258654 0.071237266 0.17731139 0.09162201
000330 96 2f cd 3d fb 5d 18 3d e5 13 97 3d 85 c0 0d 3e
       0.10018842 0.037199 0.073768415 0.13842972
000340 6a 3e 40 3e 67 84 a0 3d 52 e1 01 3e a8 83 76 3d
       0.18773809 0.07837754 0.12683609 0.06018415
000350 8b be 13 bc 2a be e8 3c be 99 91 3c 58 c9 dd 3d
       -0.009017597 0.02841099 0.017773505 0.10829419
000360 e7 17 c7 3d 51 9d 3a 3c 39 33 3a 3d 08 ed 1a bb
       0.09721356 0.011390046 0.045459006 -0.0023639817
000370 eb 30 8e 3d ac 9e 38 3d e9 cf b5 3d 4d dc d3 3d
       0.06942924 0.045073196 0.08877546 0.103447534
000380 4b d6 0c 3b b2 16 61 3d 9e f2 0a 3d f2 07 e3 bc
       0.0021490033 0.054953285 0.033922784 -0.02771375
000390 b8 59 ff 3d a0 12 9b 3d ff b4 b6 3d e4 b3 14 3d
       0.12468284 0.07571912 0.08921241 0.03630437
0003a0 ce bd fd 3d b0 6c 1e bc a3 5d 11 3e 05 8a df 3c
       0.12389718 -0.009669468 0.14195876 0.027287493
0003b0 5c e9 c7 3d e4 0a d9 3d 66 91 9e 3d c0 57 50 3d
       0.09761307 0.1059778 0.07742576 0.050864935
0003c0 de 99 35 3e 03 b4 d4 3d 61 a2 0e 3e 15 9d 56 3e
       0.17734477 0.10385897 0.1392913 0.2095836
0003d0 1d 5d 42 3d 8c a0 04 3d 92 fb 8f bc 9b 4b 04 3d
       0.04745208 0.032379672 -0.017576013 0.032298665
0003e0 76 9f c7 3d 47 7a f4 3c 32 ef ac bc cc 37 90 3d
       0.09747212 0.029843463 -0.021110151 0.070418924
0003f0 84 dd 1a 3e 6d 8e 44 3e 96 03 8d 3d c8 e7 a3 3d
       0.15123564 0.19194956 0.068854496 0.08003193

hidden_layer1.bias f4 [64]
000000 a6 95 a7 be 6d 4e 9b 3e db 6c 67 3e 85 a3 8a 3e
       -0.3273136 0.30333272 0.22600119 0.2707788
000010 2d 92 33 3e aa 8d c2 3e 84 b2 d4 3e 14 bc 40 bd
       0.1753623 0.37998706 0.41542447 -0.047054365
000020 51 d0 08 be eb 54 ba 3e 7a 4f 5e 3c f1 46 86 3e
       -0.13360716 0.36392912 0.013568753 0.26226
000030 a7 6f 66 3e 25 18 9b 3d 48 b3 54 3d 0b 5b b3 3d
       0.2250353 0.075729646 0.05192879 0.087575994
000040 59 c6 d4 3e 73 24 0a 3d 80 e6 88 3e 80 15 be 3e
       0.41557577 0.033726167 0.26738358 0.37125778
000050 95 65 89 3e e2 23 8c 3e 2f 87 76 3e c5 29 1a 3e
       0.26835313 0.27371126 0.24075006 0.15054996
000060 d9 d0 e0 bc a9 a2 a7 3e 91 a5 57 3e 1c a7 e0 3e
       -0.027443336 0.32741287 0.21059252 0.43877494
000070 ad 9e 05 3e 74 ce b0 bd 83 6e 56 3e e7 0e 9c bb
       0.13048811 -0.08633128 0.20940594 -0.0047625187
000080 e4 1d e0 3d 80 09 db 3c d0 16 b8 3e f1 33 88 3e
       0.10943201 0.026737928 0.35954905 0.26602128
000090 38 d5 5b 3e 01 c7 d2 3e b1 e1 85 3e e4 89 3f 3e
       0.21468055 0.41167453 0.2614875 0.18704945
0000a0 62 05 8a 3e 00 6f 82 3c e5 aa 6e 3e 62 4f ba 3e
       0.26957232 0.01592207 0.23307379 0.3638869
0000b0 eb c9 e4 39 15 a2 22 3e 6e 2e b7 3e ad e7 73 3e
       0.0004363799 0.15882142 0.3577761 0.23818846
0000c0 d7 af 9f 3e ff 20 b2 3e 59 09 14 bc ae 0a 8e 3e
       0.31188843 0.347908 -0.009035432 0.27742523
0000d0 33 dd c3 3d 0b 07 2d bd d3 7d 68 3d 53 f5 22 3e
       0.09563675 -0.042243045 0.05676062 0.15913896
0000e0 af 15 fb 3d 5c e1 b8 3e 2d 21 6a 3e ac a8 da 3d
       0.12259995 0.36109436 0.22864218 0.10676703
0000f0 09 73 57 3e e8 70 59 bd eb 08 91 3e 07 04 7d 3e
       0.21039976 -0.05308619 0.28327116 0.24708568

hidden_layer2.weight f4 [32, 64]
000000 ff 70 1d be 75 a2 45 3e 61 c9 20 3e 1f a0 ac 3d
       -0.15375136 0.19300254 0.1570182 0.08428978
000010 ec af 1c 3e ed 3e 83 3e 04 83 1e 3e 24 2e a7 3e
       0.15301484 0.25633946 0.15479666 0.3265239
000020 0c de d3 bd 16 90 87 3c 79 59 72 3d c6 af b6 be
       -0.103450865 0.016548198 0.05916736 -0.3568098
000030 cf be 00 3d bd da d0 3d 8f 41 25 3e 14 11 58 3d
       0.03143197 0.10197971 0.1613829 0.052750662
000040 9a 24 44 bb a3 20 eb 3d a5 17 8f 3d 07 e9 35 3d
       -0.0029929043 0.11480834 0.06986932 0.044411685
000050 cf 8a 12 3e df 1f 07 3e 79 e7 4d 3e 02 a1 03 bd
       0.14310764 0.13195752 0.20107831 -0.03213597
000060 13 c3 20 3e bc f8 17 3e 33 8a c9 3c 16 e0 99 bc
       0.15699415 0.14840978 0.024602031 -0.01878361
000070 ae df cb 3b eb 44 7c bd eb fa 95 3a 16 91 14 3e
       0.006221733 -0.061589163 0.0011442577 0.14508471
000080 5f 5f fa 3d 8f 87 38 be d0 46 3a 3e 7a ae 13 3e
       0.12225222 -0.18020461 0.18191075 0.14422026
000090 b8 83 24 3e 51 f9 55 3d 1e 92 08 3e a0 8a 0d 3e
       0.16065872 0.05223972 0.1333699 0.13822412
0000a0 5d ea 31 3e 56 03 32 bd 23 8b 6d 3c f5 de 23 3e
       0.17374559 -0.043460213 0.014498505 0.1600302
0000b0 6c ec c4 3d 74 31 e2 3d fc 06 40 3e bc e3 39 3c
       0.096154064 0.11044589 0.18752664 0.0113458
0000c0 53 b5 3b 3e 01 c6 6c 3e 38 2f 25 3e cc 11 2f 3d
       0.18330888 0.23122407 0.16131294 0.04274158
0000d0 6f 67 1a bc a2 ca d6 3d 06 93 89 3d 72 36 c6 3d
       -0.009424075 0.10487868 0.067174956 0.09678353
0000e0 6b b2 00 3e b7 33 ca 3d 07 40 40 bc 17 22 5a 3d
       0.12568061 0.09873145 -0.011734015 0.053255167
0000f0 f8 b1 06 bd 73 cf 9c bc 76 30 82 3c 34 0a 43 3e
       -0.032884568 -0.019141888 0.015892249 0.19046861
000100 95 ed be bd 14 15 0f 3e 12 eb 0f 3b 65 8d 2c 3e
       -0.09322659 0.13972884 0.0021960181 0.16850813
000110 b8 85 db 3d 84 0c 67 3e 04 92 7e 3c d0 60 7a 3e
       0.10718864 0.22563368 0.0155377425 0.24450994
000120 86 1f b8 3d e8 1a 93 3d 83 d2 cb 3d 9f d3 16 bd
       0.089903876 0.07182866 0.09952261 -0.03682291
000130 b5 8e 85 3c b3 1a 2c 3e fd 77 52 3d 2c 36 77 3d
       0.0163034 0.1680706 0.05138396 0.060354397
000140 aa 6d c1 3d 50 ea 6a 3c a6 2c 78 3e 1c a0 68 3d
       0.09444745 0.014338091 0.24235782 0.056793317
000150 4e b5 46 3e 08 4b 6a 3d 77 02 7d 3e 5c 2f 07 bc
       0.194051 0.05720046 0.24707972 -0.008251037
000160 af 60 ab 3d 31 09 e6 3d b2 81 80 3d 95 2a 35 bc
       0.0836805 0.11232222 0.062747374 -0.011057516
000170 16 20 1d 3e fb 59 eb 3d ff e3 2e 3e f5 35 02 3b
       0.15344271 0.11491772 0.17079161 0.0019868587
000180 4a 2e 53 3e 06 7a 8f 3d 5e d4 0f 3e ed 08 83 3d
       0.20623127 0.07005696 0.14045855 0.06398187
000190 24 90 70 3e 21 ff 51 3e fc ee 3d 3d e5 ad 3d 3d
       0.23492485 0.2050748 0.04637049 0.046308417
0001a0 95 7f 04 3e 3f 28 4c 3e 4c f9 2f 3e 16 87 47 3d
       0.12939294 0.19937228 0.17184943 0.048712812
0001b0 c4 aa 37 3e 69 4e fd 3c 81 4a 5f 3d 20 87 59 3e
       0.17936236 0.030921178 0.05451441 0.21242952
0001c0 54 7f 29 3e cb ec a8 3c e8 14 ba 3d be 12 0e 3e
       0.16552478 0.020620724 0.09086019 0.13874337
0001d0 01 5d 37 3e ee bc 9b 3d 28 39 66 3d e7 10 e3 3d
       0.17906572 0.07604395 0.056206852 0.11087208
0001e0 1f 8e ba 3d fc b8 1b 3e 37 c8 5c 3d ca ea a8 3d
       0.09109139 0.15207285 0.053901877 0.082479075
0001f0 f5 9e 1f 3e 7f 5d 6c 3a ec ce 02 3e 17 c1 13 3e
       0.15587981 0.00090166176 0.12774247 0.14429127
000200 df f8 f9 bd 6f 7c 15 3d dc 8b 59 3d 90 b8 34 3c
       -0.122056715 0.036495622 0.053111896 0.011030331
000210 5e 3c 42 3d 84 09 b5 3d d3 7a 00 be a8 e6 eb bc
       0.047420852 0.088397056 -0.12546854 -0.028796509
000220 2a 63 ef bd 7e 7a 88 bd 22 f8 53 3c dd 60 92 3d
       -0.11688836 -0.066639885 0.012937577 0.071473815
000230 09 32 91 3d ec e8 bd bb eb 0e 80 3c 0d ab c7 bd
       0.070896216 -0.0057955887 0.015632113 -0.09749422
000240 b8 c0 6e bd ec b5 c3 bc 9d b4 37 bd 97 99 37 bc
       -0.05828926 -0.023890458 -0.04484998 -0.011206052
000250 ca 4d f3 bd 7f d9 f8 bd 92 07 96 3d ba c9 7e 3b
       -0.118800715 -0.12150859 0.07325663 0.0038877563
000260 fc 08 98 bc c1 67 61 3d f2 dc b2 3d 5c 6c 73 3b
       -0.018558972 0.055030588 0.08733548 0.0037143445
000270 69 49 8e 3d 6b 95 2b bd d1 60 ec bc 17 15 86 bd
       0.069475956 -0.041890543 -0.02885476 -0.06546991
000280 ae 39 cb 3d 7e 7a f0 3d f6 d8 df bd 7f 96 ea bd
       0.09923111 0.117421135 -0.10930054 -0.11454486
000290 f3 99 ea bc 42 90 87 3c b9 93 e7 3c a2 d9 36 bc
       -0.028637862 0.01654828 0.028268682 -0.011160286
0002a0 23 a1 b0 bd cc ed 77 bd 8e fb e7 3d 9a 3a ed bd
       -0.086244844 -0.060529515 0.11327277 -0.11583443
0002b0 6e 17 fe bc 21 f8 31 3d 5f 38 d5 bd ca c2 09 3d
       -0.031017032 0.043449525 -0.104111426 0.03363303
0002c0 17 d3 9f 3d 32 44 c8 bd ac 29 5f 3d 9f 8a ab bd
       0.07803934 -0.09778632 0.0544831 -0.08376049
0002d0 4c 9e a3 bd 00 6e 12 3d 78 01 dd 3d 3b 74 b1 3d
       -0.07989177 0.035749435 0.10791296 0.08664747
0002e0 d2 2d c5 3d 1c ac 99 bc 76 1c 32 3d 7e 3a dd bd
       0.0962788 -0.018758826 0.043484174 -0.10802172
0002f0 6e f6 1f bd 5f d5 43 3d 8e be b9 bd fd 17 03 be
       -0.039053373 0.04781091 -0.090695485 -0.1280212
000300 c9 7e f5 bd c0 74 e4 bd db e6 bb bd 04 98 bd 3d
       -0.11987073 -0.11155081 -0.091748916 0.0925751
000310 9d 8e 4e 3d 13 d3 6b 3d 13 a7 68 bd e2 25 2a 3c
       0.050428975 0.057574343 -0.05679996 0.0103850085
000320 0c db 93 bd bb ae 48 3d 08 9c 9f 3d a0 0d e3 3d
       -0.07219514 0.04899476 0.077934325 0.11086583
000330 d8 a3 2f 3d cf 73 d4 bd cb 8b e6 bd cd 88 de 3d
       0.042880863 -0.10373651 -0.11257132 0.108659364
000340 c7 1d 48 3d ba a7 c4 bd 75 08 a2 bd b4 54 f9 3b
       0.048856523 -0.09602304 -0.07911769 0.0076089744
000350 c6 14 f7 3d 15 33 f9 bd fa dc 8e 3d ab 5e 8e bd
       0.12064509 -0.12167946 0.06975742 -0.0695165
000360 57 d5 9b bd 80 dd eb bc cb 51 af 3d a8 f7 32 bc
       -0.07609051 -0.028792143 0.08560523 -0.010923304
000370 42 a5 a2 3d e7 38 93 bd 26 80 cb 3d 6a a8 78 bd
       0.07941677 -0.07188588 0.09936552 -0.060707487
000380 d7 7f 72 bc bf 82 98 bd af a3 59 bd c8 c1 c8 bd
       -0.014800987 -0.07446813 -0.053134616 -0.09802586
000390 b0 4a a2 bd a1 84 89 bc be 46 ed bd 91 85 a7 bd
       -0.07924402 -0.016786875 -0.115857586 -0.08179773
0003a0 d1 a2 d3 3d c9 bb 93 3d 0a 6b 81 3d b8 e1 a6 bd
       0.10333789 0.072135516 0.06319244 -0.08148521
0003b0 81 42 81 3d b1 13 bf bd 3c 52 3e bd 55 9d 7d bb
       0.06311513 -0.09329928 -0.046465144 -0.0038698514
0003c0 a2 0f e3 bd 9e ae df 3b 02 55 e4 bd 45 f4 3f bd
       -0.11086966 0.006826236 -0.111490265 -0.046863813
0003d0 1b ea 16 bd 1e 17 cc 3d 8b 7d d0 3c 23 60 db 3d
       -0.036844354 0.09965347 0.025450489 0.10711696
0003e0 9a 93 ad bc cd a6 be bd 8b 09 85 bd 80 4d c2 3d
       -0.021188546 -0.093091585 -0.06495961 0.09487438
0003f0 40 55 f1 ba 01 96 ef bd f2 1a 8e bd 64 ab 55 bd
       -0.0018412247 -0.11698533 -0.06938733 -0.052165404

hidden_layer2.bias f4 [32]
000000 81 4e 78 3e 22 1d f8 39 82 15 83 bd c1 d0 e5 bd
       0.24248697 0.00047323952 -0.06400587 -0.11221457
000010 26 8a c9 be b3 0a 08 3d 5b 0f dc bb e6 ad 77 3d
       -0.3936321 0.03321333 -0.0067156977 0.060468577
000020 42 98 e0 3d ec 20 4f 3e 54 ea 1b 3e d4 41 7c 3d
       0.10966541 0.20227402 0.15226108 0.061586216
000030 58 35 99 be 1e 50 93 be de 22 d2 3c d2 c4 6f 3e
       -0.2992351 -0.28772062 0.025651392 0.23414925
000040 fe a6 dd 3d e1 ff d5 3e f3 7c ea 3e dd 0e 2b be
       0.10822867 0.41796783 0.45798454 -0.16704889
000050 b9 f4 84 3e 2b ce 89 3e 88 3e bb 3d 73 b1 09 3e
       0.2596796 0.26915106 0.09142786 0.13446598
000060 0c 99 03 3f 81 fe 30 3e 2d 77 94 3e 60 8e 1d 3e
       0.51405406 0.17284586 0.28997174 0.15386343
000070 7e e3 52 3e b7 bf b4 3e 0e 5c a4 3e 7c 38 7c 3e
       0.20594594 0.35302517 0.32101482 0.24630922

hidden_layer3.weight f4 [16, 32]
000000 26 4f 1c 3d 29 a9 a7 bd 21 a7 b3 3c 32 8a ac 3d
       0.03816142 -0.081865616 0.02193028 0.08424796
000010 89 aa 56 3e 91 f5 5e 3d 84 e2 77 3e 28 e2 13 3e
       0.20963491 0.05443341 0.24207503 0.1444174
000020 2e d2 b2 3e 72 8e a7 be cc 4e e0 bc 69 24 52 3d
       0.3492598 -0.32725865 -0.027381323 0.051304255
000030 03 5e 81 bd 85 10 a3 bd 1d 5c d6 be 79 d8 5b bd
       -0.063167594 -0.07962135 -0.41867152 -0.05367324
000040 46 77 12 be bb e6 92 3d e7 af 52 3e a8 95 5c 3e
       -0.14303312 0.071729146 0.20574914 0.21541464
000050 0a 04 ae 3d 4b e5 1b bf 36 97 ae 3d fb 23 7f 3d
       0.08496864 -0.6089675 0.08524935 0.062290173
000060 a2 a8 a4 3d 5c 05 68 3e 8e 00 56 3e 29 7f 27 3c
       0.08039977 0.22658294 0.20898649 0.010223188
000070 e0 2a 2a 3d 24 b5 9f bc 09 b3 e4 3d c2 b4 2f 3e
       0.041544795 -0.019495554 0.11166961 0.17158797
000080 85 52 c2 3c df 8e 8c 3d 28 1e f7 bd a6 ff 02 bd
       0.023720989 0.06863188 -0.12066299 -0.031982087
000090 d4 b4 16 3e 32 17 c1 bd 1c 18 55 bd 06 d9 07 3d
       0.14717418 -0.09428252 -0.052024946 0.033165954
0000a0 9d 22 06 3e c6 6e 10 be 4e 14 c7 bd 20 9f 2f be
       0.13099141 -0.14104757 -0.0972067 -0.17150545
0000b0 02 f0 4e bd af 11 f3 bc 0f 56 09 be eb 00 0f be
       -0.050521858 -0.029671518 -0.13411735 -0.13965194
0000c0 b3 e9 fc bd b2 3c 0a 3e a2 d9 58 bc a0 12 0a be
       -0.12349262 0.13499716 -0.013235481 -0.13483667
0000d0 f7 3a 66 3d b3 ba f1 bd b2 c7 5d 3d a9 3f 1f 3d
       0.056208577 -0.11803188 0.054145522 0.03887907
0000e0 7a 9b 8a 3c b1 b4 37 3d 52 60 2a be c3 89 33 3e
       0.01691984 0.044850055 -0.16638306 0.1753302
0000f0 b0 e0 33 3d 1e 7c 1f be c0 1b d9 3d 0a 3c 55 bd
       0.04391545 -0.1557469 0.10600996 -0.05205921
000100 58 26 1a 3e 15 b8 23 be 49 97 1a bd 13 0f 2d be
       0.1505369 -0.1598819 -0.037741933 -0.16900282
000110 6e 0d 2d be f9 81 02 3e aa 43 43 be 2a db ca bd
       -0.16899654 0.12744893 -0.1906878 -0.099050835
000120 2c e4 e3 bd 99 cd 47 3e 8d d9 1a 3e b0 93 33 be
       -0.11127505 0.19512023 0.15122052 -0.17536807
000130 29 c7 49 be 5d ef 3e be 5c 87 a8 3e 42 25 c8 3c
       -0.1970488 -0.18645997 0.3291577 0.024431828
000140 a2 70 ab 3d 73 3b 19 3f 4f dc 64 3d 03 26 2f be
       0.083710924 0.5985634 0.055874165 -0.17104344
000150 0e ec 7d 3d 4d ca 9d 3e ba 2e 24 be 32 cf 6f 3e
       0.061992697 0.30818406 -0.1603345 0.23418882
000160 89 09 b4 3e d8 10 50 3c f7 76 f2 bd 44 c9 20 3e
       0.35163525 0.012699328 -0.11839097 0.15701777
000170 4f 72 d4 3d ba 1a 8a 3d 0b 59 1e 3e f0 04 c2 3c
       0.10373365 0.06743379 0.15463655 0.023683995
000180 5a b2 d6 3d 44 d9 a1 bc 19 8f ac bd fe 77 94 3d
       0.104832366 -0.01975692 -0.08425731 0.07249449
000190 87 fe f5 bc e3 fc bb bc ae 76 58 3d 47 1d d8 bd
       -0.030028595 -0.022947734 0.052847557 -0.10552459
0001a0 b8 5e 81 3e 2c 66 7d 3d f5 57 9a 3d bd 06 52 be
       0.25267577 0.061865017 0.07536308 -0.20510383
0001b0 a1 7a e1 3d 76 4f 5c 3e 59 da 2f be 1a fa c5 3d
       0.11009718 0.21514687 -0.17173137 0.09666844
0001c0 a2 3e 92 3c 4a b5 a7 3e c1 31 11 3e 22 81 04 3e
       0.017852131 0.327555 0.14179136 0.12939885
0001d0 ed 30 b1 bd ee ea c0 bc c2 bc 82 3d f9 11 46 be
       -0.0865191 -0.023549523 0.06383659 -0.19342794
0001e0 b0 42 64 3d 55 4b 31 3d 30 a8 ce 3d f2 66 de 3d
       0.05572766 0.043284733 0.10090673 0.10859479
0001f0 32 c2 6f bd 13 c9 0c 3e 9b 63 e8 3d dd 68 23 3b
       -0.05853481 0.13748579 0.11347123 0.002493433
000200 a8 6b 59 3e b4 d1 24 3e c1 0f 31 be 20 4e 58 bd
       0.21232474 0.1609562 -0.17291166 -0.05280888
000210 f0 54 fd 3c 76 5d ef bd 45 b8 3a be 67 06 ab 3d
       0.03092429 -0.11687748 -0.18234356 0.083508305
000220 ef 0e 88 be 58 f8 ab be 21 72 42 3c cd ee 75 3e
       -0.26573893 -0.3358791 0.011868031 0.24016877
000230 3e 98 c4 bc 16 c5 20 be 8f af 41 3d 9f 14 95 bd
       -0.023998376 -0.15700182 0.047286566 -0.07279324
000240 3f ae d7 3d 2b c3 3b 3f fd de 8b 3e 4b bc 76 be
       0.10531282 0.7334468 0.27318564 -0.24095266
000250 7b ea 2e 3b a9 79 81 be 47 b9 4b 3e f0 79 1c 3e
       0.0026690054 -0.25288132 0.19894896 0.1528089
000260 0f 11 35 3d e5 d5 0b 3e 68 24 6c 3e fd 6c 38 bd
       0.04420572 0.13655813 0.23060763 -0.045025814
000270 91 1a be 3d d7 c1 30 3e 73 3b be 3d b4 f2 36 3e
       0.09282411 0.17261444 0.09288683 0.17866021
000280 25 2a ad bc a3 32 e6 3d 8c db 81 bd fa a8 bc 39
       -0.02113826 0.11240127 -0.06340703 0.00035984052
000290 29 5e 21 3e 6a 43 16 be 74 4d a2 bc 98 b6 11 3e
       0.15758575 -0.14674154 -0.019812323 0.1422981
0002a0 cf 42 5f 3d 2a fc a8 be 1a e7 6f 3e ef 04 c2 3d
       0.054507073 -0.33004886 0.23428002 0.09473597
0002b0 a1 cd 9f 3d 33 47 75 be 96 7e b0 be 6e 79 85 3e
       0.078028925 -0.23952942 -0.34471577 0.26069206
0002c0 b1 37 74 3d 68 2f bc 3e d8 c2 58 bd 0d a3 0a be
       0.059623424 0.36754918 -0.052920192 -0.13538761
0002d0 72 48 32 3e de a2 c7 be 99 51 da 3c c1 fb a4 3d
       0.17410448 -0.38991445 0.026650237 0.08055831
0002e0 f7 ab 75 bd e2 e3 89 3e 82 f8 28 3e a4 8b 30 3e
       -0.05997845 0.26931673 0.16501048 0.17240769
0002f0 a0 6b 4e 3e 37 32 db 3d 56 d9 20 3e e5 54 41 3e
       0.20158243 0.10702937 0.15707907 0.18880041
000300 46 34 ae 3d f6 ef 11 3e 88 b4 65 3c 99 62 a3 3d
       0.08506064 0.14251694 0.014020093 0.079777904
000310 88 a6 9d bd 80 9b 63 3d 85 d6 3c be 8c a8 5f 3e
       -0.07697779 0.05556822 -0.18441208 0.2184164
000320 7a dc 95 be 73 8d d2 be bc e3 3e 3c 01 54 0d 3e
       -0.29269773 -0.41123542 0.011650976 0.13801576
000330 d2 bb 8a 3b 6f b2 9e be 2a d1 b2 bd 03 97 61 bd
       0.0042338157 -0.3099551 -0.08731301 -0.055075657
000340 35 77 20 3e 5f f4 d2 3e ce af 8c 3e 10 99 9a be
       0.15670474 0.41202065 0.27477878 -0.30194902
000350 f1 3d 3e 3e f1 61 d3 be 32 2a 4f 3e 0a 66 7a 3d
       0.18578316 -0.4128566 0.2023094 0.06113247
000360 0d ea 70 3e 71 17 6b 3e 13 e3 67 3e 65 13 7a 3e
       0.23526783 0.22958161 0.22645216 0.24421461
000370 b0 67 03 3e 80 28 82 3e 5e 93 99 3d 00 2b c9 3d
       0.12832522 0.25421524 0.07498811 0.09822655
000380 71 c8 a9 ba 0f eb 40 3e 92 a2 1b 3e 96 c1 d7 bc
       -0.0012953413 0.18839668 0.15198734 -0.026337426
000390 e1 54 a1 bb f8 c2 53 be cb 3c b1 bd 5c 35 0b 3e
       -0.0049234484 -0.20679843 -0.086541735 0.13594574
0003a0 30 f9 68 be f9 f3 56 be 98 f0 3f 3e 56 ca 9a bc
       -0.22751307 -0.20991506 0.18744123 -0.01889531
0003b0 dc 12 4c 3d 4c 78 46 be f0 97 ca 3e b2 56 f2 3d
       0.049822673 -0.19381827 0.39569044 0.11832942
0003c0 16 b1 a8 bd 24 cb 94 3e a8 30 40 bc c6 2a ae bb
       -0.082369015 0.29061234 -0.011730351 -0.0053151576
0003d0 95 3b 40 3e a0 1a 4b bd c9 d8 87 3e f7 1d 5a 3c
       0.18772729 -0.04958594 0.2653258 0.013312808
0003e0 02 ad 1e 3e bc f6 f2 bd 28 74 d5 3d 92 3f 06 3d
       0.15495685 -0.11863467 0.10422546 0.03277547
0003f0 c7 69 f5 3d 92 5c 82 3e 12 ad 9e 3d c8 b3 3d 3e
       0.11983066 0.2546125 0.07747854 0.18525612

hidden_layer3.bias f4 [16]
000000 12 07 cd 3e f8 e3 f9 bd 35 a4 25 3f 23 51 41 3e
       0.40044457 -0.12201685 0.64703685 0.18878607
000010 0b f9 25 3e 5a b4 56 3e 08 7c d9 3e 0b 1a 1b bd
       0.16208284 0.20967236 0.4247744 -0.037866633
000020 d2 56 98 bd 32 9c 52 3e 9f 63 d4 be f3 7e b2 3e
       -0.07438435 0.20567396 -0.41482255 0.3486248
000030 0b 3b cf 3a fa 02 1c 3d 7d 67 3b 3c 2e 62 d1 3c
       0.0015810443 0.038088776 0.011438248 0.025559511

out_layer.weight f4 [8, 16]
000000 5f 87 37 bb ec a4 76 3d bd 81 a2 bd ce c9 56 3d
       -0.0028004271 0.060215876 -0.07934902 0.05243855
000010 e6 67 2d 3c 7a 0f b5 3e 4c 3c c5 bc d6 7e f1 3d
       0.010583853 0.3536337 -0.024076603 0.1179177
000020 fe c7 c2 bd 6e ce 63 3e ce e8 d6 bd 42 ea fe 3d
       -0.09510802 0.22246715 -0.10493623 0.12447025
000030 4a 5b b4 3e 54 a8 16 bf 3d 2a 11 3e 39 e7 e5 bd
       0.35225898 -0.588506 0.14176269 -0.11225743
000040 39 59 20 3e 84 88 0a 3d 40 90 77 3e 06 4b 18 be
       0.15659036 0.033821598 0.24176121 -0.14872369
000050 c1 17 ad 3e 7f f3 ac bc 50 29 1a 3e 59 0d 4f 3e
       0.33807185 -0.021112202 0.15054822 0.20219935
000060 1e 2d 5a bc 15 52 79 3d 9c e4 73 3e 6e 32 d2 bd
       -0.013316421 0.060869295 0.23817676 -0.10263525
000070 33 78 0f bc 97 cb 97 be f6 ca cc bd 5f af e2 3c
       -0.008756685 -0.29647514 -0.09999649 0.027671514
000080 2c 14 c0 3d 0b 3c 12 3d 37 37 05 3c ba 25 fd 3d
       0.093788475 0.035701793 0.00813084 0.123607114
000090 74 38 c9 3d d6 06 e5 3b 7d 1c a6 3e d1 97 22 be
       0.09825221 0.0069893403 0.3244361 -0.15878226
0000a0 4f 40 dd 3d be c4 7f 3e 59 c4 60 3d 2c 9c 26 3e
       0.108032815 0.24977395 0.05487475 0.16270512
0000b0 3a a7 ea bd 1a c0 08 bf 20 76 5b 3e 0d 21 b0 bc
       -0.11457677 -0.53418124 0.2143178 -0.021500135
0000c0 d4 49 75 bd 6b 97 6e 3e 57 3e ea 3e 73 28 b1 bd
       -0.05988486 0.23299949 0.45750687 -0.08650293
0000d0 6f db 9f 3e f4 89 92 3e bb 63 ab 3e a2 fa 72 bc
       0.31222102 0.28620875 0.33474526 -0.014830263
0000e0 0b 26 35 be 67 72 96 3e 29 d1 5b bd 36 55 d1 bb
       -0.17690293 0.29384157 -0.053666268 -0.0063883318
0000f0 d9 3f d6 bc fd 7d 28 be e5 cf 3b be 17 6c 23 be
       -0.026153492 -0.1645431 -0.18341024 -0.15959202
000100 6e 37 a1 be 20 85 fb 3d b6 94 7c 3e 26 d6 74 be
       -0.31487602 0.12281251 0.24666104 -0.23909816
000110 68 73 9d bd b1 c6 19 be ba c8 e1 bd f4 7b 34 3e
       -0.076880276 -0.15017201 -0.11024614 0.1762541
000120 3f 0f 44 3e c7 6f 01 3e b9 f0 70 3e 7d 6c 9b be
       0.19146441 0.12640296 0.23529328 -0.30356207
000130 4a f0 79 3e 17 9a 13 be 33 59 e6 3d 50 88 2a 3d
       0.24408069 -0.1441425 0.11247482 0.041633904
000140 f1 4c 0a 3e b7 1d 14 3e 18 be 13 be 37 cf 72 be
       0.13505913 0.1446446 -0.14427984 -0.23711859
000150 85 91 04 bc 21 8b 64 bc 90 68 71 3d 06 d2 95 3d
       -0.008091335 -0.013949187 0.05893761 0.073154494
000160 70 0e 66 3d bb 52 bf 3d 79 e5 91 3e 76 14 3d be
       0.056166112 0.093419515 0.28495386 -0.18464836
000170 bd 6e 9d 3e 64 46 84 be b8 3e 51 be 69 c9 80 be
       0.3074855 -0.25834954 -0.20434082 -0.25153664
000180 bb 21 8f be e9 3e 1a be 3f 0a 27 be 83 63 45 3e
       -0.27955422 -0.15063061 -0.16312502 0.19276242
000190 0f 01 f4 bd 70 13 e1 3d 81 aa 54 bc 74 5a 22 3e
       -0.119142644 0.109900355 -0.012980104 0.15854818
0001a0 07 a7 83 be cc 12 16 3d 13 2a b4 3d 19 6e 8d 3d
       -0.2571337 0.03663902 0.087970875 0.06905765
0001b0 37 9e 8e 3e 6a 02 b4 be c8 52 ff bd 61 06 28 3d
       0.27855083 -0.35158092 -0.12466961 0.04102171
0001c0 a7 1e 5e 3d 18 c1 22 be 06 f8 1e be e1 59 2c be
       0.05422845 -0.15893972 -0.15524301 -0.16831161
0001d0 c1 ac 82 3e c3 b4 5d 3e c6 78 07 3e 2f c4 36 bd
       0.25522426 0.21650986 0.13229665 -0.04462069
0001e0 7c 67 5c 3c 89 e2 66 3e 00 f0 aa 3e 13 ac 56 be
       0.013452407 0.22547354 0.3338623 -0.20964079
0001f0 c0 77 c7 bd cb 57 88 be 76 bd 5a be fe c1 1d 3d
       -0.097396374 -0.2662948 -0.21361336 0.038515083

out_layer.bias f4 [8]
000000 06 89 bb 3d 32 85 e3 3e dc f2 38 3e 6f 0e 14 bc
       0.091569945 0.44437557 0.18061393 -0.009036644
000010 99 af ef 3d 6a 41 4b be b6 7a 77 be e2 b2 dc be
       0.117034145 -0.19849172 -0.24167904 -0.43105227
