models/DQNfactorized_param1.pth (torch, 46417 bytes, 8 tensors)

hidden_layer1.weight f4 [64, 126]
00000000: fc48 a9bd 0200 9abd 2ba5 e4bd e9cf a8bc
00000010: 7b9f 983d 056a e63c 5f22 843d 1142 91bd
00000020: 920b 043d 2766 14bc dbd0 013d 1c46 4d3c
00000030: 6bcc 1abd 514f 093e f88f bf3d 1c16 203e
00000040: a780 203e 5a70 f03d c70b 503e 6adc 2c3e
00000050: 1cc5 493e 2498 643d ce9b e4bd c433 ca3c
00000060: 25f4 063e b615 45bc 260e 8c3e c179 8b3e
00000070: d183 d53d 49b7 7f3d 5b11 c03d 2153 fc3d
00000080: e7a7 803d 0aae 9f3e 1f66 9e3e e6fc 5ebe
00000090: e628 e4bd 3be8 0fbd 3fc8 423d fec8 1f3d
000000a0: 069f 2c3d e376 343e 4191 44be bf80 99bd
000000b0: 2bbf 7b3b ea4e b33d 17bd 1f3e a769 953e
000000c0: 8189 963e b267 3dbe bf5b d3bd f7c1 a23c
000000d0: 0d26 163d 9d9e df3d e079 d03d 4297 563e
000000e0: 2fa6 683d 3b31 613c c9e8 c03d 97b3 113e
000000f0: cfa9 2c3e d90c 933e ebff 653e dafb cbbb
00000100: 1896 10bd a35c 4c3d 8da2 9c3d d866 873d
00000110: 2381 cb3d 1110 533d e85f 7fbd ee1f 21bc
00000120: 9aee ef3d 996d 5d3c 0147 793d ff9a 213e
00000130: 6cd3 573e af86 213e aaa8 e33d 4d89 0c3e
00000140: ef99 bd3d 763d 533d e329 613e 71e0 9c3d
00000150: 7d6b 6cbe 579a 76be 4152 8abe a4ee 64be
00000160: 739e a5be 17ac 88be f778 76be 306a 48be
00000170: be48 36be 0056 afbd 3153 26bd c62d 2dbd
00000180: a2d8 e33d 27fb 903d c9c1 9ebd 77c9 48be
00000190: 00ae dfbd 0795 4dbe 5ff5 25be eaa2 17be
000001a0: 1827 88bd 64a4 63be 67a9 91be cbd5 b7be
000001b0: a28a 51be 6670 b8be 3751 57be f687 b7be
000001c0: 5bb2 03be c17e 34be 75c6 07be f006 42be
000001d0: 6ac1 60be 15d1 05be 7441 bbbd 91e3 10be
000001e0: 8663 cbbd 9117 09be 018b 82bd 84dc 13bc
000001f0: c95e c43d 26de 173d 11f6 c3bc dbe8 dcbc
00000200: 9dae cd3d d3f9 8f3d 54e2 753d f87d 57bd
00000210: adc9 af3d 429b 933c 75a9 263d c1b6 28bd
00000220: cede 093d a1de 293c 57a9 87bd 4e4b fdbb
00000230: 2f0f 47bd a4ba e2bd d8d8 6ebd 59bb d8bd
00000240: b3c5 1fbe 1044 26be 4a4c 82be 7339 8bbd
00000250: 24f0 c5bb 87c7 1dbe 6250 8abd 45a8 18bd
00000260: 0505 16be f6b0 0abe 1087 423d b763 ad3d
00000270: 5b14 b63c b482 d93d 0c8e 183c dbc8 5c3d
00000280: fd75 3e3d 3edd a4bd 33f1 babd 2828 3bbe
00000290: 9437 2dbe dfb2 12be 2d6a 30be fc2d 85bd
000002a0: 4e2f c0bd a39d 28be 110e e1bd 1bee eabd
000002b0: db28 aabd 371a 83bd 7429 2abe e7f8 10be
000002c0: 140f 32be 3220 b3bd f4d5 26be 7a72 d6bd
000002d0: d9b9 2fbd db35 22be d0e7 a63c 05ff 05bb
000002e0: f2b1 773c 9284 d138 6a8c 9d3c 2e65 923c
000002f0: dff3 fa3b 333d 063e 73e3 373d 654f f13d
00000300: 1592 2b3d 725a b63d d494 2b3d 29ff ae3c
00000310: 8983 543d dd38 113c d60c 073e fe92 c23c
00000320: 6f50 6c3d 0641 8cbc 30d2 91bd 8b4d 023d
00000330: b3f8 b63d 8d49 6cbd 3713 87bb 50a4 15bd
00000340: a9b3 a0bc ad86 76bb 1dd4 f83d 92df 1c3e
00000350: d22b 0b3d 30c0 a83c aff8 0c3e 48fa 183d
00000360: 01b5 103e c2b6 ba3d 7842 1b3d 1cd1 91bc
00000370: 2ede 25bd fa4b 593d 5030 5bbd b515 083b
00000380: 3011 03be 9bfc c1bd b9ea 00be 905d f3bc
00000390: 8894 bfbd 7cad 5abd ee68 39bd ed3d 0fbe
000003a0: 18cc 12be 941f e6bd 4c6b 40bd 38f9 dbbc
000003b0: 800b b9bd bdf9 d1bd 4919 eebc 0281 ecbd
000003c0: 57da 0bbd c5d2 6dbd f28d 83bd 91d9 7abd
000003d0: 1730 10be 5a28 873d 5a3f 583d 4526 46bc
000003e0: 2731 acbc a171 523a 4fb3 d8bd e2c2 9cbc
000003f0: e19b 083e 2e63 d93d 3492 de3a 2199 94bd
-0.08265874 -0.07519533 -0.11164316 -0.020606952 0.074522935 0.028126726 0.06451868 -0.07092679
0.032237597 -0.009057558 0.03169332 0.012528922 -0.037792604 0.13409163 0.09353632 0.15633434
0.15674077 0.11740179 0.20316993 0.16880956 0.19704098 0.055809155 -0.1116253 0.024682887
0.13179071 -0.012029102 0.27354544 0.27241328 0.104255326 0.062430654 0.0937831 0.12320543
0.06282025 0.3118747 0.30937287 -0.2177616 -0.11140613 -0.03513358 0.04755425 0.03901004
0.042143844 0.17623477 -0.19196035 -0.074952595 0.0038413506 0.08755286 0.15599476 0.2918217
0.29401782 -0.18496588 -0.103202336 0.01986788 0.03665738 0.10918925 0.10179496 0.20956138
0.05679911 0.013744648 0.094194 0.14228664 0.16861652 0.2872074 0.22460906 -0.0062250914
-0.03529939 0.049893033 0.076481916 0.06611413 0.0993674 0.051528994 -0.062347323 -0.009834273
0.117154315 0.0135149 0.06085873 0.15781783 0.21076745 0.15774034 0.111161545 0.13724251
0.09257876 0.051572286 0.21988635 0.07659996 -0.23087879 -0.24082313 -0.2701588 -0.22356659
-0.3234745 -0.26693794 -0.24069582 -0.19571757 -0.17801186 -0.08561325 -0.04060668 -0.04227998
0.11125304 0.070791535 -0.07751805 -0.19608103 -0.1092186 -0.2007638 -0.16206883 -0.1480824
-0.066480815 -0.22230679 -0.28449556 -0.359053 -0.2046304 -0.36023253 -0.21027075 -0.35845917
-0.12861006 -0.17626478 -0.13259299 -0.18947959 -0.21948782 -0.1306804 -0.091433436 -0.1414931
-0.09931092 -0.13387896 -0.06374169 -0.009024743 0.09588391 0.03707709 -0.023921045 -0.026966503
0.100430705 0.07030072 0.060030296 -0.052610368 0.085833885 0.018018369 0.04068895 -0.041189913
0.03365975 0.01036802 -0.06624096 -0.0077299243 -0.048598465 -0.11070755 -0.058312267 -0.10582609
-0.1560276 -0.16236901 -0.2544883 -0.06798067 -0.00604059 -0.15408145 -0.06753613 -0.03726985
-0.14650352 -0.13544068 0.047492087 0.08466285 0.022226503 0.10620633 0.00931121 0.05390249
0.04649924 -0.08050011 -0.09128036 -0.18277037 -0.16915733 -0.14326046 -0.17228003 -0.065029114
-0.09384023 -0.16466384 -0.10989011 -0.11471196 -0.08308574 -0.064014845 -0.16617376 -0.14157449
-0.17388564 -0.08746375 -0.16292554 -0.104710534 -0.042901848 -0.15840857 0.020374209 -0.0020446193
0.015118109 9.99059e-05 0.019231994 0.017870512 0.007658466 0.13109283 0.044894647 0.117827214
0.04188736 0.0890397 0.04188998 0.021361904 0.051883254 0.008863655 0.1318849 0.023751732
0.057693895 -0.01712085 -0.07120168 0.031812232 0.08934154 -0.05768733 -0.0041221636 -0.036533654
-0.019616919 -0.0037616894 0.121498324 0.1531966 0.033977337 0.020599455 0.1376674 0.03734806
0.14131548 0.091168895 0.037905186 -0.017799906 -0.04049509 0.053050973 -0.05351287 0.0020764892
-0.12799525 -0.09472009 -0.1258954 -0.0297077 -0.09354502 -0.053388104 -0.045266084 -0.13988467
-0.14335668 -0.11236492 -0.046977326 -0.026852235 -0.090353966 -0.10252712 -0.029064791 -0.11548044
-0.034143772 -0.058062334 -0.06423558 -0.061242644 -0.14080845 0.06599493 0.05279479 -0.012094085
-0.021019531 0.0008027796 -0.105810754 -0.019135896 0.13340713 0.1061462 0.0016980828 -0.072557695

hidden_layer1.bias f4 [64]
00000000: ae9c 8c3e 1b8f bb3d f479 153e 310b 1b3e
00000010: 6315 f2bb e54e ad3e 232b 983e ba4f 1539
00000020: b68a ca3d 4c3c 2b3e 9ffc 2b3e 0aa0 80bc
00000030: 0767 ab3d f094 1f3e 105c c6bd b1aa 083e
00000040: bd34 523e fc20 673e 3dbb 8c3e dc5b 713e
00000050: d263 1b3e cf63 693e 4d24 5f3e 3e57 b73b
00000060: 14e6 373e 4c49 173e 7c4b 7e3e 6996 663e
00000070: 3c39 18be 1b0d 2e3e bd75 233e da7c b43e
00000080: a26f 903d 3913 713c d311 8dbd 2601 bf3d
00000090: 1317 8d3e aa68 f73d 0be1 653e ca4a 3f3d
000000a0: f06c 933e 0848 ed3c 0a97 3e3e 1fda e83c
000000b0: aed2 4d3e 437d 7a3e 9763 28bd 29b7 233e
000000c0: 89ce ec3d b863 373e f938 293e 0482 0c3e
000000d0: dc01 30be 5b20 d43d ce24 233e 4c7a 14bd
000000e0: 230d e73d f2a2 dc3e 2dc7 8b3d 60d9 bf3d
000000f0: 4f30 363e e027 a9bb 8111 ea3c fe01 343e
0.27463287 0.091581546 0.14597303 0.15140988 -0.0073878034 0.33849254 0.2972041 0.00014239448
0.09889738 0.1672222 0.16795586 -0.015701313 0.0836926 0.15584159 -0.09685528 0.13346364
0.2052793 0.22571176 0.274866 0.23570198 0.15174797 0.2279198 0.21791191 0.005595117
0.17958862 0.14774054 0.24833483 0.22518314 -0.14865583 0.16997187 0.15962882 0.35251504
0.07052542 0.014714056 -0.06888165 0.09326391 0.27556667 0.1208051 0.22449128 0.046702184
0.2879405 0.028965011 0.18612304 0.02842432 0.20099899 0.24461846 -0.0411106 0.15987839
0.11562831 0.17909133 0.1652564 0.13721472 -0.1718821 0.10357734 0.15932009 -0.036249444
0.112818025 0.43093067 0.06825099 0.09367633 0.17791866 -0.005162224 0.0285728 0.17578885

hidden_layer2.weight f4 [32, 64]
00000000: 0cee 36be 985c 033e fd29 f43d 1df2 f43d
00000010: 0d2c 48be e655 503d fde2 363e 8501 f7bd
00000020: 902a 56bd 3ff7 e53d f9e3 3d3c 2999 183e
00000030: e75d 503c a3cb 243e 92cc cb3c bc4b 793e
00000040: a446 f83d dd94 f23d 5215 aa3e d8c6 03bb
00000050: 1993 153e c908 01bd b5d8 873e 6a65 8c3e
00000060: 5f3c 163e 5cea 883e 95d1 fa3d d8d1 553e
00000070: 5f83 4b3e 7c64 2abe f3ac 2c3d 75ae d13e
00000080: e135 963e 4068 f83d 73a9 b13d f839 363c
00000090: ab63 893e c8b6 763e 9d8a 81bd ee2f 4cbd
000000a0: 3db1 f7ba af22 d3bd 47f1 403c 32f2 713e
000000b0: 4f8f 7c3c f73b 163d 89b4 2b3e dc3e a93d
000000c0: bb93 1a3e af1f 863d d208 233d f9e0 80be
000000d0: ff6b cbbd cd0f 2c3e c1ae 823e c8eb 0b3e
000000e0: 471f 9b3e 16ea 053f 2776 9c3d 95bd f5ba
000000f0: 02d3 7a3e 0f82 013e 0f50 533e 8f04 8c3d
00000100: 3bb4 9bbe dd12 0c3d 7b4e f73c 2ddd d9bc
00000110: 804d e13c 2ab5 84bd a4aa dfbd 7df6 a1bd
00000120: 1982 943d cacb 6e3e c045 c13d 8775 cb3e
00000130: 452b d8ba 86ce 6a3e 57a6 fdbb 285a 7c3e
00000140: 8465 783d a6d6 f03d b3a0 c73c bd3a ea3d
00000150: fd64 01be f01e b33c 6765 593e f3e4 323e
00000160: bf26 b03d cd47 673e 0caf cc3d 581f d63c
00000170: 7387 e03e aef2 13bd 9caf 223e 68ce 2e3e
00000180: 1701 a73e bcaa 0a3e e74a 09bc ad84 0d3e
00000190: 795d 0e39 261e a83e 7036 9cbd fa66 983e
000001a0: ba5c d3bd 62e1 ff3d f981 aa3d 68b7 be3d
000001b0: 0481 14be d4ed 093c fb18 133e 6aa9 febd
000001c0: c0bf 5e3e d530 12be 236e d2bc 295d 3b3d
000001d0: 54c9 43bd ce21 ba3c b138 e23d 1e30 533e
000001e0: 70fa 803e 9ade 1d3f c66b b8bd 5dcd f8bc
000001f0: c377 393e 3aac 993e 0fed b03d 1ccf 8dbd
00000200: c7f4 cabd 3824 373d f06e ef3d 3a62 e13d
00000210: a077 033d 1a3d 39be 69b7 5bbd ef71 f53d
00000220: 879c b03d 2f55 37bd 5ede 833d e8d5 2b3e
00000230: e0a3 7abc 3964 b53d 6b14 b53b 9bd6 483d
00000240: dd78 da3d 05e4 a6bd ed39 803e ff0a 7fbe
00000250: 4d03 2f3e 3cda cf3c c7d5 123e fac8 333e
00000260: 1577 403e f613 863d 2bc2 0b3e 953b 2b3e
00000270: 4f90 0e3e 4faa 38bc 9503 433b e0f1 9f3e
00000280: c47a 2a3d f8d3 0abe 99d6 423e eb8b fabd
00000290: 0d07 aa3d fa0d d63c 08bd 7ebe dab9 59be
000002a0: 1b1b d4bd a7d5 96bd 0eaf 8abc 0bab 0e3d
000002b0: 2d24 9d3d 4553 503d 9a90 df3d 7ba4 5f3d
000002c0: abea ba3e 0f74 a73d 9be4 c33a 2d51 9bbd
000002d0: 52ac b2be 206e 9f3d 36e1 293e 6e6b 323d
000002e0: 6fc9 d8bb b109 023f 84d2 953d f4b5 6c3e
000002f0: 991b 9d3d 9aa6 54bd 862f 56bb 25fb b9bc
00000300: 865d 2dbe 84d5 173e c88f 633e 9332 9c3c
00000310: 442a 173e ab77 e13d b4bf e63d 4fcc d13d
00000320: 55b4 263e ea41 463d 4dc5 833e ac72 063e
00000330: 80db 453d e46d 213e 4fe1 fd3c 016c d43d
00000340: 4c91 853d 22ef fe3c f767 053e 218d 1b3d
00000350: 4726 843e 63dd 35be 9c16 103e 9b55 8c3e
00000360: 63b2 4b3e 9b06 033e 6fae f93d a112 673c
00000370: 1764 2a3e dfd0 b4bc 2d1d 553e 35d4 5b3e
00000380: 2999 663e 3b69 423e 5c83 ec3d 76f2 d93d
00000390: 9ec6 c33c 7f8e b93d ed97 be3b 1100 e0bd
000003a0: 9a97 103c 9cc3 963d d9f5 ee3d 98a3 093d
000003b0: af05 f93c cbee 84bd 579b 833e 3467 333c
000003c0: aad4 3b3e f2f4 113e 0e05 f33d 2f49 163c
000003d0: 8558 4cbe 5ce4 5e3d 0c23 4d3e 65f3 113e
000003e0: dc7b 38bc 9723 d73e b744 0c3e 3f22 423e
000003f0: 992b ef3d 5bfe 2d3e 6ae4 053e 73a9 81bc
-0.17864245 0.1282829 0.11922071 0.11960242 -0.19548054 0.05086317 0.17860027 -0.12060837
-0.052286685 0.11228799 0.011589997 0.14902176 0.012717701 0.16093306 0.02487782 0.24345297
0.12122849 0.118448 0.3321939 -0.0020107534 0.14606895 -0.03150252 0.26532522 0.27421123
0.14671467 0.26741302 0.12247006 0.2088083 0.19874333 -0.16639894 0.042157125 0.40953413
0.2933798 0.12129259 0.08674898 0.011122219 0.26833853 0.24093163 -0.063252665 -0.049850397
-0.0018897426 -0.1030935 0.011776275 0.23627546 0.015415027 0.03667828 0.16768087 0.082639426
0.15095417 0.06549012 0.039803334 -0.2517164 -0.09932708 0.16802903 0.25523952 0.13664162
0.302973 0.5231031 0.07639723 -0.0018748516 0.24494556 0.1264727 0.20636009 0.06836807
-0.30410942 0.034197677 0.03018879 -0.026594723 0.027502775 -0.06479867 -0.10921219 -0.07908342
0.07251377 0.23319927 0.09437132 0.39738104 -0.0016492388 0.22930345 -0.0077407765 0.24643767
0.060643688 0.11759691 0.02436862 0.11436985 -0.1263618 0.021865338 0.21230088 0.1747015
0.0860114 0.22585984 0.09994325 0.026137993 0.4385334 -0.03612011 0.15887302 0.17070925
0.3261802 0.13541692 -0.0083796745 0.13820143 0.00013576997 0.328355 -0.07627571 0.29766065
-0.103204206 0.1249416 0.083255716 0.09312326 -0.1450234 0.008418519 0.14364998 -0.12434657
0.21752834 -0.1427644 -0.025687283 0.04574314 -0.047799423 0.022721197 0.11045969 0.20623824
0.2519107 0.6166779 -0.09004931 -0.030371362 0.18112092 0.3001421 0.08638965 -0.069242686
-0.09909969 0.044712275 0.116910815 0.11005063 0.032096505 -0.18089715 -0.05364171 0.11984622
0.08623605 -0.04475897 0.064388976 0.16780818 -0.01529786 0.088570066 0.0055261157 0.04903279
0.10667584 -0.0814896 0.25044194 -0.24906538 0.17091103 0.025372617 0.14339362 0.17557135
0.18795426 0.06546776 0.13648288 0.16721947 0.13922237 -0.0112710735 0.0029756774 0.31239223
0.041620985 -0.13557422 0.19027175 -0.122337185 0.08302126 0.026129711 -0.24876797 -0.21262303
-0.103567325 -0.0736497 -0.016929176 0.034831088 0.076729156 0.050860662 0.109162524 0.05460022
0.36507162 0.08176433 0.0014945449 -0.075838424 -0.34897095 0.077846766 0.16589817 0.043559484
-0.0066158096 0.5079604 0.07315543 0.23116285 0.076712795 -0.051916696 -0.0032682135 -0.022702763
-0.16930208 0.14827543 0.22222817 0.019067084 0.14762217 0.11009153 0.11267033 0.10244047
0.16279729 0.048402704 0.25736466 0.13129681 0.048305035 0.15764576 0.030991225 0.103721626
0.06521854 0.031119887 0.1302794 0.037976388 0.25810453 -0.17760234 0.14071125 0.27409062
0.19892268 0.12795489 0.12191474 0.014103563 0.16639744 -0.022072254 0.20811911 0.2146767
0.22519363 0.18985455 0.11548492 0.10641949 0.023898419 0.09060382 0.005816451 -0.10937513
0.008825207 0.07361528 0.116679855 0.03360328 0.030398218 -0.06490859 0.25704452 0.0109498985
0.18342844 0.14253595 0.118661985 0.009172722 -0.19955643 0.054417 0.200329 0.14253004
-0.011259999 0.4201934 0.13698088 0.18958376 0.116782375 0.1699156 0.13075414 -0.01582787

hidden_layer2.bias f4 [32]
00000000: 5684 973e 4b5c 2cbe aca6 c03e d39c 593e
00000010: 9253 c33c 4260 023e efa0 ac3d 1325 133d
00000020: ade9 5c3e 5e8d 5d3e d74c 253e fc40 713d
00000030: 53af 653e 237a 76bd 938f 883e 4d05 853e
00000040: 0128 bb3e 994b 2c3e 69a0 ef3d 77e1 223e
00000050: b01a 67bd e588 ac3d 469d e63e 169c 873e
00000060: 5335 eb3b 7597 de3e 501f 573e 731c bc3d
00000070: c2f1 043e ae3e ef3e a91e 373e e31d 923e
0.29593152 -0.16832082 0.3762716 0.2125123 0.02384356 0.12732032 0.08429133 0.03592403
0.21573515 0.21635959 0.16142593 0.058899865 0.22430162 -0.060175072 0.26672038 0.25980607
0.36553958 0.16825713 0.11700518 0.1590632 -0.056421936 0.08424548 0.45041865 0.26486272
0.0071779876 0.43474928 0.21008039 0.09185114 0.12982848 0.46727508 0.1788279 0.28538427

hidden_layer3.weight f4 [16, 32]
00000000: 11fb c03c c289 963e 7eba 713e 2dd9 d73d
00000010: e2e2 613e b540 6f3e 5456 063e e94a 823e
00000020: c4b9 023e 2cb4 9f3e 32df 6b3e 6bda f13c
00000030: 36fa 9a3c dcbb 6fbe f896 9b3c dd57 083e
00000040: 6c58 d53e 398a 853e 6e81 963c 31b1 493e
00000050: 5231 88be 380b 953e 461e dbbe de2e 353d
00000060: 6401 743e 8725 903e a463 313e e72e 5c3e
00000070: 3a43 873e 4295 e53d 0850 0f3e f407 9bbe
00000080: 20ee 42be 93ba a0be 5855 46be e090 a43d
00000090: 82d9 24bd 5e8b 093e 21fd 02be 7343 b43d
000000a0: 1f60 a8be 8f80 2ebd b367 a83d 1d88 883d
000000b0: cccf 06be 8bee 833d fe63 933b 75f7 513e
000000c0: 62a7 07bf fbbd edbd a806 aa3d 5bfa 9f3d
000000d0: ae20 8c3e 0745 92bd 8d66 f73e 9814 1dbd
000000e0: f6a1 5cbe 8b3e 913e 6602 a73d 787b 3d3e
000000f0: b2b3 573e 0f4c cfbd 180f 3dbd 5baf bd3e
00000100: 55b9 debe 8f94 28be cb01 34be 7256 aabe
00000110: 0f34 55be 368f 39be 3558 f53d 834f b8be
00000120: b5df 05be c3f3 dfbe f9c5 d5be d357 38be
00000130: f0a1 d1be 3408 053f 2c98 383c 2d0f 86be
00000140: 261b d0be c599 b9be 758a 3ebe 56b9 80be
00000150: 2464 643e bbcc 3ebe d259 963e d9c8 69be
00000160: 3bbc 02bf cff6 f53e ce62 c3bd 36d8 7dbe
00000170: 9135 303e c2e4 5abe 8dab 323e b5b5 d63e
00000180: ed04 503e c028 92be 3d32 8f3e 8b48 033e
00000190: aeff ec3d a7f7 a5bb 8400 1c3c 99b0 903c
000001a0: bbed cf3e d26d 90bc b819 bbbd 9381 cfbd
000001b0: f9f3 94bd c0e5 69be e412 e93d 388c b83d
000001c0: caa4 f23e 9dd1 de3d 5eb3 c63c 950a 0c3e
000001d0: ffbc 17be 5881 833d 3dca 50be f192 cf3d
000001e0: 03b4 debd 2bc4 d33e 6ded 1b3d 2756 ad3d
000001f0: f51b e03c b25a b53d c430 4ebd 80bc 873a
00000200: 7822 a13e b3b3 c43d 1097 a13e d9a4 a13d
00000210: 5b9b 953d b8ea 3e3e c5e0 713e a0a9 823e
00000220: 9493 df3e 0004 c13d 9186 153e 5d9a f43d
00000230: a198 8a3e 45be b8bd caa8 b93d ab53 8e3e
00000240: 7541 283f 240c 4e3e 5c92 4c3e 8733 0f3d
00000250: 1f79 9cbe d843 e83d 031c 10bf ceed d73d
00000260: ab22 763e 0dbc a23e 98c5 923e 2d95 a03e
00000270: a79e 243e 9250 133d e58d 953d f2d3 b0bd
00000280: 9410 253e 6e51 5bbe e591 603e 310f 2a3e
00000290: 2bc3 ca3d 242b 13be 287d f83d eb2d afbd
000002a0: 4237 7c3e 0ff1 303d f643 873d 0544 363a
000002b0: cdd5 2d3d 381f b7be ab13 ce3d e944 b83d
000002c0: d826 b73e 9c79 95bd 0767 6b3c dab7 fcbd
000002d0: 11aa b1be 4397 063e a7d8 003f c568 95bc
000002e0: 0ec0 4f3d 752f 903e 916f 12be 537d 09be
000002f0: 9ba2 4abc e491 503e ac3b 56bd c9ae 893d
00000300: 6b6b 773e b6db e83c cf9e 533d 710d 843e
00000310: 34c8 1c3e 6851 793e 2487 353e 4d58 913d
00000320: ec2f 413e f818 433e 8b12 843e 043d 9c3e
00000330: 486f 0e3e 87e8 a0be 7afa fb3d 3c22 e13d
00000340: 3aa1 ea3e ea0c ad3d 2282 2f3e f323 783e
00000350: c57f 40be b6fb 4bbd a97a 03bf 63da 013e
00000360: 59cf 673c 3db3 673e 0038 0f3e c702 663e
00000370: db21 cd3d a79c 6a3e 2dca db3c a563 acbc
00000380: 2ad4 213e 8847 363c 47ea 9f3e feab 123e
00000390: b9e9 46bd ab01 153e 3e2e 873d 75ad 4abe
000003a0: a903 de3d a519 97bd 8cea 0abe 4d2c c8bd
000003b0: cc76 ce3d e181 acbe 5e10 c23d 9ced 8dbd
000003c0: 57a4 f23e 0f29 e8bc 50b2 4dbd 24e6 a63d
000003d0: bfeb 49be 7bb8 6ebd c65b b43d 2b1f 9d3d
000003e0: 5d0f 45be 1b9b 213e b78c bfbc 2e45 d2bd
000003f0: 98ac 023e 1a44 143e 95c9 f63d 2896 503e
0.023557218 0.29401976 0.23606297 0.1053947 0.22059205 0.23364528 0.13118869 0.25447777
0.12766176 0.31192148 0.23034361 0.029523095 0.018918138 -0.23411506 0.018992886 0.13314767
0.41669023 0.26082018 0.018372264 0.196965 -0.26600128 0.29110122 -0.42796534 0.04423415
0.23828655 0.2815363 0.17323166 0.21502267 0.26418477 0.11210109 0.13995373 -0.30279505
-0.1903615 -0.31392345 -0.19368494 0.08035445 -0.040246494 0.1343207 -0.12791874 0.088019274
-0.32885835 -0.04260307 0.08222904 0.066665865 -0.13165206 0.06441983 0.004498004 0.20504554
-0.5298978 -0.116085015 0.08302051 0.078114234 0.27368683 -0.07142072 0.48320428 -0.038349718
-0.21546158 0.2836803 0.08154754 0.18504131 0.21064642 -0.10121929 -0.046156973 0.37047848
-0.43500772 -0.1646292 -0.17578809 -0.33269078 -0.2082064 -0.18121037 0.11979715 -0.35998163
-0.13073619 -0.43740663 -0.41752604 -0.18002252 -0.4094386 0.5196564 0.011266749 -0.26183453
-0.40645713 -0.3625013 -0.18607505 -0.251414 0.22303826 -0.18632786 0.29365402 -0.22830524
-0.51068467 0.48039863 -0.0954033 -0.24789509 0.17207934 -0.21376327 0.17448254 0.41935506
0.20314379 -0.28546715 0.27968016 0.12820642 0.115722045 -0.005064923 0.009521607 0.017662333
0.4061106 -0.017630491 -0.09135765 -0.10132136 -0.072730966 -0.22841549 0.11380556 0.090111196
0.4739135 0.10879824 0.02425545 0.13675912 -0.1481819 0.06421155 -0.20389648 0.10135449
-0.10874178 0.41360602 0.038068224 0.08463698 0.027357081 0.088551894 -0.050339475 0.001035586
0.3147161 0.096045874 0.31560564 0.0789277 0.07305022 0.18644226 0.23620899 0.2552004
0.4366728 0.09424591 0.14602114 0.11943505 0.27069572 -0.09020666 0.09065397 0.2779821
0.6572488 0.20121819 0.19977707 0.03496125 -0.30561158 0.11341065 -0.5629274 0.105434045
0.24036662 0.31784096 0.28666377 0.31363812 0.16076146 0.03596551 0.07302455 -0.08634175
0.16119605 -0.21417782 0.21930654 0.16607358 0.099005066 -0.14371926 0.12133247 -0.0855368
0.24630454 0.04319864 0.066047594 0.0006952885 0.042440224 -0.35766006 0.10062345 0.089975186
0.35771823 -0.07298586 0.014367825 -0.123397544 -0.34700063 0.1314364 0.50330585 -0.018238435
0.050720267 0.28161207 -0.14300372 -0.13426714 -0.01236787 0.20368153 -0.052303 0.06722791
0.2416207 0.028425079 0.051665124 0.25791505 0.15310746 0.2434746 0.17727333 0.0709692
0.18865937 0.19052494 0.25795397 0.305153 0.13909638 -0.31427404 0.12303634 0.10992858
0.4582613 0.08449729 0.17139485 0.24232464 -0.1879874 -0.049800597 -0.5135904 0.12680964
0.014148557 0.22626968 0.13986206 0.22461997 0.10016223 0.2291132 0.026829803 -0.021043608
0.1580359 0.011125453 0.31233427 0.14323422 -0.04856274 0.14551418 0.06600617 -0.19792731
0.10840542 -0.07377938 -0.13566035 -0.09774075 0.100812525 -0.3369284 0.09475778 -0.06930086
0.47391006 -0.02833989 -0.05021888 0.081493646 -0.19718836 -0.058281403 0.08806567 0.076719604
-0.19244142 0.15781824 -0.023382528 -0.10267101 0.12761152 0.14479104 0.120501675 0.2036978

hidden_layer3.bias f4 [16]
00000000: 24cf 4b3e cef9 5f3e 45e8 0f3e 74f2 263e
00000010: 632c 493e 23e9 4d3e bee1 823e fe2d 9c3e
00000020: 5a25 6b3e 88ad 6a3e efc2 bb3e f242 6b3e
00000030: 1e9f e33d 4334 de3d 088c e83d bfbc cc3d
0.19903237 0.21872637 0.14053448 0.16303426 0.19645838 0.20108466 0.25562853 0.3050384
0.22963467 0.2291776 0.3667216 0.22974756 0.111143336 0.10849812 0.11354834 0.09996938

out_layer.weight f4 [8, 16]
00000000: 18c7 5f3d cc38 3fbe 28ec fbbe f337 333d
00000010: 59d6 bf3d ae58 8e3e 3128 8f3e 35aa 0f3e
00000020: 455b 833e 3408 8a3e b7e0 27bf 8960 133e
00000030: 0b36 3d3e d81c 68be 3898 903e 7eb5 efbe
00000040: 5d1e 3c3e 0cd6 dabc 0929 12bf 082b 783e
00000050: 48fc a83e ba15 b63d d7cd a63e eaa8 953d
00000060: a372 4ebd d0df 4c3e 608d d4be c183 203e
00000070: 1378 7a3e bcbe 203e 81a0 a6bd 6041 f83e
00000080: 3f28 af3e d9a5 d3be 23ba e5be 9701 9d3e
00000090: 6855 103e d754 08bd cd1f aa3e 5e75 033c
000000a0: fa7c 44bd 3f95 433e 7035 d1be 9f1a a33e
000000b0: b7c3 823e e367 c3bd 6319 ce3d 6cf5 753e
000000c0: e9dd 04be eb03 f1bd 9976 23bf e5f8 1bbd
000000d0: 255f bc3d c402 893e 452f bcbc bf84 9c3e
000000e0: c28f 933e a230 3e3e 995f 78be 03bd 783e
000000f0: 0252 3dbe e006 453e fcc8 02bd 954f 003d
00000100: 3620 e2bc 2ef0 87be 7daf 903e 8db7 1ebe
00000110: 19ed 843d d51f 5dbd c0a1 833d 9d50 8e3b
00000120: dc8f bf3d 2f85 0cbe 80dd 153e 576b e03d
00000130: 136b 593e ca08 393e d333 93be c74b 0e3f
00000140: 3f9a 9d3e b78d b9be fe2a e6bd 1e1c 47be
00000150: a539 8a3e 5ce4 af3d 6c7b d03d 2234 e83c
00000160: 9c95 863e f708 c5bd 50a5 adbe 3b99 733e
00000170: 6db4 bd3b 8374 10bd a722 10be 82b7 f1bb
00000180: 7500 bb3e 2690 9ebe 1cd6 1cbc c579 953e
00000190: 0f25 083e 1aec 51be ec0d bd3e 3b2a efbc
000001a0: 440e 593e 8c7f 173c 636f 76be bde6 9bbc
000001b0: f904 923d 1d29 d7bd 70f0 6d3e a776 bc3d
000001c0: d321 a33c e71c 00bf e211 18be 3b43 45bc
000001d0: 6132 c7bd 7dcb fbbd 9c99 95bd 42bc 37be
000001e0: 72c1 803d ce86 19be 94cd cebe 9186 583e
000001f0: 4d48 723e 80c7 663d d6d1 59be 3fa8 b33e
0.05463323 -0.1867401 -0.4920361 0.04375453 0.093670554 0.27802032 0.2796035 0.14029773
0.2565557 0.26959383 -0.6557726 0.14392294 0.18477647 -0.22667253 0.28241134 -0.46818155
0.18370958 -0.026713394 -0.57093865 0.24235165 0.33004975 0.08890863 0.32578918 0.073076084
-0.050402295 0.20007253 -0.4151411 0.1567526 0.24459867 0.1569776 -0.081360824 0.48487377
0.34210393 -0.4133747 -0.44868574 0.30665275 0.1409508 -0.033284035 0.33227387 0.008023588
-0.04797075 0.19099902 -0.40861082 0.31856248 0.25539944 -0.09541299 0.10063436 0.24019402
-0.12975277 -0.117683254 -0.6385284 -0.03807916 0.09197835 0.26759923 -0.022971759 0.30570027
0.28820616 0.1857324 -0.24255218 0.24290852 -0.18488315 0.19240904 -0.031929955 0.031325895
-0.02760325 -0.2655043 0.28258887 -0.15499707 0.06490535 -0.053985436 0.06427336 0.004343106
0.09353611 -0.1372268 0.14635277 0.109579735 0.21232252 0.18069759 -0.28750476 0.5558438
0.30781743 -0.36240932 -0.11238669 -0.1944432 0.26997104 0.08588478 0.10179791 0.028345171
0.26286018 -0.096208505 -0.33915186 0.23788922 0.0057893307 -0.035267364 -0.14075719 -0.007376612
0.36523786 -0.30969352 -0.009572532 0.29194465 0.13295387 -0.20500222 0.36924684 -0.029194942
0.21196848 0.009246718 -0.24065928 -0.019030923 0.07129855 -0.105058886 0.23236251 0.09202319
0.01991359 -0.500441 -0.14850572 -0.012039955 -0.09726406 -0.12294672 -0.07304689 -0.17942908
0.06286897 -0.1499283 -0.4039122 0.21145083 0.23660393 0.0563426 -0.21271452 0.350893

out_layer.bias f4 [8]
00000000: 68a2 f6bd f892 ac3e 61ec 14bd 9cdf a6bd
00000010: b067 263e 3cfd 11be c803 f5bd b31b 1f3e
-0.12042695 0.33705878 -0.03635824 -0.08148119 0.16250491 -0.14256757 -0.11963612 0.1553791
