models/DQNfactorized_param2.pth (torch, 46417 bytes, 8 tensors)

hidden_layer1.weight f4 [64, 126]
00000000: a388 c43d c4c1 b93d e739 cd3d 64eb 21bc
00000010: c2ee 0a3e 0e53 3a3d bd6a b93d 6e7a ba3d
00000020: e020 b73c e9bc 2b3d f0c8 4f3e ca78 053e
00000030: 1800 893e 0310 293e 8c29 ef3d ba23 073e
00000040: 11c4 903e b68c 953e 7c81 893e 344c a13e
00000050: 6bb5 b13e a4c4 dabd e4b5 523d 4dc4 a13d
00000060: 4c1b 333e 318b 703e 10e4 58bc bdb6 203d
00000070: 7f09 293e f835 803d 763b 323e 6edd 463e
00000080: 8aac 8f3d f835 1f3e 6854 e23d 6ba7 c53d
00000090: 7874 5cbb a658 de3d 9d33 b73d 4b3f da3c
000000a0: e4c5 543d f447 003e 74ce db3d 5eaa 6cbd
000000b0: 939e 253c 9710 f63d ad2b 7c3b f4fa f13d
000000c0: 87f6 af3c dc25 b3bc bacf 02ba 5626 533d
000000d0: 5a26 9c3d 59dd 0c3d deee b83d 938b 393d
000000e0: d823 0b3e 1aed e93d ef39 613e 45e4 0b3e
000000f0: d8c4 4b3e d22d 8e3e 8c53 513e 90a1 a63d
00000100: 42d2 193e 898f 153d 26a3 f3bb fd77 233e
00000110: 1b26 803d 6996 113e 8d60 063e 2c54 853d
00000120: 1937 873d d99e 5d3d dc5e 883c 1627 853c
00000130: c4cd d53c 7d33 6f3d 5c58 9fbb ecb7 263d
00000140: 509a f33c 3213 703d 1cbd 143d 6742 ac3d
00000150: 0c5e c33d 51a1 813d d326 b23d 0689 dc3d
00000160: 5a58 88bd 5624 bb3d 99eb 4fbd fd94 993d
00000170: 95ef 313c d67d 043d c3bc ed3d 0567 5e3d
00000180: ce54 1a3e 999d 4e3a 2e43 0e3d dc57 913d
00000190: 5f0b 5b3d 1448 003e 78ef 8f3c b8f2 fa3d
000001a0: 65ad 2c3c a373 0b3e a369 e63a 0f83 023e
000001b0: 0ca7 ff3d 047f 3fbc 648a d139 6d68 fe3d
000001c0: af8f 2f3b 3cc9 d23d 4ef4 603c fc44 263d
000001d0: db79 243e 9945 f23d ec40 063e bc41 923d
000001e0: 8441 483d 5363 523d 8a32 d63c efa6 533d
000001f0: cb72 f33a 36dc 5b3d 5993 413e acbf b13d
00000200: d534 c63d 635f 553d 1583 bebb e87d 29bc
00000210: 60bb edbd 6a93 8f3e 120b 6f3e 0398 093e
00000220: 6f6a 7b3d 2460 7e3d 89e1 92bd c6b9 58be
00000230: 25d8 873d 8462 a03d e01e a93c a1bb 2a3e
00000240: 8c97 053e a147 143e 8868 983d da53 1f3e
00000250: c57b 553e 6e5e 443e 4bca 293e 9665 763d
00000260: 7d13 30bc 9eb3 6fbd 0f4e 0a3e cb13 823e
00000270: b2ce 4b3e 4a87 9c3b 66d4 4d3d b623 4d3d
00000280: 81e0 96bd 46b1 2a3e ee11 163d e85b 313c
00000290: 3893 353d 58ca ff3d 30f5 7c3d c668 2cbd
000002a0: f875 a03d 7f5d 13bc 8d82 dc3c 3ee2 a33d
000002b0: a8f1 ce3d fc2a ec3c a55f d5bc 19e5 f33d
000002c0: 366e 053e 22d3 813d aa80 09bd d99f a43c
000002d0: b5bf aebc 43e1 04be 6742 573e 898f 793e
000002e0: 9468 233e 289d 7e3c 8a93 6c3b c26b bebd
000002f0: 6810 2ebd 5367 073e 68a6 923d e6b7 c93d
00000300: 50aa fc3c 5575 6bbc 5fed 283d 79dd 163d
00000310: 0a22 b63d 3110 3c3d fdcf d13d 88f1 dc3d
00000320: 0a10 af3b b0a9 8a3c ddb4 b2bc 6ca7 a63d
00000330: 942e 6c3c d935 4abd cf2d 77bc 9157 b13d
00000340: 7a4e 32bd e38c 353d a967 903d 3776 b13d
00000350: 3769 9d3d 3b4f f93b 1f59 bb3d 74ba 4d3d
00000360: f39b afbc b212 c23c 556a d13c de10 f23d
00000370: e091 0c3e cf34 81bc 537b c53c 38dc 663d
00000380: 4c64 933d 50a9 013e b0b9 b53d a3f2 5c3c
00000390: 80bc 5a3d a36c e9bc a9ab 013e 3ae1 763d
000003a0: 5d19 423d a813 e53d 3f1d 283c 23fc b53d
000003b0: 9f3a 8ebc 1eaa 583c edf6 b03d cc13 c9bb
000003c0: fe78 dcbc 9b8c 8f3d b2af 9a3d 44b9 863c
000003d0: fec5 263d 2bfb 193e acfa bb3d 314b c1bb
000003e0: aadf f1bb d272 d83d 8ccf 37bc bc90 7c3c
000003f0: 4cdf 7f3d 076c 6dbd 99b0 2b3c 4f59 893d
0.09596374 0.09070161 0.100208096 -0.009882782 0.13567641 0.045489363 0.09053562 0.09105383
0.022354543 0.041928206 0.20291495 0.13034359 0.26757884 0.16510014 0.11677846 0.13197222
0.28274587 0.29208916 0.268566 0.3150345 0.34708723 -0.106820375 0.051442996 0.078987695
0.17490882 0.23490597 -0.013237968 0.039236773 0.16507529 0.06260294 0.17405495 0.19420406
0.07015331 0.15547931 0.110512555 0.09651073 -0.0033638757 0.10856752 0.08945391 0.026641509
0.051946536 0.12527448 0.10732737 -0.057779662 0.010108608 0.12014883 0.0038478181 0.11815444
0.021479858 -0.021868639 -0.000499006 0.051550232 0.076245025 0.03439078 0.09029935 0.045299124
0.13587892 0.11422177 0.21994756 0.13661297 0.19899309 0.27769333 0.20442027 0.08136284
0.15021613 0.03651384 -0.0074352203 0.1596374 0.06257268 0.14217533 0.13122769 0.06510195
0.06602306 0.054106567 0.016646795 0.01625399 0.026099093 0.058398712 -0.004862828 0.040702745
0.029736668 0.058612056 0.03631316 0.08411103 0.095394224 0.06329597 0.086988114 0.10768323
-0.06657477 0.0913779 -0.050761793 0.074991204 0.010860343 0.03234657 0.11608269 0.054297466
0.15071413 0.000788176 0.034732036 0.07096836 0.05347764 0.12527496 0.017570242 0.12253326
0.010539387 0.1361833 0.001757909 0.12745307 0.124830335 -0.011687998 0.00039966695 0.124222614
0.0026788523 0.10292289 0.013730122 0.040593132 0.16062109 0.11829681 0.13110703 0.07141444
0.048890606 0.051364254 0.026147146 0.051672872 0.001857364 0.053676806 0.18903865 0.08679137
0.09678046 0.05209292 -0.005813966 -0.01034496 -0.116080046 0.28042156 0.23344067 0.13436894
0.0613808 0.062103406 -0.07171924 -0.21164617 0.06633023 0.0783129 0.020644605 0.16673137
0.13046092 0.1448045 0.07441813 0.1555933 0.20847996 0.19176647 0.16581075 0.060155474
-0.010746834 -0.058520906 0.1350634 0.25405726 0.19903067 0.00477687 0.050251387 0.050082885
-0.073670395 0.16669187 0.036638193 0.010825135 0.044329852 0.12489766 0.061757267 -0.042092107
0.07835001 -0.008994459 0.02691772 0.08002137 0.10104686 0.02882909 -0.026046583 0.11908931
0.13030323 0.063390985 -0.03356997 0.020095753 -0.021331647 -0.12976556 0.21021424 0.2437116
0.15957862 0.015540399 0.0036098682 -0.09297897 -0.042496115 0.13223009 0.07160646 0.09849529
0.03084293 -0.014371236 0.041242 0.036832307 0.08893211 0.04591388 0.10244749 0.10788256
0.005342488 0.016926616 -0.021814758 0.08137402 0.014415402 -0.04936776 -0.015086605 0.0865928
-0.043531872 0.044323813 0.070510216 0.08665126 0.07686084 0.007608322 0.09147858 0.050226644
-0.021436667 0.023690555 0.025563398 0.118196234 0.13727522 -0.015772251 0.024106657 0.05636236
0.071968645 0.12662244 0.08873308 0.0134855835 0.053402424 -0.028494185 0.1266314 0.060273387
0.04738747 0.1118539 0.010260879 0.08885982 -0.017361937 0.013224153 0.08640847 -0.006136393
-0.026913162 0.0700924 0.075530425 0.016445763 0.040716164 0.15037219 0.09178671 -0.005898856
-0.007381399 0.10568775 -0.011218917 0.015415367 0.062468812 -0.05796435 0.010479116 0.067064874

hidden_layer1.bias f4 [64]
00000000: 7207 8f3e 1a21 303e b76d e43d a7cd 583d
00000010: df74 223d cac9 c13d 3992 53bd 32b4 8b3e
00000020: 0ca6 0e3e 234d a23d 633f 143e f3a7 12be
00000030: 3567 c8bd b822 803d bdc2 0dbd 931d ba3e
00000040: a839 e03d aa89 1c3e 8281 0c3e 8c58 b53e
00000050: 4d00 b83e 8134 b23e bf28 a03d f910 ef3d
00000060: b864 283d 99c3 863e 9151 963e b71a 1dbd
00000070: 2392 c23e 34be 503e 61d5 b13a a23b 05be
00000080: 28de 983d 877a 83bd f72a 533c b5b5 603d
00000090: 42b5 56be 9e4a 503e 8f6b 813e 5eb7 20be
000000a0: 7c01 4c3a 7051 2dbe 0c12 5e3d 87fa 85be
000000b0: f2c8 bf3d 06ff 6cbd d125 ae3d 2766 b03d
000000c0: bd80 e9bc 8fda 7b3e 344f 8b3e 07f9 9a3e
000000d0: 4975 333e b261 663e 6a4f 593e c8ad 813e
000000e0: 873c 85bc 3001 033e 1c19 cb3e fb53 3b3d
000000f0: 3053 ab3e 67a0 8bbd 3065 0fbe bf44 50be
0.27935368 0.17200127 0.11153739 0.0529305 0.03966224 0.09462316 -0.05165312 0.27285916
0.1393053 0.07924869 0.14477305 -0.1432188 -0.0978531 0.06256622 -0.034609545 0.36350688
0.10948497 0.1528689 0.13721278 0.35419118 0.3593773 0.34805682 0.07820272 0.11673159
0.041111678 0.26321104 0.29359105 -0.038355555 0.38002118 0.20385057 0.001356762 -0.1301103
0.07464248 -0.064198546 0.012888662 0.05486079 -0.20967582 0.20340964 0.25277373 -0.15694949
0.00077822036 -0.16925597 0.05421643 -0.261677 0.09364499 -0.057860397 0.08503307 0.08613234
-0.02850377 0.24595092 0.27208865 0.30268118 0.1752521 0.22498205 0.212217 0.25327897
-0.016264213 0.12793422 0.39667594 0.045734387 0.33461905 -0.06817704 -0.14003444 -0.20338725

hidden_layer2.weight f4 [32, 64]
00000000: eae6 9b3d f9c5 ec3d 8372 f5bd 9556 a83c
00000010: 6825 36bb c85d cb3d c3c6 7a3d 5c6f b93d
00000020: 43a3 ca3d ea7c 28bb fa4d 453e 18c2 9fbe
00000030: 09f5 8abd e767 84bd c8a7 d5be 4592 63bc
00000040: 4ef2 673d c0ac 59be a1f1 013e a705 1a3e
00000050: 36c3 113e 9646 dd3d 1d3a c4bb 9340 e83d
00000060: 6af4 7cbe e4ad db3d 329d 863d 59a1 cdbd
00000070: 96f5 683d 255f 1f3e 3e70 1d3a 53bb 823e
00000080: 1ec1 303e f27a cebd 90ed afbd a6e2 7cbe
00000090: 089c 5fbe 1233 9b3d 1f3a e13d 88c5 5abe
000000a0: 5e93 773c a2e5 7bbd e816 e1bd 3add acbd
000000b0: e409 543e 322b bbbd f4de 833d 68d7 9a3d
000000c0: b0aa 553e 6fde 1ebc 7347 a83b 45ba 3d3e
000000d0: e914 ba3d 14b1 0c3e 0fcd 953d 28fe 423e
000000e0: c47b c4bd f440 033e d1bd 7a3e d7e5 aabc
000000f0: 2826 243c ba32 553d bdf2 99be 183f cfbd
00000100: 506c 383e 6a9f 223e 49ee 8f3e 978a 993d
00000110: fa3d 033e 92cc d53d 986d 183e 8420 5a3e
00000120: d33d 473e b215 6f3d 59a4 0abd 7fdb 70bc
00000130: 1fc7 3abc 1832 023e 90aa 813c b15b d23c
00000140: 2799 8f3d 82e6 da3e a883 943d ce7d b53d
00000150: f34b 503d 2517 d23d 9390 e33d c71a 073e
00000160: 2359 66bd 1bed 003e 7ba0 923d 3456 a03e
00000170: 30b8 043e 6094 2d3e c275 d63c 67cd f4be
00000180: 3320 493e 9807 d03d a92c b1bb fcd8 853e
00000190: 9af8 f0bc 2c97 03bd 78d1 f23d a881 cb3e
000001a0: a199 b93d ef38 453d 26bd 173e c7ea 463d
000001b0: 4ebb b23d d7a7 b63e fc1e 273e b3b1 12bd
000001c0: b495 8abd 9ff9 1b3e 7f08 3d3e fb75 1b3e
000001d0: 4ca7 763e 84be 813d 2c37 4d3e ad8d ff3d
000001e0: 8d70 c6bc 2b3d f63d 66db 1c3f 6419 263d
000001f0: 8cbe 243e 96ba bd3d bef9 3b3e 71f2 4f3e
00000200: e6bf d13d b54e 3f3e 84bb eabd ae2b 93bc
00000210: 88b1 57bc 3cca 0e3e ec37 f0bb 2a25 09bc
00000220: 039a 373e de49 483d 3a9a 7e3d 8d20 1dbe
00000230: ddef 61be c241 a4bd d2e7 01bf d649 683e
00000240: 9952 3f3e 4e0e b7be 8013 c23d 88c8 0e3e
00000250: e064 8f3d 8448 bb3d 60d2 4f3e a466 ca3d
00000260: 4bf2 37be 48cc 6c3b 415f 2a3e 713f 56be
00000270: c936 823d ecd1 343e cd61 67bc a152 c43e
00000280: c1a2 fc3d 5d8c f8bd 55a5 eabd dc6c c5be
00000290: 3be4 55be 244f 113e 95c4 463e c5ea 83be
000002a0: 1e54 8f3b 01c2 d8bd 89f7 31be 7468 88bd
000002b0: ea74 213e e475 dabd 2f08 473b 041f ad3d
000002c0: 70fa 573d 5ed3 1e3c 1f84 333d a861 71bc
000002d0: ce61 a03d 5980 5f3d 6120 643b ad4f 583e
000002e0: 9db2 41be 152c b43c 0a2b 6f3e fa36 80be
000002f0: abd7 923d 19fc ea3d 092a bbbe 365b b0bd
00000300: 822c e23d 3f43 86be cba5 ba3d 792c 593e
00000310: 5fde eb3c 77e5 c6ba b0de 63be 1358 ffbc
00000320: 2859 19be fb21 31be 0a5b 3e3d dfa7 283e
00000330: a879 fb3d 27fd 263e 95c6 16be 8c51 dbbd
00000340: 2b1c 50be 140a be3d 652e f8bd 260c 883a
00000350: 71ce 313e d792 133d 031a 0dbe 302c c6bb
00000360: f68e 123e 8cd6 ddbd 4eff 6fbd 084f ae3e
00000370: e13c 8a3d e6a7 0b3d 45ca 28be eb99 d9be
00000380: 660b 9a3d 3e8f a73d 32ba 9ebd f8e0 aa3e
00000390: 3986 2e3e 997f e1bd 3f3b 63bd 8966 8d3e
000003a0: 8da6 eabd 2fd7 ab3d d01c 283e 6ac8 d03e
000003b0: d3d5 4a3c ef9b 433e 7566 64bd 476c 58bb
000003c0: 8fd4 37be 52ba d63d 5666 0d3e 0c89 4ebb
000003d0: 0ccd f3bd 25f4 18be 511b 98bd f4b0 b53d
000003e0: c44a 5abb 435f aa3c a2a3 9cbd 3536 223e
000003f0: 9936 df3d 0403 e3bd 5ff0 8b3e 4955 953e
0.07612403 0.11561198 -0.11984732 0.020549098 -0.0027793292 0.09929997 0.06122471 0.09054443
0.09894421 -0.002570922 0.19268027 -0.3120277 -0.06785018 -0.0646513 -0.4172957 -0.013889854
0.056627564 -0.21257305 0.1268983 0.15041219 0.14234623 0.10804479 -0.005988373 0.113404416
-0.24702612 0.107265264 0.065729514 -0.1004054 0.056874834 0.15563639 0.00060058 0.25533542
0.17261168 -0.10082044 -0.08590233 -0.24695835 -0.21836865 0.075781 0.10997414 -0.21364415
0.015110819 -0.06149829 -0.10990697 -0.08440633 0.20706898 -0.09139098 0.06439009 0.07560617
0.20865893 -0.009696587 0.0051354705 0.18528087 0.090860195 0.13739425 0.073145024 0.19042265
-0.09593919 0.12817746 0.24486472 -0.02086155 0.010018863 0.05205033 -0.30068007 -0.10119456
0.18010068 0.15881124 0.28111485 0.07497137 0.12816611 0.10439409 0.14885557 0.21301466
0.19457178 0.0583703 -0.03384814 -0.014700769 -0.011400013 0.12714422 0.0158284 0.025678487
0.07011633 0.42753989 0.07251674 0.08861886 0.05085368 0.10258321 0.1111156 0.13193808
-0.05623735 0.12590449 0.071595155 0.31315768 0.12960887 0.16951132 0.026179198 -0.4781296
0.1964119 0.101576984 -0.0054069352 0.26142108 -0.029415417 -0.03212659 0.11856359 0.39747357
0.090625055 0.04815 0.14818248 0.048563745 0.08727132 0.35674927 0.16320413 -0.035814
-0.06766835 0.15231942 0.18460272 0.15181725 0.24087256 0.06335166 0.20040578 0.124781944
-0.02422359 0.120233856 0.61272275 0.040551558 0.16088313 0.09264104 0.18356988 0.20307328
0.1024168 0.18682368 -0.11461547 -0.017965164 -0.013164885 0.13944334 -0.007330885 -0.008370677
0.17929845 0.04889857 0.0621588 -0.15344448 -0.22064157 -0.08020355 -0.50744355 0.22684416
0.18683852 -0.357531 0.094763756 0.13943684 0.07001662 0.09144691 0.20295095 0.098828584
-0.17963521 0.0036132503 0.16637899 -0.20922638 0.06358106 0.17658204 -0.014122439 0.3834429
0.1233573 -0.12136147 -0.11457316 -0.38559616 -0.20887844 0.14190346 0.19410928 -0.25765052
0.004374041 -0.10583878 -0.17379583 -0.06660548 0.15767255 -0.10667017 0.0030369868 0.084531814
0.05272907 0.009693949 0.043827172 -0.014732756 0.07831155 0.05456576 0.0034809338 0.21124144
-0.18915792 0.021993676 0.23356262 -0.25041944 0.07170042 0.11473865 -0.36555508 -0.08611147
0.110436454 -0.2622318 0.09113654 0.21208371 0.028792558 -0.0015174587 -0.22252917 -0.031169927
-0.14975417 -0.17298119 0.04647354 0.16470288 0.122790635 0.16307507 -0.1472419 -0.10708913
-0.20323245 0.09279266 -0.12118224 0.0010379597 0.17363907 0.03602871 -0.13779454 -0.006047748
0.14312348 -0.10831937 -0.058593087 0.3404467 0.06749893 0.034095667 -0.1648341 -0.42500243
0.07521705 0.08181618 -0.07750358 0.33374763 0.1704339 -0.110106654 -0.055476423 0.2761729
-0.11457548 0.083906524 0.16417241 0.40777904 0.012380081 0.19102453 -0.055761773 -0.0033023523
-0.17952178 0.104847565 0.1380857 -0.0031514792 -0.11904344 -0.14936884 -0.07427085 0.08871642
-0.0033308724 0.020797377 -0.07648398 0.15840991 0.108990856 -0.110845596 0.27331826 0.2916663

hidden_layer2.bias f4 [32]
00000000: 4f62 3a3e 5ad0 663e e634 043d 7139 ab3e
00000010: 1acf 4a3e 1e4c a83e fc94 713e 5ebb bf3e
00000020: 0048 a53e 3df6 043f e6b1 f03d b8cb 01bd
00000030: a64c 2d3e 9ac0 1a3e ddcd de3d eb57 b43e
00000040: abe2 fbbe 4e1d 61be 9596 283f 6a6b d4bd
00000050: cb5a 63be 2a7a cf3e 15c2 d1be 98a7 edbe
00000060: de47 433e 54b4 343e 5828 373e 0d91 673d
00000070: 9f73 f83d 232c b7be f6b0 943e c7ba 183e
0.18201564 0.22540417 0.03227701 0.33442262 0.19805565 0.32870573 0.2359199 0.37447637
0.32281494 0.5193823 0.117526814 -0.031688422 0.1692377 0.15112534 0.10879109 0.35223326
-0.4919637 -0.21983835 0.6585477 -0.1037205 -0.22202604 0.4052289 -0.40968385 -0.46416926
0.19070384 0.17646915 0.17886484 0.056534816 0.12131428 -0.3577586 0.2904126 0.14915

hidden_layer3.weight f4 [16, 32]
00000000: 3c94 de3d 95bd bb3d e06f 3ebc 993f b83e
00000010: b332 28be 68ed 9fbd a97f 12be 2c4e efbd
00000020: 034d cebd 3976 1b3e 3ed8 05be 62a2 63bd
00000030: 4155 933d a667 4f3d a74e a2bd e8f6 acbd
00000040: 981c a03e c7e6 553e 6525 b83c 61d7 1abe
00000050: 13fc fa3b 42a8 303e 6e9d 9dbb ebfd 4d3e
00000060: a545 4bbe 0ce9 703e afa5 783d 0bb2 913c
00000070: c1b9 ef3d 52af 9d3d 0d01 4bbe fc8b 0c3e
00000080: c066 ca3d cd05 6c3e 9531 92bd 5515 9ebc
00000090: fc9d 433e ca8e 963d f77e 793e d8e0 033e
000000a0: 4697 ca3d db4f 9e3d 67d8 033d f138 2bbe
000000b0: 4b1e 863b ee7d 823d 96b7 153e 37eb fe3d
000000c0: e88b 7fbe 1b22 4fbd 6e82 623e 094d 23bd
000000d0: 61d9 ddbd 3171 5f3e 8908 59be bd36 77be
000000e0: d3ac 2f3e 0c03 a23d 95c8 1c3e 8e3c 8f3c
000000f0: 9738 033e 4f66 11be 6d8a 4b3d 4e0a 913d
00000100: dff1 303e 3f70 553d 67c2 7f3d 4e9b 45be
00000110: cfb7 5f3e 6e60 623e f029 623e 48a7 a03d
00000120: d405 0d3d e9f6 9eb9 2bec b23d 70bc 51be
00000130: 84b3 303e 8690 753e 718c 3c3e 3310 4f3e
00000140: c1c3 c9be 0e15 29be 65e5 353e 76dc 143e
00000150: 76f8 49be 8451 55be edfe 34be 1b2e 1fbe
00000160: 8600 4f3e 4c3c 1fbe 1241 a8bc 6699 dc3d
00000170: 8dc8 813e f17f 92be d035 413e a257 953e
00000180: 2b42 45be 415f 573e 0756 71be a093 cc3e
00000190: d710 aabd c257 4ebe 4937 08bd c678 3cbe
000001a0: a959 4d3e a0d3 b13e f7d0 e4bd 5243 81bc
000001b0: 454e 683e 329c 32bd 071d 803c ad7d 813d
000001c0: 79c8 cc3e ed53 713e a8b7 0e3e c37b 83bd
000001d0: 5db2 d9bd 58b9 973e 1a2a 0e3e 2a3e 463e
000001e0: 4fe6 d5bd c21f ad3e 266f ccbd cfd3 a63d
000001f0: ef19 9e3c 2374 dbbc e46d 0ebd 6cc7 a73e
00000200: c282 99bd 68ce 12bd b7f4 35be 75bd b43d
00000210: 4615 86be c54a 8cbe d45c 5ebe b3f1 1b3d
00000220: bec7 233e fa3f 073e ccdc 7abe 7135 3b3e
00000230: 2bea 943e c848 58be f43a 9e3d 93fd f4bc
00000240: d519 a8bd 2a5a 1d3e f064 b6ba 0fdf 283e
00000250: a331 9a3d 646c e73d 1b31 2a3e 4bc2 283e
00000260: 8b35 14be 09f6 7e3e 88db 0e3e 9b05 df3d
00000270: fc26 8f3c 37ae 933e 2530 233e 8190 2cbd
00000280: 096c 203e dc81 67bd 6b07 513e 9e75 1dbe
00000290: 14d1 443e 98e5 31bd 134d 213e dce1 b4bd
000002a0: 57dc 96be 5b73 d9be 9ee2 233e 09c2 14be
000002b0: 2ed7 473e 567b 0a3e 5185 c2bd 99b0 30bc
000002c0: 6765 44bd 1ab3 d03d 8df4 d4bd 9470 a43d
000002d0: c740 2cbe e2bf 9cbe 12ca 9e3d 6715 e53c
000002e0: 11bf 2d3e 11b2 62be 7043 3d3e bc4d 0c3e
000002f0: e766 523e 2c65 95bc 71bd 0cbc 5d9b 28be
00000300: 0633 153b be67 3e3e 1754 ab3d 1c96 253e
00000310: 2609 c03d d01e e53c 315e 1abe e008 18be
00000320: 8569 5cbe e7b5 e3bd 36ee 073e ca48 183e
00000330: 142f 0c3e 638c 95bb 1ddb b73d c074 9a3d
00000340: bf30 cd3e 58c3 523e 5872 bfbd e746 b7bd
00000350: 66df 883e 1321 0bbe ee56 2e3e 254c 733e
00000360: 5e5b 18bd 050e ea3d dd23 4c3d 7422 d23d
00000370: 4a15 ca3d 3e35 863d fb37 413e 37ec dcbc
00000380: b6e5 333e e794 1d3e 37cc 8b3d b2a5 9cbe
00000390: e037 1b3e eead ca3d 1ad6 833e 196e fc3d
000003a0: e50b 11be 206f e6bd 7dda 2c3e 8496 00be
000003b0: 8a50 873e 14fd 8b3e e2dc b73d 0214 c83d
000003c0: e1d5 c3be 60bc 2f3d e596 cc3d 8510 1e3e
000003d0: 2dca 14be 321a 713d 1a24 5ebe dc73 7cbe
000003e0: 9593 fd3d 654c 96be 1bad 6c3e 6136 8c3e
000003f0: 3d16 423b 6209 76be d664 023e b5f7 943d
0.10868117 0.09167019 -0.011623353 0.3598602 -0.1642559 -0.078089535 -0.14306511 -0.11684832
-0.100732826 0.15181817 -0.13070771 -0.055574782 0.07193995 0.050635956 -0.07925158 -0.08445531
0.31271815 0.20888816 0.022478769 -0.15121223 0.007659444 0.17251685 -0.004810027 0.20116393
-0.19850786 0.235264 0.060704883 0.017785093 0.117053516 0.07699455 -0.1982462 0.13725275
0.09882879 0.23049088 -0.07138363 -0.019297281 0.19103235 0.073514536 0.2436484 0.1287874
0.09892134 0.07730075 0.0321888 -0.1672094 0.0040929667 0.063716754 0.14620814 0.124472074
-0.24955714 -0.050569635 0.22120067 -0.03986839 -0.10832477 0.21820523 -0.21194662 -0.24141975
0.17155771 0.079107374 0.15310891 0.01748493 0.12814556 -0.14199184 0.04969256 0.070820436
0.17279766 0.052109 0.062441256 -0.19297525 0.21847461 0.22107098 0.2208631 0.07844406
0.034429386 -0.0003032007 0.08736452 -0.2048204 0.1725598 0.23980913 0.18412949 0.20221023
-0.3940716 -0.16511938 0.17763288 0.14537224 -0.19723687 -0.20831877 -0.17675371 -0.15544932
0.20215043 -0.15550345 -0.02053884 0.10771446 0.2534832 -0.28613237 0.18868184 0.2916842
-0.19263522 0.2103243 -0.23567973 0.3995638 -0.08303993 -0.20150664 -0.03325585 -0.18405446
0.20053734 0.3473177 -0.111726694 -0.015779171 0.22686107 -0.04360599 0.015638841 0.06322799
0.39996698 0.23567171 0.13937247 -0.0642009 -0.10629723 0.29633594 0.13883248 0.19359651
-0.104443185 0.33813292 -0.099821374 0.08145868 0.019299475 -0.026788777 -0.03477277 0.32769334
-0.07495643 -0.035841376 -0.17769133 0.088251986 -0.26188105 -0.27400795 -0.21715099 0.0380723
0.15994164 0.13207999 -0.2449829 0.18282105 0.29084906 -0.21121514 0.07726088 -0.02990607
-0.08208052 0.15366426 -0.001391558 0.1649134 0.07528999 0.11299971 0.16620295 0.16480367
-0.1447355 0.24898542 0.13950932 0.10889741 0.017474644 0.28843853 0.15936334 -0.042129997
0.15666212 -0.056520328 0.20412986 -0.15376899 0.19220382 -0.04343185 0.15752058 -0.08832142
-0.2946498 -0.42470822 0.16004416 -0.14527144 0.19515678 0.13523611 -0.09498084 -0.010784292
-0.047948267 0.10190411 -0.10398207 0.08029285 -0.16821586 -0.30615145 0.077533856 0.027964307
0.16967417 -0.2213824 0.18482757 0.13701528 0.20547067 -0.01823672 -0.008590088 -0.16465516
0.0022766008 0.18594262 0.08365648 0.16170543 0.09376745 0.027968794 -0.15074994 -0.14847136
-0.21524628 -0.111186795 0.13274464 0.14871517 0.13689834 -0.0045638545 0.089773394 0.075417995
0.40076253 0.2058233 -0.09347981 -0.089490704 0.2673294 -0.13586836 0.17025349 0.23759516
-0.03719651 0.11428455 0.04983889 0.10260478 0.09867342 0.06553124 0.18869011 -0.026968105
0.17568097 0.15388833 0.0682606 -0.30595165 0.15158033 0.09896456 0.25749284 0.12325687
-0.14164694 -0.11251664 0.16880222 -0.12557417 0.26428634 0.2734152 0.08977677 0.09769441
-0.38249114 0.042904258 0.09989718 0.15435989 -0.14530249 0.058862872 -0.21693459 -0.24653572
0.12381665 -0.2935516 0.2311291 0.27385238 0.0029615306 -0.24027017 0.12733778 0.07273809

hidden_layer3.bias f4 [16]
00000000: 0665 373e d961 f23e d656 843e f8b5 963e
00000010: d073 0ebe 9f6f 733c 0c20 14bf 06fc a83e
00000020: 4f6c 803e c8c3 94be 0419 88be 4d19 c7bd
00000030: 4529 cb3e 898b 023e 5e54 07bf 9195 c53e
0.17909631 0.47340277 0.258475 0.29435706 -0.13911366 0.0148581555 -0.578614 0.3300478
0.25082633 -0.2905562 -0.26581585 -0.097216226 0.39679924 0.12748541 -0.5286311 0.38590673

out_layer.weight f4 [8, 16]
00000000: db99 b7bd b9d6 bcbd fc0f a33e f650 9dbd
00000010: 5412 a1be fd77 2b3b 14c8 53bd 444f a53e
00000020: 16a7 533d 8c31 8b3e c1d1 c6be bc2b 683a
00000030: de65 bebd e0e8 e5bd 46cb fabe 2bbd 68be
00000040: 5585 aebd bc3a 923e abcc 263e c7b2 a43d
00000050: 5061 36be 87e8 39be 704c abbe ef9c d53d
00000060: 52f5 903e 1aed a33d c8e7 82be ebd8 2ebe
00000070: 50f2 2f3e 0009 f3bb 6b0e 48be f50d b1bd
00000080: e6fb 83be 0bfd 1a3e 0052 ed3d 7216 33bd
00000090: dbf9 cfbe e72a c13d 4897 8ebe c925 c1bd
000000a0: 7d37 683e 0ca5 f8bc e2d9 1bbe 3d34 36be
000000b0: 361a 6c3e 001f dc3b 9e74 6dbe f1a5 a1be
000000c0: deb4 8cbe 231f 93bd 4661 1ebb cc96 8abe
000000d0: 5b29 8bbe 5213 263e b697 62bd 4cdb 963e
000000e0: 21af a2bd 77cc 2cbe d239 bdbe 41b4 2e3e
000000f0: 67c5 933e 8dfd e4bd e131 85be d0e4 303e
00000100: 5345 debd db1a 15be 91ac 613e 8072 6cbe
00000110: d68d 373e bb2b 2a3e 3226 c7bd 7f52 8d3e
00000120: 1601 afbd d186 5b3d 5244 a9bd f92b adbd
00000130: 1786 50bd e1a7 92bd a4e4 063e 0180 533d
00000140: 4d75 6dbe 7e28 26bc bb1c 1d3e d907 11be
00000150: f76d 3bbe a8a2 2c3e e31d 573e dbfe 26be
00000160: 42f4 533e bce8 db3d a250 f4bd 2545 783e
00000170: fbeb b63c 2dc7 453e c766 90bd f62f d4be
00000180: dc00 843d a848 663e 4286 19be 1c7b 06bf
00000190: 64d5 2dbe d389 9a3d 2ede 843e 334d fb3c
000001a0: a40f 103d eeaf c1bc ede8 9abd 67bc 09be
000001b0: 07ca b93d 62ea 233e 1573 0dbd 30d7 85be
000001c0: dc7b 23be bf79 973c f45c f5bd 5164 b8be
000001d0: be87 b8bd 2d2f 663e beb0 02bd 7114 433e
000001e0: 891f 123d afd6 013e bdf1 94be 9a71 1fbe
000001f0: d6c5 ffbd f0d8 94bd b1d1 b53d 684f e0bd
-0.089648925 -0.092206426 0.31848133 -0.07681458 -0.31459296 0.0026164048 -0.05170448 0.32287037
0.051673017 0.2718624 -0.38831905 0.00088566146 -0.092967734 -0.11226058 -0.4898321 -0.22728412
-0.08521525 0.28560436 0.16289012 0.080419116 -0.1781056 -0.18155108 -0.33456755 0.10430323
0.28312165 0.08004208 -0.2556746 -0.17074935 0.17182279 -0.0074168444 -0.1953675 -0.0864524
-0.2577812 0.1513559 0.11587906 -0.043722577 -0.40620312 0.09432011 -0.27849793 -0.09431035
0.22677417 -0.030352138 -0.15219834 -0.17793365 0.23056874 0.0067175627 -0.23189017 -0.31571916
-0.2748174 -0.07183673 -0.0024166866 -0.27068174 -0.2717999 0.16218308 -0.055320464 0.29464185
-0.079435594 -0.16874872 -0.36958176 0.17060949 0.28861544 -0.111811735 -0.26014617 0.17274785
-0.10853066 -0.14561026 0.22038485 -0.23090553 0.179252 0.16618244 -0.09724082 0.27602002
-0.08545129 0.053595368 -0.08264984 -0.08455653 -0.050909128 -0.071609266 0.13173157 0.051635746
-0.23189278 -0.01014149 0.15342991 -0.1416315 -0.18303667 0.16858923 0.21007495 -0.16308157
0.20698646 0.1073775 -0.11929442 0.24245127 0.022329321 0.19314261 -0.07050853 -0.4144284
0.064454764 0.22488654 -0.14992622 -0.525316 -0.16975933 0.07545819 0.2595076 0.03067646
0.035171166 -0.02364346 -0.07563958 -0.13450776 0.09071737 0.16007379 -0.03453358 -0.26140738
-0.15965217 0.01849067 -0.1198062 -0.36014035 -0.09010266 0.22478934 -0.031906836 0.19050767
0.035674606 0.12679552 -0.29090682 -0.1557068 -0.12488906 -0.0726794 0.08877886 -0.109526455

out_layer.bias f4 [8]
00000000: 5638 623e 4901 353e a0a2 843e 1aab cf3e
00000010: 82da 95be 972b 95be 97b4 88bd 61ab c5bd
0.22091803 0.17676271 0.25905323 0.40560228 -0.2926827 -0.2913482 -0.0667507 -0.096518286
