models/DQNfactorized_param1.pth (torch, 46417 bytes, 8 tensors)

hidden_layer1.weight f4 [64, 126]
00000000: e682 06bd e859 833d 24b1 323d 6a33 17bd
00000010: 7090 c73c 98cd 793c 7c46 a63d 9b98 a6bd
00000020: 53c0 49bd 10ad f4bb e4bf 4a3d 4284 b13d
00000030: e847 84bd 4c0b c43c b89b 383d becd 0ebd
00000040: 9294 9b3d f995 4fbd 881b 043d 7262 803d
00000050: c85b 213d 70de 25bc 2091 ae3d 3f1d 34bd
00000060: 30c6 ae3b 0482 e53c 369c 90bd 0cb5 9dbc
00000070: ca92 ac3d c899 6cbc 5ebe 973d b814 4e3d
00000080: c0da 943b a866 c63c a3f7 6bbd ac13 333d
00000090: d606 963d 5640 aa3d 7975 52bd 9cd3 943d
000000a0: 3885 2f3c fa55 87bd ae61 5cbd e01f 663d
000000b0: 9829 013c d036 143d a54a 36bd a166 a3bd
000000c0: 204a 32bb 9739 44bd db9b 9ebd 2c21 b63d
000000d0: 30c4 a03d f681 a53d 6414 6b3d cd68 5ebd
000000e0: 2060 03bb 9c17 703d 7222 813d 347c 6e3d
000000f0: 70bc 233d 7cd8 f53c d062 edbb 4986 26bd
00000100: 7037 d8bc 8232 19bd 08bc 90bd 20aa 653b
00000110: aecc 993d 0037 58bc 284a a03d c05e 1c3b
00000120: d484 943c 21ae 2dbd 57a6 a4bd 30ab 293d
00000130: f4ad acbc c70c 93bd e6eb a63d 68c5 0c3d
00000140: c0b8 3abb 6c4d 1b3d 30e3 91bb c4e3 cc3c
00000150: 7aec 0e3d 0ee7 efbc e083 a13c b0da 753d
00000160: 8018 48ba dca0 9a3d 4001 76bb 203b 3cbc
00000170: e04d 483d 4807 aa3d cc0f 8c3d 72ba 923d
00000180: d63f 6fbd 20c7 1f3d faaa 89bd 48d2 7dbd
00000190: e47e d23c 34ef edbc 689e 923d 7a84 8e3d
000001a0: 7484 9cbc da12 87bd d079 803b 4ce2 bb3c
000001b0: 8ee4 b03d 80e4 9c3a 5d9a 97bd 8c8d b6bc
000001c0: 1439 9abc f016 5a3d 0c2a 1c3d 400b babc
000001d0: 2829 853c 7c3e 683d 449a d0bc bc6d 443d
000001e0: 5022 b63b 47a5 8fbd c873 afbd fcd2 843d
000001f0: 680a 743d 6e90 7cbd b461 86bd aa1b 79bd
00000200: 6de0 40bd dfa2 59bd c0d2 4a3d 508e d5bc
00000210: 386b 2cbc 584e 1f3d 449e 1e3d 42e1 8e3d
00000220: b6f7 a83d 6fb6 25bd bc91 b23d e471 d6bc
00000230: 502f 1b3d a61d 933d 0094 d2b9 bd8e 8dbd
00000240: 86d7 aabd 8033 5cbd 5c31 273d d0d3 c7bc
00000250: ae08 93bd e777 94bd f3be 3bbd dcd7 92bd
00000260: 0014 72bc 304b 843c 002d 173a 780d 6f3d
00000270: 3023 d5bb f0c2 023d 9fca 20bd 4e66 abbd
00000280: 30a3 dabc 792c 98bd 109a 40bc 2af0 6fbd
00000290: 8052 d5ba 001d d8bc d13c 8dbd e0d7 88bc
000002a0: c49a 303d b408 143d d03f 33bc 5618 38bd
000002b0: 48f3 76bc 28b9 ecbc a057 88bd a3b9 3bbd
000002c0: eba1 abbd d876 013d 7eab 71bd e0f8 dfbb
000002d0: 2e0a 18bd 0033 893b 9422 083d cc4a cebc
000002e0: b0e1 afbd 88cb 9e3d e467 7ebd 9028 dc3c
000002f0: 20a6 093d d621 063d 739d 64bd 38df bebc
00000300: c049 65bc 90c8 8a3b a414 97bc f5e2 41bd
00000310: 9ea6 83bd 204d 4f3d d0ba f3bb 305d 8d3d
00000320: 8cbf 8e3c 7011 a43d d948 1ebd ac70 b33d
00000330: a879 913d 8cd8 58bd 8ed5 053d c063 8d3b
00000340: 2df7 95bd bcab a33c 6dca 49bd 1cb3 94bd
00000350: c0ed aabd f8fb fcbc 2cb3 973d 8842 9bbc
00000360: 24a3 96bd 40ee 753d 78e1 b4bd 9ca3 cd3c
00000370: d9e4 8abd 4a3d 833d 805f e73b 4c04 443d
00000380: 8dbc 13bd d00e d93b 58cb b1bd 189b 883d
00000390: e453 7b3d 883d 1d3d d01d 8b3b eed5 aa3d
000003a0: 5240 86bd dec2 abbd f8f0 81bd c8d8 623c
000003b0: 6cc4 a1bc 280e 813d 78e3 563d 7850 da3c
000003c0: 26f2 923d 76a3 96bd ec7e 323d a439 a33d
000003d0: 20df 83bc 20e0 f3bb e098 443b 47b0 a2bd
000003e0: 3c38 553d 1406 8dbc 183b 41bd 3757 1ebd
000003f0: d831 4f3d b450 6a3d 14c2 443d 001f 22bb
-0.03283968 0.06413633 0.043625966 -0.036914267 0.024360865 0.015246771 0.081189126 -0.08134576
-0.04925568 -0.0074669197 0.049499407 0.08667804 -0.064590275 0.023931168 0.04507038 -0.03486418
0.07596697 -0.050680134 0.03225282 0.06268777 0.03939417 -0.010123834 0.08523774 -0.043973204
0.0053336844 0.028016098 -0.07061045 -0.019251369 0.08426435 -0.014440961 0.074093565 0.050312728
0.0045426786 0.024218872 -0.05760921 0.043719932 0.073255226 0.08313052 -0.051381562 0.07266924
0.010712914 -0.066081956 -0.053804092 0.056182742 0.007883452 0.036185086 -0.04450478 -0.07978559
-0.0027204826 -0.047906484 -0.07744571 0.08893046 0.0784992 0.08081429 0.057392493 -0.054299165
-0.0020046309 0.058616266 0.06305398 0.058223918 0.03997463 0.030010454 -0.0072444454 -0.040655408
-0.026393622 -0.037401684 -0.07067114 0.003504403 0.07509743 -0.013196707 0.07826644 0.0023860186
0.018129744 -0.04240239 -0.08039539 0.041423023 -0.021079041 -0.071801715 0.08150463 0.03436795
-0.0028491467 0.037915632 -0.0044521317 0.02501095 0.03489349 -0.02928498 0.019716203 0.06002301
-0.00076330453 0.07550213 -0.0037537366 -0.011488706 0.048902392 0.0830217 0.068389505 0.07164468
-0.058410488 0.03900826 -0.06722064 -0.061968118 0.025695272 -0.029044725 0.0715912 0.06958862
-0.019106127 -0.065953925 0.003920771 0.022935055 0.08637343 0.0011969954 -0.07402489 -0.022284292
-0.018826045 0.05324453 0.038126037 -0.022710443 0.016254976 0.056700215 -0.025464185 0.047956213
0.0055582896 -0.07013946 -0.085670054 0.064855546 0.059580237 -0.061661176 -0.06561604 -0.060817398
-0.04708903 -0.05313384 0.049517393 -0.026068836 -0.01052361 0.038893074 0.038725153 0.06976558
0.08250372 -0.040457185 0.08719203 -0.026177354 0.037886918 0.07183389 -0.0004016459 -0.06911991
-0.08341889 -0.05376005 0.040818557 -0.024392992 -0.0717939 -0.07249432 -0.0458364 -0.07170078
-0.014775276 0.016149133 0.00057668984 0.058362454 -0.006504439 0.031924188 -0.039255735 -0.083691224
-0.026689142 -0.074303575 -0.011755481 -0.058578648 -0.0016275197 -0.026381016 -0.068963654 -0.0167045
0.043116346 0.036141112 -0.010940507 -0.044945084 -0.015072651 -0.028896883 -0.06657338 -0.045831334
-0.08380493 0.03160748 -0.05900144 -0.006835088 -0.037119083 0.004186988 0.0332361 -0.02518215
-0.08587968 0.07753664 -0.062110797 0.02687481 0.033605695 0.032747112 -0.055814218 -0.023299798
-0.013994634 0.0042353347 -0.01844246 -0.047335584 -0.06428264 0.05061066 -0.0074380413 0.0690254
0.017425321 0.080111384 -0.03864369 0.08761725 0.07103282 -0.05294089 0.032674365 0.0043148696
-0.07322536 0.01997935 -0.049265314 -0.07260725 -0.083461285 -0.030881867 0.07407221 -0.018952623
-0.07355335 0.060041666 -0.08832067 0.02510243 -0.067819305 0.06408174 0.007060945 0.04785566
-0.036068488 0.0066240802 -0.08681363 0.06670207 0.0613593 0.03838876 0.0042454973 0.08341585
-0.06555237 -0.08386777 -0.06344789 0.01384563 -0.019746982 0.06301528 0.052463025 0.026649699
0.071750924 -0.073553964 0.043578073 0.079699785 -0.016097605 -0.0074424893 0.0029998347 -0.079437785
0.052055582 -0.017214812 -0.047175497 -0.038657393 0.050584644 0.05720587 0.04803665 -0.0024737716

hidden_layer1.bias f4 [64]
00000000: 5aa0 94bd 7084 ad3b 3a8e a13d 579f 63bd
00000010: 0079 db3c c89d 403c b414 823c ab5f 61bd
00000020: 00ba 03bc 4c00 533d e086 a13d 002f 99bc
00000030: d026 9b3d 345c a73d f417 913c 35d7 afbd
00000040: a8e6 203c f4c2 893c e07b 1bbc e0b3 ed3c
00000050: 5cae 813d c39c 28bd 50be acbc e0e3 bc3b
00000060: 00ec 66bc f982 83bd 797d 15bd 48be 76bd
00000070: a4f9 ac3d 5888 a0bd 75a0 33bd 6c45 ddbc
00000080: e038 7ebd ca0b e7bc 800f ee3c 9066 8f3d
00000090: c1cf 47bd 640b 4f3d 1806 4c3d 162a 013d
000000a0: 3896 95bd 93aa 8abd a83d f93c 74e1 b83c
000000b0: a6d2 79bd 0690 0c3d 4083 fa3c d4d7 903c
000000c0: 58ec 43bc 4247 83bd 9217 72bd 1007 52bd
000000d0: d088 e8bc 867b b53d c89e 3d3c e085 4f3c
000000e0: c8b4 8e3d a0f9 ef3c 7a6b 89bd a36d 38bd
000000f0: 64ee b83c 2850 443c 67ff adbd fb79 3dbd
-0.07257147 0.005295329 0.07888456 -0.05557188 0.026791096 0.011756368 0.015879013 -0.055022877
-0.008039951 0.051513955 0.078870535 -0.01869917 0.07575762 0.08171883 0.017711617 -0.08585969
0.009820618 0.016816594 -0.009489983 0.029016435 0.063320845 -0.041165125 -0.021086842 0.0057644695
-0.014094353 -0.064214654 -0.036496613 -0.06024006 0.08446053 -0.078385055 -0.043854196 -0.027010642
-0.06206596 -0.028203864 0.029060125 0.07001984 -0.048782114 0.050547972 0.0498105 0.031534277
-0.073040426 -0.06770816 0.030424908 0.022568442 -0.060991906 0.03431704 0.030580163 0.01768104
-0.011958204 -0.06410076 -0.05910451 -0.051276267 -0.02838555 0.08861451 0.011573501 0.012666196
0.06968075 0.029293835 -0.06709953 -0.045026433 0.022574611 0.011982001 -0.0849598 -0.046258908

hidden_layer2.weight f4 [32, 64]
00000000: 388e 81bc 3c1e 373d 866f f53d 1c7f 49bd
00000010: aca2 493d 9c72 12bd c2e3 e3bd 2e73 b2bd
00000020: 2003 eb3b 3a78 833d 047b 68bd e8fc 58bd
00000030: bc7a f3bd 64a8 e13d 9246 d23d 80ac 3cbc
00000040: fa92 913d a49f 373d fa6c 93bd 20f3 ecbc
00000050: 4429 263d 34f1 2f3d 5879 86bd 2824 923d
00000060: 0603 ed3d 9027 0e3c 3035 2b3d b06b 0f3c
00000070: 44fd 763d 8029 ca3c 3cad 593d bc94 d6bd
00000080: 5c3c e4bd 0043 503c d690 bc3d 6aae ec3d
00000090: 8c81 74bd 0cd1 bcbd f830 b6bc 18b4 af3d
000000a0: 1079 24bd 54d3 163d ea8c f13d 88cd b3bc
000000b0: 60d5 5abc 009d 5e3a 043c 3bbd 60d1 74bc
000000c0: 1e46 a4bd 1010 80bc b09b 86bd a271 cebd
000000d0: e0d4 333d 56b9 a23d 1872 a8bd ba63 98bd
000000e0: 44ac a13d 5a36 9dbd c8f5 033d 64de 833d
000000f0: a29c e73d 04a2 87bd f02e f5bc b00f febc
00000100: 20b6 0b3c b005 873d 60b1 5e3c 6039 693c
00000110: 524a c33d 8892 343d 6c1b 8cbd cccb edbd
00000120: 363a f43d 2248 aebd 9e66 a63d 84f4 1b3d
00000130: 94d6 fa3d a465 92bd 2014 edbb 9025 06bd
00000140: 9896 6fbd 78e5 b6bd 80c0 4c3d 6c54 ccbd
00000150: 8861 f7bd 94d0 383d a4d2 c2bd e0ba 92bc
00000160: be09 da3d c0e6 f1bb 00a2 34bd a0aa 693d
00000170: 7482 63bd 8e84 aabd 9866 be3d cece f33d
00000180: 8c9e 3c3d 6a4b 8bbd 7ed0 a9bd 840d 4e3d
00000190: de60 88bd b89c 9abc bc49 f6bd 6e28 8b3d
000001a0: c8ac 873d 2c3e 15bd 4099 fcbd a859 f73d
000001b0: 20ff c3bb 9058 f5bd c0a4 6e3c 20f4 b23d
000001c0: c8d6 4fbd fe4c fc3d 50b2 2d3c a6fb f53d
000001d0: 6831 dcbd c6f2 e83d 20d6 b53c 80f5 99ba
000001e0: 9073 703d 40dd 89bc 909b d0bc e2c2 c33d
000001f0: a0bb 94bc ac47 4d3d 1811 f7bd 0add e53d
00000200: b4ae 783d 3442 1e3d c88f 74bd 403a 60bc
00000210: 2cde 553d 003a 3fbb 6c99 6c3d bcb5 64bd
00000220: 3cd0 10bd 42c6 ea3d daa9 e33d e2e8 a3bd
00000230: d0e5 f1bd 10ef 4e3c 8acc cd3d 3613 9ebd
00000240: 6af2 a93d 3e4f d63d 30b1 013c 28a7 d7bc
00000250: ecf1 4f3d f6d6 febd 4093 36bc 304e 7d3c
00000260: 2cac a53d 8800 df3d 909e 59bd f4c6 2bbd
00000270: 1407 ac3d 9453 3abd c09f 07bd 801f c13d
00000280: 84a6 89bd b82e c23d 00ec a83c 082e 31bd
00000290: b67a a3bd c85f f3bc 00cb 863d 4884 8c3c
000002a0: f0c5 34bd 4080 6b3d de1a 80bd e634 b63d
000002b0: 7e83 fe3d 10db 9fbd 00b2 8439 64d1 2ebd
000002c0: e863 0f3d 20b3 37bc 107d b43c 2066 cb3c
000002d0: 12d0 ecbd ac76 1cbd d2b9 bf3d bce1 383d
000002e0: e4e3 debd 9e47 9bbd f8ef b5bc 0257 be3d
000002f0: 0ccb 44bd 18cd 7f3d 2aeb 85bd ee20 edbd
00000300: 5895 9ebc f0c9 673d 00d2 23bd 906c cbbd
00000310: 4866 fbbd 00fc 1939 c4c9 7f3d bc64 31bd
00000320: c05e d03d e63c b13d f441 c5bd 5a31 f9bd
00000330: 10a7 7a3c 206b b33c f899 de3c 3491 9dbd
00000340: 70d8 8a3c 3886 a2bd bede ef3d 3823 5d3d
00000350: 003e 773d 1e7c c3bd 9441 54bd 1888 1abd
00000360: 2086 adbc 684b 83bc b0a4 b3bc b2a8 df3d
00000370: 4209 c6bd 70af 61bc 00e4 05bd 0026 a8bd
00000380: 5023 c53d 9a9e adbd b8ae b4bc 6c29 973d
00000390: 44d7 7cbd 789f 2ebd 983e 753d dca4 5ebd
000003a0: 96f9 ef3d 7a78 e43d 0ce7 d1bd 50c1 07bc
000003b0: da90 97bd 90aa 77bd 7883 c2bc 581c 61bd
000003c0: d883 8b3d e098 dcbc 503b 00bc 2a52 e63d
000003d0: 347a 71bd 4c7e 7abd aac5 9a3d 5a2e efbd
000003e0: 9e49 e9bd 9a44 d63d e8ae 17bd 2892 7a3d
000003f0: 6a03 833d 5c61 5f3d a429 bbbd 1e0d 83bd
-0.015814885 0.044706568 0.11984162 -0.049193487 0.0492274 -0.03575383 -0.11127426 -0.08713375
0.0071720034 0.06419416 -0.05675794 -0.052975565 -0.11888644 0.11018446 0.102673665 -0.011515737
0.07108112 0.04482998 -0.0719852 -0.028924525 0.040566698 0.04295464 -0.06566113 0.071358025
0.11572842 0.008676425 0.04179877 0.008753702 0.060300127 0.024677992 0.053143725 -0.104775876
-0.11144325 0.012711287 0.09207313 0.11556704 -0.059693858 -0.0921956 -0.022240147 0.08579272
-0.040154517 0.036822632 0.11794455 -0.02194859 -0.013356537 0.0008492023 -0.045711532 -0.014942497
-0.08021186 -0.01563266 -0.06572664 -0.100802675 0.043904185 0.07945506 -0.08224887 -0.07440896
0.07894185 -0.07676382 0.032216817 0.06438902 0.11309172 -0.06622699 -0.029929608 -0.03101334
0.008527309 0.06592882 0.013592094 0.014234871 0.0953566 0.044085056 -0.06841168 -0.11611137
0.11925165 -0.08509852 0.081250414 0.038074985 0.12247959 -0.07148293 -0.007235065 -0.032750666
-0.058493227 -0.089304864 0.04998827 -0.0997704 -0.120791495 0.04512079 -0.09512833 -0.017911375
0.106463894 -0.007382244 -0.044099808 0.057047486 -0.05554433 -0.08326064 0.09296912 0.11904679
0.04604964 -0.068014935 -0.0829172 0.05030586 -0.06659101 -0.018873557 -0.120257825 0.06794821
0.06624752 -0.036436245 -0.123339176 0.120776474 -0.005981341 -0.119797826 0.014565647 0.087379694
-0.05074194 0.123193726 0.010601595 0.12010889 -0.10751611 0.1137443 0.02219683 -0.0011746138
0.05870396 -0.016829133 -0.025464803 0.09558655 -0.018155873 0.05011718 -0.12063807 0.112238005
0.060713485 0.038637355 -0.059707433 -0.013685763 0.052213833 -0.0029178858 0.057763502 -0.055837378
-0.035354838 0.11463596 0.11116381 -0.08003403 -0.118114114 0.012630239 0.10048778 -0.07718508
0.0829819 0.10464333 0.00791578 -0.026324823 0.050767824 -0.12443344 -0.011143506 0.015460536
0.0808948 0.10888773 -0.053129733 -0.041937783 0.083997875 -0.045489863 -0.033111334 0.09429836
-0.067212135 0.09481567 0.020620346 -0.04325679 -0.0798239 -0.029708758 0.06581688 0.01715292
-0.04413408 0.057495356 -0.062551245 0.08896808 0.12427424 -0.07805455 0.00025309622 -0.04268016
0.035007387 -0.01121214 0.02203229 0.02482897 -0.11563124 -0.03819911 0.09361614 0.045137152
-0.108833104 -0.07582019 -0.022209153 0.09293939 -0.048045203 0.062451452 -0.065389946 -0.115785465
-0.019358322 0.056589067 -0.039995193 -0.09932816 -0.12275368 0.00014685094 0.062448278 -0.04330896
0.10174322 0.086541936 -0.0963172 -0.12167616 0.01529862 0.021901667 0.027173027 -0.07693711
0.016948909 -0.079357564 0.117124066 0.053988665 0.060361862 -0.09545158 -0.051820353 -0.037727445
-0.02118212 -0.016027167 -0.021929115 0.10920848 -0.096697345 -0.013774738 -0.03268814 -0.08210373
0.09625876 -0.084775165 -0.022055969 0.073809475 -0.06172873 -0.04263255 0.059874147 -0.05435644
0.117175266 0.111557916 -0.10249147 -0.008285835 -0.07400675 -0.060465395 -0.02374433 -0.05495867
0.068122566 -0.026928365 -0.007826641 0.1124614 -0.058954433 -0.061155602 0.07557233 -0.11678763
-0.113909945 0.104623035 -0.037032038 0.06117454 0.063971356 0.05453621 -0.09138802 -0.06398986

hidden_layer2.bias f4 [32]
00000000: 404a d03d bc86 07bd e03d f0bb 5062 653c
00000010: 2e71 a4bd 4ef6 d3bd e4a9 833d c88d 55bd
00000020: e8c3 8e3d 2ad7 a73d e043 1e3d ca40 aabd
00000030: 60c6 e0bc c8c4 c13d 3872 d0bc 1cdb 3dbd
00000040: 14fe dcbd 3a5f ff3d fa70 ffbd f0b6 703d
00000050: 8c9c ac3d 4e85 91bd b476 e43d 4089 4d3b
00000060: fc81 cb3d 4420 54bd 220c ee3d 52c8 993d
00000070: bc16 c4bd 46c1 b3bd ea99 b93d a07e cf3b
0.10170412 -0.033087477 -0.007331595 0.01400049 -0.080294 -0.10349713 0.064288884 -0.052137166
0.0697096 0.08195336 0.03863895 -0.08313139 -0.027438343 0.09461361 -0.025445089 -0.046351537
-0.10790649 0.12469335 -0.124727204 0.058768213 0.084282964 -0.07105504 0.11155453 0.0031362325
0.09936902 -0.051788583 0.11623408 0.07508911 -0.09574649 -0.08777098 0.0906256 0.0063322335

hidden_layer3.weight f4 [16, 32]
00000000: 68ef 11bd 6fea b6bd 6e39 d0bd 30d3 23bc
00000010: d4c4 09be 1e79 f13d 08c4 08bd b054 8bbc
00000020: 4987 babd a0d9 b0bb 1084 d3bc 8919 2a3e
00000030: 01ee cdbd cadf f63d dd56 20be 2648 c73d
00000040: 4e6f c43d 7df5 083e 468b b13d be92 28be
00000050: 1263 1fbe fe21 f63d 1ca4 31be 7f4a bebd
00000060: 86b1 de3d d74a 003e 8e98 d03d b619 a63d
00000070: d832 fdbc 505e 3a3d 2e20 b93d 6162 d4bd
00000080: 92ac cf3d 00b6 ce3c cde1 073e c88e 51bd
00000090: 122b df3d bc45 79bd 47c5 c5bd 800c 213b
000000a0: 63a3 29be b6c3 96bd 0537 15be d4c3 30be
000000b0: 205b 19bc 1242 1cbe b4f5 6e3d 45e5 033e
000000c0: d276 c43d b87b 9a3c 4462 ddbd 5b34 83bd
000000d0: 23c2 2d3e 93d5 333e 7588 253e 3a20 0abe
000000e0: 6c52 a8bd 0811 bd3c 50fb 933d 4079 633d
000000f0: c8b4 52bd 2d96 0dbe 2edb 943d 781d 0fbe
00000100: 68eb b53c be4f d8bd c967 81bd 8e70 17be
00000110: 4141 19be 0b16 acbd ec2a 3bbd 0a36 80bd
00000120: f21b fd3d 3054 52bd 7057 383c 303d 733d
00000130: f08f 403c 6052 eb3b c09c 30bb 79e8 013e
00000140: 586d fd3c 1eb9 91bd a5c1 b1bd 4081 07bd
00000150: e028 6bbc b896 cd3c 8017 b4bb 7e36 e03d
00000160: eeb2 dc3d 38dc a6bc 76ba bb3d 5007 813c
00000170: 3358 033e d225 c93d f1bc 093e 855f 0c3e
00000180: f736 abbd fc5a 16bd 5b21 25be 18ac 89bc
00000190: e930 0dbe e487 4bbd 8c1c 7a3d e8a1 aabd
000001a0: 8850 33be 40e1 f3bd 90de 7fbc 9fba 023e
000001b0: f4f8 393d 9853 1c3d fafd b33d 8c4f c0bd
000001c0: c59f 2a3e 5225 78bd a87f d53c c076 203c
000001d0: 0a11 fd3d 3247 de3d d4b7 48bd ba37 aa3d
000001e0: c638 24be 2393 99bd c5f3 bcbd e904 c1bd
000001f0: ad8c a3bd 0eb0 9e3d 80ea 453d 205c e7bb
00000200: 64bd 253d 08b8 223d 73e5 123e 0221 e03d
00000210: ceba e8bd dc91 253d ceff 8b3d b0cb 263d
00000220: 8077 6fbc b21e 8c3d b062 37bc 1ff6 0abe
00000230: 0050 05bc 8aee b83d 2e59 873d 446f 943d
00000240: 7faf 17be 9899 e63c a0d4 02bc 2a6e e43d
00000250: 606f 6b3c 3f5a 1a3e 4850 e1bc 2821 1abe
00000260: 880a 8abc 1888 4e3d b0c7 a7bc 6870 c0bd
00000270: e1d3 1d3e 069a ca3d 7e07 b5bd dc47 23bd
00000280: 0c45 053d 8833 073d 5f47 32be 939e 9fbd
00000290: 8fff 173e 9a52 1dbe f214 afbd 98f3 15be
000002a0: 9288 8d3d e415 2f3d 2128 313e 7919 b6bd
000002b0: 0afd da3d 928c ee3d 0003 a1bd c3df abbd
000002c0: e6ad d93d 6436 003d 8cde f0bd 7025 863d
000002d0: 98ec cebd f653 fcbd 8193 d3bd 8e1e bc3d
000002e0: 5de2 2b3e ebf4 063e 4442 203d d8b8 4a3d
000002f0: e259 a53d e0d8 6c3c b586 223e 88cb 923c
00000300: 929c aebd 3d6c abbd d2aa 59bd 7155 93bd
00000310: e206 08be 9b98 99bd 402d 263d 8ff8 273e
00000320: 1662 9f3d 2a51 df3d 2f98 8fbd 20f8 94bd
00000330: 7294 fe3d a299 9e3d b8ae 033d a46f 813d
00000340: a6fd fbbd ccde 05be 00f0 6a3b 7110 343e
00000350: 1eb0 03be 9343 2d3e 15cd f2bd 9adc 23be
00000360: c83b 563d a0e1 10bd 844c 18bd cfc6 0d3e
00000370: e006 e53c ec69 afbd 4828 6d3d f8f2 5e3d
00000380: aaeb c23d c17a 2ebe 3698 29be 44aa 083d
00000390: 7110 163e 9a5d 64bd 55a6 0c3e b6ca cd3d
000003a0: d575 303e a4c2 3c3d eb94 253e 6147 92bd
000003b0: a1bb acbd 5217 ecbd 6f75 283e 223f e73d
000003c0: 3007 a3bd 200a cc3b fa66 d33d a28c 26be
000003d0: 008e 703a e206 20be d41f 12be c045 0ebd
000003e0: 00dc 2fbb ca4a 61bd db7b 053e fed8 ff3d
000003f0: b066 dd3c 5014 fbbd baf8 bf3d a423 173d
-0.035628706 -0.089314334 -0.10167204 -0.0099990815 -0.1345399 0.117906794 -0.033390075 -0.017008156
-0.09107835 -0.0053970367 -0.025819808 0.16611303 -0.10055161 0.12054403 -0.15658136 0.09730558
0.09591542 0.13374896 0.086691424 -0.16462228 -0.15565136 0.12018202 -0.17347759 -0.09291553
0.10873704 0.12528549 0.101853475 0.08110373 -0.030908033 0.0455001 0.09039341 -0.10370327
0.10140337 0.025233269 0.1326973 -0.051161557 0.10896887 -0.06085752 -0.09656768 0.00245741
-0.16566233 -0.07361548 -0.1457177 -0.17262203 -0.009360105 -0.15259579 0.05833979 0.12880428
0.09592976 0.018857822 -0.10809758 -0.064064704 0.16968589 0.17561941 0.16165335 -0.13488856
-0.08218846 0.02307941 0.072256684 0.055535555 -0.051441938 -0.13826819 0.07268368 -0.13976085
0.022206977 -0.105620846 -0.063186236 -0.1478903 -0.14966299 -0.08402642 -0.04569523 -0.06260307
0.12358846 -0.05134982 0.0112513155 0.059384525 0.011753067 0.0071814507 -0.00269489 0.12686338
0.030935928 -0.071153864 -0.08679513 -0.033082247 -0.014353007 0.025096282 -0.0054959655 0.109478936
0.10776316 -0.02036868 0.09166424 0.015750557 0.12826614 0.09821667 0.13450982 0.13708313
-0.08360093 -0.036707863 -0.16126005 -0.016805694 -0.13788189 -0.049690142 0.06106238 -0.083316624
-0.17511189 -0.119081974 -0.015617028 0.12766503 0.045403436 0.03816566 0.087886766 -0.09390172
0.1666251 -0.060582466 0.026061848 0.009793937 0.123567656 0.10853423 -0.049003437 0.0831141
-0.16037282 -0.07498767 -0.09226183 -0.09424765 -0.07985816 0.077484235 0.04831934 -0.0070605427
0.04046382 0.039726287 0.1434534 0.10943796 -0.11363755 0.040422305 0.068359 0.040721595
-0.014615893 0.06841792 -0.0111929625 -0.1357045 -0.008136749 0.09029873 0.066088066 0.07247785
-0.1481304 0.028149411 -0.007985264 0.111538246 0.014369816 0.15073489 -0.027504101 -0.1505171
-0.016850725 0.050422758 -0.02048096 -0.0939644 0.15412857 0.09892659 -0.0883932 -0.039863452
0.03253655 0.03300813 -0.17410038 -0.077939175 0.14843582 -0.15363541 -0.08548917 -0.14643705
0.06910814 0.042745486 0.17300464 -0.08891577 0.106927946 0.116479054 -0.078619 -0.083922885
0.106288716 0.03130187 -0.117611974 0.065501094 -0.101037204 -0.12320702 -0.103308685 0.09185515
0.1678557 0.13179366 0.039125696 0.049492687 0.080737844 0.014456004 0.15871699 0.017919317
-0.08525957 -0.08370254 -0.053141423 -0.07194031 -0.13283876 -0.0749981 0.040570498 0.16403411
0.0778238 0.10904153 -0.070114486 -0.072738886 0.124306574 0.07744147 0.032149047 0.06320122
-0.12304239 -0.13073272 0.0035848618 0.17584397 -0.12860152 0.16920309 -0.118555225 -0.16002122
0.052303106 -0.035371423 -0.037182346 0.1384537 0.02795738 -0.08565125 0.057899743 0.05443093
0.095176056 -0.17039014 -0.1656197 0.033365503 0.1465471 -0.055753328 0.13735326 0.1004843
0.1723245 0.04608406 0.16170089 -0.07142521 -0.08434225 -0.115278855 0.16451047 0.112913385
-0.07960355 0.006226793 0.103223756 -0.16264585 0.0009176433 -0.15627626 -0.14269954 -0.034734488
-0.002683401 -0.055002965 0.13035528 0.1249256 0.027026504 -0.12259734 0.09373613 0.036899224

hidden_layer3.bias f4 [16]
00000000: 4bfa 10be a6cb bd3d dc3a 6d3d 864d e0bd
00000010: 8469 8b3d a81b 82bd 7aa4 8d3d 36c0 8bbd
00000020: 57bc 023e 580c e5bd 482f 08be 718e b0bd
00000030: 21af 89bd 146b e8bd 8988 333e 44df 06bd
-0.14157979 0.092673585 0.05791746 -0.109522864 0.06807235 -0.06352931 0.06916137 -0.06823771
0.12767158 -0.11183995 -0.13299286 -0.086209185 -0.06722856 -0.113485485 0.17532553 -0.032927766

out_layer.weight f4 [8, 16]
00000000: 429b 11be 2c9e c7bd d40e d5bd ac04 97bd
00000010: a264 16be c896 f73d 1867 01be 2205 4bbe
00000020: c8b6 6f3d b0b0 94bd a4d4 49be 8ea2 423e
00000030: 70aa a7bc 10c6 15be f800 6bbe 0854 183d
00000040: 3877 3ebe de16 3a3e 645b f7bd 383f 533e
00000050: 7861 98bd 36eb 503e 32f1 0ebe 642e 00be
00000060: 38ea fe3d 283c a9bd 5e75 18be 8802 58be
00000070: 8c4f 2a3e c02b 6c3c 706c 2f3d 0691 7b3e
00000080: c668 3dbe a0b1 bebc 1e71 75be 805e 31be
00000090: 9a90 4abe c85d 08be bc3e b33d 3860 10bd
000000a0: 18b1 68be 6467 443e 7075 f0bc e430 6bbe
000000b0: 3ada 37be c4da e63d e4fa d5bd cc42 8b3d
000000c0: e42f ccbd 40ac 403d 6cdc d33d e4fa 0e3e
000000d0: 8e30 023e f084 523e 603c 483e e843 d73d
000000e0: c400 9bbd 0ed2 13be 00b8 c93d 6c40 753e
000000f0: 4ed0 11be 407c c33d 1e50 523e 7a72 43be
00000100: dca2 9d3d f044 cabd c4b2 adbd e6f2 5cbe
00000110: 0081 7ebc 6804 3fbe 3214 053e f453 64be
00000120: 1a6f 73be b888 01bd 92cd 073e f07f 3abd
00000130: 58b2 353e 7ce7 36be 80cf 063b 00b9 513d
00000140: 184d 28be dc1f 323e 70a8 763d 3ccb 7fbe
00000150: c0b5 b23b 4cd4 d6bd 20ad 563e 7088 0d3d
00000160: 9028 fe3d a099 173c a4b6 3f3e 8c3b 923d
00000170: e8bd ffbd e425 d13d 4098 e6bb 56e4 4cbe
00000180: 5047 d1bc 2437 583e 9449 8c3d c03e 133d
00000190: 7069 923d 981e 703d 3065 d13c 0092 3e3e
000001a0: 80cd 073d c019 863c cc47 093e d616 103e
000001b0: e2ee 4a3e d414 f5bd 8896 6b3e c43f 8cbd
000001c0: ac1e 113e 54ab 4dbe 58e7 5a3d 003b 48bb
000001d0: e84f ec3d 002e c2bb 543a 483e e036 15bd
000001e0: b416 dfbd 6c5e ff3d deb7 3ebe c478 7a3e
000001f0: 46b0 47be 8a4a 64be 6ce2 77be e8ba e03d
-0.14219382 -0.09746966 -0.10403219 -0.07373938 -0.14686826 0.12089306 -0.12636983 -0.19826177
0.058523923 -0.07260263 -0.19710022 0.19007322 -0.020467013 -0.14626336 -0.22949588 0.037189513
-0.18600166 0.18172786 -0.12077978 0.20629585 -0.07440466 0.20402226 -0.13959196 -0.12517697
0.124470174 -0.08263427 -0.14888522 -0.21094716 0.16631907 0.014414728 0.042828023 0.24567041
-0.18496999 -0.023278058 -0.23968932 -0.17321205 -0.19781724 -0.13317025 0.087522 -0.03524801
-0.22723806 0.19180065 -0.029352874 -0.22967869 -0.1795434 0.11272195 -0.10448244 0.0679985
-0.09970072 0.04703927 0.103447765 0.13962895 0.12713835 0.20558524 0.19554281 0.10510999
-0.075685054 -0.14435598 0.09849548 0.23950356 -0.14239618 0.09545183 0.20538375 -0.19086638
0.076970786 -0.0987643 -0.084813625 -0.21577033 -0.015533686 -0.18654025 0.12995985 -0.2229765
-0.2377285 -0.031624526 0.13262013 -0.045532167 0.17743814 -0.17861742 0.0020570457 0.05120182
-0.16435659 0.17394966 0.06021923 -0.24979872 0.005453795 -0.10489711 0.2096448 0.034553945
0.124100804 0.009252936 0.18722016 0.07140264 -0.124873936 0.10212305 -0.0070371926 -0.20008978
-0.0255467 0.21114784 0.068499714 0.035948515 0.07149017 0.058622926 0.025560945 0.18610382
0.033154964 0.0163697 0.13406295 0.14071211 0.19817689 -0.11966863 0.23006642 -0.068481
0.14171857 -0.20084888 0.053443283 -0.0030552745 0.115386784 -0.005925894 0.195535 -0.036429286
-0.10893002 0.124691814 -0.18624827 0.24460131 -0.19500837 -0.2229406 -0.24207467 0.109731495

out_layer.bias f4 [8]
00000000: 10f1 54bd 8e79 2cbe fc84 b53d 34ae f8bd
00000010: 5cb2 babd 301a 2bbe 50be 9f3d f0f2 3fbd
-0.051987708 -0.16843244 0.088632554 -0.121426016 -0.091160506 -0.16709208 0.07799971 -0.046862543
