models/DQNfactorized_param3.pth (torch, 46417 bytes, 8 tensors)

hidden_layer1.weight f4 [64, 126]
0	0x3d232522	0.039830334
1	0x3d8436e3	0.06455781
2	0x3d0d2103	0.03445531
3	0x3de4060f	0.11133968
4	0x3df281b0	0.11841142
5	0x3ca5c058	0.020233318
6	0x3e246f74	0.16058141
7	0x3dd5f23b	0.104465924
8	0x3e000bd2	0.12504509
9	0x3dbc20fa	0.09185977
10	0x3d444cf8	0.047924966
11	0x3cf52e90	0.02992943
12	0x3dc69ca5	0.09697846
13	0x3bdce026	0.0067405878
14	0x3ddff1fe	0.10934828
15	0x3ded747a	0.11594482
16	0x3e16d7fb	0.14730828
17	0x3d481214	0.048845366
18	0x3d18f08c	0.03733878
19	0x3e20554e	0.15657541
20	0x3d07a123	0.033112656
21	0x3da7131d	0.081579424
22	0x3dca880b	0.098892294
23	0x3def07a2	0.11671378
24	0x3d3eaabc	0.046549544
25	0x3db3fcd9	0.08788461
26	0x3c96fd26	0.018431257
27	0x3db84da5	0.089991845
28	0xbd466804	-0.04843904
29	0xbc26f8ee	-0.010191185
30	0x39d3c6a4	0.00040393055
31	0x3d7017db	0.0586165
32	0x3d77ac11	0.06046683
33	0xbdabd907	-0.08391004
34	0xbd2ac4a8	-0.041691452
35	0x3da22231	0.07916678
36	0x3d892af3	0.06697645
37	0x3d68fe51	0.05688316
38	0x3caab98d	0.02084043
39	0xbd11e3ea	-0.035617746
40	0x3dc385fc	0.0954704
41	0x3d9e553c	0.07731101
42	0xbdb6c663	-0.08924558
43	0xbcdb0715	-0.026736775
44	0xbdc63a84	-0.0967913
45	0xbd973ee8	-0.07385045
46	0xbc0f6b50	-0.008753613
47	0xbdc72658	-0.0972411
48	0xbdf8056f	-0.121104114
49	0xbe0f80e3	-0.1401401
50	0xbdc98197	-0.098391704
51	0xbdc41402	-0.09574129
52	0xbdca8102	-0.098878875
53	0xbd8581d8	-0.06518906
54	0xbe16c376	-0.14723
55	0xbe3ca721	-0.1842313
56	0x3c86e11e	0.016464766
57	0xbd5e330d	-0.054247905
58	0xbd907f75	-0.070555605
59	0xbbd416be	-0.0064724376
60	0xbdda74f9	-0.10666842
61	0xbdebff46	-0.11523299
62	0xbd436ada	-0.047709323
63	0x3d454ced	0.048169065
64	0x3d833821	0.0640719
65	0x3d96da1c	0.0736582
66	0x3b7ff05a	0.0039053173
67	0x3de457ce	0.1114956
68	0x3dca2db9	0.09872002
69	0x3d570a0e	0.052499823
70	0x3da818ad	0.082078315
71	0x3d42eba1	0.047587994
72	0x3de38e41	0.11111117
73	0x3db30fef	0.087432735
74	0x3d1dce0e	0.038526587
75	0x3da91c03	0.08257296
76	0x3d4c4bdc	0.049877033
77	0xbd4b215a	-0.049592353
78	0xbd1b33e0	-0.03789127
79	0xbd020ad4	-0.031748608
80	0x3dcbf0be	0.09958027
81	0xbd324405	-0.0435219
82	0x3b81a8b0	0.0039568767
83	0x3dbb6d71	0.09151734
84	0x3d7d0f2b	0.061782043
85	0x3cf59967	0.029980375
86	0x3d2457f2	0.040122934
87	0x3d8bb55c	0.06821701
88	0x3c92c8e7	0.017918063
89	0x3d696dd0	0.05698949
90	0x3e0a296c	0.13492364
91	0x3dfce76d	0.123488285
92	0x3d921e91	0.07134736
93	0x3dd96675	0.10615245
94	0x3d7cf807	0.061759975
95	0x3e0e2260	0.138803
96	0x3e27c96b	0.16385429
97	0x3dc6fce2	0.09716202
98	0x3d193ca5	0.03741135
99	0x3c8705df	0.016482292
100	0x3e07bf36	0.13256535
101	0x3dc4a29e	0.09601329
102	0x3c45427a	0.012039775
103	0x3da351cc	0.07974586
104	0x3d3d01ea	0.046144404
105	0x3c086018	0.008323692
106	0xbcaff230	-0.021477789
107	0xbc27f5c7	-0.010251469
108	0x3d76171f	0.060080644
109	0xbc6dcd2b	-0.014514248
110	0x3d886a5d	0.06660912
111	0xbcbe213d	-0.023209209
112	0x3dbfa036	0.0935673
113	0xbcc8fe83	-0.024535423
114	0xbd74dcaf	-0.059780773
115	0xbc53fdd2	-0.012938933
116	0x3d3c09ff	0.04590797
117	0x3d189ea1	0.037260655
118	0x3d97ef0d	0.07418642
119	0x3e13ee66	0.1444641
120	0x3e082596	0.13295588
121	0x3e1020f5	0.14075072
122	0x3e0fc4ee	0.14039966
123	0x3dbfc9ad	0.093646385
124	0x3c13f8ab	0.009031455
125	0x3e1ae613	0.15126829
126	0x3db21c4e	0.08696805
127	0x3dd94911	0.106096394
128	0x3e0ae10b	0.1356241
129	0x3df29c0e	0.11846171
130	0x3e11eaa5	0.14249666
131	0x3db2f4b9	0.087380834
132	0x3c24edbc	0.010066446
133	0x3dfda18a	0.12384327
134	0x3d8a73d3	0.06760373
135	0x3dfd140f	0.123573415
136	0xbc8ee6bf	-0.017444013
137	0x3dc9641a	0.09833546
138	0x3e09fa33	0.1347435
139	0x3e0ad3c0	0.13557339
140	0x3d9b2e74	0.075772196
141	0x3e490b03	0.19633107
142	0x3e2d6b88	0.16935551
143	0x3dac5266	0.08414154
144	0x3de46f5b	0.11154052
145	0x3e034f12	0.12823132
146	0x3e298e50	0.16558194
147	0xbb81f5b9	-0.00396606
148	0x3de631aa	0.112399414
149	0x3d731447	0.05934551
150	0x3dc36a79	0.095417924
151	0x3dfa59fa	0.12224193
152	0x3d02b6ae	0.0319125
153	0x3db2d6ea	0.08732398
154	0x3cabfcc2	0.020994548
155	0x3dc34358	0.09534329
156	0x3cae8ebf	0.021308301
157	0x3dbeab5b	0.09310027
158	0x3ae6d72c	0.0017611734
159	0x3d2e426b	0.04254381
160	0x3da6ccea	0.08144553
161	0x3e0f9344	0.14021021
162	0x3d3d2648	0.046179086
163	0xbc4e0347	-0.012574024
164	0x3d46b1ec	0.048509523
165	0x3e00f7eb	0.12594573
166	0x3d285112	0.04109294
167	0x3da521fd	0.080631234
168	0xbd10c1b6	-0.035340987
169	0xba7ca91a	-0.0009638235
170	0xbd10ef8f	-0.03538471
171	0x3dbaa52f	0.091135375
172	0x3daf174e	0.08549367
173	0x3d4cf36a	0.050036825
174	0x3cb6b0dd	0.022301132
175	0xbc8fccfd	-0.0175538
176	0x3d231dcb	0.039823335
177	0xbd728a82	-0.059214123
178	0x3dea45de	0.11439107
179	0xbc84b457	-0.016199274
180	0xbd444619	-0.047918413
181	0x3dda0f6b	0.10647472
182	0xbc9352ff	-0.017983912
183	0x3df5cff7	0.12002557
184	0x3e0c28cd	0.1368744
185	0x3d24c7d1	0.040229622
186	0x3d69a6c3	0.057043802
187	0x3cfff1a4	0.031243153
188	0x3df80fae	0.12112366
189	0x3d31af09	0.043379817
190	0x3e04a1c4	0.12952334
191	0x3e1960d8	0.14978349
192	0x3b5dbeca	0.0033835643
193	0x3dbee442	0.093208805
194	0xbc3eea13	-0.011652487
195	0x3d9a2958	0.07527417
196	0x3da6e8b4	0.08149853
197	0x3d96df7f	0.07366847
198	0x3db30227	0.08740645
199	0x3dc5a926	0.09651403
200	0x3b49cb11	0.0030791203
201	0x3e1d9748	0.1538974
202	0x3c22d7fd	0.009939191
203	0xbc5e4736	-0.013566783
204	0x3db47469	0.08811266
205	0x3dfdc73b	0.12391516
206	0x3d880453	0.0664145
207	0x3dde7c91	0.10863603
208	0x3c20d9d5	0.00981756
209	0xbc3d0608	-0.0115370825
210	0xbb2dd7f0	-0.0026526414
211	0x3cc50995	0.02405242
212	0x3dc8e19e	0.09808658
213	0x3e1200e1	0.14258148
214	0x3dde0a4c	0.10841808
215	0x3d04d06b	0.032425325
216	0x3e141322	0.14460424
217	0x3da4be00	0.08044052
218	0x3a87f39c	0.0010372284
219	0x3dc9b380	0.0984869
220	0x3e0d3df3	0.13793163
221	0x3b3de28e	0.0028974148
222	0x3d3ff2b1	0.046862308
223	0x3d0d0dcc	0.034436986
224	0x3d68d6f9	0.05684564
225	0x3d836938	0.06416553
226	0x3cead97f	0.028668163
227	0x3e02f5ad	0.1278903
228	0x3d84b4d9	0.064798065
229	0x3d0c5627	0.03426185
230	0x38bb577e	8.9331515e-05
231	0x3dd13c5e	0.10216592
232	0x3dce06bb	0.100598775
233	0x3cbcabf2	0.023031209
234	0x3ddfc16c	0.10925564
235	0xbc477e5a	-0.012176121
236	0x3d3954eb	0.045247
237	0x3dbc51e9	0.091953106
238	0x3bbd351c	0.0057741534
239	0x3e35eaab	0.177653
240	0x3e2a6770	0.16641021
241	0x3e15d075	0.14630301
242	0x3dcd9c60	0.10039592
243	0x3cf9d5f8	0.030497536
244	0x3e19e8ae	0.15030167
245	0x3dfec534	0.12439957
246	0x3dc06b3e	0.09395455
247	0x3e1cd231	0.15314557
248	0x3e05e579	0.13075818
249	0x3af60f5c	0.0018772888
250	0x3e03bc34	0.12864763
251	0x3d4cc061	0.049988154
252	0x3ce3b8a8	0.027798012
253	0x3dcf20c5	0.10113672
254	0x3d6af3b9	0.05736134
255	0x3d817f48	0.06323105

hidden_layer1.bias f4 [64]
0	0x3e2bc5cc	0.16774672
1	0x3e407e49	0.18798174
2	0x3db6dc90	0.08928788
3	0x3e333ca0	0.17503595
4	0x3dc316fa	0.09525867
5	0x3e006534	0.12538606
6	0x3dc87524	0.09787968
7	0x3dd3d68d	0.10343657
8	0xbe62d148	-0.22150147
9	0x3c80a657	0.015704317
10	0x3e694c6b	0.22783057
11	0x3e11a60a	0.14223495
12	0x3dc2e3e7	0.09516125
13	0x3d94abc5	0.07259325
14	0x3e4ce7e1	0.2001033
15	0x3e33d4bb	0.17561619
16	0x3bfcfb8c	0.0077204164
17	0xbe12ed1d	-0.14348264
18	0x3e37bc4b	0.17942922
19	0x3e55f766	0.20895156
20	0x3e674177	0.22583567
21	0x3da562eb	0.08075508
22	0x3e81132b	0.25209936
23	0xbe7f7436	-0.24946675
24	0x3d7c4507	0.061589267
25	0x3dead537	0.11466449
26	0x3d929112	0.07156576
27	0xbe134352	-0.1438115
28	0x3ec93b8f	0.39303252
29	0xbdb5cca7	-0.08876925
30	0x3e3f93c0	0.18708706
31	0x3dc8f808	0.09812933
32	0x3da03b6e	0.07823835
33	0x3d2c55bc	0.04207395
34	0x3ded7926	0.11595373
35	0x3e2c3c21	0.16819812
36	0x3e45de0f	0.1932299
37	0x3e277c5c	0.16356033
38	0x3e0339d5	0.1281503
39	0x3e034fd0	0.12823415
40	0x3dc6a3ab	0.09699186
41	0x3e6de3c2	0.23231414
42	0x3e419f51	0.1890843
43	0x3d0c0b08	0.034190208
44	0x3e8b4d11	0.27207235
45	0xbc24542a	-0.010029832
46	0x3da5e360	0.08100009
47	0x3e491719	0.19637717
48	0x3db54ba1	0.08852316
49	0x3e3bf9e5	0.18357046
50	0x3e3fdbb6	0.18736157
51	0x3e1847de	0.14871165
52	0x3da4e1c2	0.080508724
53	0x3c8add15	0.016951123
54	0x3e5b518c	0.21417826
55	0x3da374aa	0.07981236
56	0x3e33a773	0.17544346
57	0x3e541c0b	0.20713823
58	0x3ec320d7	0.38110992
59	0x3e2f8f10	0.17144418
60	0x3dc627c5	0.09675554
61	0x3e1f2096	0.15539774
62	0x3e251c25	0.16124018
63	0x3db68ebe	0.08913945

hidden_layer2.weight f4 [32, 64]
0	0xbdcf6d35	-0.101282515
1	0x3cbc8b9b	0.023015788
2	0x3d27d23a	0.040971972
3	0xbc9b7cf7	-0.018980486
4	0x3d27d31e	0.04097282
5	0xbdd5b099	-0.10434074
6	0x3dd32fc2	0.103118435
7	0x3dbb94ea	0.091592625
8	0xbe183be9	-0.14866604
9	0xbe0b453f	-0.13600634
10	0xbc389782	-0.011266591
11	0x3e0242fb	0.12720864
12	0x3dfe0e8f	0.124051206
13	0xbc8c9a23	-0.017163342
14	0xbd016594	-0.031591013
15	0xbd8972b4	-0.06711331
16	0xbe30ee65	-0.1727844
17	0xbe3435eb	-0.17598693
18	0xbd29a2cc	-0.04141502
19	0xbae70ee1	-0.0017628336
20	0xbdd6a9a8	-0.10481578
21	0xbe07c9bf	-0.13260554
22	0xbcaa7c74	-0.020811297
23	0xbdac8138	-0.08423084
24	0xbdc832af	-0.09775292
25	0xbdd56eaf	-0.10421502
26	0xbcdc200d	-0.026870752
27	0x3ca7ff04	0.020507343
28	0x3dbee7aa	0.0932153
29	0xbe8c1aac	-0.273641
30	0x3dc35129	0.095369644
31	0x3e09fce3	0.13475375
32	0x3cce86e1	0.0252108
33	0x3df49fea	0.11944564
34	0xbcb450c8	-0.022011176
35	0x3d6d7b37	0.057978835
36	0x3cd16c2d	0.025564278
37	0xbc24373d	-0.010022935
38	0xbc42a267	-0.01187954
39	0x3d42f452	0.047596283
40	0x3dcf340f	0.10117351
41	0xbde27b83	-0.11058714
42	0x3bf83786	0.0075749783
43	0xbe7f1f4d	-0.24914284
44	0xbd627be5	-0.055293936
45	0x3d9f04ee	0.07764612
46	0x3ca2623c	0.019822232
47	0xbcbab1ff	-0.022789953
48	0x3d064d5d	0.032788623
49	0xbd50678a	-0.050879993
50	0xbddd7017	-0.10812395
51	0x3e0d7278	0.13813198
52	0x3e0ce666	0.13759765
53	0x3dc530cf	0.0962845
54	0x3dd1f1b3	0.102511786
55	0xbea41990	-0.32050753
56	0x3df02b63	0.11727025
57	0xbd51a2b0	-0.05118054
58	0x3de2eb63	0.11080053
59	0xbe14714b	-0.14496343
60	0x3d82af2e	0.06381069
61	0xbe092c20	-0.13395739
62	0xbdaad102	-0.08340646
63	0xbb369874	-0.0027861865
64	0x3e4d100e	0.20025656
65	0x3c02c3e0	0.007981271
66	0x3ddaf1df	0.106906645
67	0x3c592fda	0.013256038
68	0x3db1961c	0.08671209
69	0x3a3a8f41	0.00071166834
70	0xbcd2aee4	-0.02571816
71	0xbc858a20	-0.016301215
72	0xbe1e8abe	-0.15482613
73	0xbdeaf39b	-0.11472245
74	0x3da7e779	0.08198447
75	0xbcd3615d	-0.025803262
76	0x3e33e817	0.17569004
77	0x3ceaca7d	0.028661007
78	0x3e1812b9	0.14850892
79	0x3dd46a22	0.10371806
80	0xbdf3d99d	-0.11906741
81	0xbd610533	-0.0549366
82	0x3dca29e2	0.0987127
83	0x3cec681f	0.028858243
84	0x3c16adcb	0.009196709
85	0xbe11aaab	-0.14225261
86	0x3d9eee68	0.07760316
87	0xbe3acb7b	-0.18241684
88	0x3dcfcc9f	0.1014645
89	0x3e25d6e1	0.16195251
90	0x3e218187	0.15772067
91	0xbe0c40e5	-0.1369663
92	0xbe0b8909	-0.13626494
93	0xbe3b7a5c	-0.18308395
94	0x3dafe782	0.085890785
95	0x3dd89ad3	0.105764054
96	0x3e25bb6b	0.16184776
97	0x3da12f60	0.07870364
98	0x3dd59dc3	0.10430481
99	0x3e2a1053	0.1660779
100	0x3d83d2c6	0.06436686
101	0x3d9ba6a3	0.07600143
102	0x3d3d6699	0.046240423
103	0xbcc9774c	-0.024593018
104	0x3daf6dc6	0.085658595
105	0x3d37cc4d	0.04487257
106	0xbc261233	-0.010136175
107	0xbce7403d	-0.028228873
108	0x3cae68b1	0.021290155
109	0x3cf629b5	0.030049184
110	0xbc6b2460	-0.014351934
111	0x3dedf792	0.11619486
112	0x3b2e6137	0.0026608238
113	0x3e01159c	0.126059
114	0x3e379591	0.17928149
115	0x3e4bd58d	0.19905682
116	0x3ca942e8	0.020661786
117	0x3c713594	0.014722247
118	0x3be6d515	0.0070444443
119	0xbe5cab78	-0.21549785
120	0x3e19bfc0	0.15014553
121	0xbbe98299	-0.007126164
122	0xbdad405d	-0.08459542
123	0x3e622f92	0.22088459
124	0x3c5d897d	0.013521549
125	0x3e200e2e	0.15630409
126	0x3d89face	0.0673729
127	0x3d3ecdff	0.046583172
128	0x3cca4469	0.024690824
129	0x3d220195	0.03955229
130	0xbc321622	-0.010869535
131	0x3cdf1087	0.02722956
132	0x3db81681	0.08988667
133	0xbe285b18	-0.16441
134	0xbdc6f989	-0.09715564
135	0x3b94bb83	0.0045389547
136	0x3e36c89a	0.17849961
137	0x3e830bb1	0.25594857
138	0xbd2c5f03	-0.042082798
139	0x3d528ae8	0.051402003
140	0x3cb0c9b2	0.02158055
141	0x3dd8cd35	0.10586015
142	0x3d358c8d	0.044323493
143	0x3d953785	0.0728598
144	0x3ed0c711	0.40776876
145	0x3e2493b5	0.16071971
146	0xbda93942	-0.08262874
147	0x3d119aad	0.0355479
148	0x3db1a14a	0.086733416
149	0x3e709c6e	0.23497173
150	0x3eab030b	0.3340076
151	0x3e587c25	0.21141107
152	0xbd87a2e5	-0.066228665
153	0xbeede7e0	-0.4646597
154	0x3e16baee	0.14719746
155	0x3e5387eb	0.20657317
156	0x3edd66ab	0.43242392
157	0x3eb1759d	0.34660044
158	0xbd4e53da	-0.050372936
159	0xbc0b7685	-0.008512144
160	0x3d2d3416	0.042286
161	0x3e2c3e20	0.16820574
162	0xbb953f27	-0.0045546475
163	0x3cb764e4	0.022386976
164	0xbe08396e	-0.13303158
165	0x3d632a97	0.05546054
166	0xbc95ee0c	-0.018301986
167	0xbdc90274	-0.09814921
168	0x3b6eb431	0.003642332
169	0x3e19eb3b	0.1503114
170	0x3d93714b	0.07199343
171	0x3ebdfe39	0.3710802
172	0x3eb9b6e2	0.3627234
173	0x3d4ebe1e	0.05047428
174	0x3e2274d1	0.15864874
175	0xbdcaa0ce	-0.09893952
176	0xbd6fb0c4	-0.058518186
177	0xbd482b58	-0.04886946
178	0xbdc2457a	-0.09485908
179	0x3d86a32f	0.065740936
180	0xbd6c1248	-0.05763462
181	0xbdef5432	-0.11685981
182	0x3d991f99	0.0747673
183	0x3ebc7b7c	0.3681296
184	0xbda81ed1	-0.08209003
185	0x3c860c89	0.0163634
186	0x3e70a972	0.23502138
187	0x3eda55f7	0.4264371
188	0xbc2bdecf	-0.010490133
189	0x3eb9efdb	0.36315808
190	0xbd2958de	-0.041344516
191	0xbda28036	-0.079346105
192	0x3e41524c	0.1887905
193	0xbd11c6f0	-0.035590112
194	0x3d049306	0.032366775
195	0x3e24c1ce	0.16089556
196	0x3dbe4e65	0.09292296
197	0x3dfe51e3	0.124179624
198	0x3cac1c51	0.021009596
199	0x3e0b44c5	0.13600452
200	0xbe6e4e64	-0.23272091
201	0xbe86dc28	-0.2633984
202	0x3dd9f1e0	0.10641837
203	0x3d4a9cb0	0.049465835
204	0xbc4022d9	-0.011727058
205	0xbc04082c	-0.008058589
206	0x3d3c0353	0.045901608
207	0x3e41fdad	0.18944426
208	0xbe45e7cb	-0.19326703
209	0xbdd3a7eb	-0.10334762
210	0x3deff5c6	0.117167994
211	0x3e0c9d22	0.13731816
212	0x3e59b5f5	0.21260817
213	0xbeb62103	-0.3557206
214	0xbe7cd13b	-0.2468919
215	0xbc731b2d	-0.014838022
216	0x3cffdb93	0.03123263
217	0x3e10cac8	0.14139855
218	0x3e5135e6	0.20430717
219	0xbe78f62c	-0.24312657
220	0xbe3e3f84	-0.18578917
221	0xbe56d1e8	-0.2097851
222	0x3e1ade2b	0.15123813
223	0x3e2c9828	0.16854918
224	0x3e297599	0.16548766
225	0x3bb8e770	0.005642824
226	0x3da5cc6f	0.08095633
227	0x3d856f5e	0.06515382
228	0x3e02c580	0.12770653
229	0x3e503714	0.2033351
230	0x3dcb0f83	0.09915068
231	0x3e59fcaa	0.2128779
232	0x3d0dbbb1	0.034602825
233	0xbe92179a	-0.28533632
234	0x3d66ee90	0.056379855
235	0xbd22ee4e	-0.039778046
236	0xbe817926	-0.2528774
237	0x3e385417	0.18000828
238	0x3df62a34	0.12019768
239	0xbc89a32d	-0.016801441
240	0x3e41b651	0.18917204
241	0x3e4169dd	0.1888804
242	0x3e24a8ef	0.16080068
243	0x3d9ffc23	0.07811763
244	0x3d279bd4	0.040920094
245	0x3c0cd119	0.008594775
246	0xbc0e733d	-0.008694467
247	0xbe2ddfaa	-0.16979852
248	0x3e37303c	0.17889494
249	0x3de86b4a	0.11348589
250	0xbe6777a4	-0.22604233
251	0xbe0e38c8	-0.13888848
252	0x3dd8478b	0.10560521
253	0xbe3330c7	-0.17499076
254	0x3e04a03c	0.1295175
255	0xbce73817	-0.028224988

hidden_layer2.bias f4 [32]
0	0x3cf63fa2	0.03005964
1	0x3ddd5688	0.1080752
2	0xbe063bc2	-0.13108733
3	0x3e5b5716	0.2141994
4	0x3e95f783	0.292904
5	0xbcb09c2e	-0.021558847
6	0x3d95805e	0.07299875
7	0x3ca9380f	0.020656614
8	0x3e9e95d9	0.309737
9	0xbd8a2df8	-0.06747049
10	0x3e82c5cc	0.25541532
11	0x3e4ec66e	0.20192882
12	0xbe5e8b78	-0.2173289
13	0x3cfdf0c2	0.030998591
14	0x3e51db02	0.20493701
15	0x3e52c782	0.20583919
16	0xbd015b7a	-0.03158138
17	0xbd8ad759	-0.067793556
18	0xbe06caf7	-0.13163362
19	0x3e042b75	0.12907203
20	0xbe1a03d0	-0.15040517
21	0x3e960025	0.29296985
22	0x3e328cb0	0.1743648
23	0x3e505712	0.20345715
24	0xbe5bedbe	-0.2147741
25	0xbcf019a1	-0.029309096
26	0x3d9ec61d	0.07752631
27	0x3d19ea21	0.0375768
28	0x3da38176	0.07983677
29	0x3e4c4077	0.19946466
30	0xbd4d7e43	-0.05016924
31	0x3e6ca7dc	0.23110908

hidden_layer3.weight f4 [16, 32]
0	0x3e0ce567	0.13759385
1	0x3caebc7b	0.021330109
2	0x3d76be39	0.060240004
3	0xbd2118b7	-0.03933021
4	0x3da3142a	0.0796283
5	0x3ddbf2e6	0.107396886
6	0x3dacdf57	0.08441036
7	0xbc3542e4	-0.011063311
8	0x3dd8eef7	0.10592454
9	0x3b886cb0	0.004163347
10	0xbdbf4fb6	-0.093413755
11	0xbce5af92	-0.02803782
12	0x3e17b3ef	0.14814733
13	0x3bad4d43	0.0052887513
14	0xbe183b8d	-0.14866467
15	0xbd8bd4b1	-0.06827677
16	0xbe246ee8	-0.16057932
17	0xbc86c05a	-0.016449142
18	0x3dd815c5	0.10551027
19	0xbe06d221	-0.13166095
20	0xbde1ea5e	-0.1103103
21	0xbda15ad4	-0.07878652
22	0xbdd07887	-0.10179239
23	0x3d183db7	0.03716823
24	0xbd01992f	-0.031640228
25	0x3da314fc	0.07962987
26	0x3d0ee689	0.034887824
27	0x3e1ac7b3	0.15115242
28	0xbda0d0bf	-0.07852315
29	0xbdfe4c08	-0.124168456
30	0x3dd559d5	0.10417525
31	0x3da9b24f	0.08285963
32	0xbe1dee10	-0.15422845
33	0x3d3dd246	0.04634311
34	0x3ce618e4	0.02808804
35	0xbdfc8edf	-0.12331938
36	0xbd63b82e	-0.05559557
37	0xbdc49f31	-0.09600676
38	0x3d9ce376	0.07660572
39	0x3d2a08f5	0.04151245
40	0x3da64b41	0.08119822
41	0x3c25bf08	0.010116346
42	0xbe0e1673	-0.13875751
43	0xbe16fa8c	-0.14744014
44	0xbd220d48	-0.039563447
45	0xbd469e1e	-0.048490636
46	0xbd24c3cc	-0.04022579
47	0xbd00fddf	-0.03149211
48	0xbbad21ed	-0.0052835853
49	0x3df1ab12	0.11800207
50	0x3dd7fb05	0.10545925
51	0x3d90bad7	0.07066887
52	0xbe18ada0	-0.14909983
53	0xbd75dc43	-0.06002451
54	0xbddfc4e4	-0.10926226
55	0x3e19d22b	0.15021579
56	0x3d2eb89d	0.04265653
57	0xbd064ee7	-0.03279009
58	0xbe0bb78e	-0.1364424
59	0x3dfd00c3	0.12353661
60	0xbdbce126	-0.09222631
61	0x3d58c9c7	0.052926805
62	0x3dd82d3d	0.105555035
63	0xbdf7b3cf	-0.12094843
64	0xbe130750	-0.14358258
65	0x3dd7b61d	0.10532782
66	0x3d91a89f	0.0711224
67	0x3dd4a152	0.10382332
68	0xbe0fb104	-0.1403237
69	0x3e223b7f	0.15843008
70	0x3dd23b4d	0.10265217
71	0xbcde0fc0	-0.02710712
72	0x3d0c86bc	0.03430818
73	0xbd99846e	-0.07495962
74	0xbe1174a4	-0.14204651
75	0x3d0199b0	0.03164071
76	0xbe20abcc	-0.15690535
77	0xbde63cf4	-0.11242095
78	0xbdb58245	-0.088627376
79	0x3d3960d3	0.045258354
80	0x3e062c62	0.13102868
81	0xbe0d7ef4	-0.1381796
82	0x3e065ff2	0.13122538
83	0xbe2e0684	-0.16994673
84	0xbe06f7c3	-0.13180451
85	0x3e112226	0.14173183
86	0xbe0c2f57	-0.13689934
87	0x3e2ad874	0.16684133
88	0xbe06be30	-0.13158488
89	0xbddfb07c	-0.109223336
90	0xbe2049c0	-0.15653133
91	0x3da91a6f	0.08256995
92	0x3e1f944f	0.15583919
93	0x3d426af6	0.047465287
94	0xbc6f2e6c	-0.01459847
95	0xbb44c4ea	-0.0030024596
96	0x3e5177b2	0.20455816
97	0x3e2be8fa	0.16788092
98	0xbd61167e	-0.05495309
99	0x3d2c6f6f	0.04209846
100	0x3d993ce3	0.07482316
101	0xbe1441c4	-0.14478213
102	0x3ddfbe21	0.10924936
103	0x3e2caef5	0.16863616
104	0x3e45638b	0.19276254
105	0xbe8329f8	-0.25617957
106	0x3dc23d78	0.094843805
107	0x3e28634c	0.16444129
108	0xbe21e860	-0.158113
109	0x3d3ea1e9	0.04654113
110	0xbc525c3c	-0.012839373
111	0xbd805d04	-0.06267741
112	0xbe2dc99f	-0.16971444
113	0x3c1bc467	0.009507275
114	0x3d9a2b92	0.07527842
115	0x3d1c6a52	0.038187332
116	0xbe991e0e	-0.29905742
117	0x3ecb6ba1	0.39730552
118	0x3da5af3c	0.08090064
119	0x3e469ec2	0.19396499
120	0xbe72f706	-0.23727044
121	0xbdf7912e	-0.12088238
122	0x3e1c6292	0.15271977
123	0xbe34986e	-0.17636272
124	0xbd7befd4	-0.061508015
125	0x3dd9cce6	0.106347844
126	0x3dd3a1c1	0.103335865
127	0x3e76d941	0.24106313
128	0xbe0cea72	-0.13761309
129	0x3c65118c	0.013981234
130	0xbe16ff42	-0.1474581
131	0xbd4c203e	-0.049835436
132	0x3dffed67	0.12496453
133	0xbd2fc865	-0.04291572
134	0x3d56c2d3	0.052431893
135	0xbdaf07f8	-0.08546442
136	0xbd7b807b	-0.061401825
137	0x3dec35aa	0.11533673
138	0x3df8cc73	0.121483706
139	0x3d3e8492	0.046513148
140	0xbe0a8f8c	-0.13531321
141	0xbdaf300d	-0.08554087
142	0xbe21acc4	-0.15788561
143	0xbe1f2f9a	-0.15545502
144	0xbd2695c6	-0.04067018
145	0xbcaf3dbd	-0.021391744
146	0xbe04ad44	-0.1295672
147	0x3a7e0506	0.00096900796
148	0x3b97de48	0.0046346523
149	0x3d6baa7c	0.057535633
150	0x3e2b0ee0	0.16704893
151	0x3dc4b128	0.096041024
152	0xbd9f555e	-0.077799544
153	0xbda04bfe	-0.07826994
154	0xbe0a3351	-0.13496138
155	0xbc471462	-0.012150856
156	0xbd7014a8	-0.05861345
157	0xbd811ec1	-0.06304694
158	0x3dccd430	0.10001409
159	0x3d9943c2	0.07483627
160	0xbe2720d9	-0.16321124
161	0x3e22b58d	0.15889569
162	0xbe97fa68	-0.29683232
163	0x3e2ec909	0.17068876
164	0x3dff49ca	0.12465246
165	0xbe320fe6	-0.17388877
166	0x3b45e0c6	0.003019379
167	0xbb91791f	-0.0044394876
168	0xbcbfa485	-0.023393879
169	0xbab19416	-0.0013548161
170	0x3d19726b	0.037462633
171	0x3db83d00	0.0899601
172	0xbe53193d	-0.20615096
173	0x3e0e1338	0.13874519
174	0x3d602bb2	0.05472917
175	0x3ddfe948	0.10933167
176	0xbe2564f0	-0.16151786
177	0xbdda45c3	-0.10657837
178	0xbe211d8c	-0.15733927
179	0xbdf2906d	-0.11843953
180	0xbec035c7	-0.3754103
181	0xbe81db3d	-0.25362578
182	0x3daf349c	0.08554956
183	0xbd95272f	-0.07282864
184	0xbe77b079	-0.24188413
185	0x3e487fa4	0.19579941
186	0x3dbd2e51	0.0923735
187	0xbe0c9d79	-0.13731946
188	0xbe28b07e	-0.16473576
189	0x3c2205d4	0.009889085
190	0xbe3f200e	-0.18664572
191	0x3e21fcdb	0.15819113
192	0xbd0c329b	-0.03422795
193	0xbbd91640	-0.006624967
194	0xbeb04bb9	-0.34432772
195	0x3e00e1d9	0.12586154
196	0xbdc02a78	-0.093831
197	0xbe44acfd	-0.19206615
198	0x3dd252f5	0.10269729
199	0x3dc185d6	0.09449355
200	0x3c8f76fc	0.01751279
201	0xbd4d240e	-0.050083213
202	0x3dd4e30a	0.10394867
203	0x3e73df39	0.23815621
204	0xbece7b33	-0.4032837
205	0x3e228e79	0.15874662
206	0x3dabdce2	0.083917394
207	0x3e58f6d4	0.21187907
208	0xbea5c285	-0.3237497
209	0xbef63c57	-0.4809291
210	0xbdb32572	-0.087473765
211	0x3e69944b	0.22810476
212	0xbe3370d2	-0.17523506
213	0xbe208e94	-0.15679389
214	0x3dd84a58	0.10561055
215	0x3e77d27d	0.24201389
216	0xbe402635	-0.18764575
217	0x3d8eb1bd	0.06967495
218	0x3e30d28c	0.17267817
219	0x3d088d2b	0.033337753
220	0xbe2bfcce	-0.16795656
221	0x3e06bd8e	0.13158247
222	0x3e3f236f	0.1866586
223	0x3d9aa1c5	0.07550386
224	0x3e0a04d0	0.13478398
225	0xbc6aacd6	-0.014323434
226	0xbda93c81	-0.08263493
227	0x3e1c20ac	0.15246838
228	0x3da26208	0.07928854
229	0xbe88dac6	-0.2672941
230	0xbc9107e7	-0.017703963
231	0x3dc77d6d	0.0974072
232	0xbcf3a832	-0.029743288
233	0xbe867ec1	-0.2626858
234	0x3d7748a1	0.060372
235	0xbd9622ba	-0.07330842
236	0xbe3c95c5	-0.18416508
237	0x3e2eba61	0.17063285
238	0x3cb85577	0.02250169
239	0x3ddc6e95	0.10763279
240	0xbe0a3711	-0.13497569
241	0xbe21527c	-0.15754122
242	0xbe02d097	-0.12774883
243	0x3e810c4e	0.252047
244	0xbe8dae4a	-0.27672035
245	0x3e8a0a57	0.26961014
246	0x3e81e008	0.25366235
247	0x3e560bbe	0.20902917
248	0xbdda6881	-0.10664464
249	0xbdd5c2cb	-0.104375444
250	0x3e36221c	0.17786449
251	0x3dce6c5c	0.10079262
252	0xbe87512e	-0.26429123
253	0x3e2684d2	0.16261604
254	0x3e6feb4c	0.23429602
255	0x3e3f9bd9	0.18711795

hidden_layer3.bias f4 [16]
0	0xbd08d18c	-0.033402964
1	0xbe168967	-0.14700852
2	0xbe0212cd	-0.12702484
3	0x3cf35533	0.029703712
4	0xbd942497	-0.072335415
5	0x3e9b81d7	0.30372497
6	0x3e63c04f	0.22241329
7	0x3d3ea10e	0.046540312
8	0xbd9c17ee	-0.07621752
9	0xbd13ea84	-0.036112323
10	0x3c6f643c	0.0146113
11	0x3d0e34c8	0.034718305
12	0xbb8ef2d3	-0.004362443
13	0x3dbc297b	0.09187599
14	0x3e77aaee	0.24186298
15	0x3e5a492d	0.21316977

out_layer.weight f4 [8, 16]
0	0x3e1790da	0.1480135
1	0x3e2e9139	0.17047586
2	0x3d81824f	0.063236825
3	0x3e2f730d	0.17133732
4	0x3e0c1ba9	0.13682427
5	0x3e31ce94	0.1736396
6	0x3dd965cb	0.106151186
7	0x3e9572d0	0.29189157
8	0xbe303b83	-0.17210202
9	0xbe63a8d8	-0.22232378
10	0xbde5a298	-0.11212653
11	0xbe785fa2	-0.24255231
12	0xbe148b67	-0.14506303
13	0x3ea84558	0.32865405
14	0xbe273591	-0.16329028
15	0xbeb72fe3	-0.35778722
16	0xbe75dedb	-0.24010794
17	0xbe63e402	-0.22254947
18	0xbd463203	-0.04838754
19	0x3e973a55	0.2953669
20	0x3e0c1c63	0.13682704
21	0x3e7e5982	0.24838832
22	0x3e571b64	0.21006542
23	0x3df72072	0.12066735
24	0x3e0453bc	0.12922567
25	0x3d1ae898	0.037819475
26	0xbcda5f37	-0.02665673
27	0xbe5cc512	-0.21559551
28	0xbe18c927	-0.14920484
29	0x3dafd240	0.08585024
30	0xbe10202d	-0.14074774
31	0xbe9affe6	-0.3027336
32	0xbe746228	-0.23865569
33	0xbe4df276	-0.20112023
34	0x3df07f3c	0.11743018
35	0x3de1f11a	0.110323146
36	0x3d8600d3	0.06543126
37	0x3d0aa12c	0.03384511
38	0xbd97f4f3	-0.07419767
39	0x3e821f2f	0.25414416
40	0x3cf55b5a	0.029950786
41	0xba60f2ef	-0.0008581122
42	0x3e398818	0.18118322
43	0x3e71a852	0.23599365
44	0x3e15b964	0.14621502
45	0x3dcded48	0.100550234
46	0xbe652a64	-0.22379452
47	0xbe18b604	-0.14913183
48	0x3b8fe14a	0.00439087
49	0x3e224af4	0.15848905
50	0xbdd3f8bb	-0.10350176
51	0x3eb84cc4	0.35996068
52	0x3c81a4a3	0.015825575
53	0x3ccc7c76	0.024961691
54	0x3ea9e147	0.33179685
55	0xbde632e1	-0.11240173
56	0xbd5a433d	-0.05328678
57	0x3e6f8d2e	0.233937
58	0x3e2dcf79	0.16973676
59	0x3e3d43de	0.1848292
60	0xbd0219d8	-0.031762928
61	0x3d110925	0.03540911
62	0x3d0e57ac	0.03475158
63	0xbe60c075	-0.21948417
64	0xbdab841c	-0.08374807
65	0xbe26efb5	-0.16302378
66	0xbdff66c8	-0.12470776
67	0x3e8a5bf6	0.27023286
68	0xbe4667f6	-0.19375595
69	0xbdcf428e	-0.10120116
70	0xbe5d63ea	-0.21620145
71	0x3e71bf45	0.2360812
72	0x3dce0fbe	0.10061596
73	0xbce1a45e	-0.027544197
74	0xbd159bd0	-0.036525548
75	0xbd6708fd	-0.056405056
76	0xbdc0d08e	-0.09414779
77	0x3e93c900	0.28864288
78	0xbe6989c4	-0.2280646
79	0x3cd2fcdb	0.025755337
80	0x3b99dd15	0.0046955445
81	0x3e507c9b	0.20360033
82	0xbae09f84	-0.0017137383
83	0xbc6283c6	-0.013825363
84	0x3dc13eee	0.09435831
85	0xbdccb699	-0.09995765
86	0x3e90685c	0.2820462
87	0x3e4e13e2	0.20124772
88	0x3e1e0363	0.1543098
89	0xbe6198c9	-0.22030939
90	0x3c7e6b66	0.0155285355
91	0x3e17e1d2	0.14832237
92	0x3e659a68	0.22422183
93	0x3e6ebe12	0.23314694
94	0xbecfe18e	-0.40601772
95	0xbed17c33	-0.4091507
96	0x3daffcc4	0.08593133
97	0xbcfa3461	-0.030542554
98	0x3e49ae08	0.19695294
99	0x3e323752	0.17403916
100	0xbe78a651	-0.24282195
101	0x3ae78409	0.0017663251
102	0xbe403583	-0.18770413
103	0x3e280d1e	0.16411254
104	0x3e6493d9	0.22322024
105	0xbde63278	-0.11240095
106	0x3e216a3a	0.15763178
107	0x3e43e6b4	0.19130975
108	0x3e72035d	0.23634095
109	0x3e766954	0.24063617
110	0xbe31d7a4	-0.17367417
111	0xbd52f8bb	-0.05150674
112	0x3de25d66	0.110529706
113	0xbde285b8	-0.11060661
114	0x3df3c6ef	0.11903178
115	0x3e2579b4	0.16159707
116	0xbcee560c	-0.029093765
117	0x3db48408	0.088142455
118	0x3e7394af	0.23787187
119	0x3e998e49	0.29991367
120	0xbd8b98be	-0.06816243
121	0xbe66e078	-0.22546566
122	0x3e0c2b91	0.13688494
123	0xbdce6f6f	-0.10079848
124	0xbe5576d5	-0.20846112
125	0xbe1e8f30	-0.15484309
126	0xbcfe8911	-0.031071218
127	0xbed625d8	-0.41825747

out_layer.bias f4 [8]
0	0x3db80639	0.08985562
1	0x3eb3cc5c	0.3511685
2	0xbd99ddc1	-0.07512999
3	0xbcf97d82	-0.030455355
4	0xbe8c6cf4	-0.27426875
5	0x3e0ce714	0.13760024
6	0x3ccc2a3d	0.024922485
7	0xbe96ec60	-0.29477215
