models/DQNfactorized_param3.pth (torch, 46417 bytes, 8 tensors)

hidden_layer1.weight f4 [64, 126]
0.008263233 0.048374422 0.12924613 0.13933654 -0.006025413 0.03274976 -0.03633186 0.10329977
0.14134769 0.04570114 0.04260807 0.16462 0.09492275 0.08899087 0.09667834 -0.018343879
-0.02884671 -0.07799049 0.079772905 -0.038148753 0.003104249 0.0029418052 0.041131582 -0.0072409594
-0.0656047 0.015405852 -0.1294324 -0.0712279 0.14533174 0.18941666 0.15475446 0.089597955
0.14749788 0.10966958 0.028062887 -0.024646314 -0.052690525 -0.06905371 0.044071283 -0.077048965
-0.055467762 -0.06831758 -0.040403716 0.100509055 -0.017843397 -0.055861633 0.021048866 0.044388697
-0.10768527 -0.041201606 0.056344334 0.0146889435 -0.0645382 -0.063373685 -0.0942843 -0.03188385
0.23695849 0.12716554 0.08897737 0.03178322 0.099104226 0.014057507 0.041701127 0.03861353
0.1620444 0.056709237 0.058335662 -0.0282617 0.07917427 0.013782859 0.1198934 0.23757419
0.1397398 0.10203837 0.10225699 0.13886134 0.012138745 -0.042385582 -0.039761912 -0.014938006
-0.08900746 0.0022600687 -0.062368207 -0.108239405 -0.07326159 -0.037342727 0.06564062 -0.03325581
0.02290858 -0.084388964 -0.043990362 0.21655913 0.06893479 0.10109961 0.055200934 0.12564357
0.03656551 0.009245667 0.09822098 0.11998611 0.09366202 0.037040774 0.10319078 0.109686196
0.1624863 0.06889864 0.11736962 0.06502764 -0.029409762 -0.04493432 -0.012295962 0.026723078
0.09197779 0.0067246347 -0.006504349 0.062891796 0.09421469 -0.05404719 0.035044428 0.1330479
0.20799202 0.029611371 0.06187332 -0.012355643 0.07617894 0.0539561 0.26239336 0.23119982
0.27703047 0.1421754 0.24581805 0.23226628 0.09394638 0.35739034 0.27549943 0.3182021
0.31741115 0.21785155 0.20909368 0.22333011 0.07756509 -0.051978927 0.032440733 0.072293036
0.034220472 0.030987727 -0.030287694 0.02601543 0.031708278 -0.032549802 -0.08990635 -0.0744439
-0.1347078 -0.026362937 0.44881067 0.388811 0.3591272 0.24976417 0.3045533 0.34262902
0.22737949 0.26360494 0.26272133 0.1090046 0.1508169 0.031423513 0.0765335 0.11384448
0.22598617 0.17318533 0.096297726 0.033281382 -0.043223213 -0.06128222 -0.052583043 0.08886289
0.19254796 0.15566316 0.09762188 0.08801964 -0.01706853 -0.056093678 0.26701513 0.4211379
0.357153 0.27875465 0.21262598 0.3406505 0.3189933 0.133078 0.016935334 0.10784794
0.18322924 0.05575546 0.12261747 0.15664417 0.118667744 -0.017154034 0.14273268 0.024834197
0.044321038 0.041481823 0.037114803 -0.03232192 -0.05698396 -0.09062996 0.045316525 -0.069029585
-0.043792352 0.046119925 0.047518164 0.03338453 0.0586398 -0.0040523685 0.07311144 -0.061332855
0.09105309 0.14663514 0.1808654 0.13297546 0.20072027 0.09455315 0.22615357 0.17596443
0.18742782 0.15668023 0.04343258 0.1373172 0.16328205 0.107444964 0.16862868 0.023511667
-0.106078506 -0.04467255 -0.088791125 0.017170012 -0.031808607 -0.10567407 -0.13790937 -0.01653503
-0.11295504 -0.08929102 -0.15054522 -0.11964543 -0.09076324 0.0494048 0.16209145 0.1518538
0.14143613 0.107755125 0.11820025 0.20848379 0.03570368 0.05485356 0.13431677 0.06811336
00000000: 8362 073c 4224 463d 1959 043e 3dae 0e3e
00000010: d470 c5bb 9d24 063d b7d0 14bd d48e d33d
00000020: 73bd 103e 1e31 3b3d cd85 2e3d 2592 283e
00000030: dc66 c23d d840 b63d 4bff c53d e745 96bc
00000040: f04f ecbc 7ab9 9fbd fa5f a33d de41 1cbd
00000050: a870 4b3b 4dcb 403b 9779 283d 9245 edbb
00000060: c25b 86bd d468 7c3c ed89 04be efdf 91bd
00000070: d8d1 143e 71f6 413e f477 1e3e 227f b73d
00000080: af09 173e 729a e03d 24e4 e53c 11e7 c9bc
00000090: 05d2 57bd 086c 8dbd 1784 343d d9cb 9dbd
000000a0: 2a32 63bd 16ea 8bbd 5e7e 25bd b1d7 cd3d
000000b0: 512c 92bc 2bcf 64bd ac6e ac3c ecd0 353d
000000c0: 188a dcbd 04c3 28bd 51c9 663d e5a9 703c
000000d0: 9b2c 84bd 10ca 81bd 2118 c1bd a498 02bd
000000e0: 3fa5 723e af37 023e c439 b63d 1f2f 023d
000000f0: 28f7 ca3d 7551 663c cdce 2a3d 3929 1e3d
00000100: f8ee 253e f247 683d 60f1 6e3d 1585 e7bc
00000110: 1f26 a23d 80d1 613c ac8a f53d a646 733e
00000120: f317 0f3e 7ef9 d03d 1d6c d13d ab31 0e3e
00000130: 96e1 463c 819c 2dbd 63dd 22bd 8abe 74bc
00000140: 8b49 b6bd a91d 143b ce75 7fbd 9fac ddbd
00000150: 2c0a 96bd b0f4 18bd 976e 863d 3f37 08bd
00000160: c6aa bb3c 1fd4 acbd 3d2f 34bd adc1 5d3e
00000170: af2d 8d3d 500d cf3d 601a 623d b5a8 003e
00000180: b7c5 153d 237b 173c 1528 c93d 47bb f53d
00000190: e0d1 bf3d 11b8 173d b055 d33d 28a3 e03d
000001a0: cf62 263e bb1a 8d3d 7c5f f03d 362d 853d
000001b0: beec f0bc 0d0d 38bd 0175 49bc 5bea da3c
000001c0: da5e bc3d 535a dc3b 6f22 d5bb 6acd 803d
000001d0: a2f3 c03d 9660 5dbd bf8a 0f3d b53d 083e
000001e0: dcfb 543e 8c93 f23c e16e 7d3d 536f 4abc
000001f0: b403 9c3d 1201 5d3d 6c58 863e a5bf 6c3e
00000200: f0d6 8d3e 6e96 113e bab7 7b3e 36d7 6d3e
00000210: f666 c03d defb b63e 430e 8d3e 63eb a23e
00000220: b783 a23e 7a14 5f3e a71c 563e a6b0 643e
00000230: 72da 9e3d dbe7 54bd 93e0 043d 5f0e 943d
00000240: c42a 0c3d f9d9 fd3c e61d f8bc 501e d53c
00000250: 8ae0 013d f152 05bd d220 b8bd 0b76 98bd
00000260: d7f0 09be 16f7 d7bc 83ca e53e 3c12 c73e
00000270: 85df b73e 2ec2 7f3e 69ee 9b3e 126d af3e
00000280: 2bd6 683e 3af7 863e 6983 863e ce3d df3d
00000290: bf6f 1a3e f1b5 003d 98bd 9c3d 4b27 e93d
000002a0: eb68 673e 7f57 313e be37 c53d 0f52 083d
000002b0: d30a 31bd 1103 7bbd 5161 57bd bffd b53d
000002c0: 4b2b 453e 2a66 1f3e fbed c73d a443 b43d
000002d0: 4dd3 8bbc 7cc2 65bd 35b6 883e 639f d73e
000002e0: c2dc b63e eeb8 8e3e a0ba 593e be69 ae3e
000002f0: 1753 a33e 9945 083e f8bb 8a3c 61df dc3d
00000300: 72a0 3b3e d65f 643d de1e fb3d 5467 203e
00000310: 1308 f33d 9e86 8cbc 8428 123e 1671 cb3c
00000320: fa89 353d d8e8 293d b105 183d fd63 04bd
00000330: 0368 69bd 339c b9bd d29d 393d 625f 8dbd
00000340: 9c5f 33bd 3fe8 3c3d 68a2 423d 38be 083d
00000350: 4930 703d bbc9 84bb 73bb 953d 2938 7bbd
00000360: 0b7a ba3d 8627 163e c834 393e b82a 083e
00000370: 9d89 4d3e 15a5 c13d cd94 673e 0530 343e
00000380: 14ed 3f3e c870 203e 5ce6 313d e19c 0c3e
00000390: 6933 273e 1b0c dc3d ffac 2c3e 8a9b c03c
000003a0: b03f d9bd 90fa 36bd 1fd8 b5bd 20a8 8c3c
000003b0: be49 02bd a66b d8bd 1d38 0dbe 7974 87bc
000003c0: f954 e7bd 36de b6bd 8728 1abe aa08 f5bd
000003d0: 14e2 b9bd b05c 4a3d 4dfb 253e 907f 1b3e
000003e0: a2d4 103e b8ae dc3d f912 f23d c67c 553e
000003f0: 063e 123d 20ae 603d 568a 093e 047f 8b3d

hidden_layer1.bias f4 [64]
0.27509034 0.15410669 0.14586285 0.15359722 -0.20161681 0.17583333 0.26162356 0.050317645
0.23295507 0.09680624 0.105162784 0.025219891 -0.15094623 0.28143382 0.11948428 0.28654373
0.06201148 -0.022140626 0.16651985 0.24544102 0.14213064 0.22385065 0.15352722 0.22389679
0.2457392 0.28358656 -0.17475563 0.2372104 0.11465617 0.28783786 0.27177545 0.1743947
0.21534069 0.21010661 0.04440978 -0.108621836 0.25664416 0.1002997 0.16784152 -0.09144621
0.2851265 0.40495792 0.13927907 -0.019122068 0.15883578 0.0036852353 -0.16978505 0.1328438
0.1477522 0.2559185 0.08869252 0.27509847 0.2974021 0.24196231 0.07090057 -0.20225592
0.11489525 0.1921578 0.28813848 0.26010612 0.29958844 0.13993952 0.12588176 0.29175878
00000000: a4d8 8c3e 25ce 1d3e 125d 153e 9748 1d3e
00000010: a374 4ebe a70d 343e 86f3 853e e019 4e3d
00000020: c68b 6e3e 5a42 c63d 965f d73d f299 ce3c
00000030: a691 1abe 1818 903e 2db4 f43d dcb5 923e
00000040: c0ff 7d3d 4260 b5bc 2e84 2a3e e454 7b3e
00000050: b28a 113e 1b39 653e 3d36 1d3e 3345 653e
00000060: 0fa3 7b3e 4232 913e 24f3 32be 48e7 723e
00000070: dbd0 ea3d 7c5f 933e 2726 8b3e 8694 323e
00000080: 4582 5c3e 3026 573e 08e7 353d 2075 debd
00000090: dd66 833e ee69 cd3d a6de 2b3e 2748 bbbd
000000a0: 1afc 913e a556 cf3e 2c9f 0e3e e2a5 9cbc
000000b0: d9a5 223e fd83 713b 22dc 2dbe 3508 083e
000000c0: 5a4c 173e c007 833e 6da4 b53d b5d9 8c3e
000000d0: 1745 983e f8c4 773e 5134 913d 2d1c 4fbe
000000e0: 334e eb3d 04c5 443e e386 933e a12c 853e
000000f0: a863 993e 4e4c 0f3e 26e7 003e 6861 953e

hidden_layer2.weight f4 [32, 64]
0.028303688 -0.055032764 0.04092402 0.11550676 -0.14571673 -0.0664745 0.1566647 -0.1344913
-0.015884342 -0.10098045 -0.055641834 -0.051611595 0.029187143 0.039539654 -0.07511446 0.30652517
0.030707696 -0.22066353 -0.07774593 0.019482449 -0.03719328 -0.08856442 0.06288913 0.016259957
-0.08647005 0.15645143 0.14201872 -0.13526118 -0.0027687042 0.0053487727 0.2706527 -0.13196385
0.14718059 -0.12067216 -0.16043438 -0.12857227 -0.062822364 0.11577701 -0.025567912 0.066600226
-0.026465096 0.26084173 0.3256481 -0.11640234 -0.024939105 -0.14743912 -0.13975225 -0.09420899
-0.0007039426 0.22347088 0.07652736 0.10034649 -0.034477048 -0.045938212 0.048316468 -0.009096895
0.035491455 -0.07795567 0.014471431 -0.028509315 0.19055307 0.048754513 0.08209731 0.086160265
0.0741962 0.2749626 0.050328482 0.01008202 0.5986642 -0.0830522 0.059493218 0.16049612
0.09207464 0.09913574 0.05794414 -0.20563263 0.2326916 -0.020861182 0.084593505 0.33722582
0.023941375 -0.017514346 0.22332235 0.2221355 0.11152986 -0.24932624 -0.15141536 -0.010245393
-0.07317277 0.17563744 -0.22179286 0.33172494 0.09873616 -0.08031485 0.32499024 -0.06323595
-0.033360038 0.12304799 -0.11755275 0.00033594327 0.070533775 0.05159702 0.25505033 -0.18168429
-0.056927234 -0.4191802 0.46578163 -0.13656512 -0.07367461 -0.18651088 0.24649028 -0.15203212
0.036518224 0.39248025 0.16854101 0.18327813 0.04922293 0.05445295 0.0054299207 0.17128994
0.24425814 0.07364798 0.19380672 -0.07619206 0.10178562 0.08395454 -0.07162454 -0.10515227
0.22338328 0.12692201 0.12437109 0.16792317 -0.41189402 0.18099394 0.06797593 0.12906285
0.238883 0.0316052 0.11714637 0.2058048 -0.06079719 0.03761518 0.16159682 -0.19449484
0.21061853 0.17963125 0.02624814 0.04903416 0.08521163 0.12080726 0.1182429 0.15386318
0.16140814 0.22995284 0.17793623 0.008635439 0.124858 0.075217605 -0.03195743 0.18266638
0.19708388 0.02968801 -0.02636854 0.27392372 0.23873106 0.035052024 0.05292537 0.14108942
0.20257877 0.49275336 -0.28305134 0.26702893 -0.0019922373 0.042714894 -0.020743899 0.1419623
0.05917894 -0.26655522 -0.02707297 0.07335752 0.07780122 0.14722684 0.18522544 -0.13795127
0.09641866 0.1394852 0.017626422 0.10993073 0.07588061 0.19638023 0.32398647 0.09716437
-0.010057539 0.20818219 -0.00046006416 0.030269453 -0.56513315 0.2772023 0.011646475 0.15964074
0.19981325 -0.013299456 0.023183655 0.37042764 -0.053366195 0.20599051 0.15050325 -0.32062826
-0.0015217311 0.2102052 0.026684122 0.11651452 0.18854947 0.085573055 0.17580634 0.07107035
0.20452297 0.10439766 0.20964229 0.21402878 0.16074187 0.25349554 -0.09829891 0.18956718
0.06500098 0.047964156 0.17458941 0.08452212 0.25823212 0.042009246 0.20083758 0.02725335
0.1286199 0.48508024 -0.15811028 0.16618119 0.12976365 0.23155126 -0.13003257 0.083653204
0.06703869 -0.256807 0.2017102 0.19694749 0.1471324 0.10422005 0.07618934 -0.1807364
0.057766996 0.07106843 0.15429994 0.03186989 0.13483502 0.08274754 0.023234257 0.011449307
00000000: 23dd e73c 096a 61bd f29f 273d cf8e ec3d
00000010: c436 15be c823 88bd b66c 203e 16b8 09be
00000020: e11f 82bc d7ce cebd b1e8 63bd ae66 53bd
00000030: e019 ef3c 55f4 213d 9cd5 99bd def0 9c3e
00000040: b58e fb3c 9ff5 61be 4239 9fbd a899 9f3c
00000050: fb57 18bd 4361 b5bd 04cc 803d 9a33 853c
00000060: 3617 b1bd ce34 203e 5b6d 113e e881 0abe
00000070: 2673 35bb c244 af3b fe92 8a3e 8821 07be
00000080: 82b6 163e f722 f7bd e948 24be 73a8 03be
00000090: 03a9 80bd 7f1c ed3d cc73 d1bc b365 883d
000000a0: 54cd d8bc 0c8d 853e 59bb a63e 5a64 eebd
000000b0: 184d ccbc 48fa 16be 371b 0fbe a5f0 c0bd
000000c0: ca88 38ba 8dd5 643e 60ba 9c3d 7682 cd3d
000000d0: ce37 0dbd b529 3cbd 7de7 453d 250b 15bc
000000e0: 7d5f 113d 39a7 9fbd 9519 6d3c 5e8c e9bc
000000f0: 5820 433e d0b2 473d a222 a83d cb74 b03d
00000100: 2df4 973d e6c7 8c3e 3d25 4e3d 0f2f 253c
00000110: 0f42 193f 4617 aabd 29af 733d 1859 243e
00000120: a191 bc3d ae07 cb3d d656 6d3d 5c91 52be
00000130: b546 6e3e 12e5 aabc 5c3f ad3d dda8 ac3e
00000140: b420 c43c 3f7a 8fbc 9dae 643e 7d77 633e
00000150: c469 e43d 614f 7fbe a10c 1bbe 4bdc 27bc
00000160: 9bdb 95bd 4dda 333e ab1d 63be dad7 a93e
00000170: 2f36 ca3d 1d7c a4bd 1f65 a63e da81 81bd
00000180: 89a4 08bd 9600 fc3d 7fbf f0bd 8b21 b039
00000190: 0374 903d 6657 533d f595 823e 720b 3abe
000001a0: 882c 69bd ca9e d6be ee7a ee3e bad7 0bbe
000001b0: b7e2 96bd b5fc 3ebe f367 7c3e 4fae 1bbe
000001c0: 2294 153d 2cf3 c83e 0496 2c3e 43ad 3b3e
000001d0: fc9d 493d 0e0a 5f3d 7aed b13b a166 2f3e
000001e0: ce1e 7a3e c1d4 963d 4575 463e 950a 9cbd
000001f0: fb74 d03d 5cf0 ab3d e3af 92bd 135a d7bd
00000200: 96be 643e d8f7 013e 45b6 fe3d 0df4 2b3e
00000210: c6e3 d2be 7a56 393e f736 8b3d 0d29 043e
00000220: bf9d 743e 7474 013d 70ea ef3d 7ebe 523e
00000230: 7906 79bd 6012 1a3d a379 253e a829 47be
00000240: 62ac 573e 41f1 373e 5706 d73c 0bd8 483d
00000250: 6f83 ae3d cc69 f73d 5529 f23d 4f8e 1d3e
00000260: 2d48 253e c278 6b3e ea34 363e a87b 0d3c
00000270: 8db5 ff3d b00b 9a3d cbe5 02bd e50c 3b3e
00000280: 5bd0 493e 4534 f33c d602 d8bc bb3f 8c3e
00000290: ea75 743e b692 0f3d 46c8 583d bf79 103e
000002a0: cf70 4f3e 2b4a fc3e 1bec 90be 04b8 883e
000002b0: 3290 02bb d0f5 2e3d 1cef a9bc 915e 113e
000002c0: 9e65 723d ed79 88be 22c8 ddbc 783c 963d
000002d0: 3f56 9f3d a2c2 163e bdab 3d3e 1943 0dbe
000002e0: 2577 c53d 35d5 0e3e 4965 903c 5d23 e13d
000002f0: 4b67 9b3d e617 493e 8ee1 a53e 1dfe c63d
00000300: 60c8 24bc b62d 553e c434 f1b9 a5f7 f73c
00000310: 91ac 10bf 76ed 8d3e dbd0 3e3c dd78 233e
00000320: d89b 4c3e f6e5 59bc a6eb bd3c b1a8 bd3e
00000330: 8396 5abd 2def 523e 861d 1a3e 6329 a4be
00000340: d374 c7ba 0840 573e a998 da3c 2a9f ee3d
00000350: 1d13 413e ed40 af3d 9406 343e 558d 913d
00000360: 786e 513e 71ce d53d 78ac 563e 5c2a 5b3e
00000370: 8499 243e 2bca 813e f050 c9bd e61d 423e
00000380: 3c1f 853d 1076 443d 91c7 323e ef19 ad3d
00000390: 0037 843e e311 2c3d 5ea8 4d3e 6b42 df3c
000003a0: efb4 033e 705c f83e a9e7 21be 672b 2a3e
000003b0: c3e0 043e c61b 6d3e 4227 05be 5f52 ab3d
000003c0: 954b 893d 357c 83be 1e8d 4e3e 9aac 493e
000003d0: e0a9 163e 5271 d53d 2809 9c3d f612 39be
000003e0: 169d 6c3d 538c 913d ce00 1e3e 008a 023d
000003f0: 3112 0a3e 8b77 a93d c555 be3c e095 3b3c

hidden_layer2.bias f4 [32]
0.35945407 -0.3697275 0.18570808 0.16036005 -0.012879193 0.18335862 0.2310252 0.1862005
0.25369522 0.26796967 0.10812778 -0.3067185 0.51763135 0.08576836 0.18600535 0.4332881
0.26612526 0.5316624 0.10259489 -0.0726014 0.17660633 0.14895244 0.29528895 0.17056608
0.08953921 0.05119969 -0.23600894 -0.09248158 0.2964709 -0.099303946 0.19238383 0.08756624
00000000: 5d0a b83e ec4c bdbe 422a 3e3e 6d35 243e
00000010: 4003 53bc 5dc2 3b3e df91 6c3e 58ab 3e3e
00000020: 57e4 813e 5233 893e 1972 dd3d 350a 9dbe
00000030: 7d83 043f 52a7 af3d 3078 3e3e f0d7 dd3e
00000040: 9241 883e 071b 083f 451d d23d 0bb0 94bd
00000050: 4ad8 343e fd86 183e 1d30 973e e0a8 2e3e
00000060: 5560 b73d c4b6 513d 54ac 71be fc66 bdbd
00000070: 09cb 973e de5f cbbd 4400 453e ee55 b33d

hidden_layer3.weight f4 [16, 32]
0.55961734 -0.13015816 0.0092730345 0.15134694 -0.30551198 -0.00010695373 0.016253095 -0.06282321
0.11729094 -0.052980635 -0.04682126 -0.18452978 0.16850086 -0.013365408 -0.02130866 -0.21112414
-0.023443505 -0.08570859 -0.13491692 0.03276616 0.10847447 0.0695561 0.34781688 0.005642906
0.104085624 0.09118946 0.0250031 -0.1153481 0.017722331 0.10287881 0.1270973 -0.18464461
0.45320904 -0.15584916 0.24502188 0.2205166 0.15730147 0.30635715 0.18483208 0.11428694
0.15713772 0.57113504 0.2794072 0.00053688785 -0.22864288 0.16254945 0.24614252 -0.32615563
0.2828498 0.62447536 0.18132278 -0.30340183 0.014106762 0.32329577 0.5935947 0.2345211
0.28648776 0.16848926 -0.3674153 0.19775955 0.10121417 -0.16236262 -0.26216653 0.30104655
0.22992994 -0.38032746 0.056612913 0.15330672 -0.26104364 0.24386266 0.002915211 0.3449879
0.22530197 -0.048878007 0.12060978 -0.31554446 -0.048086215 0.19982411 0.16990556 -0.47465882
0.028156243 0.48105946 0.29594082 -0.14342764 0.25867468 0.329683 0.59165406 0.029425249
0.1378284 0.3460974 -0.34408894 0.31950894 0.24375875 0.07035314 -0.26200917 0.084290415
0.11320148 -0.23202688 -0.029367553 -0.11205438 -0.45488924 -0.028522234 0.1668903 -0.106634736
-0.061903004 -0.39378667 -0.09861929 -0.03614594 0.13981675 0.15323833 0.042775508 -0.21853669
0.07264228 -0.05354302 0.1344475 -0.11783399 0.11683676 0.17499712 0.22136179 0.074362494
-0.11962877 -0.026688227 0.025736522 -0.06620437 0.13503395 -0.036126226 0.19564974 -0.041574474
-0.14451486 0.013790659 -0.004426719 0.11596594 -0.057352986 -0.10388403 -0.005352799 0.08943238
-0.06127125 -0.094696075 -0.15089725 -0.1304173 0.03948368 0.105692804 0.029617203 -0.16509616
-0.16633947 -0.015153538 -0.1412261 0.14338183 -0.0034867728 -0.15711507 -0.07860472 0.0341607
0.02027452 -0.11124 0.056985524 0.16243188 0.15434137 -0.073998906 -0.1712213 -0.16158147
0.07409406 0.08011369 -0.076192975 0.0071857716 0.03943634 -0.14916979 -0.24033506 0.09362321
-0.017474767 -0.06266692 0.050993554 0.06592015 -0.09339138 -0.099917874 -0.07562564 -0.10161777
0.08167449 -0.14840044 0.06803162 0.09274464 -0.21970612 0.02873177 -0.016089197 -0.11854694
-0.12607947 -0.04091571 -0.03487851 -0.011647684 -0.16621876 -0.16444008 -0.23833826 -0.12410088
0.076973766 -0.17701866 -0.08789824 -0.038762484 0.083807334 -0.1444146 -0.14895268 -0.05438107
0.12413736 0.16572186 -0.13965763 -0.070938155 -0.1706814 0.09272859 0.025558585 0.12726995
-0.040468372 -0.1445284 -0.13040638 0.101567395 0.075516246 0.062191248 0.092665225 -0.077394836
0.07424091 -0.09049367 0.07312253 -0.17219429 0.03027739 -0.079245366 0.09145093 -0.021751449
0.08211975 -0.32798064 -0.09091188 -0.16806808 -0.02181235 0.06965755 -0.07900796 0.0055593173
-0.038814235 0.11332322 -0.17163546 -0.01758879 0.1104163 -0.13395339 0.11609826 0.061708204
0.03496794 -0.06826935 0.02620238 0.0031968777 0.0067790556 -0.022919187 -0.12423405 -0.18774787
-0.041232865 -0.15624446 0.0062476867 0.053629097 -0.0550682 -0.12917072 0.06590246 -0.03618172
00000000: 1543 0f3f 2e48 05be eded 173c b1fa 1a3e
00000010: 116c 9cbe 594c e0b8 3625 853c 75a9 80bd
00000020: 3b36 f03d 3902 59bd a6c7 3fbd 60f5 3cbe
00000030: 7d8b 2c3e 96fa 5abc 808f aebc ed30 58be
00000040: 980c c0bc fc87 afbd a927 0abe cf35 063d
00000050: dd27 de3d 6e73 8e3d 0e15 b23e 20e8 b83b
00000060: d82a d53d 8ac1 ba3d 4dd3 cc3c a03b ecbd
00000070: 6c2e 913c 20b2 d23d cb25 023e 7a13 3dbe
00000080: 040b e83e ec96 1fbe 04e7 7a3e 1bcf 613e
00000090: a313 213e d8da 9c3e 9f44 3d3e 450f ea3d
000000a0: b6e8 203e e835 123f 760e 8f3e efbd 0c3a
000000b0: 5c21 6abe 5d73 263e c90c 7c3e dffd a6be
000000c0: b0d1 903e 9edd 1f3f aeac 393e 7c57 9bbe
000000d0: 0c20 673c 0687 a53e d2f5 173f 4d26 703e
000000e0: 86ae 923e 7388 2c3e dc1d bcbe 7b81 4a3e
000000f0: 6049 cf3d 6342 26be b13a 86be c622 9a3e
00000100: c172 6b3e 48ba c2be f1e2 673d 70fc 1c3e
00000110: 83a7 85be 22b7 793e 200d 3f3b 41a2 b03e
00000120: 8fb5 663e 4e34 48bd 4302 f73d 0b8f a1be
00000130: 0df6 44bd b19e 4c3e b9fb 2d3e 7b06 f3be
00000140: eca7 e63c 6d4d f63e 8e85 973e b2de 12be
00000150: 0271 843e 36cc a83e a476 173f 380d f13c
00000160: e322 0d3e ae33 b13e 6d2c b0be ad96 a33e
00000170: e59b 793e 4f15 903d 1126 86be 74a0 ac3d
00000180: 2dd6 e73d 7498 6dbe 3994 f0bc c47c e5bd
00000190: 3ee7 e8be 76a7 e9bc 4ae5 2a3e 5063 dabd
000001a0: 018e 7dbd 689e c9be e9f8 c9bd c40d 14bd
000001b0: 1f2c 0f3e 82ea 1c3e 5f35 2f3d 15c8 5fbe
000001c0: 7ac5 943d ed4f 5bbd 9bac 093e f252 f1bd
000001d0: 1c48 ef3d 7232 333e aaac 623e 5d4b 983d
000001e0: eeff f4bd 45a1 dabc 66d5 d23c 2896 87bd
000001f0: 5746 0a3e 18f9 13bd 6858 483e ff49 2abd
00000200: b4fb 13be 37f2 613c 030e 91bb 8d7f ed3d
00000210: f7ea 6abd 26c1 d4bd 8866 afbb 5328 b73d
00000220: 90f7 7abd 04f0 c1bd cf84 1abe 1d8c 05be
00000230: a4b9 213d 7875 d83d c79f f23c f80e 29be
00000240: e554 2abe 8c46 78bc 939d 10be b0d2 123e
00000250: 5782 64bb c6e2 20be 83fb a0bd 17ec 0b3d
00000260: c016 a63c ccd1 e3bd a769 693d 8b54 263e
00000270: aa0b 1e3e bd8c 97bd a354 2fbe 9d75 25be
00000280: a0be 973d a512 a43d 100b 9cbd 9f76 eb3b
00000290: 0088 213d f7bf 18be 651a 76be 87bd bf3d
000002a0: 3e27 8fbc 8457 80bd 9ede 503d 2501 873d
000002b0: fb43 bfbd bea1 ccbd 9ee1 9abd fa1c d0bd
000002c0: f444 a73d 49f6 17be 2954 8b3d e7f0 bd3d
000002d0: a4fa 60be e45e eb3c 7ecd 83bc bdc8 f2bd
000002e0: fa1a 01be 3b97 27bd c5dc 0ebd edd5 3ebc
000002f0: 4035 2abe fb62 28be f20e 74be 9a28 febd
00000300: 6ca4 9d3d 6144 35be fe03 b4bd 69c5 1ebd
00000310: 2ea3 ab3d 6ce1 13be 0d87 18be afbe 5ebd
00000320: ba3b fe3d feb2 293e 6902 0fbe 0648 91bd
00000330: 1bc7 2ebe 7de8 bd3d 3d60 d13c 0e53 023e
00000340: 2ac2 25bd 41ff 13be 4089 05be 9102 d03d
00000350: 43a8 9a3d 40bc 7e3d 44c7 bd3d 2f81 9ebd
00000360: 9e0b 983d bf54 b9bd 44c1 953d b353 30be
00000370: 4a08 f83c 654b a2bd a04a bb3d 1830 b2bc
00000380: 662e a83d 14ed a7be 0230 babd 0a1a 2cbe
00000390: d0af b2bc 9ea8 8e3d edce a1bd ef2a b63b
000003a0: adfb 1ebd 0116 e83d 35c1 2fbe 5e16 90bc
000003b0: f121 e23d 142b 09be edc4 ed3d bec1 7c3d
000003c0: 8b3a 0f3d cdd0 8bbd 60a6 d63c b582 513b
000003d0: d722 de3b 05c1 bbbc 6c6e febd fa40 40be
000003e0: cbe3 28bd 8cfe 1fbe 65b9 cc3b 2faa 5b3d
000003f0: 318f 61bd 5445 04be def7 863d 4933 14bd

hidden_layer3.bias f4 [16]
0.54224455 0.2931412 0.28147283 0.11889617 -0.05793832 -0.11349984 0.018395798 0.066749506
0.14982954 0.2188599 0.3797131 0.07195514 0.102985255 -0.015942838 0.14721653 0.24291687
00000000: 8ad0 0a3f 9a16 963e 351d 903e d67f f33d
00000010: bb50 6dbd 9b72 e8bd c9b2 963c f7b3 883d
00000020: ea6c 193e cf1c 603e c169 c23e 375d 933d
00000030: efe9 d23d 8e9a 82bc eebf 163e 33bf 783e

out_layer.weight f4 [8, 16]
0.48540443 0.17336868 0.27704963 0.08043789 -0.22118758 -0.12153194 -0.2316817 -0.15915798
0.14531708 0.24824257 -0.11569964 0.034380198 -0.033930372 -0.06102601 -0.05803996 -0.23384194
0.42045173 -0.024652345 0.15593804 0.17022137 0.12278503 0.30127004 -0.117056035 0.24897972
-0.19088842 0.14311108 0.3853493 -0.101393886 0.08212294 -0.20304617 0.18160553 -0.33647057
0.32867086 0.15779422 0.16752978 0.25919792 0.016434278 0.2851918 0.03276292 -0.20450425
0.013090075 0.12020733 0.14120619 -0.20174098 -0.029076029 -0.049462873 -0.06987652 -0.29612598
0.20398186 0.13695785 0.015945865 0.23189467 0.120918185 0.2149313 -0.20186195 -0.20149602
-0.18764302 0.36188766 0.19332343 -0.21403491 -0.017361615 -0.022406192 -0.1650146 -0.3796263
-0.39573774 0.23125517 -0.09896185 -0.25696716 -0.060775414 0.03630281 0.04580136 0.1906849
-0.019973561 0.2965938 -0.002982945 0.10119109 0.13697073 0.2192119 0.08349494 0.045238297
-0.42159322 0.10626605 -0.072339594 0.16041036 -0.109483354 0.23840621 0.23381588 -0.08254734
0.11021422 0.27055377 -0.15657832 -0.1797413 0.13601916 0.12267413 -0.003061966 -0.3466646
-0.07073716 0.013361262 0.36909118 -0.19558144 -0.04583453 0.21423434 0.05785875 0.20472836
-0.2635708 -0.051251538 0.28800964 -0.09266945 -0.2533124 0.018094653 0.08744093 -0.12407815
-0.5829362 0.13769631 0.31226382 0.17785093 0.06522305 0.100513175 -0.1474682 -0.16271926
0.1966555 0.044907052 -0.20784466 0.18533292 0.14127398 0.15326893 0.062266365 -0.38087836
00000000: ee86 f83e 8f87 313e 73d9 8d3e 9fbc a43d
00000010: ff7e 62be bde5 f8bd f83d 6dbe 4ffa 22be
00000020: 00ce 143e 4d33 7e3e eff3 ecbd 40d2 0c3d
00000030: 93fa 0abd 69f6 79bd 4fbb 6dbd 4374 6fbe
00000040: 7345 d73e b7f3 c9bc 39ae 1f3e 834e 2e3e
00000050: b876 fb3d 1140 9a3e 13bb efbd 8af4 7e3e
00000060: 4178 43be b68b 123e 814c c53e 99a7 cfbd
00000070: 1230 a83d 56eb 4fbe cdf6 393e df45 acbe
00000080: 8c47 a83e cf94 213e ed8c 2b3e 97b5 843e
00000090: 2ea1 863c a904 923e 6932 063d 9069 51be
000000a0: c177 563c 432f f63d 5b98 103e 3095 4ebe
000000b0: da30 eebc 9599 4abd 6c1b 8fbd d39d 97be
000000c0: 9fe0 503e ae3e 0c3e e7a0 823c cc75 6d3e
000000d0: f4a3 f73d f316 5c3e e6b4 4ebe f954 4ebe
000000e0: 7e25 40be 5749 b93e 94f6 453e f82b 5bbe
000000f0: f239 8ebc 318d b7bc 96f9 28be 615e c2be
00000100: 239e cabe 28ce 6c3e 83ac cabd 3391 83be
00000110: a4ef 78bd 41b2 143d 359a 3b3d e742 433e
00000120: 989f a3bc 24db 973e 837d 43bb 463d cf3d
00000130: 0e42 0c3e 1679 603e 65ff aa3d cb4b 393d
00000140: 11db d7be 04a2 d93d c826 94bd 9d42 243e
00000150: cf38 e0bd c220 743e 6e6d 6f3e 940e a9bd
00000160: feb7 e13d 0686 8a3e 1156 20be 1a0e 38be
00000170: 9b48 0b3e 933c fb3d 44ab 48bb 067e b1be
00000180: a5de 90bd 32e9 5a3c 85f9 bc3e 8046 48be
00000190: fdbc 3bbd 3f60 5b3e 4cfd 6c3d 50a4 513e
000001a0: c0f2 86be 22ed 51bd 0076 933e 7bc9 bdbd
000001b0: 2ab2 81be 3d3b 943c 3b14 b33d af1c febd
000001c0: 4f3b 15bf 4300 0d3e 0be1 9f3e 8e1e 363e
000001d0: aa93 853d dad9 cd3d e701 17be e19f 26be
000001e0: 0f60 493e 75f0 373d 3bd5 54be eac7 3d3e
000001f0: 20aa 103e 88f2 1c3e 040b 7f3d 7d02 c3be

out_layer.bias f4 [8]
-0.12972713 -0.057676233 -0.05582671 -0.011642287 0.036743548 -0.16731721 0.2153548 -0.10424585
00000000: 30d7 04be ea3d 6cbd 8caa 64bd 4abf 3ebc
00000010: 6780 163d 3455 2bbe f885 5c3e d97e d5bd
