models/DQNfactorized_param1.pth (torch, 46417 bytes, 8 tensors)

hidden_layer1.weight f4 [64, 126]
0	0x3daa81d2	0.083255425
1	0xbca6e517	-0.02037291
2	0xbaa6b3ce	-0.0012718381
3	0x3d4a1a04	0.049341217
4	0xbd895e99	-0.06707496
5	0xbd7b14bb	-0.061299067
6	0xbde23cba	-0.11046739
7	0x3db6813d	0.08911369
8	0x3de85bda	0.11345644
9	0x3d021827	0.031761315
10	0x3d8eaf68	0.0696705
11	0xbd68e745	-0.05686118
12	0x3d14e254	0.036348656
13	0x3c9d73a6	0.019220185
14	0xbd983fb3	-0.07434025
15	0x3d33bce0	0.043881297
16	0x3d648418	0.055790037
17	0x3daffabb	0.08592745
18	0xbba45084	-0.005014481
19	0x3d587d5f	0.05285394
20	0x3ca6ecec	0.020376645
21	0xbc7b9881	-0.015356184
22	0x3be322ef	0.0069316546
23	0xbd6015b5	-0.0547082
24	0xbd48e924	-0.049050465
25	0x3d7fee68	0.06248322
26	0xbd158565	-0.036504168
27	0x3cbe58eb	0.023235759
28	0x3bf741e3	0.007545696
29	0x3e1d70b2	0.15375021
30	0xbbdf853d	-0.006821303
31	0xbd3f5ae4	-0.04671754
32	0xbc0c2582	-0.008553864
33	0xbc011ab0	-0.007879898
34	0xbdf77e0d	-0.12084589
35	0x3e01e8c5	0.12686451
36	0xbc89e97c	-0.016834967
37	0xbd8c13e6	-0.06839733
38	0xbdae8997	-0.08522337
39	0x39a1c3c4	0.0003085417
40	0x3b6b84f8	0.003593741
41	0xbdaf6d27	-0.08565741
42	0x3cee373f	0.029079078
43	0x3d86a604	0.06574634
44	0x3cbccf83	0.023048168
45	0x3d81ec62	0.063439146
46	0xbd01cd72	-0.03169007
47	0xbde7d532	-0.11319961
48	0xbca19950	-0.019726425
49	0xbc1f2e2f	-0.009715601
50	0x3d7e24c2	0.062046774
51	0x3ceab16d	0.028649056
52	0x3c95c215	0.018281022
53	0xbd25af02	-0.040450104
54	0x3c6e3399	0.014538669
55	0xbdcd490a	-0.10023697
56	0x3e0359a5	0.12827165
57	0x3d8a4eb7	0.06753295
58	0x3df0353e	0.11728905
59	0xbbe23d4a	-0.006904279
60	0x3d448cd0	0.04798585
61	0xbdd7bdd4	-0.10534254
62	0x3c4870ec	0.012233954
63	0x3c48d58a	0.012257943
64	0xbc7887e2	-0.015169116
65	0x3dbfea89	0.09370906
66	0x3dc9f363	0.098608755
67	0x3d31f23f	0.043443915
68	0x3bc92b71	0.006139212
69	0x3db6ba10	0.08922207
70	0x3e047906	0.12936792
71	0x3cb43b75	0.022001008
72	0x3d9f509b	0.07779046
73	0x3dde5077	0.10855191
74	0x3e219fca	0.15783611
75	0x3e07b7d0	0.13253713
76	0x3d13dcbe	0.036099188
77	0x3d56d0f0	0.052445352
78	0x3d21ec82	0.039532192
79	0x3d106664	0.035253897
80	0x3ca999e1	0.020703258
81	0x3d0564a9	0.0325667
82	0xbd543830	-0.051811397
83	0xbd616427	-0.055027153
84	0x3d2769dd	0.040872443
85	0x3d840549	0.064463206
86	0xbd385db4	-0.045011237
87	0xbd76dd61	-0.060269717
88	0xbd28e05b	-0.041229587
89	0xbd9631bf	-0.07333707
90	0x3da05e91	0.07830537
91	0x3e1666cd	0.14687653
92	0x3cb2862c	0.021792494
93	0x3cf4decd	0.029891396
94	0x3e063ddd	0.13109536
95	0x3e0e9b39	0.139264
96	0x3dd9a251	0.106266625
97	0xbb975740	-0.0046185553
98	0x3d94233a	0.072332814
99	0xbc86960c	-0.01642897
100	0x3d844a3e	0.06459473
101	0x3d8e3b20	0.06944871
102	0xbd26cbcf	-0.04072171
103	0xbc9210c1	-0.017830255
104	0xbd968fd4	-0.07351652
105	0x3c99a4e7	0.01875539
106	0xbc8c8690	-0.017154008
107	0x3ddd1ac4	0.10796121
108	0x3d85ef9a	0.06539841
109	0x3c28a448	0.010293074
110	0x3dc672e1	0.0968988
111	0x3d1ffb3e	0.039057963
112	0x3d43e9ad	0.047830272
113	0x3a0e71c5	0.0005433823
114	0x3db5cbfd	0.08876798
115	0x3dd7ff68	0.10546762
116	0xbcf95f44	-0.030440934
117	0x3b6b2c69	0.0035884625
118	0x3c103376	0.008801332
119	0x3e5129d9	0.2042612
120	0x3d1b81c8	0.037965566
121	0x3d8f6e95	0.07003514
122	0x3c690a92	0.014223712
123	0x3e1eba90	0.15500855
124	0xbc4bb1f2	-0.012432562
125	0x3dca75e2	0.098857656
126	0xbd216b45	-0.03940894
127	0x3dab4cca	0.08364256
128	0xbd187bd5	-0.03722747
129	0x3d92206d	0.07135091
130	0xbc5af3dd	-0.013363806
131	0xbbcf8cd7	-0.006333928
132	0xbcbd436f	-0.023103444
133	0x3d2155fa	0.039388634
134	0xbda92d0e	-0.082605466
135	0x3d496f0d	0.049178172
136	0x3d1c4d75	0.038159806
137	0x3d60851b	0.05481444
138	0x3d784039	0.060608122
139	0xbde80e11	-0.11330808
140	0x3d8f5191	0.069979794
141	0xbbc51d23	-0.0060154363
142	0xbd5f973b	-0.054587584
143	0x3d42b2c9	0.047533784
144	0x3cda9cbd	0.026686067
145	0x3e0b3a15	0.13596375
146	0x3e1d1006	0.15338144
147	0x3d339591	0.04384381
148	0xbb617538	-0.0034402143
149	0x3d9b2a65	0.075764455
150	0x3cd7b3e3	0.026330894
151	0x3d066bd1	0.032817665
152	0x3cac92a0	0.02106601
153	0xbb68fff1	-0.0035552944
154	0x3dd3c926	0.103411004
155	0x3d5d60c4	0.05404736
156	0xbd608998	-0.05481872
157	0x3b59a441	0.0033209475
158	0xbd0edacc	-0.03487663
159	0x3d35e352	0.044406243
160	0xbdfaaf55	-0.12240473
161	0x3d54be10	0.05193907
162	0xbdd2a4e7	-0.10285359
163	0xbd6a0da6	-0.057141922
164	0x3d4905d2	0.049077816
165	0xbdc76ab8	-0.09737152
166	0xbd034124	-0.032044545
167	0x3b29c35b	0.0025903794
168	0xbd823235	-0.063572325
169	0x3d9142bf	0.07092809
170	0xbc815ba3	-0.015790766
171	0x3d897c94	0.067132145
172	0xbd68bdb9	-0.05682156
173	0xbcd63dfe	-0.026152607
174	0x3db972e6	0.09055118
175	0xb97138a4	-0.00023004651
176	0xbda18c94	-0.07888141
177	0xbd8285cf	-0.06373178
178	0x3d1f1ea8	0.038847595
179	0x3d38e81e	0.04514324
180	0xbcd10304	-0.025514133
181	0x3c3f3d5b	0.011672343
182	0x3c807173	0.015679097
183	0x3d8c68a3	0.06855895
184	0xbd62657f	-0.055272575
185	0xbd05781b	-0.032585245
186	0xbd9fabaf	-0.07796418
187	0xbd8ae60e	-0.06782161
188	0xbcd97a4b	-0.026547572
189	0x3cd3c952	0.025852833
190	0x3db12cc1	0.08651114
191	0x3b0f3929	0.0021854138
192	0x3d7940bd	0.060852755
193	0xbd89d715	-0.06730477
194	0xbd3c62e5	-0.04599275
195	0x3bed6e58	0.00724582
196	0x3e2d7c49	0.16941942
197	0x3e2c23d7	0.16810547
198	0x3d985748	0.074385226
199	0x3c87ee18	0.016593024
200	0x3e0c6162	0.13709024
201	0xbd130638	-0.035894603
202	0x3c3b0b54	0.011416275
203	0x3d8d864f	0.06910383
204	0x3b0e6320	0.0021726564
205	0x393ec38d	0.0001819266
206	0x3d56af89	0.052413497
207	0x3d932955	0.07185618
208	0x3e03c11d	0.12866636
209	0x3d8cd0df	0.068757765
210	0xbc36364e	-0.011121346
211	0x3cd31b20	0.02576977
212	0x3d81fa66	0.06346588
213	0xbc2569ca	-0.010096023
214	0xbd656c54	-0.056011513
215	0xbdb6b87d	-0.08921907
216	0x3d328b01	0.043589596
217	0x3d6c1c13	0.05764396
218	0x3d7d33e7	0.061817076
219	0x3d859d1b	0.06524106
220	0xbbf8a916	-0.007588516
221	0x3b80895f	0.003922626
222	0xbdae0b05	-0.084981956
223	0xbd18fbcc	-0.037349507
224	0xba2174d2	-0.000615907
225	0x3d8cfd3f	0.0688424
226	0xbcf7c718	-0.030246302
227	0xbbc854a1	-0.006113604
228	0x3bf7d1e9	0.007562865
229	0x3d626a1d	0.05527698
230	0xbbb63966	-0.0055610416
231	0x3d6a5126	0.057206295
232	0x3d8ca56d	0.0686749
233	0x3dd5e695	0.10444371
234	0x3d2a1817	0.04152688
235	0x3cae628e	0.021287229
236	0xbd4e71f1	-0.05040163
237	0xbd415bce	-0.047206692
238	0x3dd5d032	0.10440101
239	0x3df52488	0.119698584
240	0x3e119754	0.14217883
241	0x3e04f3bf	0.12983607
242	0x3e250365	0.16114576
243	0x3c6fe98b	0.014643083
244	0x3e0bff0a	0.13671508
245	0x3d25b250	0.040453255
246	0x3cb901e1	0.022583904
247	0x3d8607b4	0.06544438
248	0xbd570396	-0.052493654
249	0x3d3dc29d	0.046328176
250	0xbbf0cb30	-0.0073484406
251	0x3cb2718b	0.021782657
252	0xbc945465	-0.018106649
253	0x3d78ac69	0.0607113
254	0x3df92bc2	0.12166549
255	0x3e127fc3	0.1430655

hidden_layer1.bias f4 [64]
0	0x3e1a8038	0.15087974
1	0x3e988057	0.29785416
2	0x3e379771	0.17928864
3	0x3e1a795f	0.15085362
4	0x3de4d8fe	0.111742005
5	0xbe3d2284	-0.18470198
6	0x3e5d0d0e	0.21587011
7	0x3dd63da6	0.10460977
8	0xbe0afba7	-0.1357256
9	0xbdd9678a	-0.10615452
10	0xbc8b0df3	-0.016974425
11	0x3e842405	0.2580873
12	0x3e75bbef	0.23997472
13	0x3cc3cc87	0.023901237
14	0x3e436a72	0.19083574
15	0x3e9302d2	0.2871309
16	0x3e89fdc6	0.26951426
17	0xbe1cce6a	-0.15313116
18	0x3d70437d	0.05865811
19	0x3e1a15bd	0.15047355
20	0x3d83519c	0.0641205
21	0x3e5cfa82	0.21579936
22	0x3e8d59a3	0.2760745
23	0x3ddfce94	0.109280735
24	0x3e543a19	0.20725287
25	0x3d91bd34	0.07116166
26	0xbd8c62e3	-0.06854799
27	0x3e6bfe5e	0.23046252
28	0xbd90c679	-0.07069106
29	0x3dc9ee77	0.09859937
30	0x3ce528b7	0.027973516
31	0x3dc5ebb7	0.096641
32	0x3e18c9e8	0.14920771
33	0x3d80e90e	0.06294452
34	0x3e406ebf	0.18792246
35	0x3e6cfdda	0.23143712
36	0x3e46e312	0.19422558
37	0x3e1640e4	0.14673191
38	0x3e0c531b	0.13703577
39	0x3ea31282	0.31850058
40	0x3e6680cd	0.22510071
41	0x3e080fa4	0.13287216
42	0x3e980625	0.29692188
43	0x3e54df1c	0.20788234
44	0x3e2cc0ef	0.16870473
45	0x3e4be369	0.19910969
46	0x3db3b13e	0.08774041
47	0x3db40c80	0.08791447
48	0xbd6e6798	-0.058204263
49	0x3e9fb006	0.31188983
50	0x3e0fb265	0.14032896
51	0x3b213df1	0.002460357
52	0x3dbd0983	0.0923033
53	0x3e15a3e8	0.14613307
54	0x3e82eda2	0.25571924
55	0x3e0b5022	0.13604787
56	0x3e95ffee	0.2929682
57	0x3d6771ba	0.056504942
58	0x3de1a8dd	0.11018536
59	0x3eb552f5	0.35414854
60	0xbbe4dc4b	-0.006984269
61	0xbc16a600	-0.009194851
62	0x3c9c0c47	0.019048823
63	0x3e772395	0.24134667

hidden_layer2.weight f4 [32, 64]
0	0xbd924bdf	-0.071433775
1	0x3d181011	0.037124697
2	0x3e0d7d94	0.13817436
3	0xbd36efe6	-0.04466238
4	0x3e56d142	0.20978263
5	0xbe57f76c	-0.21090478
6	0xbd050369	-0.032473955
7	0x3d47084c	0.048591897
8	0x3e3f3260	0.1867156
9	0x3e944da9	0.289655
10	0x3cefd593	0.029276645
11	0xbb8b5897	-0.004252504
12	0x3e122a99	0.14274062
13	0x3ebdf208	0.37098718
14	0x3dbf18c5	0.09330896
15	0x3c27303d	0.010204372
16	0x3e0b3d7a	0.1359767
17	0x3e242ca2	0.16032651
18	0x3e146cb1	0.14494587
19	0x3d809b46	0.06279616
20	0x3be9ecfb	0.007138846
21	0x3e34293b	0.17593853
22	0x3ddacc9e	0.10683559
23	0xbd97e406	-0.07416539
24	0x3da2e6db	0.079541884
25	0x3b4fc395	0.003170227
26	0xbd78ba07	-0.060724284
27	0x3e040296	0.12891611
28	0x3e750664	0.23928219
29	0x3db9e1d2	0.09076275
30	0xbda59c67	-0.08086472
31	0x3d96dbf4	0.073661715
32	0xbd8c2c35	-0.06844369
33	0x3dfddc58	0.12395543
34	0xbd248d8a	-0.040174045
35	0x3e2986db	0.1655535
36	0x3d96e0dc	0.07367107
37	0x3e0cd426	0.13752803
38	0xbda118b9	-0.078660436
39	0xbd92d63c	-0.07169768
40	0xbd19ad2c	-0.037518665
41	0x3d4f43e2	0.050601847
42	0x3de9c386	0.11414246
43	0x3dd7f1db	0.10544177
44	0x3d4ea6e7	0.05045214
45	0x3dad2589	0.08454425
46	0x3de9705f	0.11398386
47	0x3db6fd38	0.089350164
48	0x3e528179	0.20557202
49	0x3d079cb0	0.033108413
50	0xbd9e4ef4	-0.07729903
51	0xbd892561	-0.066965826
52	0x3e015a7b	0.12632172
53	0x3df5a57b	0.119944535
54	0x3d15ef29	0.036605034
55	0xbbdd329c	-0.006750418
56	0x3d174d51	0.03693897
57	0x3dc0c26e	0.094120845
58	0xbdc0eb9f	-0.09419941
59	0xbd93d87c	-0.072190255
60	0x3da29ac3	0.07939675
61	0x3e051756	0.12997183
62	0x3e14e976	0.14542183
63	0x3c728642	0.014802517
64	0x3d966fb8	0.073455274
65	0x3e83061f	0.25590608
66	0xbd8310ab	-0.063996635
67	0xbd4c10dd	-0.04982077
68	0x3dc2b92d	0.09507976
69	0xbd9d12d4	-0.07669607
70	0xbe17de46	-0.14830884
71	0xbe16ef84	-0.14739805
72	0xbc934b48	-0.017980233
73	0x3e16c509	0.147236
74	0xbdd88f0b	-0.10574158
75	0x3cb2dfa7	0.021835161
76	0xba9d64b9	-0.0012008167
77	0x3e20d2d6	0.15705428
78	0x3be833a3	0.0070862337
79	0x3c42ec6a	0.011897186
80	0x3dc14867	0.09437638
81	0x3ed99689	0.42497662
82	0x3d233e04	0.039854065
83	0x3dea7d41	0.114496715
84	0xbc2dea9c	-0.010615017
85	0xbe2f0921	-0.17093326
86	0x3e0a3d1e	0.13499877
87	0x3e82a606	0.2551729
88	0x3d171542	0.036885507
89	0xbe2ff056	-0.17181525
90	0xbe78553d	-0.24251266
91	0x3de285d4	0.11060682
92	0xbce8b22f	-0.028405277
93	0xbda66fbc	-0.081267804
94	0xbe26ceb0	-0.16289783
95	0xbe445359	-0.1917242
96	0x3ca5aaa0	0.020222962
97	0xbcc4284e	-0.023945
98	0x3cd0e440	0.025499463
99	0x3e27e921	0.16397525
100	0x3de8e825	0.11372403
101	0x3db3a42d	0.087715484
102	0xbe3aa245	-0.18225963
103	0x3d52d8c4	0.051476255
104	0x3e812d91	0.25230077
105	0xbdc3f7a9	-0.09568722
106	0x3ef6c4a6	0.48196906
107	0x3e442914	0.19156295
108	0x3d7bd6f8	0.061484307
109	0xbe14fad8	-0.14548814
110	0xbe5bc03e	-0.21460053
111	0xbe100256	-0.14063391
112	0xbe478ec0	-0.19488049
113	0x3e68cdf8	0.22734821
114	0x3d5e3d5c	0.054257736
115	0xbe2076f8	-0.15670383
116	0xbe06761e	-0.13130996
117	0xbdc0e2b4	-0.0941824
118	0x3e84bb98	0.25924373
119	0x3d6caa97	0.057779875
120	0x3e0baba1	0.1363969
121	0x3c0468ab	0.008081595
122	0xbe35664e	-0.17714807
123	0x3deb3d66	0.1148632
124	0xbe8f9a60	-0.28047466
125	0x3d473dbd	0.048642863
126	0xbd89f6f0	-0.06736553
127	0x3e4bbc59	0.19896068
128	0xbcd38ff9	-0.025825487
129	0xbd29b516	-0.041432463
130	0x3e5378b2	0.2065151
131	0xbe2590b0	-0.16168475
132	0xbc99f053	-0.018791353
133	0x3e713816	0.23556551
134	0x3e1981a1	0.14990856
135	0x3c996a07	0.018727316
136	0xbe061bb7	-0.1309651
137	0xbecc09af	-0.39851138
138	0xbd514027	-0.05108657
139	0x3df19bb5	0.11797277
140	0x3ea5dc6c	0.3239473
141	0x3e527964	0.2055412
142	0x3c7577a1	0.014982135
143	0x3d7d43bc	0.061832175
144	0x3e554f64	0.20831066
145	0xbe5cc7f5	-0.21560653
146	0xbe3c9590	-0.18416429
147	0x3d72e6cc	0.059302136
148	0xbdadc186	-0.08484177
149	0x3e494390	0.1965468
150	0x3ca16fb4	0.019706585
151	0xbe872981	-0.26398852
152	0x3e516251	0.20447661
153	0x3d0cf912	0.03441722
154	0xbd12ddf7	-0.035856213
155	0x3ddf3d53	0.109003685
156	0xbd7942d0	-0.060854733
157	0xbd85336a	-0.06503947
158	0xbbb6445c	-0.0055623483
159	0x3b579741	0.003289655
160	0x3d7be1a2	0.061494477
161	0xbd482e4c	-0.048872277
162	0xbe460558	-0.19337976
163	0xbe298f73	-0.16558628
164	0x3e323f1a	0.17406884
165	0xbe09d584	-0.13460356
166	0x3d92aa51	0.071613915
167	0x3ddd420c	0.10803613
168	0xbdd53887	-0.10411172
169	0xbd725891	-0.059166495
170	0xbe0bfa75	-0.1366976
171	0xbe2e0876	-0.16995415
172	0xbe501a8a	-0.20322624
173	0x3e72a9ce	0.23697588
174	0x3e2c018e	0.16797468
175	0x3caf35e7	0.021388007
176	0xbe3cb775	-0.18429358
177	0xbab62eaa	-0.0013899405
178	0x3e6799d9	0.22617282
179	0xbe10d11b	-0.14142267
180	0x3b23d0f4	0.0024996372
181	0xbd6ce332	-0.057833858
182	0xbe017557	-0.12642418
183	0xbdad195d	-0.08452103
184	0x3d352b42	0.044230707
185	0xbcc25dc9	-0.02372636
186	0x3e49a24e	0.1969082
187	0x3d952819	0.07283039
188	0xbe6df68d	-0.23238583
189	0xbe865eac	-0.26244104
190	0xbe53aaa4	-0.20670563
191	0xbd2b2642	-0.041784532
192	0xbd3b226f	-0.045687135
193	0x3e34c573	0.17653446
194	0xbd61c52e	-0.055119686
195	0x3dac2ae9	0.08406622
196	0x3e074a8b	0.1321203
197	0xbe5cb72c	-0.2155425
198	0x3c95b74e	0.018275883
199	0x3ba85fb4	0.005138362
200	0x3e7294d1	0.23689581
201	0x3e86a45f	0.2629728
202	0x3e406a05	0.18790443
203	0x3e44fe98	0.19237745
204	0xbc69989c	-0.014257576
205	0x3ec0bf59	0.37645987
206	0x3db9d0ec	0.09073052
207	0x3ca7bbe9	0.020475345
208	0x3c181097	0.009281299
209	0x3e884eb4	0.26622546
210	0x3e355acf	0.17710422
211	0x3bc899ec	0.0061218645
212	0xbd37709f	-0.04478514
213	0xbdb85f53	-0.09002557
214	0x3e400281	0.18750955
215	0x3de40e3e	0.11135529
216	0x3de29248	0.11063057
217	0x3dbfb0cb	0.093598925
218	0x3d517e81	0.051146034
219	0x3cf921d3	0.030411636
220	0x3e463c55	0.19358952
221	0x3c9a3060	0.018821895
222	0xbc670345	-0.014099901
223	0x3d8b9976	0.0681638
224	0xbd162247	-0.036653783
225	0x3ca3d4ae	0.019998875
226	0x3dba7917	0.09105127
227	0x3e1a602f	0.15075754
228	0x3e261f3c	0.16222852
229	0x3e3b778a	0.1830732
230	0x3d83abbf	0.06429242
231	0xbe11191d	-0.14169736
232	0x3e29734c	0.16547889
233	0x3d45509f	0.04817259
234	0x3d9190aa	0.071076706
235	0x3e278f3c	0.16363233
236	0x3e3ec4d0	0.18629766
237	0xbdbbef30	-0.09176481
238	0x3d0a417f	0.03375387
239	0x3e48fcde	0.19627711
240	0x3df86e31	0.12130392
241	0x3e774394	0.24146873
242	0xbcd44117	-0.025909944
243	0x3e195289	0.14972891
244	0xbd15d96c	-0.036584303
245	0xbd1ff80d	-0.03905492
246	0x3d7190e8	0.058976084
247	0x3cbf0d7c	0.02332186
248	0x3de285c1	0.11060668
249	0x3d639ce1	0.055569533
250	0xbd39d0c4	-0.04536511
251	0x3ddfd3e0	0.10929084
252	0x3e176beb	0.14787261
253	0x3e31704b	0.17327993
254	0xbd0dcf48	-0.034621507
255	0xbc4eb878	-0.012617223

hidden_layer2.bias f4 [32]
0	0x3d229833	0.03969593
1	0x3f151a65	0.582434
2	0x3d78938b	0.060687583
3	0x3ea1274c	0.31475294
4	0x3ef313b4	0.4747597
5	0xbc2f25e9	-0.010690191
6	0xbdea7ed8	-0.11449975
7	0x3e536725	0.20644815
8	0x3e039f85	0.1285382
9	0x3d107310	0.035265982
10	0x3ca6f628	0.020381048
11	0x3da06792	0.078322545
12	0x3da55dc6	0.080745265
13	0x3e1fd35f	0.15607975
14	0xbe1b0ade	-0.15140864
15	0x3f0f0e0e	0.5588082
16	0x3dc6ec04	0.09712985
17	0x3e8e2e18	0.27769542
18	0x3dcc7b06	0.09984402
19	0xbb30218c	-0.0026875464
20	0x3d8805dc	0.066417426
21	0x3e894129	0.26807526
22	0x3d891216	0.06692903
23	0x3db77de8	0.089595616
24	0x3cdb757b	0.026789417
25	0x3dddcc88	0.10830027
26	0x3e391c78	0.18077266
27	0x3ed8cbc8	0.42342973
28	0xbc040355	-0.008057435
29	0xbd63ad91	-0.055585448
30	0x3e8f2189	0.27955273
31	0x3e37ff3b	0.17968456

hidden_layer3.weight f4 [16, 32]
0	0x3e0939fe	0.13401029
1	0x3f47ca83	0.78043383
2	0x3d084b40	0.03327489
3	0x3e476399	0.19471587
4	0x3eb4fd0c	0.3534931
5	0x3d828ba2	0.06374289
6	0xbe317526	-0.17329845
7	0xbdc164a1	-0.094430216
8	0x3e27c2a0	0.16382837
9	0xbdafe3cb	-0.0858837
10	0x3e09369d	0.1339974
11	0xbc4ed01f	-0.012622862
12	0x3d85abd6	0.06526916
13	0xbe11728a	-0.1420385
14	0xbdf804da	-0.121103
15	0x3ee0c95d	0.43903628
16	0x3d4218d4	0.04738696
17	0x3deb0a2e	0.11476551
18	0x3e1e69fb	0.15470116
19	0xbd41214a	-0.047150888
20	0xbd7df3ed	-0.062000204
21	0xbda80794	-0.082045704
22	0xbc5c85ae	-0.013459606
23	0xbe36e516	-0.17860827
24	0xbe07ccfd	-0.1326179
25	0x3d9833f4	0.07431784
26	0x3d383c35	0.044979293
27	0x3e9164fc	0.28397357
28	0xbe460a0f	-0.19339775
29	0xbdf9f5d6	-0.122050926
30	0x3e25874f	0.16164897
31	0xbde93ac8	-0.11388165
32	0xbdf2e58b	-0.11860188
33	0x3d960737	0.07325595
34	0xbbe8a457	-0.007099669
35	0x3df967e8	0.12178022
36	0xbe5ef048	-0.21771348
37	0x3dfad78a	0.12248142
38	0xbe5f1bbc	-0.21787924
39	0x3d07b298	0.033129305
40	0xbdbe289c	-0.092850894
41	0xbd83f029	-0.06442291
42	0x3e160a84	0.14652449
43	0x3e26b758	0.16280878
44	0x3dff916a	0.124789074
45	0xbe2c029b	-0.16797869
46	0xbe0aabcf	-0.13542102
47	0x3dc419c8	0.0957523
48	0x3da61dbd	0.08111141
49	0xbe2984b4	-0.16554528
50	0x3d98be7d	0.07458208
51	0x3d118a66	0.035532378
52	0xbe44bf01	-0.19213487
53	0xbde921a7	-0.11383372
54	0xbdcd2205	-0.10016254
55	0xbe0af801	-0.13571168
56	0xbe082337	-0.13294683
57	0x3d7d8b60	0.061900496
58	0x3cd5e6ad	0.026110971
59	0x3d1f4a7a	0.038889386
60	0x3cc11c53	0.023573076
61	0xbda7b595	-0.08188931
62	0xbe30a702	-0.17251208
63	0x3da02166	0.0781887
64	0x3de4a655	0.11164538
65	0xbd22a890	-0.039711535
66	0x3d9c14e1	0.0762117
67	0xbd778354	-0.06042798
68	0xbdc4b5a7	-0.0960496
69	0x3e0eb57e	0.13936421
70	0xbda2abf0	-0.07942951
71	0xbe2c0bab	-0.16801326
72	0x3b2e4468	0.0026591066
73	0xbe04f590	-0.129843
74	0x3e0fc22a	0.14038911
75	0x3dd53fcc	0.10412559
76	0x3d5ffaa4	0.05468239
77	0x3d0a2707	0.033728626
78	0x3da039ca	0.078235224
79	0x3e30e5a9	0.17275108
80	0xbdc37462	-0.09543683
81	0x3d328ee8	0.043593317
82	0xbd7e985e	-0.062157027
83	0xba922903	-0.0011151138
84	0xbe014003	-0.12622075
85	0xbe271986	-0.1631833
86	0x3e2fe4ef	0.17177175
87	0xbda767e9	-0.08174116
88	0xbe2434f8	-0.16035831
89	0x3e07bd0b	0.13255708
90	0xbda9a434	-0.082832724
91	0x3ddc418c	0.107546896
92	0xbdbfbf31	-0.09362639
93	0xbdae3b9d	-0.08507464
94	0xbd6527df	-0.055946227
95	0xbe2c8940	-0.16849232
96	0xbeb4a00a	-0.3527835
97	0x3e94bacd	0.29048768
98	0x3eb04ac5	0.34432045
99	0xbd596b22	-0.053080685
100	0x3e5a7ee6	0.2133747
101	0xbe0501fe	-0.12989041
102	0xbdd7790a	-0.10521133
103	0xbd47c8bd	-0.048775423
104	0xbdcc3d86	-0.09972672
105	0xbd72997b	-0.0592284
106	0xbd81ce0e	-0.0633813
107	0xbe01d3d0	-0.12678456
108	0xbe9e2989	-0.30891064
109	0xbe0b9706	-0.1363183
110	0xbe80730f	-0.25087783
111	0x3c46fb9d	0.01214495
112	0xbe23c68a	-0.15993705
113	0xbe0a484d	-0.13504143
114	0xbe7e22c2	-0.24817947
115	0x3d24615a	0.040131904
116	0x3ea084c4	0.31351292
117	0x3e519e16	0.20470461
118	0xbe288864	-0.16458279
119	0xbbd1048a	-0.006378715
120	0xbd937ff3	-0.07202139
121	0x3d375a81	0.044764046
122	0xbd286bd5	-0.04111846
123	0x3e19d6cb	0.15023343
124	0x3cc572a6	0.02410252
125	0xbe28ed89	-0.16496862
126	0x3e1abadd	0.15110345
127	0xbccb37bc	-0.02480685
128	0xbded2b58	-0.11580533
129	0x3efc9b4c	0.49337232
130	0xbe7c5d00	-0.24644852
131	0x3e425047	0.18975936
132	0xbe92f15f	-0.28699777
133	0xbd6a448f	-0.05719429
134	0x3dfb40df	0.122682326
135	0x3e130409	0.14357008
136	0x3da7a1f9	0.08185191
137	0x3e0f3668	0.13985598
138	0xbcc80273	-0.02441523
139	0xbdc76157	-0.09735363
140	0x3d96985a	0.073532775
141	0x3e0d458e	0.13796064
142	0x3ca94124	0.020660944
143	0x3daa161a	0.08304997
144	0xbdeaa6bb	-0.114575826
145	0x3df800be	0.121095166
146	0x3d577a46	0.052606843
147	0x3dd1b492	0.10239519
148	0xbe025bfa	-0.12730399
149	0xbe7a3268	-0.24433291
150	0x3e6144c1	0.21998884
151	0xbd05beff	-0.03265285
152	0x3da05e68	0.078305066
153	0x3d96617d	0.07342813
154	0x3e95ae78	0.29234672
155	0x3e8c1827	0.27362177
156	0x3e235f59	0.15954341
157	0x3e6ab9b4	0.22922403
158	0x3e6885f5	0.2270735
159	0x3dec7965	0.11546592
160	0x3e201608	0.15633404
161	0x3e1d29a3	0.15347914
162	0x3de59549	0.112101145
163	0xbd783536	-0.06059762
164	0xbe6ac5f0	-0.2292707
165	0xbddad3a6	-0.106849
166	0xbe10bec6	-0.14135274
167	0xbe1566aa	-0.14589944
168	0xbe147410	-0.144974
169	0x3dec80c6	0.11547999
170	0xbd3b8774	-0.045783475
171	0x3e027423	0.12739615
172	0x3d72e61d	0.059301484
173	0x3c6ecfab	0.014575879
174	0xbdb96bd5	-0.090537705
175	0x3d3d139f	0.04616129
176	0x3ccd3dd3	0.025053894
177	0x3db421ef	0.08795535
178	0xbe2b1a9c	-0.1670937
179	0xbc7839ec	-0.015150528
180	0xbd793c46	-0.060848497
181	0xbdd7576e	-0.10514723
182	0xbc2a66bf	-0.010400473
183	0x3d813640	0.063091755
184	0xbe40a6e7	-0.18813668
185	0xbe0f0453	-0.13966493
186	0x3cfcdc69	0.030866819
187	0xbe1b3c65	-0.15159757
188	0xbd13ce08	-0.03608516
189	0xbc808dac	-0.015692554
190	0xbd8b91a2	-0.06814887
191	0xbd0136c1	-0.031546358
192	0x3e6d96b5	0.23202021
193	0x3f145bf4	0.5795281
194	0xbeb8aed3	-0.3607088
195	0x3e1203f2	0.14259318
196	0xbe058d38	-0.13042152
197	0xbd358b79	-0.044322465
198	0x3e95bfd6	0.29247922
199	0x3df0346f	0.11728751
200	0xbc415733	-0.011800575
201	0x3dc584bc	0.09644458
202	0xbd26b579	-0.04070041
203	0xbd251001	-0.040298466
204	0x3d750e17	0.05982789
205	0x3de1ec5c	0.1103141
206	0xbc3ed073	-0.011646378
207	0x3f2c1b04	0.6722872
208	0x3deaf7ab	0.1147302
209	0x3e50df7d	0.20397754
210	0xbd21b42f	-0.039478477
211	0xbd29f373	-0.041491937
212	0x3cabda6a	0.020978171
213	0xbea9b60a	-0.33146697
214	0xbccd5757	-0.025066061
215	0x3e024df2	0.12725046
216	0x3e4a7a03	0.19773106
217	0x3e3af4a9	0.18257393
218	0x3dd74dda	0.10512896
219	0xbce32297	-0.027726455
220	0x3e0a5856	0.1351026
221	0x3e3e4066	0.18579254
222	0x3e1ade04	0.15123755
223	0x3d85c2a8	0.06531268
224	0xbe1d93d1	-0.15388419
225	0xbf2d983d	-0.6781042
226	0x3dee65e8	0.11640531
227	0xbe2dced8	-0.16973436
228	0x3e4f9d89	0.20274939
229	0xbe629179	-0.22125806
230	0xbe59f639	-0.21285333
231	0x3e5ce564	0.2157188
232	0xbe47862a	-0.19484773
233	0x3d31f05c	0.043442115
234	0xbe212358	-0.15736139
235	0x3e0c1998	0.13681638
236	0x3d93bda9	0.07213909
237	0xbd950307	-0.07275968
238	0xbe5e0e27	-0.21685086
239	0x3e9131ce	0.2835831
240	0xbda799d4	-0.08183637
241	0x3d8ed40e	0.0697404
242	0x3da75e2d	0.081722595
243	0xbdfc4d9b	-0.123194896
244	0x3ec227aa	0.37920886
245	0x3ea887ec	0.329162
246	0xbe2a198c	-0.16611308
247	0x3de364ae	0.111031875
248	0xbbb85f14	-0.0056265686
249	0xbd592c22	-0.053020604
250	0xbe137b95	-0.14402612
251	0xbe8fe09b	-0.28101048
252	0x3da9d427	0.08292418
253	0xbe967d87	-0.29392645
254	0x3d9ca6a9	0.076489754
255	0x3ea25023	0.31701764

hidden_layer3.bias f4 [16]
0	0x3ee947fb	0.4556273
1	0x3e148634	0.1450432
2	0xbdee7ba1	-0.11644674
3	0x3e12cadf	0.14335202
4	0x3e509599	0.20369567
5	0x3e141989	0.14462866
6	0x3e6de222	0.23230794
7	0x3e74b398	0.23896635
8	0x3d83ea3f	0.06441163
9	0xbd8ef07a	-0.06979461
10	0x3eae3887	0.34027502
11	0xbce6c7ea	-0.028171498
12	0x3ec80d08	0.39072442
13	0xbe0e043a	-0.138688
14	0x3dda601e	0.10662864
15	0x3e65a2b6	0.2242535

out_layer.weight f4 [8, 16]
0	0x3f4a2007	0.7895512
1	0xbdd2450a	-0.102670744
2	0x3cafa0c8	0.021438971
3	0xbb939766	-0.004504132
4	0x3e9e2617	0.30888435
5	0xbdd648fe	-0.10463141
6	0x3e064d2e	0.13115379
7	0xbeeb8531	-0.46000054
8	0x3e24d4ee	0.16096851
9	0xbe26298a	-0.16226783
10	0x3d8f33b6	0.06992285
11	0x3e1ee540	0.1551714
12	0xbe8f6c83	-0.28012475
13	0xbe2797e9	-0.16366543
14	0xbe3641d6	-0.17798552
15	0x3e9c929f	0.30580613
16	0x3f611389	0.87920433
17	0xbc9c330f	-0.019067315
18	0xbdf19fdf	-0.11798071
19	0xbe6eb586	-0.23311433
20	0xbda3df2c	-0.08001551
21	0x3c492ea8	0.01227919
22	0x3e9031ca	0.28162986
23	0xbe2305db	-0.15920202
24	0x3e3370db	0.1752352
25	0x3e4a47d8	0.19753969
26	0x3d828d22	0.06374575
27	0x3e8f01ff	0.2793121
28	0xbe9d82ae	-0.30763763
29	0x3db34291	0.08752931
30	0x3db20b66	0.0869358
31	0xbe43d13e	-0.19122788
32	0x3f066988	0.5250478
33	0x3df43571	0.11924256
34	0x3e17b3cf	0.14814685
35	0xbeb022ad	-0.34401456
36	0xbdcfaada	-0.10140009
37	0x3e2a9b63	0.16660838
38	0x3e96dc14	0.2946478
39	0xbedec72a	-0.43511325
40	0xbd143581	-0.036183838
41	0x3db009c8	0.085956156
42	0x3e373582	0.17891505
43	0x3d5c2487	0.053745773
44	0xbea2edc8	-0.31822038
45	0xbe90e477	-0.28299305
46	0xbc16a1cc	-0.009193849
47	0xbe5f9e62	-0.21837762
48	0x3f31bd1f	0.694292
49	0x3dca95a4	0.09891823
50	0xbdbaf66d	-0.09129033
51	0xbeb46cdf	-0.35239312
52	0x3dfbdf3e	0.122984394
53	0x3d88dce0	0.066827536
54	0x3e522569	0.20522083
55	0xbe952b24	-0.29134476
56	0x3e7cf13c	0.24701399
57	0xbdd3cb3e	-0.103415
58	0x3e6b8d62	0.23003152
59	0xbde69139	-0.11258168
60	0xbe541b88	-0.20713627
61	0xbdda99e2	-0.10673882
62	0xbdca54b9	-0.09879441
63	0x3d2db053	0.042404484
64	0xbcfcc7d6	-0.030857008
65	0x3dffa132	0.124819174
66	0xbd8a87ed	-0.06764207
67	0xbe8f8808	-0.2803347
68	0xbd837144	-0.06418088
69	0x3e228c12	0.15873745
70	0x3e25c5d8	0.16188753
71	0x3d82d11e	0.06387542
72	0xbe2039e6	-0.15647087
73	0xbdca8152	-0.09887947
74	0xbdb9d4aa	-0.090737656
75	0x3e814cbd	0.2525386
76	0xbd07eb35	-0.033183295
77	0x3e99da1c	0.30049217
78	0xbcbf1ba3	-0.023328608
79	0xbd84fd01	-0.06493569
80	0xbeaf2a09	-0.34211758
81	0x3d96a495	0.0735561
82	0xbd28bff0	-0.04119867
83	0xbe620e80	-0.22075844
84	0xbe0b02e3	-0.1357532
85	0x3dd9e33f	0.10639047
86	0x3d8dcd8a	0.06923969
87	0xbe21413a	-0.15747538
88	0xbe4cd7b9	-0.20004167
89	0x3e44968f	0.19198059
90	0x3e84f918	0.25971293
91	0x3e42e252	0.19031647
92	0xbecea0ab	-0.40356955
93	0xbd8184ad	-0.06324134
94	0xbe760cd1	-0.24028327
95	0xbe124d74	-0.14287359
96	0x3eba0fc3	0.3634015
97	0x3d751e0a	0.0598431
98	0xbd115db3	-0.03548975
99	0xbebdd6b4	-0.37077868
100	0x3e31a5dd	0.17348428
101	0x3e74ae73	0.23894672
102	0xbcc3d5c1	-0.023905637
103	0xbefe448e	-0.49661678
104	0x3ea89aff	0.32930753
105	0xbe13fe99	-0.1445259
106	0xbd511cf6	-0.05105301
107	0xbd33d4cc	-0.04390411
108	0x3c557267	0.013027764
109	0x3e97f79d	0.296811
110	0xbe080961	-0.13284828
111	0x3e23d25e	0.15998217
112	0xbeccd366	-0.40005034
113	0x3dc49908	0.09599501
114	0xbe20f442	-0.15718177
115	0xbeabf2df	-0.33583733
116	0x3e431bfb	0.19053642
117	0xbe757b52	-0.23972824
118	0x3e776632	0.24160078
119	0xbea6cb64	-0.3257705
120	0xbde86db2	-0.11349048
121	0xbe394e0b	-0.18096177
122	0xbd647a82	-0.055780895
123	0x3d819c01	0.063285835
124	0xbee2fe22	-0.44334513
125	0xbd2d9f6d	-0.04238837
126	0x3d195dbf	0.03744292
127	0xbcf03d12	-0.029325996

out_layer.bias f4 [8]
0	0x3e20e078	0.15710628
1	0x3e1fd3bd	0.15608115
2	0x3e1a9f31	0.15099789
3	0x3eaa31a2	0.33240992
4	0x3d99e5df	0.075145476
5	0xbdbfec06	-0.0937119
6	0x3e840092	0.25781685
7	0xbdd25135	-0.10269395
