models/DQNfactorized_param3.pth (torch, 46417 bytes, 8 tensors)

hidden_layer1.weight f4 [64, 126]
0	0x3e15c27b	0.1462497
1	0x3d991e63	0.07476499
2	0x3da1dd84	0.07903579
3	0x3e05f359	0.13081111
4	0x3e1409b3	0.14456825
5	0x3cf2084f	0.029544977
6	0x3d91220c	0.07086572
7	0x3e7ee2a8	0.2489115
8	0x3e472911	0.1944926
9	0x3e92e721	0.28691962
10	0x3e6938e1	0.22775604
11	0x3e36ae0e	0.17839834
12	0x3e028a65	0.12748106
13	0x3e664cf5	0.22490294
14	0x3d1ac320	0.037783742
15	0xbd9b43cf	-0.07581293
16	0xbda09209	-0.07840354
17	0x3c932102	0.017960075
18	0xbd9d643a	-0.07685132
19	0xbdf392f2	-0.11893262
20	0x3ce48972	0.02789757
21	0x3db9f11e	0.090791926
22	0x3e114a1a	0.14188424
23	0x3da18ee4	0.07888582
24	0x3deecde8	0.11660367
25	0x3d7f9f3a	0.06240771
26	0xbdbea072	-0.09307946
27	0xbd8475f5	-0.06467811
28	0x3e1cdcac	0.15318555
29	0x3e0b7e0b	0.136223
30	0x3e68f72e	0.22750542
31	0x3e09f51e	0.13472411
32	0x3d812b09	0.063070364
33	0x3d911b21	0.070852526
34	0x3de31120	0.11087251
35	0x3d7a6bbb	0.061137896
36	0x3de75862	0.112961546
37	0x3d9ef5aa	0.077617005
38	0x3e0bf38f	0.13667129
39	0x3ddae58c	0.10688314
40	0x3cfda533	0.030962562
41	0x3da1e3d3	0.07904782
42	0x3d9dff0b	0.07714661
43	0xbb5d10b5	-0.0033731882
44	0x3dfdbb92	0.12389292
45	0x3db2c40d	0.087288
46	0x3d5b31c5	0.05351426
47	0xbd43bcfb	-0.047787648
48	0xbd52e751	-0.05149013
49	0x3ddd1cab	0.107964836
50	0x3d638ac1	0.055552248
51	0xbc9cb443	-0.019128924
52	0x3cef5f90	0.029220372
53	0x3d62b2ec	0.055346414
54	0xbc57cdc1	-0.013171614
55	0xbb98fe2e	-0.0046689725
56	0x3e26a8f9	0.16275395
57	0x3de87388	0.11350161
58	0x3e327b18	0.17429769
59	0x3dad1a98	0.08452338
60	0x3e08dda7	0.13365804
61	0x3d192049	0.037384305
62	0xbd221703	-0.039572727
63	0x3cb66b43	0.022267943
64	0x3d694a08	0.056955367
65	0x3e163c3e	0.14671418
66	0x3e01e9eb	0.12686889
67	0x3d7f5882	0.062340267
68	0xbcef2436	-0.029192071
69	0x3dbf8f93	0.093535565
70	0x3e122e77	0.14275537
71	0x3e514003	0.20434575
72	0x3e180aa9	0.14847817
73	0x3e1f3a0d	0.15549488
74	0x3e19cbc3	0.15019135
75	0x3e093fe2	0.13403276
76	0x3df4aa41	0.11946536
77	0x3c336853	0.010950166
78	0xbd17f54c	-0.037099168
79	0x3d33f992	0.04393918
80	0x3d97f6c0	0.07420111
81	0xbd70fd99	-0.0588356
82	0x3d2321a8	0.03982702
83	0x3c333b11	0.0109393755
84	0xbdbbd43c	-0.0917134
85	0xbd8b4d19	-0.068018146
86	0xbda2335f	-0.079199545
87	0xbd836b6f	-0.06416976
88	0xbcb73671	-0.022364827
89	0xbdc58102	-0.09643747
90	0xbdbac483	-0.09119513
91	0x3e2bda41	0.16782476
92	0x3e14ad02	0.14519122
93	0x3e186fa5	0.14886339
94	0x3d499149	0.04921082
95	0xbb3ec4ed	-0.0029109076
96	0x3dd4bae4	0.10387209
97	0xbd737475	-0.059437234
98	0x3d11d926	0.03560748
99	0x3c108dcd	0.00882287
100	0xbd07a848	-0.03311947
101	0xbb84426d	-0.004036239
102	0x3dacd0a0	0.084382296
103	0x3d225417	0.039630976
104	0xbc67cdfb	-0.014148231
105	0x3a69143b	0.0008891259
106	0xbcb52f51	-0.022117289
107	0xbd96584e	-0.073410615
108	0xbd9d4723	-0.07679584
109	0x3ca4d297	0.020119948
110	0xbcad21b2	-0.021134231
111	0xbcbfa570	-0.023394316
112	0xbd6e17a5	-0.058128018
113	0xbcf78992	-0.030216966
114	0xbc44c389	-0.01200951
115	0x3cd602fa	0.026124466
116	0xbdcb0fc6	-0.09915118
117	0x3c2718ab	0.010198752
118	0xbd8ba44d	-0.06818447
119	0x3dd2f35c	0.10300323
120	0x3e60bcfe	0.21947095
121	0x3d8853a6	0.0665658
122	0x3ca08c0a	0.019598026
123	0x3d85a621	0.06525827
124	0x3d4d3772	0.050101705
125	0x3c26842b	0.010163347
126	0x3e29959c	0.16560978
127	0x3d75b8b0	0.059990585
128	0x3dd9e438	0.106392324
129	0x3e3ffa6a	0.18747869
130	0x3ded4d29	0.11586983
131	0x3e04ee77	0.12981592
132	0xbc08b66a	-0.008344272
133	0x3e324c12	0.17411831
134	0x3e3c6798	0.18398893
135	0x3e2dbf1c	0.16967434
136	0x3dbc122c	0.091831535
137	0x3d63a2a2	0.05557502
138	0x3d9b4a36	0.07582514
139	0x3d8e7403	0.06955721
140	0x3df7af17	0.120939426
141	0xbcaf2538	-0.021380052
142	0x3dc027b0	0.0938257
143	0xbcac710e	-0.021050002
144	0x3d811e7a	0.06304641
145	0xbce68c0f	-0.028142957
146	0x3d9adb6b	0.07561382
147	0x3a74bacf	0.0009335698
148	0x3db1e541	0.08686305
149	0xbce55a0c	-0.02799704
150	0xbcc114b1	-0.023569437
151	0x3d62803e	0.055298083
152	0xbd4fc726	-0.050727032
153	0xbd9da230	-0.076969504
154	0x3d6a6a9d	0.05723058
155	0x3e09b367	0.13447343
156	0x3db37da4	0.087641984
157	0x3d1c3033	0.038131904
158	0x3d533f08	0.051573783
159	0xbc333506	-0.010937935
160	0xbd91c65b	-0.071179114
161	0x3d60784c	0.054802224
162	0x3db866cf	0.09003984
163	0x3cf101cc	0.029419802
164	0x3db63aa9	0.08897907
165	0x3d63875d	0.055549014
166	0x3d26552d	0.040608574
167	0xbd00f9fb	-0.0314884
168	0x3b42f994	0.002975081
169	0xbd98f6aa	-0.074689224
170	0xbdbee7af	-0.09321534
171	0x3d559420	0.052143216
172	0xbd9977cb	-0.07493552
173	0x3c8ebce2	0.01742405
174	0xbbd989b1	-0.0066387285
175	0xbc3f8b98	-0.011690997
176	0x3d1ca85d	0.0382465
177	0xbdb8ac85	-0.090172805
178	0xbcb8fe93	-0.022582328
179	0xbd5dbf3b	-0.05413745
180	0x3cd14deb	0.02554985
181	0xbbb29463	-0.005449818
182	0x3d8a7757	0.067610435
183	0x3e2c2d1f	0.16814087
184	0x398a22d7	0.0002634737
185	0x3b2093b6	0.0024502105
186	0x3dbdcb98	0.09267348
187	0x3d5c46c0	0.05377841
188	0xbc8965dc	-0.016772203
189	0x3e078616	0.13234743
190	0xbbc5dba6	-0.006038147
191	0x3e01bd44	0.12669855
192	0x3c044ff4	0.008075703
193	0xbc30685f	-0.0107670715
194	0x3d2c3d26	0.042050503
195	0x3ddaff09	0.10693175
196	0x3d843ac7	0.064565234
197	0x3e4f33db	0.20234625
198	0x3e4bcf6a	0.19903341
199	0x3e28e875	0.16494925
200	0x3dc3c053	0.09558167
201	0x3e205cc5	0.15660389
202	0x3dcbea30	0.09956777
203	0xbddac70b	-0.10682496
204	0xbd0461cb	-0.032319825
205	0xbdf3ba7c	-0.119008034
206	0xbd9bea96	-0.07613103
207	0xbe03272f	-0.12807916
208	0xbdae17ce	-0.08500634
209	0xbdb2f91b	-0.08738919
210	0x3d326b91	0.043559615
211	0xbd8bd173	-0.06827059
212	0x3d7359ed	0.05941193
213	0xbda5b814	-0.08091751
214	0x3db60c98	0.08889121
215	0x3d6855f7	0.056722607
216	0xbca2ab70	-0.019857138
217	0x3daa7b90	0.08324349
218	0x3e41ec64	0.18937832
219	0x3e2091c9	0.15680613
220	0x3d95d15f	0.07315325
221	0x3da03a42	0.07823612
222	0x3d90af55	0.07064692
223	0x3d8f7a2b	0.070057236
224	0x3dff0efe	0.124540314
225	0x3cf73030	0.030174345
226	0x3d2eb7eb	0.042655867
227	0x3e08f44b	0.1337444
228	0x3da32fc9	0.07968099
229	0x3d4120d7	0.04715046
230	0x3dec60ce	0.115419015
231	0xbd743399	-0.05961952
232	0x3b3f0db1	0.0029152448
233	0xbbe9581a	-0.007121098
234	0x3de39257	0.111118965
235	0x3cdabed5	0.026702324
236	0x3b81d420	0.003962055
237	0x3ddb2db9	0.1070208
238	0x3dafecc2	0.0859008
239	0x3d714ce4	0.05891122
240	0x3dcc0fe7	0.09963971
241	0x3db15fca	0.086608484
242	0xbd53b7e2	-0.051689036
243	0x3d98a8ed	0.07454095
244	0x3d494abd	0.04914354
245	0x3d96abf2	0.07357015
246	0x3e1cd1ed	0.15314455
247	0x3da53b4c	0.080679506
248	0x3dc9bece	0.09850846
249	0xbaad7695	-0.0013234193
250	0xbcc2bbb2	-0.02377114
251	0x3c803ad5	0.015653053
252	0xbc3cfdba	-0.0115351025
253	0x3b4a80ce	0.0030899527
254	0x3cdf4c3f	0.027258037
255	0x3c25869c	0.010102894

hidden_layer1.bias f4 [64]
0	0xbd070226	-0.032961033
1	0x3e1ec5e7	0.15505181
2	0xbbb8a95f	-0.005635425
3	0xbd1be1e5	-0.038057227
4	0x3d30d91a	0.043175794
5	0x3e5e556f	0.21712278
6	0x3e400628	0.18752348
7	0x3e82063c	0.2539538
8	0x3e61272b	0.21987598
9	0xbe39de3a	-0.18151179
10	0x3e5b584b	0.214204
11	0xbd8b5a62	-0.068043485
12	0x3e202c65	0.15641935
13	0x3e46e867	0.19424592
14	0x3c59315f	0.0132564
15	0xbd6ecf2d	-0.058303047
16	0xbe0e0226	-0.13868007
17	0x3e1723df	0.14759777
18	0x3e11dde8	0.14244807
19	0x3dab709b	0.08371087
20	0x3dd0d5d6	0.10197036
21	0x3bef915a	0.0073110284
22	0x3e67c084	0.22632033
23	0x3e411936	0.18857273
24	0x3e8e5f7f	0.27807233
25	0x3e40ba22	0.18821004
26	0xbe48f365	-0.19624098
27	0x3ecd2fb1	0.40075448
28	0x3e83d4a6	0.25748175
29	0x3d1454d5	0.036213715
30	0x3c8f25b1	0.017474027
31	0xbe186e8e	-0.14885923
32	0x3d6e9afd	0.058253277
33	0x3d447de3	0.047971617
34	0xbd444ee6	-0.047926806
35	0x3ec48414	0.38382018
36	0xbba89ed0	-0.005145885
37	0x3e864331	0.26223138
38	0x3e3210ca	0.17389217
39	0x3de5738d	0.1120368
40	0x3e1ec19a	0.1550354
41	0x3da31e76	0.07964794
42	0x3e70429a	0.23462906
43	0xbdd39f94	-0.103331715
44	0x3ee52eb3	0.4476219
45	0x3e74724d	0.23871727
46	0x3ed32f2c	0.41246927
47	0xbd90234d	-0.07037983
48	0xbcb53368	-0.022119239
49	0x3e87f867	0.26556703
50	0x3da06ea2	0.078336015
51	0x3e647b97	0.22312771
52	0x3d62e1dd	0.05539118
53	0x3ea422c5	0.32057777
54	0x3c3c5e28	0.011497058
55	0x3e029e9a	0.12755814
56	0x3e4a92f9	0.19782628
57	0x3f0fa5c9	0.56112343
58	0x3e3f051d	0.18654294
59	0x3eb706cf	0.35747382
60	0xbe23c494	-0.15992957
61	0x3e195422	0.149735
62	0x3e2c0a58	0.16800821
63	0x3df7d576	0.12101261

hidden_layer2.weight f4 [32, 64]
0	0x3d47f71d	0.04881965
1	0x3e30bee8	0.17260325
2	0x3e4c5104	0.1995278
3	0x3e0f9a16	0.14023623
4	0xbd2bfcc2	-0.041989096
5	0x3e2edbfe	0.17076108
6	0xbcad264c	-0.021136425
7	0x3da85209	0.08218772
8	0x3e38bd83	0.18041043
9	0xbde59cad	-0.11211524
10	0x3e181300	0.14850998
11	0x3d933063	0.071869634
12	0x3e38b12c	0.18036336
13	0x3e020e37	0.12700735
14	0x3e01e314	0.1268428
15	0x3e19f60a	0.15035263
16	0xbd13854d	-0.036015797
17	0x3d989023	0.07449367
18	0x3d72d29c	0.059282884
19	0x3d84724c	0.06467113
20	0x3e212a5f	0.1573882
21	0x3e8a68e4	0.2703315
22	0xbba2088b	-0.004944866
23	0x3e43fa0f	0.19138359
24	0x3d3cc53c	0.046086535
25	0x3d97cf56	0.07412593
26	0x3db9b3cc	0.09067497
27	0x3e1db9d6	0.15402922
28	0x3e5a04cd	0.21290894
29	0x3d8c3e7a	0.06847854
30	0x3e6bb172	0.23016909
31	0x3e470208	0.19434369
32	0x3cb7e3e0	0.022447526
33	0x3dcf6810	0.1012727
34	0x3d533ce2	0.051571734
35	0x3e0aafcc	0.13543624
36	0x3e62fbef	0.22166418
37	0x3e2d6795	0.16934045
38	0x3dadfad6	0.08495109
39	0x3e12c645	0.14333446
40	0x3de438f8	0.111436784
41	0x3d0694f4	0.032856897
42	0x3de59fe9	0.11212141
43	0x3c2337f7	0.0099620735
44	0x3e43d12d	0.19122763
45	0x3e559ba1	0.20860149
46	0x3e2755e4	0.16341358
47	0x3e4a8535	0.19777377
48	0x3d810c56	0.06301181
49	0x3d4c7575	0.049916703
50	0x3ea469a0	0.32111835
51	0x3c3f6838	0.0116825625
52	0xbc5efdee	-0.013610346
53	0xbcd943d6	-0.026521605
54	0xbc62b132	-0.013836192
55	0x3ce77bc2	0.028257255
56	0xbe6a91e8	-0.22907221
57	0x3e7548e8	0.23953593
58	0x3c02f4ed	0.007992965
59	0x3d377666	0.044790648
60	0x3d74874a	0.059699334
61	0x3dbe4812	0.0929109
62	0x3e61bae4	0.2204395
63	0x3e26bc13	0.16282682
64	0x3e3597a5	0.17733629
65	0x3e29771d	0.16549344
66	0x3d462b3c	0.048381075
67	0x3e83dc9d	0.25754252
68	0x3d584f87	0.05281022
69	0x3e33d889	0.1756307
70	0x3dd401e7	0.10351925
71	0x3dd767d6	0.10517852
72	0x3dc34ec0	0.09536505
73	0xbdc3ed5a	-0.095667556
74	0x3dfba2a6	0.12286882
75	0x3e1b4b5e	0.15165469
76	0x3ddf4eeb	0.10903724
77	0x3e566467	0.20936738
78	0x3d8c216b	0.068423115
79	0x3e837f0d	0.2568287
80	0xbe1d7c59	-0.15379466
81	0x3ccc2778	0.024921164
82	0x3d4e452f	0.050358947
83	0x3df401d0	0.11914408
84	0x3da8e25b	0.08246299
85	0x3d94058b	0.0722762
86	0x3e3483de	0.17628428
87	0x3e11bdf4	0.14232618
88	0x3e39ff0b	0.18163697
89	0x3e2922ab	0.16517131
90	0x3dd82ab6	0.105550215
91	0x3e326f70	0.17425323
92	0x3d2aaea9	0.041670475
93	0x3e663f84	0.22485167
94	0x3e26864b	0.16262166
95	0x3e4f98c6	0.20273122
96	0x3d102f4f	0.035201367
97	0x3dbf0d0d	0.09328661
98	0x3dac071b	0.08399793
99	0x3d907de8	0.07055265
100	0x3e1fcdff	0.15605925
101	0x3e4813b3	0.19538765
102	0x3dc8b4bf	0.098000996
103	0x3d30b891	0.043144766
104	0x3e444de1	0.19170333
105	0x3e51f1b9	0.20502366
106	0x3e651af8	0.22373569
107	0x3e1fb088	0.15594685
108	0x3cc9f7ed	0.024654353
109	0xbc84271b	-0.016131928
110	0x3c98be24	0.018645354
111	0x3db505f9	0.0883903
112	0x3e09a36a	0.13441244
113	0x3dc8fc44	0.09813741
114	0x3da53937	0.080675535
115	0x3e36e7f8	0.17861927
116	0x3e2ec40c	0.17066973
117	0x3d51c3e1	0.051212195
118	0x3e4f0424	0.20216423
119	0x3e109c62	0.14122155
120	0xbe87ded0	-0.2653718
121	0x3e64ddf3	0.22350292
122	0x3e01c6e1	0.12673523
123	0x3d0ad314	0.033892706
124	0x3e1ad747	0.15121184
125	0x3e1a5c29	0.15074219
126	0x3dbe0eca	0.092801645
127	0x3e5d4e28	0.21611845
128	0x3de5516a	0.11197169
129	0x3e38971f	0.18026398
130	0x3d9ff75c	0.07810852
131	0x3da9a63a	0.08283658
132	0x3e06306a	0.13104406
133	0x3e1bd852	0.15219238
134	0x3dff961c	0.12479803
135	0x3d27ec41	0.040996794
136	0x3dd36be2	0.103233114
137	0xbd9b0c70	-0.07570732
138	0x3d39f6c9	0.04540137
139	0x3d8551d1	0.06509746
140	0x3e43d8d5	0.19125684
141	0x3c3c0fe9	0.011478403
142	0x3dd569d1	0.104205735
143	0x3df941b8	0.12170738
144	0xbdae20d7	-0.085023575
145	0x3e3c3871	0.18380906
146	0x3da5f8ae	0.081040725
147	0x3e32c767	0.17458878
148	0x3d774a0a	0.060373344
149	0x3e0cbb6e	0.13743374
150	0x3c20d1e6	0.009815669
151	0x3dc6bb6f	0.09703719
152	0x3de8b5a3	0.113627695
153	0x3d8ccdb0	0.06875169
154	0x3df26e8e	0.11837493
155	0x3dc59f01	0.09649468
156	0x3de52a7f	0.11189746
157	0x3e201a23	0.1563497
158	0x3e90cc92	0.28281075
159	0x3dd25565	0.10270194
160	0x3d41a79b	0.04727898
161	0x3dc022ef	0.09381663
162	0x3e4a2d36	0.19743809
163	0x3e1ce8dc	0.15323204
164	0x3e4161bb	0.18884937
165	0x3d396a86	0.045267604
166	0x3e304347	0.17213164
167	0x3cf68028	0.030090407
168	0xbc635397	-0.01387491
169	0x3d4cbfb4	0.04998751
170	0x3cca7a07	0.02471639
171	0x3c07d812	0.008291261
172	0x3e316ad1	0.17325903
173	0xbc22bf11	-0.009933249
174	0x3e23b061	0.15985252
175	0x3de1b8e9	0.11021597
176	0x3d8c7568	0.06858331
177	0x3e23af1f	0.15984772
178	0x3d996d57	0.07491558
179	0x3df8aca6	0.12142305
180	0x3daa02cd	0.083013155
181	0x3d8b09ae	0.06788956
182	0x3d9f9394	0.0779182
183	0x3e27040d	0.16310139
184	0xbe9a28d2	-0.30109268
185	0x3e9dcffa	0.30822736
186	0x3d9e6b6f	0.07735335
187	0x3e4c02b7	0.1992291
188	0x3e69acca	0.2281982
189	0x3e6af20e	0.22943899
190	0x3e5f92b6	0.2183331
191	0x3d25f1df	0.04051387
192	0xbd2b6da7	-0.04185262
193	0xbb83a936	-0.0040179743
194	0xbd539ad6	-0.051661335
195	0x3ddb0dc4	0.10695985
196	0x3d0b94f5	0.034077603
197	0x3dd08d1d	0.10183165
198	0xbdda42aa	-0.106572464
199	0x3e0a760b	0.13521592
200	0x3d8d29c3	0.06892731
201	0xbce44315	-0.027864018
202	0x3e2ee080	0.17077827
203	0xbb9c2ecd	-0.0047663213
204	0xbce672d3	-0.028130924
205	0xbdaf070e	-0.085462674
206	0xbdb6300f	-0.08895885
207	0xbe56bb7e	-0.2096996
208	0x3ddf0a40	0.10890627
209	0x3d8dde58	0.06927174
210	0x3dab9faf	0.083800666
211	0x3d1ab61e	0.037771337
212	0x3d79ab99	0.060954664
213	0xbe54fa80	-0.20798683
214	0x3e4cc5da	0.1999735
215	0xbd6ef6b6	-0.05834075
216	0xbdae3b19	-0.08507366
217	0x3dcf4177	0.10119908
218	0xbe80e96d	-0.2517809
219	0x3c4e3668	0.012586214
220	0xbdceb953	-0.100939415
221	0xbc96d24e	-0.018410828
222	0xbd9bae56	-0.07601611
223	0xbdbcaeba	-0.09213014
224	0x3d4e8c36	0.050426684
225	0xbcdbb472	-0.026819441
226	0x3de01623	0.10941722
227	0xbc85115c	-0.01624363
228	0x3bc4c60d	0.006005055
229	0x3d104d81	0.035230163
230	0xbe68d834	-0.22738725
231	0x3c69faef	0.014281019
232	0x3d4a82b7	0.049441066
233	0xbd849a53	-0.064747475
234	0x3d0a2902	0.033730514
235	0xbdcc556a	-0.09977229
236	0x3e18ed21	0.14934207
237	0xbda0f2a0	-0.07858777
238	0x3ee45a0d	0.44599953
239	0xbc30b98c	-0.010786425
240	0xbd42f12d	-0.047593284
241	0xbd870c65	-0.06594161
242	0xbe79d05e	-0.24395892
243	0x3dc743a8	0.09729701
244	0x3e43be30	0.1911552
245	0x3e375d84	0.17906767
246	0x3db8d2f9	0.09024615
247	0xbdab7030	-0.083710074
248	0x3e5b58de	0.21420619
249	0xbcb2820e	-0.02179053
250	0xbe149254	-0.14508945
251	0x3e0a0920	0.13480043
252	0x3a96831e	0.0011483168
253	0x3e3ce57f	0.18446921
254	0x3dac8edf	0.08425688
255	0xbd02f345	-0.03197028

hidden_layer2.bias f4 [32]
0	0x3e734dfe	0.2376022
1	0x3dd02e7d	0.10165117
2	0x3e37f1fe	0.17963406
3	0xbe454dc6	-0.1926795
4	0x3eecad0c	0.46225774
5	0x3e81fabc	0.25386608
6	0x3edaaa4a	0.42708045
7	0xbedbcd34	-0.42929995
8	0x3d98b6bf	0.07456731
9	0x3e47c50d	0.19508763
10	0x3e4a66e5	0.19765814
11	0x3e6cbfd0	0.23120046
12	0x3f09fb7b	0.53899354
13	0x3e6ca038	0.23107994
14	0x3de6ba91	0.112660535
15	0x3e8e6455	0.27810922
16	0xbd984607	-0.07435232
17	0x3ed144ef	0.40872905
18	0xbc5c1d61	-0.013434739
19	0x3daea8e8	0.0852831
20	0x3ea2f183	0.31824884
21	0x3e074e03	0.13213353
22	0x3db09109	0.08621413
23	0x3e0a4803	0.13504033
24	0xbdfe584f	-0.12419187
25	0x3d80d6aa	0.06290944
26	0xbe03bacd	-0.12864228
27	0x3e4b21c8	0.19837105
28	0x3f02403e	0.50879276
29	0x3e707d44	0.23485285
30	0x3e938f41	0.28820232
31	0x3d232bba	0.039836623

hidden_layer3.weight f4 [16, 32]
0	0xbe03f371	-0.12885834
1	0x3cfbe0f4	0.030746914
2	0xbd56a965	-0.05240764
3	0x3e68bc62	0.22728112
4	0x3b6c3d01	0.0036047103
5	0xbcd1e362	-0.02562112
6	0x3dc847c3	0.097793125
7	0xbd57e469	-0.052708063
8	0x3d126138	0.035737246
9	0x3e22e7ad	0.1590869
10	0x3e050978	0.12991893
11	0x3e978963	0.29597005
12	0xbe9cc899	-0.30621794
13	0x3edd8ef3	0.43273124
14	0x3e970b86	0.2950098
15	0x3e17feb6	0.14843258
16	0x3db7f96a	0.08983119
17	0x3e315b36	0.1731995
18	0xbcdde009	-0.027084367
19	0xbce04312	-0.027375732
20	0x3e8301fd	0.25587454
21	0x3e10efc9	0.14153971
22	0xbdd00bb9	-0.10158486
23	0xbd20c5e9	-0.03925124
24	0x3eb8654a	0.36014777
25	0xbe1ab5fd	-0.15108486
26	0x3df2a8ad	0.118485786
27	0x3e546709	0.2074243
28	0xbdcd5454	-0.1002585
29	0x3e7519e6	0.2393566
30	0xbdd17982	-0.10228254
31	0x3d8e93d9	0.069617935
32	0xbd1d5b8b	-0.03841738
33	0x3d772762	0.060340293
34	0x3d66ffe3	0.056396376
35	0x3db0b341	0.0862794
36	0xbdaa8b67	-0.0832737
37	0x3cb8c159	0.022553133
38	0x3dbfe2a6	0.09369402
39	0xbe0c1489	-0.13679709
40	0x3de38c81	0.11110783
41	0x3ea82acf	0.3284516
42	0xbe44a9eb	-0.19205444
43	0x3e2bb81f	0.16769455
44	0xbdf87593	-0.121318005
45	0x3d8102c3	0.06299355
46	0x3d8254d4	0.06363836
47	0x3e5faec4	0.21844012
48	0x3b2ca690	0.0026344396
49	0x3e480875	0.19534476
50	0xbdc84e5e	-0.09780572
51	0xbd4f4ba1	-0.050609235
52	0x3e0b47e4	0.13601643
53	0x3e633364	0.22187573
54	0x3b5648f6	0.0032697297
55	0xbe1eea4f	-0.15519069
56	0x3da7ce4a	0.081936434
57	0xbd9a50f1	-0.075349696
58	0x3d04bcf1	0.03240675
59	0x3e18eab6	0.14933285
60	0x3e127c29	0.14305176
61	0x3e52fd06	0.20604333
62	0xbeb67828	-0.35638547
63	0xbcd5dcba	-0.026106227
64	0x3e41cf40	0.18926716
65	0x3d892188	0.06695849
66	0x3e4b7b24	0.19871193
67	0xbdf7696d	-0.12080655
68	0x3eaba8d3	0.3352724
69	0x3e4cb96f	0.19992612
70	0x3e59b0f5	0.2125891
71	0xbe470dfc	-0.19438928
72	0xbd20f3d3	-0.03929503
73	0xbe8a5aae	-0.27022308
74	0xbe008496	-0.12550578
75	0xbd562cc9	-0.052288804
76	0x3f0042d4	0.5010197
77	0x3e019a1a	0.12656441
78	0xbe119fac	-0.14221066
79	0x3dc51f6c	0.09625134
80	0xbd8bf5df	-0.068340056
81	0x3d80bf61	0.06286503
82	0xbd11a8d0	-0.035561383
83	0x3e49e6ee	0.19716999
84	0x3d2fa4c3	0.04288174
85	0x3d33c036	0.04388448
86	0x3e1cc55a	0.15309659
87	0x3dafdac5	0.08586649
88	0x3d021d65	0.031766314
89	0x3c7c3c11	0.01539518
90	0xbe8a64f6	-0.27030152
91	0xbd888a5a	-0.066670135
92	0x3e524b65	0.20536573
93	0x3d2634f5	0.040577848
94	0x3e87c0e4	0.2651435
95	0x3ca968b7	0.020679815
96	0x3e4acf99	0.19805755
97	0x3e7c1654	0.24617893
98	0x3e4a516e	0.19757625
99	0xbe32e088	-0.17468464
100	0x3dfbb90f	0.122911565
101	0x3e987081	0.29773334
102	0x3dcdd275	0.10049907
103	0x3d62c46c	0.055363104
104	0xbe5e9252	-0.21735504
105	0xbe4c414a	-0.19946781
106	0x3e81679d	0.25274363
107	0xbf013dad	-0.50484735
108	0x3d8d8c1d	0.0691149
109	0xbe3ff532	-0.18745878
110	0xbe5b3734	-0.21407777
111	0xbe20fcd8	-0.15721452
112	0x3e782380	0.24232292
113	0xbcefb743	-0.02926219
114	0x3e75aaae	0.2399089
115	0x3df8eed5	0.121549286
116	0xbeadaa20	-0.33918858
117	0xbe74255c	-0.23842376
118	0x3e8b6628	0.27226377
119	0x3e6422a1	0.22278835
120	0x3bddb3e0	0.0067658275
121	0x3d7a1330	0.061053455
122	0xbdb32bfa	-0.08748622
123	0x3da1269c	0.07868692
124	0x3e3a0c24	0.18168694
125	0xbde8196c	-0.11332974
126	0x3c93a8d3	0.018024838
127	0x3e834bee	0.25643867
128	0xbd3850e3	-0.044999015
129	0x3d41dd9c	0.047330484
130	0x3d856744	0.06513837
131	0xbe0a1599	-0.13484801
132	0xbdd1235f	-0.102118246
133	0xbdb0c0f4	-0.08630553
134	0x3d935962	0.07194783
135	0xbcc52087	-0.024063362
136	0x3c9af8df	0.0189175
137	0x3c707ee7	0.014678693
138	0x3b92cb29	0.004479785
139	0x3c8d201f	0.01722723
140	0xbe14dfd8	-0.14538515
141	0xbe33c53f	-0.17555712
142	0xbe10c210	-0.14136529
143	0x3e1749c0	0.14774227
144	0xbde6e85b	-0.11274787
145	0xbba11470	-0.0049157664
146	0x3da3e2cc	0.080022424
147	0x3e11080a	0.14163223
148	0x3e1c6071	0.15271164
149	0xbe83705a	-0.25671655
150	0xbdebb3b5	-0.11508886
151	0xbe192046	-0.14953718
152	0x3dcf7de3	0.10131433
153	0xbe03eee3	-0.12884097
154	0x3e1551bd	0.14581962
155	0xbe12afc1	-0.14324857
156	0xbd901d07	-0.070367865
157	0x3dd4abba	0.10384317
158	0x3d301da4	0.042997018
159	0xbe21e5c0	-0.15810299
160	0xbd4bb04c	-0.049728677
161	0xbe431f32	-0.19054869
162	0x3c2568bf	0.010095774
163	0xbd3dd9c9	-0.046350274
164	0x3f36656b	0.712485
165	0x3e0d54d0	0.13801885
166	0x3f018571	0.5059424
167	0xbd5a82cb	-0.05334739
168	0xbe936f7e	-0.28796
169	0x3cbc7ca8	0.02300866
170	0x3d9ea7f2	0.07746877
171	0xbe054576	-0.13014778
172	0x3f1ad19b	0.6047608
173	0x3df4cf55	0.11953608
174	0x3c973d18	0.018461749
175	0x3e0aa72a	0.1354033
176	0xbe1e2233	-0.15442733
177	0x3eb029bf	0.3440685
178	0x3dc414ec	0.09574303
179	0x3d809b41	0.06279612
180	0xbd415b11	-0.04720599
181	0xbd35c079	-0.04437301
182	0x3cc47e63	0.023986047
183	0xbd73de40	-0.059538126
184	0x3d2199be	0.03945326
185	0x3d0b387c	0.033989415
186	0xbd99fc9d	-0.07518885
187	0x3c110093	0.008850235
188	0x3f4d3ce2	0.80171025
189	0x3e113f29	0.1418425
190	0x3e884f9f	0.26623246
191	0xbd57b165	-0.05265941
192	0x3e06f831	0.13180615
193	0x3e8841ff	0.2661285
194	0x3e58ebf9	0.21183766
195	0xbe36ae1a	-0.17839852
196	0xbc859af7	-0.016309245
197	0x3e1c596a	0.15268484
198	0x3d0ff264	0.03514327
199	0x3e270039	0.16308679
200	0xbe8a1740	-0.26970863
201	0xbea49cc2	-0.32150847
202	0x3e8666a4	0.26250184
203	0xbf1b0ecf	-0.6056947
204	0x3e81ac4e	0.2532677
205	0xbe45bd69	-0.19310535
206	0xbebb04b1	-0.36527017
207	0xbcd377cb	-0.025813958
208	0x3e0124e6	0.12611732
209	0xbe9afad1	-0.30269483
210	0xbd21db2f	-0.03951567
211	0x3e4d4c6c	0.20048684
212	0xbe99e0c3	-0.30054292
213	0xbe377140	-0.17914295
214	0x3e3401c3	0.17578797
215	0x3e89c541	0.26908305
216	0xbd9d23e3	-0.076728605
217	0x3c25bd52	0.010115938
218	0xbe592a48	-0.21207535
219	0xbe8cfc3c	-0.2753619
220	0x3ec8e3f4	0.39236414
221	0xbd92fb2b	-0.07176813
222	0x3e1b4dc9	0.15166391
223	0x3e31f355	0.1737798
224	0x3e285479	0.16438474
225	0x3d9a61a5	0.075381555
226	0xbc678115	-0.014129897
227	0xbedd5835	-0.4323136
228	0x3dbcf2aa	0.09225972
229	0xbd51babb	-0.05120347
230	0xbd00d007	-0.03144839
231	0xbe2992dd	-0.1655993
232	0x3eac995c	0.33710754
233	0xbe3bd81d	-0.1834416
234	0x3d5e76c4	0.054312482
235	0x3ea1a10e	0.31568187
236	0x3e32b9a1	0.17453624
237	0x3e8dbd6f	0.2768359
238	0xbe559525	-0.20857675
239	0x3de54d5d	0.111963965
240	0xbdc66bf1	-0.09688557
241	0x3e5a84db	0.21339743
242	0xbd8261c2	-0.06366302
243	0xbdde1d9c	-0.10845491
244	0xbd5dc1fd	-0.05414008
245	0x3dd13201	0.102146156
246	0x3dbe339e	0.09287189
247	0xbe111e77	-0.14171778
248	0xbd883d78	-0.06652349
249	0xbd8ca405	-0.06867222
250	0xbf1aa98a	-0.60414946
251	0x3e94f76d	0.2909502
252	0x3ddd8474	0.10816279
253	0x3e40f1d2	0.18842247
254	0xbdaa18ca	-0.083055094
255	0x3e350eb8	0.17681396

hidden_layer3.bias f4 [16]
0	0x3d4f9e11	0.050687853
1	0xbe1343f3	-0.1438139
2	0x3dfaabb5	0.12239782
3	0x3d810e94	0.06301609
4	0x3da123df	0.0786817
5	0x3e983ecf	0.2973542
6	0xbd5a3fd2	-0.05328352
7	0x3e8a42c1	0.27004054
8	0xbd95d663	-0.07316282
9	0xbd4460ee	-0.047944
10	0xbdc16265	-0.094425954
11	0xbeac77d0	-0.3368516
12	0x3e4327ee	0.190582
13	0x3e9c0cfc	0.30478656
14	0x3dd88b20	0.10573411
15	0x3de19437	0.11014598

out_layer.weight f4 [8, 16]
0	0xbd8c9e00	-0.068660736
1	0x3de8d151	0.11368049
2	0x3e24ceba	0.16094485
3	0x3e06b1a7	0.13153706
4	0xbe0048f9	-0.12527837
5	0x3e0a908c	0.13531703
6	0x3e557af3	0.20847683
7	0x3e365b49	0.1780826
8	0x3dfc99cc	0.12334022
9	0xbe1b3c5c	-0.15159744
10	0xbdc1af57	-0.094572715
11	0xbdd30a8f	-0.10304748
12	0xbcbb556f	-0.022867886
13	0x3e4b16d1	0.19832923
14	0xbd9b1fb1	-0.07574404
15	0x3e6f8593	0.23390798
16	0xbdf01bd1	-0.117240556
17	0xbe9f93c5	-0.31167427
18	0x3d2a4d89	0.04157785
19	0x3ea6e741	0.32598308
20	0x3d4fc20a	0.05072216
21	0x3f1f9aec	0.6234577
22	0x3e670cf6	0.22563538
23	0x3dd61715	0.10453621
24	0xbd88b846	-0.06675772
25	0xbe8785d7	-0.264693
26	0x3d1a4036	0.037658893
27	0xbda26350	-0.079290986
28	0x3c9b95c9	0.018992322
29	0x3e3c0380	0.1836071
30	0xbeacf19c	-0.33778083
31	0x3e364477	0.17799555
32	0xbe8ebdf5	-0.278793
33	0xbe1b0319	-0.151379
34	0x3ec5bde9	0.38621452
35	0x3d95cd2c	0.07314524
36	0x3e2083d6	0.15675291
37	0x3f21fc74	0.6327584
38	0x3ea29729	0.3175595
39	0x3da9df4d	0.08294544
40	0x3e35eaef	0.17765401
41	0xbd856c8a	-0.06514843
42	0xbd93be83	-0.072140716
43	0xbe0489dd	-0.12943216
44	0xbef37bab	-0.4755529
45	0x3e48f2b7	0.19623838
46	0xbe257ad0	-0.1616013
47	0x3e813aca	0.25240165
48	0xbd5a450e	-0.053288512
49	0xbe19792f	-0.14987634
50	0x3e984ac9	0.29744557
51	0x3e123704	0.142788
52	0xbd805a5a	-0.06267233
53	0x3f35c677	0.7100596
54	0x3d6e2a3b	0.058145743
55	0xbc7e9823	-0.015539202
56	0x3e2e041c	0.16993755
57	0xbf009332	-0.502246
58	0xbe1956be	-0.14974496
59	0x3e29f297	0.16596447
60	0xbe3d8609	-0.18508162
61	0x3c05eb7a	0.008173818
62	0xbed16ca3	-0.40903196
63	0x3ca0df41	0.019637706
64	0x3c6d1e6a	0.014472583
65	0x3e5aeadb	0.21378653
66	0xbe1a48c0	-0.15066814
67	0xbd9ddd49	-0.077082224
68	0xbca01cd4	-0.019544996
69	0x3f19e376	0.601127
70	0x3e8adbdc	0.27120864
71	0xbe8f54f6	-0.27994508
72	0xbdefc483	-0.117074035
73	0x3e35759f	0.1772065
74	0xbe44c960	-0.19217443
75	0x3ea0207c	0.31274784
76	0xbe118d93	-0.14214163
77	0xbcc5e6ae	-0.024157848
78	0xbd79e49c	-0.061009035
79	0xbe2c54d2	-0.16829231
80	0xbe943b9c	-0.28951728
81	0xbe739e51	-0.23790862
82	0xbdacfdcc	-0.084468454
83	0x3e84ba68	0.25923467
84	0xbe835f56	-0.25658673
85	0xbc18695f	-0.009302466
86	0x3e95eeb2	0.29283673
87	0xbd600c27	-0.05469909
88	0x3e477859	0.19479503
89	0xbea10c2e	-0.31454605
90	0x3d89e3ef	0.06732928
91	0x3e46b8b0	0.1940639
92	0xbdd6a551	-0.1048075
93	0x3d26019d	0.040528882
94	0xbe7b15a3	-0.24519973
95	0x3d9cb4c7	0.07651668
96	0x3e1df516	0.15425524
97	0x3c0b5027	0.0085029965
98	0x3e5a29bd	0.21304984
99	0x3ea98240	0.33107185
100	0xbe3d02e1	-0.1845813
101	0x3ec81b77	0.39083454
102	0xbd4d2267	-0.050081637
103	0x3d84cacd	0.06483994
104	0x3dbaee39	0.091274686
105	0xbec5210c	-0.38501775
106	0x3e2487f6	0.1606749
107	0xbcd309f9	-0.025761591
108	0xbe14ab6e	-0.1451852
109	0x3ea59413	0.32339534
110	0xbee61d30	-0.44944143
111	0x3dfc132b	0.123083435
112	0xbea68286	-0.32521456
113	0xbe50c567	-0.20387803
114	0xbde5488b	-0.11195477
115	0x3e19f1d9	0.15033664
116	0x3e16e5a6	0.14736041
117	0x3dcd5ef7	0.10027879
118	0x3e9fbb27	0.31197473
119	0xbe44dd2f	-0.19225
120	0xbe0d390d	-0.13791294
121	0xbeb6e8c4	-0.3572446
122	0x3d87d3f1	0.066322215
123	0x3e05b206	0.13056192
124	0xbece19d2	-0.40254074
125	0xbdc1f111	-0.09469808
126	0xbe3fb0fe	-0.18719861
127	0xbe2dbc17	-0.16966282

out_layer.bias f4 [8]
0	0x3d226507	0.03964713
1	0x3ea55042	0.32287794
2	0x3ea2b9a8	0.3178227
3	0x3e8d6df1	0.2762294
4	0x3e46d9ac	0.19418973
5	0xbe96efb9	-0.2947977
6	0x3e10dc76	0.14146599
7	0xbe865156	-0.2623393
