models/DQNparam2.pth (torch, 45859 bytes, 8 tensors)

hidden_layer1.weight f4 [64, 126]
00000000: 6b4e a8bd c331 5fbd c069 303d 7667 58bd
00000010: 2bc3 18bd 38e0 a33d fad6 913d d298 96bd
00000020: 5d2a aabd e83e a03c 2201 a93d 6027 dabc
00000030: 8cc0 5cbd a0c6 013c 968d ab3d e0ec 6f3d
00000040: 787a 2abd a893 5f3d 71bc afbd 4a5a 0bbd
00000050: 065c 0bbd 4a82 99bd 507d aebd b855 493c
00000060: 0a07 a93d 8c71 2f3d 6633 e3bc 7c28 633d
00000070: 0896 58bc d005 99bb 54e3 c2bc f88b 1fbd
00000080: 4dc4 54bd 1a66 8e3d 84ec 953d aa4a 36bd
00000090: 48cc 903d d14e 02bd 1435 83bd 29e1 43bd
000000a0: 985f 9b3d 0fab 14bd 42f4 8c3d f099 8f3d
000000b0: 0ed9 103d 9e77 dbbc 87e3 7cbd baa4 8b3d
000000c0: e82b 5b3d e8d4 62bc e016 ab3b cdaa 93bd
000000d0: 80ce 41bd 871a 56bd 98dd f1bc 0dd4 56bd
000000e0: 67b8 47bd b426 8f3d 4d59 85bd d51a 57bd
000000f0: 30a8 443d 5837 103c 30c4 793d 9c42 bd3c
00000100: 8ac0 b43d 9d03 76bd e813 d83c 088f b23d
00000110: 8436 953d 1432 453d 08f6 af3c e7fb 45bd
00000120: 1745 79bd 60e6 953d e151 4cbd 2daa 50bd
00000130: b129 b4bd 67c4 aebd 7c59 f6bc 98ba 91bc
00000140: 149d 133d fe14 923d d053 d43c 886d 983c
00000150: 4064 83bc 668b a93d 40eb 733b d448 3a3d
00000160: 588c 50bc 6056 7b3b 7072 2cbc 7782 7bbd
00000170: 1095 f23c 78de 1e3c 37c0 1bbd 381d 1fbd
00000180: e2af 953d 40b1 3dbb 04d6 f2bc b4bd 1a3d
00000190: 49b5 5ebd 8688 a73d 0e66 b03d 5678 20bd
000001a0: a82a cabc 9813 43bc 78a1 29bc 1256 3abd
000001b0: 82af 033d 6454 843d 5804 d4bc 1024 8d3d
000001c0: c091 8cba 0655 90bd c08a 81bd e078 c63b
000001d0: 935d 2ebd cc53 99bd 8040 753a 34e4 ae3d
000001e0: 5140 90bd 7869 aebc b797 2ebd 5859 853d
000001f0: a1c7 03bd a048 78bd 8fac 1ebd d192 33bd
00000200: b40f f03c 648a b23c e0ce 4c3d 4aa6 9d3d
00000210: 2008 9c3c 31e8 b2bd 34c2 223d 9c29 583d
00000220: 6981 33bd 8efd a0bd ac69 623d 7810 dcbc
00000230: a44c 133d 60aa ae3d 766b 2bbd d9c5 73bd
00000240: b78a abbd c063 bd3b 9037 353d 6042 76bc
00000250: f091 50bc ce83 9c3d f8b5 5a3d b84a 883d
00000260: 442d 063d a4b2 bdbc 60b5 973c 9236 34bd
00000270: a09c 583b 267e 9ebd 4caa 84bd 64da 4d3d
00000280: 84ad f93c 400f 4bbc 1941 54bd f672 e3bc
00000290: 0072 26ba e0b5 583b e4e8 7f3d 2e3d b4bd
000002a0: 8630 40bd 6e6f 843d 5c4d acbd 4801 a93d
000002b0: 50c8 283d 0043 17bc c0e6 673d d471 e63c
000002c0: dc5e ef3c 1e93 b53d 60a2 893b f825 363d
000002d0: 811d aabd 0029 3ebc 922b 963d a2bc 89bd
000002e0: 2644 923d 0955 9ebd f8c4 463c c032 773d
000002f0: 94c9 d23c a844 c3bc 1835 49bd fb1a 70bd
00000300: b0eb 313c e04f 713b 0872 433d f871 8abd
00000310: 2716 0dbd 2739 30bd e472 893d 203b 953d
00000320: 70f7 723d 3079 ef3c c828 e2bc 806c d0ba
00000330: 8830 27bd 34b2 153d b078 a9bd d695 af3d
00000340: 5c25 763d ca56 25bd 20fe 953b b08e 343d
00000350: 68b3 5b3d 0468 b43c 80d7 39bd 36f7 a13d
00000360: c7be 07bd 68ff b8bc de10 31bd 107c 2abd
00000370: 7434 b63d 73e1 b4bd e632 f2bc 1268 ae3d
00000380: 713d 28bd d2a9 ebbc 0023 c8bc e090 51bc
00000390: 5859 7e3d 7c41 823d 04e5 253d 3423 56bd
000003a0: 0c66 b53d f013 34bc 46a0 9bbd b86a 30bd
000003b0: 984c 5abd 5449 673d 36d1 0c3d c070 0ebb
000003c0: c84b d7bc 0cfc 343d 547b b6bc 9351 57bd
000003d0: 9458 aabd d494 3c3d e0cf c03c 7033 7fbc
000003e0: 027f f1bc 7003 713d ac7d ce3c 7cf7 a1bd
000003f0: 5871 653d 87f4 82bd f0e1 eebc b077 103c
-0.08218082 -0.054490816 0.0430696 -0.052833043 -0.0372955 0.08001751 0.07121082 -0.07353367
-0.083088614 0.019561246 0.08252169 -0.026630104 -0.053894565 0.007920891 0.08376615 0.05857551
-0.0416207 0.054584175 -0.08580864 -0.034021653 -0.034023307 -0.07495554 -0.08519995 0.012288503
0.08253296 0.042832896 -0.02773447 0.05545853 -0.013219364 -0.0046698824 -0.02379004 -0.038951844
-0.05194502 0.06953068 0.073205024 -0.0445048 0.070702136 -0.031813446 -0.06406608 -0.04782215
0.075865924 -0.036295947 0.06882526 0.07011783 0.03536325 -0.026790436 -0.061740424 0.068185285
0.05350867 -0.013844706 0.005221233 -0.07210312 -0.047316074 -0.052271392 -0.02952461 -0.05244832
-0.048759844 0.06989804 -0.065111734 -0.052515823 0.04801196 0.0088022575 0.060978115 0.02310305
0.088257864 -0.06006204 0.02637668 0.08718687 0.07285789 0.04814346 0.021479622 -0.048335936
-0.060856905 0.07319331 -0.049882773 -0.050943542 -0.087970145 -0.085335545 -0.030071966 -0.01778917
0.036038473 0.0713291 0.025918871 0.018606916 -0.016039014 0.08278541 0.0037219077 0.04547961
-0.012728773 0.0038351044 -0.010525331 -0.061403718 0.029612094 0.009696595 -0.038025107 -0.038846225
0.073089376 -0.002894476 -0.029643066 0.03777857 -0.054372106 0.08180337 0.086132154 -0.03917726
-0.024678543 -0.011906527 -0.010353439 -0.04549224 0.0321498 0.06461409 -0.025880978 0.06891644
-0.0010724589 -0.07047467 -0.063252926 0.00605689 -0.042569708 -0.07486686 0.00093556195 0.0853962
-0.070435174 -0.021290526 -0.042625155 0.065111816 -0.032172803 -0.060616136 -0.038738783 -0.043841187
0.029304363 0.021794505 0.05000198 0.07697733 0.019046843 -0.08735693 0.039735988 0.052774057
-0.043824587 -0.07860862 0.055276558 -0.026863322 0.035961762 0.0852859 -0.04185053 -0.059514854
-0.08376067 0.0057797134 0.04424244 -0.0150304735 -0.012730107 0.07642327 0.053396195 0.066548765
0.032758012 -0.023156472 0.018519104 -0.043997355 0.003305234 -0.07738905 -0.06477794 0.0502571
0.030478247 -0.012393773 -0.051819894 -0.027764779 -0.0006349385 0.003306739 0.06247796 -0.088007316
-0.046921276 0.06466566 -0.08413193 0.082521975 0.041206658 -0.009232283 0.056616545 0.02813045
0.029220037 0.08865951 0.004200265 0.044469804 -0.08306409 -0.011606455 0.07332529 -0.06725432
0.071419045 -0.07731063 0.012131922 0.060351133 0.025730886 -0.023836449 -0.0491229 -0.05861948
0.010859415 0.003682129 0.04771617 -0.06760019 -0.034444954 -0.043023255 0.06711367 0.07286668
0.059318006 0.029232591 -0.027607337 -0.0015901476 -0.040817767 0.0365469 -0.082749724 0.08573501
0.060094222 -0.04036597 0.004577413 0.04408139 0.053637892 0.022022255 -0.045371532 0.0790848
-0.033140924 -0.022582725 -0.043228976 -0.04162222 0.088967234 -0.088320635 -0.029565286 0.085159436
-0.04107422 -0.0287675 -0.024430752 -0.012790889 0.062096924 0.063601464 0.04050161 -0.052279666
0.088573545 -0.010991082 -0.07598929 -0.043070525 -0.0532957 0.056466416 0.034379207 -0.0021734685
-0.026281253 0.044185683 -0.022275604 -0.05256803 -0.08317676 0.04604037 0.023536623 -0.0155762285
-0.029479507 0.05884117 0.02520641 -0.07908532 0.056016296 -0.06394296 -0.02916047 0.008817598

hidden_layer1.bias f4 [64]
00000000: 68e6 3e3d 3c4d 373d 28e2 65bc dc58 fc3c
00000010: c0f8 cebb 2c45 ad3d ae8b 93bd e6c5 983d
00000020: 7c97 a9bd beab 9a3d 1c7c 983d 868c 833d
00000030: 00c3 a1bc d881 9e3d 3c7e 903d dcf9 643d
00000040: e2b3 2dbd 1762 63bd d051 7b3c d825 363d
00000050: 58c8 143d 64ee 983c ac94 803c 64b5 793d
00000060: 98aa 79bd 18f1 103c 0179 9ebd 0065 c4bb
00000070: 76d4 abbd b21c b0bd b038 e73c 442e 1b3d
00000080: 404d 36bd 6888 d1bc 1a97 983d a745 36bd
00000090: 0bf2 a7bd 1410 febc e0b8 4fbc f84c 743d
000000a0: 9586 86bd 385f 983c 312a 35bd 8076 8ebc
000000b0: e018 fb3b 2476 b5bc b0c0 3bbd 3002 8f3d
000000c0: e852 73bc 3779 2bbd 7c4a 76bd 787e 453c
000000d0: 0316 12bd d0f3 403d 0099 233a 848f b7bc
000000e0: 2009 aa3d 0cf0 f53c ed81 81bd 7c6e a6bc
000000f0: 8266 e6bc 3c3c 683d bced bf3c 5cce 9b3d
0.04660645 0.04475139 -0.014030971 0.03080409 -0.0063162744 0.08460459 -0.07204376 0.07459621
-0.082808465 0.075522885 0.07445547 0.06423287 -0.019746304 0.077396095 0.07055327 0.055902347
-0.042407878 -0.055513468 0.01533933 0.044469684 0.036323875 0.018668361 0.015695892 0.060964003
-0.060953707 0.008846544 -0.077379234 -0.0059934855 -0.08390133 -0.08599223 0.028225273 0.03788592
-0.044507265 -0.025577739 0.07450695 -0.04450002 -0.08200463 -0.031013526 -0.012678355 0.059643716
-0.06568638 0.018600091 -0.04422969 -0.01739049 0.0076628774 -0.02215106 -0.045838058 0.06982839
-0.014851309 -0.041863646 -0.060129628 0.012054078 -0.035665523 0.047107518 0.00062407553 -0.0224073
0.08302522 0.03002169 -0.063236095 -0.020316355 -0.028125051 0.05669807 0.02342879 0.07607719

hidden_layer2.weight f4 [32, 64]
00000000: 2ecb af3d 082e 09bd e05e 14bc 80d4 6cbc
00000010: 0af5 bc3d 2025 cebb 60fa d3bc 3648 e8bd
00000020: 7479 5e3d 2ed7 c4bd 7459 773d 781c f0bc
00000030: 0e9e da3d 64a7 c3bd 7010 cdbd 505b eabd
00000040: 404e bcbd 1ade c1bd cceb d5bd 809e 3cbb
00000050: c665 a53d 2033 8ebb c00f 0dbc 963e c7bd
00000060: 00b0 f93b de68 d23d 8207 efbd ecbc 173d
00000070: 5892 ac3c 82ef f83d 60cf 9ebd 04df 0dbd
00000080: 2031 febd b677 dcbd c0cd 0dbd 822a 863d
00000090: 0033 36bd e8b0 973d fcf0 40bd 82d5 bcbd
000000a0: eccc 133d 54f5 a5bd 6c6d d7bd 58cb 933d
000000b0: 6c5d c6bd 08c3 193d ace2 4c3d 5084 153d
000000c0: 708f cfbd 002b 543a fa5a de3d 0acc 80bd
000000d0: 0054 a83b ec07 1fbd 7a7a e53d b203 ecbd
000000e0: 8017 bfba 6258 82bd c094 523c d0f1 2e3c
000000f0: c85e 253d 80eb fa3d 001b 24ba aace 96bd
00000100: f424 96bd d0ff bfbc 5407 6dbd b0db d33c
00000110: 44e6 8bbd 2c36 d3bd 9865 8abd 0051 f43b
00000120: 70c7 a13d d05f bf3d 7aee 9abd a0ae 25bd
00000130: e0d7 ddbb 548c 5bbd e220 e3bd 605e 593c
00000140: a6da c53d 9603 81bd 8092 a33c d452 fe3d
00000150: 2022 3dbc b847 e5bd 4876 9b3c 00e3 f13d
00000160: 2c22 2d3d a0f3 f5bd 74e2 cc3d 7475 d7bd
00000170: c095 0c3b 6af7 b23d d603 933d 60c6 94bb
00000180: 3869 bbbc f0b8 11bd 48e1 743d 90d0 04bc
00000190: a403 e8bd e285 d43d 40bd 513b 6259 cd3d
000001a0: 18b9 c03d 46a7 fbbd 3658 e73d 507c 873c
000001b0: f009 95bd a041 cfbb 1c99 8fbd b8ad e5bc
000001c0: c06f 503b a891 7a3d 3e45 da3d 767a f63d
000001d0: 8402 7ebd 588b 243d 8478 53bd 1813 1c3d
000001e0: 9af1 ad3d 6c59 29bd d061 8a3d 6055 95bb
000001f0: 9661 99bd 9019 31bd 00b6 83b9 2679 b53d
00000200: ec0b 213d d4c6 4f3d a445 cbbd 101e 133d
00000210: 6a75 fc3d 2009 9ebb 7408 d8bd ce2e 843d
00000220: 6060 ffbd 1cf8 a5bd 44ea 5abd a02e e7bd
00000230: 804c 35bb 9a65 c03d 206d 723c b4f3 b5bd
00000240: 28cc b5bc 38de d93c dece fdbd e4a5 433d
00000250: 16a3 ca3d f462 863d 44d8 993d c891 cf3d
00000260: a8a3 ea3c fedd ebbd e8d8 ee3d 6058 2e3d
00000270: cc4f bf3d 0089 5abd 5aa2 d1bd c0c0 df3c
00000280: 3a69 f03d 30ac f0bd 0040 7bb8 647b 803d
00000290: 60d5 c7bd 8cb4 29bd c0c2 20bd 74ab 0f3d
000002a0: 9aa7 f0bd 1844 aabc 063a debd fcf3 ffbd
000002b0: d036 c2bc d6ff b3bd 44c5 09bd d6d0 c6bd
000002c0: c0ac f33c 08cb 9e3c 807e d33c 704c 2f3c
000002d0: a0cb db3c 8cc0 25bd 387a d63c 8059 66bb
000002e0: 90df 1a3d 92d1 e93d a81b 983c 90de ce3d
000002f0: 1406 78bd f8d5 dabd f8dc 99bd da0f f6bd
00000300: a0e6 6e3d e06a 45bc 4e41 b1bd f0dc 85bd
00000310: 908c 103d 78d9 fdbc 00d8 03ba f483 a43d
00000320: 041d 743d 905b 10bc 0067 09ba f42f ee3d
00000330: 24c2 5f3d da86 aa3d 364d a73d 949a 14bd
00000340: 9c72 adbd a87d df3d 8264 983d 1073 a13d
00000350: 2646 ecbd e4ba 59bd 4295 a7bd ca9c fb3d
00000360: 40b2 e6bd 569e de3d fe0a dfbd 4c53 cc3d
00000370: 1e87 c8bd bc50 e6bd 207d 493c 80be 08bb
00000380: 44f0 d5bd 2861 c1bc eaad c6bd da7d de3d
00000390: 645e ebbd 00dd 59ba ecdd 3e3d 8206 d5bd
000003a0: 800d 60bd 2417 593d e01f 71bd 9889 1c3d
000003b0: 000f b6bc 2c40 73bd da8d a63d 2810 a9bc
000003c0: 5443 533d 2822 d3bc 1633 b4bd 5e84 873d
000003d0: 60a6 d73b 703c f23c 80bb 443b 3076 76bd
000003e0: 7055 cb3d 9498 18bd 808c 6cbd 0493 59bd
000003f0: e4a0 483d 0e01 aebd c07f 84bb fc7a 15bd
0.08583675 -0.033491164 -0.009055823 -0.014454961 0.09226425 -0.0062910467 -0.025876224 -0.11341898
0.054315045 -0.09611355 0.060388044 -0.02931045 0.10674678 -0.095534116 -0.10012901 -0.11443198
-0.091946125 -0.09466191 -0.10445365 -0.0028780997 0.08076052 -0.0043395907 -0.008609712 -0.09728734
0.007619858 0.10273908 -0.11671354 0.037045404 0.021065876 0.121550575 -0.077543974 -0.034636512
-0.124117136 -0.107650205 -0.034620047 0.065510765 -0.04448223 0.07406789 -0.04710482 -0.09220411
0.0360841 -0.08103433 -0.105189174 0.07216519 -0.096857876 0.037539512 0.05002086 0.036503136
-0.101347804 0.00080935657 0.10857196 -0.06288917 0.0051369667 -0.038825914 0.11205001 -0.11524142
-0.0014579147 -0.06364514 0.012852848 0.01067777 0.040373594 0.12251949 -0.0006260127 -0.07363637
-0.07331267 -0.02343741 -0.057868317 0.025861591 -0.06831029 -0.10313067 -0.06757659 0.007455945
0.07899368 0.09344447 -0.07565017 -0.04044974 -0.006770119 -0.053600624 -0.11090256 0.01326713
0.096608445 -0.06299512 0.019967318 0.12418142 -0.011543781 -0.1119532 0.0189773 0.11810875
0.042268917 -0.120093584 0.1000413 -0.10520449 0.0021451563 0.08738597 0.07178466 -0.0045402497
-0.02287732 -0.03557676 0.059785157 -0.008106366 -0.113288194 0.103770986 0.003200367 0.10026814
0.09410304 -0.12287764 0.11296122 0.016538769 -0.07277286 -0.006324962 -0.07011625 -0.028036937
0.003180489 0.061174065 0.10657738 0.12035076 -0.062014118 0.04017195 -0.051628605 0.038104147
0.084933475 -0.041345045 0.067569375 -0.0045572966 -0.07489316 -0.04323727 -0.00025121868 0.08860998
0.03931801 0.050726727 -0.09925392 0.03591734 0.123270825 -0.004822865 -0.10548487 0.0645424
-0.12469554 -0.08103964 -0.05344607 -0.1128819 -0.0027664006 0.09394379 0.014796525 -0.08884373
-0.022192076 0.02659522 -0.123929724 0.047765628 0.098943874 0.065618426 0.075119525 0.101352274
0.02864249 -0.11516951 0.11662465 0.04256475 0.09341392 -0.05335331 -0.10236044 0.02731359
0.117388204 -0.11751592 -5.9902668e-05 0.06273535 -0.09757495 -0.04143195 -0.039248228 0.03507562
-0.117507175 -0.020784423 -0.10850911 -0.12497708 -0.023707777 -0.08789031 -0.033635393 -0.09707801
0.02974546 0.019383922 0.025817156 0.010699376 0.026830494 -0.04046683 0.026181325 -0.003514856
0.037810862 0.114169255 0.018567875 0.10101044 -0.06055267 -0.106853426 -0.075128496 -0.12014742
0.05832541 -0.012049407 -0.08655034 -0.06536281 0.0352903 -0.030987486 -0.000502944 0.080329806
0.059597984 -0.008810893 -0.00052414834 0.1163024 0.054628506 0.08326502 0.08169024 -0.03628023
-0.08469126 0.10912639 0.07441045 0.078832746 -0.11536817 -0.05315675 -0.081827655 0.122857645
-0.11264467 0.10870044 -0.108907685 0.09976825 -0.097913966 -0.112458676 0.0122978985 -0.00208655
-0.10446218 -0.023605898 -0.0970114 0.10863848 -0.11492613 -0.00083108246 0.04659836 -0.10401632
-0.054700375 0.053000584 -0.05886829 0.038217157 -0.02222395 -0.05938737 0.08132525 -0.020637587
0.05157788 -0.025773123 -0.08798806 0.06617044 0.0065811127 0.029569834 0.0030018985 -0.060171306
0.09928405 -0.037254885 -0.05775118 -0.05311872 0.048981562 -0.08496295 -0.0040435493 -0.03649424

hidden_layer2.bias f4 [32]
00000000: b6ef a5bd 60fe 203c cc75 fdbd 10f2 44bc
00000010: 2ac0 983d c45a e1bd 8805 e53c c413 71bd
00000020: 5cfd 763d 8053 17bb 24a5 b73d a05d 0b3d
00000030: 144a e03d 5ce0 1fbd ac72 273d e8c6 bd3d
00000040: 60f0 113c b23a ba3d 00de 8b39 3254 f03d
00000050: 409a 633c f078 02bc 201b bcbb 004b 003b
00000060: e849 043d 22b1 8b3d 5cc7 fa3d 6863 8a3c
00000070: 803b e43d 72f3 8d3d 3ead afbd a02e 863d
-0.08102362 0.009826273 -0.123759836 -0.012020603 0.074585274 -0.1100364 0.027956739 -0.05885674
0.060300216 -0.0023090541 0.08967045 0.034024835 0.10951629 -0.039032325 0.040880844 0.09266454
0.0089074075 0.090932265 0.0002667755 0.11734809 0.013891757 -0.007963404 -0.0057405382 0.0019575953
0.032297045 0.06820895 0.12245056 0.016893104 0.11144161 0.06931199 -0.08577965 0.06551862

hidden_layer3.weight f4 [16, 32]
00000000: 2a9e f73d 91ae 21be f61d d23d e601 0fbe
00000010: d01a 053d 1764 313e 2a1f 01be 2652 ba3d
00000020: 45f0 0b3e cc3d 3bbd 39f5 093e 0451 72bd
00000030: 2012 0ebe 488a bd3c 008a cbbb 5075 3a3c
00000040: bac8 8f3d bfad 1f3e e4f6 f6bd a7fa 103e
00000050: 17b3 233e 6974 95bd 20fc 263c cbaf 283e
00000060: a0aa c23c 07e1 cebd 1736 203e b3f3 86bd
00000070: f4e6 f9bd 78f0 5a3d 749a 193d 15b6 133e
00000080: f2da c03d 50f9 423c f8ca a13c 5261 f23d
00000090: ee70 f4bd dc3e 863d ab0d 34be 0a8a ddbd
000000a0: 2870 c63c 1e1b a23d ecf8 6cbd 4a66 d13d
000000b0: f172 2b3e 20ce 35bc 4f62 003e 8dc6 0f3e
000000c0: 7288 2bbe cf14 273e 1d9d 88bd bc61 d9bd
000000d0: 7241 aebd 8061 7c3b b227 e93d b9a5 20be
000000e0: 20dc 9bbc 58fc f7bc f859 8bbc 00f7 cfbb
000000f0: 8097 47bb f0d8 ecbd d699 c23d a0a9 173c
00000100: de7d a23d f59a 0e3e 9575 1fbe cdfd 053e
00000110: 3f32 143e 629f 11be 2ef5 a53d a20f 33be
00000120: c263 f43d 825d d73d 00f7 e23a d6e3 903d
00000130: 6685 d83d 107b 0fbd a0f1 e53b 8e45 c43d
00000140: db5f 98bd 00b7 01ba 9e53 a4bd 5452 1a3d
00000150: dd1f 2e3e d7b8 eebd 1406 0bbe 05de 133e
00000160: 40a0 5b3b 5da5 1dbe 91e5 303e e004 3abd
00000170: fcb3 5b3d 086c 89bc ee5e 04be 9e9c dabd
00000180: a82e 45bd d4e7 37bd f33c 2b3e fc2f 03be
00000190: a669 86bd 9076 34be 9c81 22bd 84da 5fbd
000001a0: 1c8d 16be f47b c8bd 82ab 03be 6b9a 04be
000001b0: 0853 27bd 0a53 f0bd aa2b 32be 96a4 903d
000001c0: 82c9 aa3d f813 573d c245 28be f527 2d3e
000001d0: bbc9 24be bd77 0f3e 3d4d a0bd 99dc 14be
000001e0: 5d12 073e ba02 81bd 5ace 03be 965d d13d
000001f0: 9a57 f73d e0d7 0e3d df4e 22be 2f8f 2f3e
00000200: e0de c73c 6a90 c0bd d05c 1c3c 42a0 be3d
00000210: cdff c3bd 4781 1bbe f19b b0bd 70dd 5ebc
00000220: 6c64 18bd a398 a4bd 30ee dd3c a46a c6bd
00000230: c381 1d3e 509e 593c b02d 2bbd f39e 30be
00000240: 3a58 8e3d 52e0 a93d 4b2e b7bd 30eb d6bc
00000250: 5d12 13be 9067 b13c 6c87 443d 61c3 eabd
00000260: 186d 1fbd 41a9 083e 7028 22be c047 693c
00000270: 26b0 9bbd 94e2 6e3d 8bc2 1d3e bc23 a8bd
00000280: 1eb4 f33d 5508 283e 8885 24bd 5066 013d
00000290: 0083 37bd 52ed a83d a6af 853d 03b4 253e
000002a0: 0bf3 00be b513 213e efac acbd 7fe1 cbbd
000002b0: 1885 d93c 9c27 153d 82a8 b73d 0876 01bd
000002c0: 2078 8c3d 54ce eabd e20b 9b3d 1229 d63d
000002d0: 0076 ec3b f06c ba3c 3aba b33d c03e 9d3c
000002e0: a084 09be bea6 29be c448 243d e8f0 df3c
000002f0: d7a3 073e caa2 9b3d bc67 dbbd 4024 10bd
00000300: 4e54 fe3d 89b1 0b3e 215c 1a3e 6a54 b0bd
00000310: 201c 623c 8197 323e eaf7 ca3d c24e f33d
00000320: 5252 66bd 81c3 123e c427 653d 620e 903d
00000330: 7265 b33d 521a e43d ca14 16be 92f9 13be
00000340: 8ca1 523d c77e 203e 0e5a 9e3d a3d1 193e
00000350: c651 db3d c2bd 23be a138 073e 444f 1c3d
00000360: 942a 293d 5219 70bd 38b2 653d e86c 6e3d
00000370: 0574 b3bd 3ef4 5abd 9656 c8bd 0b75 21be
00000380: 3b0d 193e dfdf 0c3e 7a5c fb3d bc14 c2bd
00000390: 725d fdbd e4d7 4fbd ed03 cbbd 2877 3d3d
000003a0: 4d8b e3bd 80a4 d13a 4dfc cfbd 0066 143b
000003b0: d8a9 14be 2a16 97bd 3718 00be 8e72 dcbd
000003c0: e2a4 22be b867 07bd b51f 0e3e bcc1 96bd
000003d0: dca7 923d f8be bebd 6eb2 973d a861 0ebd
000003e0: 2849 04be 3065 efbd 5094 e4bd 20d3 45bd
000003f0: 6854 503d 1610 30be e613 bf3d c0ac b53c
0.12090714 -0.15789248 0.10259621 -0.13965568 0.032496274 0.17323337 -0.12609544 0.090977
0.13665874 -0.04571323 0.13472451 -0.059159294 -0.13874102 0.023137227 -0.0062115192 0.011380509
0.070207074 0.15593623 -0.120588094 0.14158116 0.15986286 -0.07297594 0.010191947 0.1647331
0.023763001 -0.10101514 0.15645634 -0.06589451 -0.12202254 0.053451985 0.037500814 0.14424928
0.094167605 0.011900261 0.019750103 0.118349686 -0.11935602 0.06554958 -0.17583339 -0.108173445
0.024223402 0.079153284 -0.057854578 0.10224588 0.16743065 -0.011096507 0.12537502 0.14040585
-0.16751269 0.16316532 -0.06670592 -0.106143445 -0.085085765 0.0038510263 0.113845244 -0.15688218
-0.019025862 -0.030271694 -0.017010674 -0.0063465834 -0.0030455291 -0.11564815 0.09501998 0.00925675
0.079341635 0.13926299 -0.15572198 0.13085099 0.14472292 -0.14220956 0.08103405 -0.17486432
0.1193309 0.10515882 0.0017316043 0.07074706 0.10572319 -0.03502947 0.0070173293 0.09583579
-0.07440158 -0.00049482286 -0.08023761 0.03767617 0.17004342 -0.11656349 -0.13576537 0.14440162
0.0033512264 -0.15395112 0.17275073 -0.045414805 0.053638443 -0.016775146 -0.12926838 -0.106744036
-0.048140198 -0.044898823 0.16722469 -0.12811273 -0.065631196 -0.17623353 -0.039674386 -0.054651752
-0.14702266 -0.09789267 -0.12858394 -0.12949531 -0.04085067 -0.117345884 -0.17399469 0.07062642
0.08339216 0.052509278 -0.1643286 0.16909774 -0.16092579 0.1401052 -0.07827232 -0.14537276
0.13190599 -0.06299348 -0.12871686 0.10222928 0.120772555 0.034873843 -0.158504 0.17144464
0.024398267 -0.09402545 0.009543613 0.093079105 -0.095702745 -0.15186034 -0.086234935 -0.0136025995
-0.037205145 -0.08036926 0.027091116 -0.09688309 0.15381531 0.013282374 -0.041791618 -0.17248134
0.06950422 0.08294739 -0.089443766 -0.026235193 -0.14362474 0.021655828 0.04798071 -0.11463047
-0.0389224 0.13345815 -0.15835738 0.014238298 -0.07601957 0.05832155 0.15406244 -0.08209941
0.11899589 0.16409428 -0.040166408 0.031591713 -0.044802666 0.0824839 0.06527643 0.1618195
-0.12592714 0.15730174 -0.08431422 -0.09955119 0.026552722 0.036414728 0.08967687 -0.031606704
0.068588495 -0.11465135 0.07570626 0.10457052 0.007216215 0.022757024 0.08775754 0.01919496
-0.13429499 -0.16567513 0.040108457 0.027336553 0.13246094 0.07599409 -0.10713145 -0.03519082
0.124184236 0.13641943 0.15074207 -0.08609851 0.013800651 0.17440607 0.09910567 0.11880256
-0.05623085 0.14332391 0.055946127 0.07033993 0.087595835 0.11137833 -0.14656368 -0.14450672
0.051423594 0.15673362 0.0773202 0.15021376 0.107089564 -0.15990356 0.13205196 0.03816153
0.04130037 -0.058617897 0.056078166 0.05820933 -0.08762363 -0.053455584 -0.0978214 -0.15767305
0.14946453 0.13757275 0.12273498 -0.09476611 -0.12371339 -0.050743 -0.09912858 0.046256214
-0.11110554 0.0015994459 -0.101555444 0.0022643805 -0.14517915 -0.07377274 -0.12509237 -0.10764037
-0.1588321 -0.0330579 0.13879283 -0.07361171 0.07160923 -0.09313768 0.0740708 -0.0347611
-0.12918532 -0.11689222 -0.11161101 -0.048297048 0.050861746 -0.17193636 0.09329967 0.0221771

hidden_layer3.bias f4 [16]
00000000: 4f6b 183e 25db 29be 6779 053e e8c4 9abc
00000010: 0696 813d 80f6 b7bb fc87 c4bd 905f 883d
00000020: 9f89 26be 8e37 08be 55a7 24be 5127 babd
00000030: 5e26 fc3d 9404 7bbd 187a 733d fb37 113e
0.14884685 -0.16587503 0.13034593 -0.01889272 0.06327443 -0.005614102 -0.095962495 0.06658852
-0.16263436 -0.13302442 -0.16079457 -0.0908953 0.123120055 -0.061283663 0.05944261 0.14181511

out_layer.weight f4 [2, 16]
00000000: 481d 283e 14f8 4ebe e27a 3d3e a099 d3bd
00000010: 8482 993d 7005 8a3c 0e9a 163e 2a0d 7f3e
00000020: 1c0f 6b3e c046 813d a431 c1bd 7080 f43c
00000030: 2685 41be d0c5 4f3d 462a 503e 3c9f 7d3e
00000040: 5804 fb3d cc82 193e 8033 c4bc 60e7 c73d
00000050: 5cbf b0bd a885 94bd 4226 19be 5a9f 2b3e
00000060: 9078 41be 3aa8 35be bcfc 32be 2ca8 99bd
00000070: a066 4bbe 2865 06be 9ac5 293e 1839 56bd
0.1641742 -0.20211822 0.18503907 -0.10332036 0.07495597 0.016848296 0.14707205 0.24907365
0.22954983 0.063123226 -0.09433296 0.0298464 -0.18898448 0.050725758 0.20328626 0.24767774
0.12256688 0.14991301 -0.023950338 0.09760928 -0.08630249 -0.072520554 -0.14956 0.16760007
-0.18893647 -0.17739955 -0.17479223 -0.07502779 -0.19863367 -0.13124526 0.16579285 -0.052300543

out_layer.bias f4 [2]
00000000: a44a c73d 0005 8e3a
0.097310334 0.001083523
