models/DQNparam2.pth (torch, 45859 bytes, 8 tensors)

hidden_layer1.weight f4 [64, 126]
00000000: 03a0 023e 92ea c13c 1ba6 4abd 91e5 68bd
00000010: 815c da3e bd33 a33d 63d5 01be 9566 143e
00000020: cb0f fe3d 297a 673e d82f 413e 5587 6b3e
00000030: 4e7e f23e a6a6 033f 6b1b afbe b8d0 59bf
00000040: 2ea8 a43f 2c87 cfbe 1c43 b7be 7b79 cb3e
00000050: 1ee4 a4be 84b8 0e3e 719c d3be 5676 c7be
00000060: 68f3 86be b5d9 70be 1501 55bd 6a5e d4bb
00000070: 083a 9a3c 86b9 873e d698 513e a6c1 983e
00000080: c856 e73e 773a 0f3e ebb9 cc3e 1d3e 09bd
00000090: be6f d63e ad48 a2bd bf3b 85be 0528 3cbe
000000a0: a3c9 9c3e b263 8dbe ca40 3abe 98a3 31bf
000000b0: 1ad5 d7bc bebf 663e 0850 a5be 93c9 0ebf
000000c0: c555 c6be 9448 69be 5764 c7be 00d1 35be
000000d0: 2a57 e43d b6f0 8dbe f6c1 35bf 8613 06bf
000000e0: 5856 653e 1fc3 903d 3636 b0be 7e2c 163e
000000f0: c806 dcbd c731 ccbc 7515 d23e 0aef eabc
00000100: 1883 463c 03f1 f8bc 29c6 8d3d e791 58bd
00000110: fbf3 41be 56f1 53be a72b e0be 047f e9be
00000120: ef79 2dbe 6e7c 16be 63b5 c9bd dde4 efbd
00000130: 03a4 663d e454 0bbe 51fc 58be e84b 33be
00000140: 2164 303e 0576 2c3d dc28 42bd 50dd a4be
00000150: f71f 373d 4586 993d a3a0 a33d 8e37 893d
00000160: 8b8a bc3c c1f3 dabd 8178 6a3d 2d33 c13e
00000170: 2905 483e fd4a 283e 1d04 8bbd c578 63bc
00000180: 1749 813c d19e 84bd 580a a4bd 58d5 45bd
00000190: 0ee4 aebd 3911 28be 4f06 97be 433e 10be
000001a0: 910c 66be 1fb6 003e 3a27 a73e 570b c03e
000001b0: c73f 8f3e c2e8 ca3d b0e7 23bd 4f78 92bd
000001c0: 78f4 e0be 8d27 a9bd f3af 55bf 464e 8dbe
000001d0: 00fe 8cbe e270 01be ff11 b7be e62c 3c3f
000001e0: ea0b 043f eb26 923e a7ad 033e a976 d83d
000001f0: 1e02 963d e354 18bd 416e 213e a39c 673e
00000200: e220 41bc 013d fdbb 9afe 6cbd c616 abbe
00000210: 3490 83be b4ef 943e acab 643e c2ce e63d
00000220: 7bac 0cbe 15ce 4b3e c4df babe 65ab 073e
00000230: af87 8c3e 4187 78bc 5693 73be fa60 09bf
00000240: fb66 3ebe b286 0d3d 8c4a 0d3f 2f10 143e
00000250: 40d0 6cbe 64e7 dabd 3e54 8c3e db3b fd3d
00000260: 0ae6 e0bd db07 b43e 3ce3 babe 487a 2f3d
00000270: a5a6 12bf 199b 4a3f 5ee0 12bf f46c e3be
00000280: 05b7 68bb f0e9 8bbd 0ee7 f8be 703d 8d3e
00000290: e57a 8f3e 2d7d 80be 1474 79be 0eb6 92bd
000002a0: 8dac fabe 65a3 983f 27f1 0fbe 1112 bb3d
000002b0: 42d0 8e3e c7b7 283d c553 d8be 1d60 7e3f
000002c0: 1b0d 25bf c908 02bf 3392 393f 2c80 db3e
000002d0: 0428 6abe ec84 cfbd 73f6 cb3e 2d47 d4be
000002e0: 7e75 9a3e 61e5 9dbd 6723 32be 553d 6b3e
000002f0: ec94 a53c b951 a13d 1ed5 b33d c425 1b3d
00000300: 82c3 9e3d f7eb 833e 590f 533e 49c5 9e3e
00000310: 17a7 f33d 4946 eabd d6ae 153e 86f2 893e
00000320: 4f4c 0d3e d9c7 9a3d 10f7 e0bc 6e6c 1c3e
00000330: 8a40 403e d244 5b3e 4533 4c3e c301 1e3e
00000340: 6f38 933c 31a4 9abc 8527 a3bd 46d6 d03d
00000350: 138f 253e d68c 993d b113 b6bd 5581 883d
00000360: 9006 893e 0432 2cbf c7ad 773e 7db0 353e
00000370: b04c 97be 2835 f4bd e6a9 1c3e de72 5bbf
00000380: c594 ef3e 81d3 6b3e 202e 4abc a0e9 fcbd
00000390: 28bc 8dbe f6c6 6dbe 6208 a5bd eb42 133d
000003a0: e34a 6dbe bd56 8dbd dc77 63bf 1e27 f8bf
000003b0: 42df ffbe 1d5e f83d 491a afbe cdc5 d3be
000003c0: 9625 c7be a141 4cbf 6003 3e3c fa9f 07bf
000003d0: c4f1 533f fa37 58bf 4c2e 5fbf 96f2 31bf
000003e0: 7549 28bf 9e70 cbbe a66a ebbe 691d 653d
000003f0: ecbc b83d a1c0 983e ed1a 323e e9c0 cf3d
0.12756352 0.023671422 -0.049474817 -0.056859557 0.426487 0.07968853 -0.12679057 0.14492257
0.12405356 0.22605194 0.18865907 0.23000844 0.47361988 0.5142616 -0.34200606 -0.85084105
1.2863824 -0.40532815 -0.35793388 0.3974112 -0.3220529 0.13937575 -0.41330293 -0.3895747
-0.2635758 -0.23520549 -0.052002985 -0.0064809816 0.0188265 0.2650873 0.20468459 0.29835242
0.45183396 0.13987146 0.39985594 -0.0335065 0.41882128 -0.07924018 -0.26022145 -0.18374641
0.30622587 -0.27615124 -0.18188778 -0.6939025 -0.026346732 0.22534081 -0.32287621 -0.5577633
-0.38737312 -0.22781593 -0.3894374 -0.17755508 0.11149438 -0.2772271 -0.70999086 -0.5237354
0.22396219 0.070684664 -0.3441636 0.1466541 -0.10743481 -0.02492608 0.41031995 -0.028678436
0.012116216 -0.03038836 0.06922562 -0.05287352 -0.18940727 -0.20697531 -0.43783304 -0.45604718
-0.16941045 -0.14695904 -0.0984905 -0.11713574 0.056308758 -0.13606602 -0.21190001 -0.17509425
0.17225696 0.04210474 -0.047402248 -0.32200098 0.04470822 0.07496313 0.079896234 0.06700049
0.023015281 -0.106910236 0.057243828 0.37734357 0.19533218 0.16434856 -0.06787894 -0.013883774
0.015781922 -0.06475604 -0.080097854 -0.048299164 -0.08539592 -0.1641282 -0.29497 -0.14086251
-0.22465731 0.12569474 0.32647115 0.37508652 0.27978346 0.09907676 -0.040015876 -0.07151853
-0.43936515 -0.08259497 -0.834716 -0.2759878 -0.27537537 -0.12640718 -0.35755917 0.7350601
0.5158068 0.28545317 0.12859212 0.10569508 0.073246226 -0.03719033 0.15764715 0.22618346
-0.011787625 -0.0077282195 -0.057859994 -0.33415812 -0.25695956 0.2908913 0.22331113 0.11269905
-0.13737671 0.19902833 -0.36498845 0.13248976 0.27447268 -0.015168966 -0.23786673 -0.536636
-0.18593971 0.034552284 0.55191875 0.14459299 -0.23126316 -0.106886655 0.27408022 0.12364932
-0.109813765 0.35162243 -0.3650149 0.042841226 -0.5728553 0.7914291 -0.5737361 -0.44419062
-0.0035509479 -0.068317294 -0.4861378 0.27585936 0.2802345 -0.25095502 -0.24360687 -0.071636304
-0.4895977 1.1924864 -0.14056836 0.09134305 0.27893263 0.04119089 -0.4225141 0.9936541
-0.6447312 -0.50794655 0.7248871 0.42871225 -0.22866827 -0.10132775 0.39836463 -0.41460553
0.30167764 -0.07709766 -0.17396317 0.22972615 0.020212613 0.078769155 0.08780883 0.037877813
0.07752134 0.25765964 0.20611323 0.31009892 0.11897104 -0.11439187 0.14617476 0.26942843
0.1379864 0.07557649 -0.027461559 0.15275738 0.1877462 0.21412972 0.19941433 0.1543036
0.017971246 -0.01887712 -0.07966522 0.101971194 0.1616786 0.074975654 -0.088904746 0.06665293
0.2676282 -0.6726382 0.24187385 0.17743106 -0.29550695 -0.11924201 0.15299186 -0.8572215
0.4679319 0.23029901 -0.012340099 -0.12349248 -0.27682614 -0.23220429 -0.080582395 0.03595249
-0.23173098 -0.0690131 -0.88854766 -1.9386938 -0.4997502 0.12127326 -0.3419974 -0.41361848
-0.38895863 -0.7978764 0.011597484 -0.5297848 0.8279078 -0.84460413 -0.8718002 -0.6951078
-0.65737087 -0.39734358 -0.45979804 0.05593625 0.09020409 0.29834464 0.17393084 0.101442166

hidden_layer1.bias f4 [64]
00000000: a86e 0c3d 7995 563d d0d7 163f 277b db3e
00000010: 6c64 243e 2d0d 193e cb06 0abf 9898 6a3c
00000020: d1b1 f6be 47e0 803e 8536 073f b282 063f
00000030: 63d0 b03e a4e3 e43e 867d f3be 5ab3 a4bd
00000040: b09c 923e d389 2abd 25b6 90bb 8e38 0b3f
00000050: 3a36 d43f 5047 933f 7840 fb3e ecb9 83bd
00000060: ab28 9b3e c396 1a3e 6798 193e 564f 12bb
00000070: f4cf 09bf 9cad 373f 2259 853e 9699 3d3e
00000080: 42b4 433f fba0 133f 3582 96bd 86cc 60bb
00000090: ba39 b43d d7e8 efbd bc67 fb3e a083 89bc
000000a0: e81f acbe 6ceb 6dbf 8857 eb3e a829 8a3e
000000b0: 1485 e4bc 5cd7 503e 3f13 933e ac1a c43e
000000c0: 7bd4 393f 8f61 163f 0141 483e 019c f3bc
000000d0: 0234 363e b549 333f f61d ad3d 6885 82bd
000000e0: d3f2 223e 3ace 383f afcb cc3c aed5 b23e
000000f0: 7ff7 cdbd dd66 83bd 31e6 a3bc d2eb 213f
0.034285218 0.052388642 0.58923054 0.42867395 0.16053933 0.14946432 -0.53916615 0.014318608
-0.48182538 0.2517111 0.52817565 0.52543175 0.34533986 0.44704926 -0.47556704 -0.08042021
0.28635168 -0.041635346 -0.0044162446 0.5438317 1.6579049 1.1506138 0.49072623 -0.06431946
0.30304465 0.15096574 0.14999543 -0.002232512 -0.53832936 0.7174928 0.26044565 0.1851562
0.76446927 0.5766751 -0.07349054 -0.0034301593 0.08800073 -0.117143326 0.4910258 -0.016786397
-0.33618093 -0.9293735 0.4596522 0.26984906 -0.027895488 0.20394653 0.2872562 0.383016
0.72589844 0.5874261 0.19556047 -0.029737474 0.17793277 0.70034343 0.0845298 -0.063731015
0.15912943 0.72189677 0.024999468 0.3492865 -0.10056972 -0.06416104 -0.020007225 0.6325046

hidden_layer2.weight f4 [32, 64]
00000000: ec60 b7bd c7aa 0d3d fa1f c4bd b251 b63c
00000010: b813 cd3c 8eb8 33bc 9e1a 8ebd 361d 8abd
00000020: 6aae 00bd 9203 8cbc e30f efbc 8787 93bd
00000030: b5af 3cbd ae61 52bb 97c6 59bd 920c 60bd
00000040: 347e 42bd 7b2f b43c fb48 083d 53ba b7bd
00000050: c61d b53c f8a3 fdbc 9fa0 a5bd 849c 143d
00000060: b9a8 adbd 63ec 87bc 2d19 3cbc a2c7 69bd
00000070: ff5a 36bd 34dd c4bd 3da7 8c3b 71d5 3a3d
00000080: a1ff 0c3d ee9a 82bd 3134 bfbc c682 2cbd
00000090: d2e0 3c3d 582f d83c c69e 92bd f73c 4f3d
000000a0: 50c4 8ebd a089 8dbb 37bd 98bd 37d7 6fbd
000000b0: 8fd3 a0bd 3d5d 60bd 6d0e 513c a3f9 46bc
000000c0: 6883 eebc 2963 cd3c 660c 12bc 4d5e 6e3d
000000d0: e40d 34bd d12b b7bd 9e2e 2dbd 20ff f83c
000000e0: e85f e9bb 5d4f a6bd 1510 f1bd c405 3d3d
000000f0: f59e 52ba 00f0 e4bb 8926 38bc b230 063d
00000100: f526 043f 16c1 ff3c fbc1 ad3e b007 ef3d
00000110: a593 843d bbc7 4b3e def2 723e c00c 96be
00000120: e0fd bdbe f5b0 0b3e 4aaf 693b 9124 ed3d
00000130: 746e e73d 88bc d93d 4299 92be 9ccb 50bd
00000140: d8dd 993e 67fa e23b 68d7 f0bd 1296 293e
00000150: ee18 853d 46e9 fd3e 30ae 53bc 28dd c2be
00000160: f823 903d fe05 2dbe 9c93 a43e 05b7 203c
00000170: 8310 bbbd bdf0 f63d 25c7 833e c75c ffbe
00000180: e841 9f3e 3888 48be cfa5 b63c f2f0 0dbd
00000190: 7aaf d3be 17f4 bdbe 5648 613e 6f6f fa3c
000001a0: ace3 383e 1392 f4bc 49dc 123e db11 813e
000001b0: 03b3 2b3e 78b7 2bbd ec25 663d 51d4 543d
000001c0: b5dc 27bd 397c c5bd 73dd eb3e ed69 9cbe
000001d0: 4c93 133e cd0a f23d 3789 0e3f 230e 91bc
000001e0: 1793 143e 2192 44bc cc7a da3d a69a 9e3d
000001f0: 30e7 353e 0120 95bd ab0c 39bf 41b3 4c3e
00000200: 2fff 4dbd aa1c efbc 854e 1a3d 5ebb 74bd
00000210: ce46 413c a729 363d 66cc ecbc 63bd 093d
00000220: ad6c 6bbd 785e 8cbd 3cef 59bc 5c07 91bd
00000230: c56b db3c c75b 2c3d 3f3a 1dbd a097 51bc
00000240: f6e2 b6bc 5b79 363d 0065 2e3d 8420 4dbd
00000250: 141c 83bd 5427 53bc 085a 59bd 4fe8 83bc
00000260: 9d3d 7b3d f18a 863c ff68 1bbc 9a1f 363c
00000270: 92dd d0bc 998c 903c 3ea1 84bc 9a54 90bd
00000280: 8d05 5a3d 3a8b 74bc 682e 7b3c f5f5 c33c
00000290: 25de f5bc e618 9d3c a4c6 a3bd ae16 0bbd
000002a0: 807a 79bc cda0 d2bc 661c 9dbd 102e 6fbd
000002b0: 5a34 b6bd 1d8a 593d 07fe 0ebd e08e 94bd
000002c0: bfb8 543c e82c 183d a932 56bc f666 1dbd
000002d0: aefc e13c f1fa 87bd a757 d83c f185 0cbd
000002e0: bdaf a5bd b7f3 913d 41cb cfbb 4e1f f7bc
000002f0: 162d 8dbd b294 c5bc a436 d5bc e27c 2cbd
00000300: 789c 523f 7180 2a3d 655c fe3e 34e7 8e3d
00000310: 292a 833d 752d 453e e2cb 8a3e 2f21 1dbe
00000320: 72bc 89be b123 dc3d 9a59 8bbe 58bb ce3d
00000330: 015b d1ba 7ac8 453d df47 30be ccb9 feb8
00000340: 7a0e 213e 466f 853d 135f 03be 199b 233f
00000350: 0925 5e3e 4311 253f 5abb 9a3c 0b6f 6abe
00000360: ef53 4bbd 1c1f eb3d 9905 1d3e c0ad 183c
00000370: 7efe 94bd 9c57 373e 90e2 7e3e 5701 c6be
00000380: 7e51 c33d a2d7 413e c89e e23c 2337 7abb
00000390: 805b 94be 7b16 1fbf f7d7 623e 4c52 933d
000003a0: 0c98 bebd 4b6a d43d 8a25 273e 230f 5d3d
000003b0: 02cb 863e e215 07be 7861 c13d 4065 b93d
000003c0: 454b ff3d 2c86 43be 0317 803f 1341 e0be
000003d0: 57de 773e fbe3 343e 8b66 1f3f 57d5 393d
000003e0: 9308 3fbd 2e35 fcbd f7a7 1abe 86ba d73d
000003f0: f9d1 993e dd26 27bc bb75 3dbf ce93 743e
-0.08954033 0.034586694 -0.095764115 0.022255752 0.025033817 -0.010969294 -0.069386706 -0.06743853
-0.031416334 -0.017091546 -0.02918238 -0.07203584 -0.046066005 -0.0032101679 -0.053167906 -0.054699488
-0.047483638 0.021995297 0.033272725 -0.089710854 0.022108924 -0.030961975 -0.08087277 0.036282077
-0.08479447 -0.01659221 -0.011480612 -0.05707515 -0.044520374 -0.09612504 0.0042923973 0.04561371
0.034423474 -0.06377207 -0.023340316 -0.042116903 0.046112843 0.026389763 -0.0715919 0.05059525
-0.069710374 -0.0043193847 -0.07457965 -0.058554854 -0.078528516 -0.05477642 0.012759787 -0.012144479
-0.029115394 0.025071697 -0.008914089 0.0581954 -0.04395856 -0.08943904 -0.042280786 0.03039509
-0.0071220286 -0.08120606 -0.117706455 0.046148077 -0.00080345507 -0.006986618 -0.011239656 0.032761283
0.51621944 0.03122 0.33937058 0.11671388 0.064734735 0.1990041 0.23725459 -0.29306602
-0.37107754 0.13641723 0.003565746 0.1157924 0.11300364 0.106316626 -0.2863255 -0.050975427
0.30052066 0.006926823 -0.117598355 0.16561154 0.064988956 0.49592036 -0.0129199475 -0.38059354
0.070381105 -0.16896817 0.32143867 0.00980926 -0.09134009 0.12057636 0.25737873 -0.4987547
0.3110497 -0.19583213 0.02229586 -0.03465361 -0.41344815 -0.37100288 0.2200025 0.030570714
0.180556 -0.02985481 0.14341845 0.25208935 0.16767506 -0.041923016 0.05618851 0.051960293
-0.040981967 -0.09642834 0.4606739 -0.30549565 0.14411658 0.11818466 0.55678123 -0.017706936
0.14509235 -0.0119977305 0.10667953 0.077443406 0.17763972 -0.07281495 -0.72284955 0.19990255
-0.05029219 -0.029188473 0.03767254 -0.059749 0.011796666 0.044473317 -0.028906059 0.03362788
-0.05747669 -0.06853956 -0.013301667 -0.07081482 0.026784787 0.042079713 -0.038385626 -0.012792498
-0.02232502 0.044549327 0.04257679 -0.050079837 -0.0640184 -0.0128877945 -0.053064376 -0.016101984
0.061338056 0.016423674 -0.009485482 0.011115933 -0.025496278 0.017645167 -0.016190168 -0.070473865
0.05322795 -0.014925772 0.015330888 0.023920992 -0.030013153 0.019176912 -0.07996872 -0.033957176
-0.01522696 -0.025711441 -0.07671432 -0.058393538 -0.08896704 0.05311023 -0.034910228 -0.07253814
0.0129835 0.0371522 -0.013073602 -0.03842827 0.027586307 -0.0663966 0.026408983 -0.034307424
-0.0809016 0.07126563 -0.0063413684 -0.030166294 -0.06893365 -0.024118755 -0.026027031 -0.042111285
0.8227 0.041626398 0.49679866 0.06977692 0.06404526 0.19255622 0.27108675 -0.1534469
-0.26901585 0.10748995 -0.27216798 0.10094327 -0.0015972556 0.048286892 -0.17214917 -0.00012146271
0.15728179 0.06515364 -0.12829237 0.63908535 0.21693815 0.64479464 0.018888164 -0.22893922
-0.049640592 0.11480543 0.15334167 0.009318769 -0.07275103 0.17904514 0.24891114 -0.38672897
0.09537028 0.18929914 0.027663603 -0.0038179837 -0.2897606 -0.6214368 0.22152697 0.07193431
-0.093063444 0.10371836 0.16322914 0.053969514 0.26326758 -0.13191941 0.09442419 0.09052515
0.124655284 -0.19094151 1.0007023 -0.43799648 0.2420591 0.17665093 0.62265843 0.045369472
-0.046639036 -0.12314831 -0.15103136 0.105336234 0.3004301 -0.010202137 -0.7400777 0.23884508

hidden_layer2.bias f4 [32]
00000000: 281e c23c 9109 b03e 0db8 18bd 195c bf3e
00000010: 4a3c 183f 1f80 1dbd b298 1bbd 3ce5 113f
00000020: 80fe cdbc acc2 7abe c809 c4bd a272 1cbd
00000030: 6bf1 743f 07b7 8dbd 0e08 c43f 6952 8b3f
00000040: 3245 2b3e a8c7 06bc 455d 913c 7176 053f
00000050: 7585 f93e a8cc 16bd 603f 68bd 194e 5d3c
00000060: b39e 8cbc 286b d03f 24a7 46bc 0051 253f
00000070: c615 a5bd d1e3 dbbd 4075 3a3f 3d94 923f
0.02369602 0.343823 -0.0372849 0.37374952 0.59466994 -0.038452264 -0.03798742 0.5699041
-0.02514577 -0.24488324 -0.09572178 -0.03819526 0.95680875 -0.06919675 1.5314958 1.0884525
0.16725615 -0.008226313 0.01774467 0.5213385 0.48734632 -0.03681627 -0.056701064 0.013507389
-0.017165517 1.6282701 -0.01212481 0.6457672 -0.080607936 -0.10736812 0.7283516 1.1451489

hidden_layer3.weight f4 [16, 32]
00000000: 4293 ef3d 47a7 aabe 45dd e0bb b10f 8ebd
00000010: a3f9 8b3c 93c3 1bbd 3c30 7bbd b320 35be
00000020: 3079 a8bd 2f3c 9f3e 9558 a63e 55f6 d33d
00000030: 8068 9a3b 810b 1abd 6f53 5a3f cdd5 283e
00000040: 2f07 afc0 d3b7 9a3d 588d e73c 3af4 463e
00000050: 28fe a2bd cfb3 b4bd 2e9e f1ba 6425 3fbd
00000060: bbb0 343d 006e a13e e28b 9ec0 2792 ac3d
00000070: 1643 02bd e76f 69bd 0d94 01c0 0602 6e3e
00000080: 7bfb 8d3d 424a 823e 9141 74bc 35b3 863e
00000090: 1703 823e 3667 58bd adab cd3c cc8c 3d3e
000000a0: f1c2 d8bd 33dd 7dbe 11a9 63be ecf0 babd
000000b0: d21b 6c3e 3131 24bd 8b8a 0fbd 3a4e c43d
000000c0: e14e 6d3e a6ea 473d 4da6 ecbd ec80 543e
000000d0: 8ffd aa3e def2 e23c fa18 c63c 470f 81bd
000000e0: 0ddf 343c 64f4 303e bf44 2f3f 390b 8b3e
000000f0: b926 86bd e142 0e3e 6e50 e53f 68f4 113e
00000100: c3ea e93c f8ec dabc 6203 a9bc 1919 bcb8
00000110: 57a4 8bbd 39e4 2dbc 52fe c8bc f002 a53d
00000120: 62e5 ef3c 4c1b e7bd cb67 b4bd 3229 e6bc
00000130: 61b2 fb3c d2b8 b53d 4b91 193d 6a4d 71bd
00000140: 3291 9dbd 4da1 2d3c 76ed 913d c5b7 79bd
00000150: 6dc1 98bd efc8 523d 3e54 d13d 60b5 103c
00000160: 74f1 30bd 05af 95bd 42e7 643d a0cf b6bc
00000170: 9bfe 313d 7887 eebd 22f3 903d 85ed 4e3d
00000180: afb1 7c3b 80d5 5bbf b82d b43d 93e1 cfbf
00000190: 3c56 e3be 0509 d0bd 2ea9 263d 91ca a73e
000001a0: 2b6a 1d3d c929 4c3e dbc9 1a3e 9d2a f6bc
000001b0: 929d 213e fa8b 293d 95a3 3ebd cb58 15be
000001c0: 8c13 a640 0967 353d 3d57 813d ed46 81be
000001d0: e9ad abbe 21db 0dbc 219d 5dbc b00a ba3d
000001e0: af36 003c 3065 8d3e 1b04 793f 6eea 31be
000001f0: 7d92 b03c ffbd 18bd c1e3 4cbf ce1d fe3c
00000200: c039 013d 19d7 43bd e066 bebc d254 b83c
00000210: 4d75 11be 4582 c33d 7a5a 9f3d dbe7 623d
00000220: 40fe 8abd 308a 51bd 1add 6abb 8116 94bd
00000230: 4d85 7cbd 78bd 74bd 434a e1bc be8a a3bc
00000240: 8a46 93bc a8a1 b23d bc62 9fbd ce52 463c
00000250: d2f9 03bc 35aa ad3d fae7 643d 23e9 f4bc
00000260: 369f be3d ff4e 1bbe 7f8b f4bd 87f4 b0bd
00000270: f1c8 9ebd e7e4 e73c 61b2 88bc 1b3f cebc
00000280: e69c fb3b 90ea a9bd 9abf 753d 6d6e 0d3d
00000290: b73b 3abd af16 0e3d ab35 0c3c 79bf 78bd
000002a0: 0301 733d 42b5 14bc 8971 94bc f9ab e0bd
000002b0: cda9 f53c 316d 673d 958f bdbd a112 06be
000002c0: f6d5 a0bd d8d8 4ebc 4656 4fbc 8a5b 4b3c
000002d0: a904 2a3d 1527 9f3d ad7d 5b3d 113d 8c3d
000002e0: 1b97 3c3d ae67 c9bd d87c 7a3d 6c1f 07be
000002f0: 5984 67bd f51c f7bd 932a 2fbd 222d 9dbd
00000300: be33 6a3d 722c 473c 9a3d 86bd dca8 e3bd
00000310: 78c6 143d 2e01 98bd 30cf 42bd 6171 eebd
00000320: 695d 083d e7d3 e1bd 5c0b 2ebd 3276 bcbd
00000330: badf 31bd 4073 aabd 9687 35bd acd2 80bd
00000340: f878 0ebd 2731 c5bd ed8f db3c 5478 08be
00000350: d490 16be 187c 893d 1d4d 88bd 5664 65bd
00000360: 202e 9bbd 91b9 5dbd 6205 acbd 7806 0fbd
00000370: c61c 0cbd 1b25 5abc a674 91bd 5350 3ebd
00000380: 9e39 c2bd 90e2 d33c 6ba1 24bc 04ac aabd
00000390: 13bd 03be 251b 10bd 0a5d bb3b a2e3 663d
000003a0: 8252 aebd db79 353d fe5f b9bd 7f7b 59bd
000003b0: f7f0 c9bd 731f 953d cb48 eebc 82a2 0fbe
000003c0: 8333 efbd f864 673d ed67 1e3d da13 9fbd
000003d0: 93b3 b6bc 3391 8c3d 839e 06bc 2c25 ab3d
000003e0: 1e76 983c afa9 9dbc d4ca 393d f775 e8bd
000003f0: 2bb4 8e3c 2852 133d 8f5f 453c fac6 763d
0.11698009 -0.33330747 -0.006862315 -0.06936587 0.01708681 -0.03802831 -0.061325297 -0.17688255
-0.0822624 0.31100604 0.32489458 0.103497185 0.0047121644 -0.037608627 0.8528356 0.16487809
-5.469627 0.07554593 0.02826564 0.19429103 -0.07958633 -0.08823358 -0.0018433982 -0.046666518
0.044113856 0.31529236 -4.9545755 0.08426314 -0.03180226 -0.056991484 -2.0246613 0.2324296
0.06932732 0.2544728 -0.01490821 0.263086 0.25392982 -0.052832805 0.025106275 0.18510741
-0.10584057 -0.24791412 -0.22232462 -0.091279835 0.23057488 -0.040085975 -0.035044234 0.09585233
0.23174621 0.048807763 -0.11555157 0.20752305 0.33396575 0.027703699 0.024181832 -0.06301742
0.011039508 0.17280728 0.68464273 0.27157 -0.065503545 0.138927 1.791517 0.1425339
0.028554326 -0.026724324 -0.020631496 -8.9692134e-05 -0.06818455 -0.010613495 -0.024535332 0.08057201
0.029284183 -0.11284503 -0.088088594 -0.028095815 0.030724706 0.08873142 0.037492078 -0.05891172
-0.076937094 0.010597539 0.0712537 -0.060966272 -0.07458768 0.051461156 0.10221146 0.008832306
-0.043199018 -0.07308773 0.055884607 -0.0223158 0.0434557 -0.11646932 0.07077624 0.050519485
0.0038558056 -0.8587265 0.08797783 -1.6240715 -0.4440173 -0.1015797 0.040688686 0.32771733
0.038431328 0.19937815 0.15116064 -0.030049616 0.15782765 0.041393258 -0.046542723 -0.14584653
5.189886 0.044287715 0.063154675 -0.25249425 -0.3353112 -0.008658201 -0.013526232 0.0908407
0.007825538 0.27616262 0.9727189 -0.17374584 0.021554226 -0.03729057 -0.80035025 0.031020071
0.031549215 -0.047812555 -0.023242414 0.022501383 -0.14204903 0.09546331 0.07780929 0.055396896
-0.067867756 -0.051157176 -0.0035837353 -0.07230855 -0.061650563 -0.059751004 -0.027501231 -0.019963618
-0.017977972 0.0872224 -0.07782504 0.012104703 -0.008055167 0.0847973 0.055885293 -0.029896325
0.09307711 -0.15166853 -0.11940669 -0.0864039 -0.0775317 0.028307391 -0.01668662 -0.025176575
0.007678616 -0.08296692 0.05999718 0.03452914 -0.045467105 0.0346896 0.008557717 -0.060729478
0.059327137 -0.009076418 -0.018120544 -0.10970301 0.029988194 0.056500617 -0.09255902 -0.13093044
-0.0785331 -0.012624942 -0.0126548465 0.012411961 0.04150835 0.07771126 0.05358665 0.06847585
0.046042543 -0.098342285 0.061154217 -0.1319558 -0.0565227 -0.1206607 -0.04276521 -0.07674624
0.05717825 0.012156593 -0.06554718 -0.11116192 0.036322087 -0.074221 -0.04756087 -0.11642719
0.033292208 -0.11026745 -0.042491302 -0.092022315 -0.043426253 -0.083227634 -0.044318758 -0.062901825
-0.034783334 -0.09628516 0.026802028 -0.13327152 -0.14703685 0.06713122 -0.06655333 -0.05600389
-0.07577157 -0.054132048 -0.08399464 -0.03491828 -0.034207128 -0.013314511 -0.07102327 -0.046463322
-0.09483646 0.02586487 -0.010048251 -0.083335906 -0.12865095 -0.035182137 0.005717878 0.05636943
-0.08511831 0.044305664 -0.09051512 -0.05309629 -0.098604135 0.07281389 -0.029087445 -0.14026836
-0.11679747 0.056492776 0.03867333 -0.07767458 -0.022302425 0.06863632 -0.008216503 0.08356699
0.01861101 -0.01924595 0.045359448 -0.11350625 0.017419895 0.035967022 0.012046709 0.060248353

hidden_layer3.bias f4 [16]
00000000: a195 583f 7c0d f83e e57f 3dbd d1ce 233d
00000010: 8509 ebbd 3e5d 573d 2bb7 3dbc f2c9 10be
00000020: 31ea a6bd ee35 0c3f 6c1d 2fbe dd75 3b3f
00000030: 9dc1 903f 404e 173f 5d29 58bd ca6f b53c
0.84603316 0.48447788 -0.046264548 0.039992157 -0.11476425 0.052579157 -0.011579315 -0.14139536
-0.08150137 0.5476979 -0.17101067 0.7322672 1.1309086 0.59103775 -0.052773822 0.022148032

out_layer.weight f4 [2, 16]
00000000: c239 563f 1d7c 8dbd 8a68 8fbd 73d8 60c0
00000010: 90ed 4bbd bab0 e0bc 3bb2 a3bd 293a 5b3d
00000020: 59c7 0bbe 5393 963d 9227 9cbf 806b 943e
00000030: 39ef 203f efd5 c03e f90d de3d 2ce7 a63b
00000040: 26a9 f9be 75f6 f13e 427e 63bd 834b fabf
00000050: 4d58 e7bc ef8b 623d fbe8 053e f3ea b9bd
00000060: 81bc d33d 77a9 eb3e 7312 23be a9d2 f13e
00000070: 58b5 603c 80a4 9e3e 676c 253d e03d d23c
0.8368188 -0.06908438 -0.07002361 -3.513211 -0.049787104 -0.02742802 -0.07992979 0.053522263
-0.13650264 0.073523186 -1.2199576 0.28988266 0.62865025 0.37663218 0.10842509 0.005093476
-0.48761863 0.47258344 -0.05554033 -1.9554294 -0.028240347 0.055309232 0.13077156 -0.09078016
0.10338689 0.4602773 -0.15925007 0.47231033 0.013715111 0.3098488 0.040386584 0.02566427

out_layer.bias f4 [2]
00000000: 9595 da3e e7fa 083f
0.42692247 0.53507847
