models/DQNparam1.pth (torch, 45859 bytes, 8 tensors)

hidden_layer1.weight f4 [64, 126]
0	0x3e3c12ed	0.18366595
1	0x3f15f596	0.5857786
2	0x3ddd8250	0.10815871
3	0x3bd73e4f	0.006568707
4	0x3d0ddbd2	0.034633465
5	0xbee2ce92	-0.44298226
6	0x3eba3e60	0.36375713
7	0xbe1cd8a0	-0.15317011
8	0x3e596de0	0.2123332
9	0x3e267666	0.16256103
10	0xbea149a2	-0.3150149
11	0x3e9bfdae	0.3046698
12	0xbf04139a	-0.5159241
13	0xbdfcacc0	-0.12337637
14	0xbdefcb91	-0.11708749
15	0x3f1d3026	0.61401594
16	0x3e5ca87f	0.21548651
17	0xbd69141a	-0.056903936
18	0xbf548d5e	-0.8302821
19	0xbf42b29b	-0.7605378
20	0xbec43c73	-0.3832737
21	0x3e600a0c	0.21878833
22	0x3e71365e	0.23555896
23	0x3d817607	0.0632134
24	0x3e518487	0.20460711
25	0xbe2be3ed	-0.16786166
26	0xbebf9020	-0.37414646
27	0xbe88f1c6	-0.26746958
28	0x3df789c7	0.12086826
29	0x3ebacad6	0.36482877
30	0x3d96021e	0.073246226
31	0xbeb2a48b	-0.3489116
32	0x3ec9e9b7	0.39436123
33	0xbe4bfe82	-0.19921306
34	0xbe315582	-0.17317775
35	0x3ee93fbe	0.45556444
36	0xbdebadec	-0.11507782
37	0xbe9e9c40	-0.30978584
38	0x3e196c1e	0.1498265
39	0xbe02f4fe	-0.1278877
40	0xbdcc82b6	-0.09985869
41	0xbf1254a2	-0.5716039
42	0x3e1e438f	0.15455459
43	0xbe6bb634	-0.23018724
44	0x3e899cd1	0.26877454
45	0x3e808158	0.2509868
46	0x3c038e0c	0.008029472
47	0x3e07fe0e	0.13280508
48	0xbea25426	-0.31704825
49	0x3d5217a7	0.051292088
50	0x3ecf7872	0.4052158
51	0xbea2ac5c	-0.31772125
52	0xbea8d86e	-0.32977623
53	0xbedef00c	-0.43542516
54	0xbe1b4dbf	-0.15166377
55	0xbeac9077	-0.33703968
56	0x3e918017	0.28418037
57	0x3e204fa3	0.15655379
58	0xbecd9680	-0.40153885
59	0x3dc41a19	0.0957529
60	0xbeaa21c4	-0.33228886
61	0x3e9a4e0a	0.30137664
62	0xbd5b0b43	-0.053477537
63	0x3cc40751	0.02392927
64	0xbdbb1a02	-0.0913582
65	0x3db91266	0.09036712
66	0x3ae965d6	0.0017806839
67	0x3cf20abb	0.029546132
68	0xbe18ce9f	-0.1492257
69	0xbe1a88b1	-0.15091206
70	0x3e7c25de	0.2462382
71	0x3e942c06	0.28939837
72	0x3e841316	0.2579581
73	0x3dae0798	0.08497542
74	0x3de4fa67	0.11180573
75	0x3df67ae5	0.12035159
76	0x3cba096d	0.022709573
77	0x3e44bfbb	0.19213764
78	0x3e584db9	0.21123399
79	0x3e99a411	0.30007985
80	0x3e9fdbfe	0.31222528
81	0x3e5071dd	0.20355935
82	0x3deb8434	0.11499825
83	0xbcd26dba	-0.025687087
84	0x3cb59d76	0.02216981
85	0xbe47b097	-0.19500957
86	0xbdfbd170	-0.122958064
87	0xbc818be5	-0.015813777
88	0xbe94f5f4	-0.29093897
89	0xbef56169	-0.4792588
90	0xbeaebd64	-0.3412887
91	0x3e7b6fdc	0.2455439
92	0x3e05f5ed	0.13082094
93	0x3e2ecde7	0.17070733
94	0x3d217ae0	0.039423823
95	0xbcd1e788	-0.025623098
96	0xbcb03511	-0.021509679
97	0xbcbe26d7	-0.02321188
98	0x3ebdfcb3	0.37106857
99	0x3eb2d09d	0.34924784
100	0x3e63d91b	0.22250788
101	0x3e29ed89	0.16594519
102	0x3df3bec0	0.11901617
103	0xbd9c799c	-0.07640383
104	0xbdb17583	-0.08664992
105	0xbc40e70a	-0.011773834
106	0x3d5be4d5	0.053685028
107	0xbe2fa57d	-0.17152973
108	0xbe26c773	-0.16287021
109	0x3e0d46c7	0.1379653
110	0xbcba6dba	-0.0227574
111	0x3db63dbe	0.08898495
112	0x3e4ff1c6	0.20307073
113	0x3e54dff8	0.20788562
114	0x3e1e3f9b	0.15453951
115	0x3e8d30c6	0.27576274
116	0xbd636827	-0.05551925
117	0xbeb58a9d	-0.35457316
118	0xbe7190e1	-0.23590423
119	0x3e655e6e	0.22399303
120	0x3db63425	0.088966645
121	0x3e4f4144	0.2023974
122	0x3e86cea3	0.26329526
123	0x3e068dfa	0.13140097
124	0x3bd82303	0.0065959706
125	0x3d878096	0.06616323
126	0xbee77a36	-0.45210427
127	0xbe26cf93	-0.16290121
128	0xbe6fdee0	-0.23424864
129	0x3d2adfb5	0.04171725
130	0xbd371abd	-0.044703234
131	0x3f092335	0.53569347
132	0x3e88f6a5	0.26750675
133	0x3d50ee4d	0.05100851
134	0xbe9181e5	-0.28419414
135	0xbedd56c4	-0.4323026
136	0xbdf007fd	-0.11720274
137	0xbd96d2ad	-0.07364402
138	0xbe8a7c64	-0.27048028
139	0xbd992a38	-0.07478756
140	0x3d8dbfdd	0.06921361
141	0xbe32fd8d	-0.17479534
142	0xbeaec3c3	-0.3413373
143	0x3e963330	0.29335928
144	0x3ef123f9	0.47097757
145	0x3dcf9744	0.101362735
146	0x3e191cc2	0.14952376
147	0xbeb0c582	-0.34525687
148	0xbf04a197	-0.51809067
149	0xbccf039c	-0.025270276
150	0xbe1cb32d	-0.15302725
151	0x3e776f9b	0.24163668
152	0xbda0c5f7	-0.07850259
153	0x3e036f74	0.12835485
154	0xbd8c6596	-0.068553135
155	0xbe606ed9	-0.21917285
156	0x3ea4ddbf	0.3220043
157	0xbdd6ac2d	-0.10482059
158	0x3e8746c8	0.2642119
159	0x3d7bc9f6	0.0614719
160	0x3ec32148	0.3811133
161	0xbe9a486b	-0.30133376
162	0xbe2675f5	-0.16255935
163	0x3d77538d	0.060382415
164	0xbe7d9dd3	-0.24767236
165	0x3d345097	0.04402217
166	0xbe9f6806	-0.3113405
167	0x3e3425f4	0.17592603
168	0x3e39e286	0.18152818
169	0x3eda2a66	0.42610472
170	0x3e5a635d	0.21326967
171	0x3d801c91	0.062554486
172	0xbdb09dac	-0.086238235
173	0x3e3f233a	0.18665782
174	0x3e0efa69	0.13962711
175	0xbf060f03	-0.52366656
176	0xbe49fa8b	-0.19724481
177	0xbe2c9b5a	-0.16856137
178	0xbd9ecd3e	-0.077539906
179	0xbe3fae1a	-0.18718758
180	0x3da15bd7	0.07878845
181	0x3e3262cb	0.17420499
182	0x3de60568	0.112315
183	0xbdb2f6a4	-0.08738449
184	0xbda5fb0d	-0.08104525
185	0x3d05ca61	0.032663707
186	0x3dc3bcb5	0.095574774
187	0xbd5b6ee5	-0.053572554
188	0x3d036d3c	0.032086596
189	0x3e1c3db5	0.15257914
190	0x3dc24906	0.09486584
191	0x3d4937db	0.049125534
192	0x3e11cf96	0.14239344
193	0x3dec48bf	0.11537313
194	0x3d8b5f93	0.06805339
195	0x3d9b873a	0.07594152
196	0x3eb65eb3	0.35619125
197	0x3e88d0b2	0.26721722
198	0x3e8c9a2d	0.27461377
199	0x3e4cb363	0.19990306
200	0x3e18c713	0.14919691
201	0x3e46c402	0.19410709
202	0x3d8b3c30	0.06798589
203	0x3de409cf	0.11134683
204	0x3dd09383	0.10184386
205	0x3e779755	0.24178822
206	0x3e88c5a2	0.26713282
207	0x3e4a6a43	0.19767098
208	0x3e9a85ae	0.30180115
209	0x3e3ffee1	0.18749572
210	0x3e34d8f9	0.17660893
211	0x3e9b6610	0.30351305
212	0x3e9fca79	0.31209162
213	0x3dc5b2e0	0.09653258
214	0x3dedf40b	0.11618813
215	0x3e8ea3bb	0.2785929
216	0x3e215987	0.15756808
217	0x3d866b7f	0.06563472
218	0x3daa50ca	0.083161905
219	0x3dade6f0	0.084913135
220	0x3d2bb7df	0.0419234
221	0xbc71a94e	-0.014749838
222	0xbde298c7	-0.11064296
223	0xbd6b3857	-0.057426777
224	0x3e31d2ce	0.17365572
225	0x3d275aad	0.04085796
226	0xbdfd9af1	-0.12383068
227	0xbe8eefaf	-0.2791724
228	0xbe2ab570	-0.16670775
229	0xbe74c6cc	-0.2390396
230	0xbc2d9e40	-0.010596812
231	0x3ced496b	0.028965672
232	0xbda0f1dc	-0.07858631
233	0xbd89aaa5	-0.06722001
234	0xbdff0f92	-0.12454142
235	0x3beaa6b0	0.007160984
236	0xbd8ad7db	-0.067794524
237	0xbdc31925	-0.0952628
238	0xbd620031	-0.055175964
239	0x3a865786	0.0010249473
240	0xbd8727bb	-0.06599375
241	0xbe16585e	-0.14682147
242	0x3cefb8be	0.029262897
243	0xbe029723	-0.12752967
244	0xbe0269be	-0.1273565
245	0x3ea5d4ac	0.32388818
246	0x3e4a04da	0.19728413
247	0x3e37e756	0.17959341
248	0x3cb49ce6	0.022047471
249	0xbd1aa38f	-0.037753638
250	0xbdc2e154	-0.09515634
251	0xbdf17872	-0.11790551
252	0xbea6d4f5	-0.32584348
253	0xbe41bbb7	-0.18919264
254	0xbd9c32c8	-0.07626873
255	0x3d4ace0c	0.049512908

hidden_layer1.bias f4 [64]
0	0x3ec750a5	0.38928714
1	0x3ead4e76	0.33848923
2	0x3eba06a4	0.3633319
3	0x3e4082d6	0.1879991
4	0x3e91d963	0.28486165
5	0x3f248c14	0.6427624
6	0x3eb79fcb	0.358641
7	0x3e09f889	0.13473715
8	0xbe73905d	-0.23785539
9	0x3e677663	0.22603755
10	0x3ece8621	0.40336707
11	0x3d702cb6	0.05863639
12	0x3e46ef00	0.19427109
13	0x3edafcb8	0.42770934
14	0x3eae98c5	0.3410093
15	0xbe78baf6	-0.2429007
16	0x3e0ca335	0.13734134
17	0x3dd8d77a	0.10587974
18	0x3f555003	0.83325213
19	0x3f0c7736	0.548694
20	0x3e056a9a	0.13028947
21	0xbd8544f7	-0.065072946
22	0x3d3ab9b3	0.045587253
23	0x3c228afc	0.009920832
24	0x3e39ad82	0.18132594
25	0x3dfd8202	0.12378313
26	0x3e6330e2	0.22186616
27	0xbefe4e6a	-0.496692
28	0x3efbc408	0.49172997
29	0x3e6cac63	0.23112635
30	0x3e883bb5	0.26608053
31	0xbed37b46	-0.41304988
32	0x3ebb7a22	0.36616617
33	0x3d9a5675	0.075360216
34	0xbea5e808	-0.32403588
35	0x3e0cf9c3	0.13767152
36	0x3f3c3c00	0.7352905
37	0x3ec05426	0.375642
38	0x3e131720	0.1436429
39	0xbd88281e	-0.06648277
40	0xbe9d6b73	-0.3074604
41	0x3f2b29fc	0.6686094
42	0xbd86b842	-0.06578113
43	0x3d185c13	0.037197184
44	0x3e21926d	0.15778513
45	0x3f111f94	0.5668881
46	0x3e4635c4	0.19356447
47	0x3e853a77	0.26021168
48	0x3ec5c678	0.38627982
49	0xbe8e3bb4	-0.27779925
50	0x3d5ebf1d	0.05438148
51	0xbd61c282	-0.055117138
52	0x3e3bc41d	0.1833653
53	0x3eb8de62	0.36107165
54	0x3f04271b	0.5162217
55	0x3f5df634	0.867038
56	0x3ea230dc	0.31677902
57	0x3e5f01b1	0.21777989
58	0x3eba77db	0.36419567
59	0xbdedd0e5	-0.11612109
60	0xbe1f1e4f	-0.15538906
61	0x3ddfa551	0.109202035
62	0x3ec00006	0.37500018
63	0x3efbe3aa	0.4919713

hidden_layer2.weight f4 [32, 64]
0	0xbf1491da	-0.5803505
1	0x3e975c0e	0.2956242
2	0x3e619bb4	0.22032052
3	0x3d5c0bef	0.05372232
4	0xbcc60922	-0.024174277
5	0x3f8926d0	1.071497
6	0x3ee096de	0.43865103
7	0x3e0fe6bc	0.14052862
8	0x3e657e10	0.2241137
9	0xbd8608d4	-0.065446526
10	0xbde13d94	-0.10998073
11	0x3e9c72f6	0.30556458
12	0x3b3842ee	0.0028116065
13	0xbd9d24c3	-0.07673027
14	0xbef7f883	-0.48431787
15	0xbe944d08	-0.2896502
16	0x3e501ab5	0.20322688
17	0xbe88ba81	-0.2670479
18	0x3ed4e040	0.4157734
19	0xbf070efc	-0.5275724
20	0xbe79bd65	-0.24388655
21	0x3c58bdd5	0.013228853
22	0x3c8dab44	0.01729358
23	0x3f239f34	0.639148
24	0xbe880a01	-0.26570132
25	0x3e6d501b	0.23175089
26	0x3f66be93	0.90134543
27	0x3e18c39f	0.14918374
28	0x3ecf9164	0.40540612
29	0x3e8a5b7c	0.27022922
30	0x3e0ea878	0.13931453
31	0xbe11b921	-0.14230777
32	0xbcfbab3e	-0.030721303
33	0xbe07c5d6	-0.13259062
34	0x3e2e4119	0.1701702
35	0x3d00a0ac	0.03140323
36	0x3e93f9b1	0.28901437
37	0xbf151b91	-0.5824519
38	0x3e338392	0.17530659
39	0xbdafae89	-0.08578212
40	0xbe8b8b6e	-0.27254814
41	0x3e1cd362	0.15315011
42	0x3da7e6c9	0.08198316
43	0x3dd739d5	0.105090775
44	0xbd95b9e6	-0.07310848
45	0x3f2315d2	0.6370517
46	0xbeb3fcbb	-0.35153756
47	0x3ecb09af	0.39655825
48	0x3d6f374f	0.058402356
49	0xbe506d72	-0.2035425
50	0x3f294dfa	0.6613461
51	0x3c793b8e	0.015211953
52	0xbdbd9fbc	-0.092589825
53	0x3d8fb45d	0.070168234
54	0x3e76de74	0.24108297
55	0x3f15dca4	0.58539796
56	0x3d0636c6	0.03276708
57	0xbd69cf6f	-0.05708259
58	0xbd3d688d	-0.046242286
59	0xbe2d6c16	-0.16935763
60	0xbe9f00d9	-0.31055334
61	0xbf26c9ad	-0.6515148
62	0xbe1c3f67	-0.15258561
63	0x3e9be2f2	0.30446583
64	0xbd63a59d	-0.055577863
65	0xbefb77d5	-0.49114862
66	0xbfc457cb	-1.5339292
67	0x3e0f5d4e	0.14000437
68	0x3f3a4d90	0.727746
69	0xbf756cd1	-0.95869166
70	0x3ecf00bb	0.40430245
71	0x3e35fb55	0.17771657
72	0xbfb1c8e3	-1.3889431
73	0xbf81a6b3	-1.0128998
74	0x3e8b96a0	0.27263355
75	0x3ee6c873	0.45074806
76	0xbeb9441d	-0.3618478
77	0xbe37a46f	-0.1793382
78	0xbf28a0f8	-0.6587062
79	0xbffe5540	-1.9869766
80	0xbf1ec7c5	-0.62023574
81	0x3e6062cc	0.21912688
82	0xc047f4df	-3.1243207
83	0x3e93cad5	0.28865686
84	0x3d5e6a41	0.05430055
85	0x3d17cd9c	0.03706132
86	0xbf4edb2a	-0.8080317
87	0xbed73fb4	-0.4204079
88	0xbe79d4e3	-0.24397616
89	0x3e6709dc	0.22562355
90	0xbf4e06a1	-0.80478865
91	0xbd6d7bb2	-0.057979293
92	0xbe4e6ce0	-0.2015872
93	0xbf9ea4ae	-1.2394006
94	0xbebc3f0e	-0.36766857
95	0x3d8e4fbc	0.06948802
96	0x3efa580b	0.48895296
97	0xbf091233	-0.53543395
98	0xbf952143	-1.1650776
99	0x3d932762	0.07185246
100	0x3f579a3e	0.8421973
101	0xc026e1a6	-2.6075225
102	0x3dde0e0f	0.10842525
103	0xbc8ff858	-0.017574474
104	0x3e59d371	0.21272065
105	0x3e1a21f5	0.15052016
106	0x3b27a2da	0.0025579245
107	0x3d237503	0.039906513
108	0x3f4e9963	0.807028
109	0x3e75e241	0.2401209
110	0xbd5827fe	-0.052772515
111	0xbf9500d2	-1.1640875
112	0x3c156537	0.00911837
113	0xbfe97d0a	-1.8241284
114	0xc055b35a	-3.3390718
115	0xbd0ceb03	-0.034403812
116	0xbea43cdb	-0.3207768
117	0xbe56d9a3	-0.2098146
118	0x4001b5b2	2.0267148
119	0x3e8c7964	0.27436364
120	0x3c6dc947	0.01451332
121	0xbecbdcf3	-0.39817008
122	0x3e8b2e7d	0.27183905
123	0x3ca4dde7	0.020125343
124	0x3e9b1a5b	0.30293545
125	0x3e6514c3	0.22371201
126	0xbfb25a78	-1.3933859
127	0xbdb2a4b7	-0.08722823
128	0xbe2dd192	-0.16974476
129	0x3e9d641d	0.30740443
130	0x3d926bb5	0.0714945
131	0xbda6ffe0	-0.08154273
132	0x3d4fdd7b	0.05074833
133	0x3e4616a8	0.1934458
134	0x3e263519	0.16231193
135	0x3dfaf0c7	0.12252956
136	0x3e27adb6	0.16374859
137	0x3e270816	0.16311678
138	0x3bfb6ad2	0.007672646
139	0xbc2140cc	-0.009842109
140	0xbc83cc63	-0.01608867
141	0x3e854b1d	0.2603387
142	0xbce677f6	-0.028133374
143	0xbec313b0	-0.38100958
144	0x3deb77ad	0.11497436
145	0xbf02a972	-0.51039803
146	0x3f3947b6	0.7237505
147	0xbeb24797	-0.34820244
148	0xbe8ff31e	-0.2811517
149	0xbcacbd0d	-0.02108624
150	0x3e123658	0.14278543
151	0x3f0f027c	0.55863166
152	0xbe60e80c	-0.21963519
153	0xbda9e4f6	-0.08295624
154	0x3e8a1c56	0.26974744
155	0x3cc5538f	0.024087695
156	0xbd8583b5	-0.06519262
157	0x3e36e57f	0.17860983
158	0x3d21a088	0.039459735
159	0x3e075415	0.13215668
160	0xbef496c8	-0.47771287
161	0x3c6bfbdb	0.014403309
162	0xbe5cce89	-0.21563162
163	0xbd373dd8	-0.044736713
164	0x3f8b7f13	1.0898155
165	0xbea14cab	-0.31503806
166	0x3e8040e6	0.25049514
167	0x3d22ce08	0.039747268
168	0x3c474af5	0.012163867
169	0x3de1ba93	0.11021914
170	0x3d992433	0.074776076
171	0xbf204667	-0.62607425
172	0xbdb3172c	-0.08744654
173	0x3e3fa954	0.18716937
174	0x3e84c343	0.25930223
175	0x3e0f0665	0.13967283
176	0x3db74110	0.089479566
177	0xbeb2889f	-0.3486986
178	0xbd60460a	-0.054754294
179	0xbd819360	-0.06326938
180	0x3e1d28c2	0.15347579
181	0xbe895e3b	-0.26829705
182	0x3f106cba	0.56415904
183	0x3e49c9d4	0.19705898
184	0x3e6f1f98	0.23351896
185	0xbd708229	-0.05871788
186	0x3e6cb8a9	0.23117317
187	0x3da30c0e	0.079612836
188	0xbdcef00e	-0.101043805
189	0x3d57b7fe	0.052665703
190	0x3f6b198f	0.91835874
191	0x3e121f39	0.14269723
192	0x3f04713c	0.5173528
193	0xbc4fc006	-0.012680059
194	0xbf35efc0	-0.71068954
195	0xbf2fb61d	-0.6863726
196	0x3e3f5330	0.18684077
197	0xbef28ea1	-0.47374442
198	0x3e50a013	0.20373563
199	0x3e788a9c	0.24271625
200	0xbef50dcb	-0.47862086
201	0x3ee168a2	0.4402514
202	0x3f0e3cd2	0.55561554
203	0xbef7355d	-0.482829
204	0xbe94b6c9	-0.29045704
205	0xbca022ee	-0.019547906
206	0x3eda3703	0.42620096
207	0x3e5c6b6c	0.21525353
208	0x3e1c1569	0.15242542
209	0xbf24b3b1	-0.6433669
210	0x3eb04a30	0.344316
211	0xbc8a23b6	-0.016862731
212	0xbf1027d2	-0.5631076
213	0xbd24cb00	-0.04023266
214	0xbdddc16b	-0.10827907
215	0xbf14e180	-0.58156586
216	0x3f2f0b70	0.6837683
217	0xbe99fa47	-0.3007376
218	0x3f96fd21	1.1795999
219	0x3d66f2a1	0.056383733
220	0x3d62f4b9	0.055409167
221	0xbe6aac57	-0.22917305
222	0x3ec0b8ee	0.3764109
223	0x3e017e39	0.12645806
224	0x3db6c86f	0.089249484
225	0x3ee4b6aa	0.44670612
226	0xbea9c445	-0.33157554
227	0xbdc75d70	-0.09734619
228	0x3f08026d	0.531287
229	0xbf644834	-0.89172673
230	0x3ebcfe5e	0.36912817
231	0xbd1843bb	-0.037173968
232	0x3db31254	0.0874373
233	0xbd7a367c	-0.061087117
234	0x3d3f696c	0.046731398
235	0xbef886d6	-0.48540372
236	0x3ede3e87	0.4340708
237	0x3dcc15b7	0.09965079
238	0xbf0f7f60	-0.56053734
239	0xbea75410	-0.32681322
240	0x3e587ef4	0.21142179
241	0x3e3da953	0.18521623
242	0x3e8d92b5	0.2765099
243	0x3cfa7462	0.030573074
244	0x3e218826	0.15774593
245	0x3f5a19bb	0.8519551
246	0x3f4482b9	0.76761967
247	0x3e59560c	0.2122423
248	0xbd89b0ef	-0.067232005
249	0xbf3e41db	-0.7431924
250	0x3e348bfb	0.17631523
251	0xbd1c4a9b	-0.038157087
252	0xbf5bef4a	-0.85912
253	0x3eaa494e	0.33259052
254	0xbed85644	-0.42253315
255	0x3ed2522d	0.4107832

hidden_layer2.bias f4 [32]
0	0x3d494fbe	0.049148314
1	0x3ab327c7	0.0013668471
2	0x3ee2de1b	0.44310078
3	0x3e725de2	0.23668626
4	0x3e794c00	0.24345398
5	0xbee849cb	-0.453688
6	0x3ef1996a	0.47187358
7	0xbe89a47c	-0.26883304
8	0xbe2cf0bf	-0.16888712
9	0x3eb6cbff	0.35702512
10	0xbe1e383a	-0.15451136
11	0x3ef5fefb	0.48046097
12	0x3f0b8402	0.544983
13	0x3de1cd36	0.11025469
14	0x3f09c3f8	0.5381465
15	0x3eb32ef2	0.34996754
16	0xbe13f81f	-0.1445012
17	0x3d436ff4	0.04771419
18	0x3f1c1396	0.60967386
19	0xbd52dcb8	-0.051480025
20	0x3ef0be2b	0.47020087
21	0xba0f3ade	-0.0005463789
22	0x3f82c813	1.0217308
23	0x3ece8ded	0.40342656
24	0xbe737567	-0.23775254
25	0x3c09f98f	0.008421316
26	0xbcf8efb1	-0.030387731
27	0x3edc1c51	0.42990354
28	0xbc22ead6	-0.009943685
29	0xbd64c868	-0.055855185
30	0xbe0771ac	-0.13226956
31	0x3f23ed1e	0.6403369

hidden_layer3.weight f4 [16, 32]
0	0xbdc5cc52	-0.09658112
1	0xbf420518	-0.7578902
2	0x3e74a1ef	0.23889898
3	0x3e189b00	0.14902878
4	0x3e068bc1	0.1313925
5	0x3d2ef509	0.042714152
6	0x3e12626d	0.14295359
7	0xbf275933	-0.6537048
8	0xbce304f5	-0.027712325
9	0x3ed07f14	0.40721953
10	0xbfb69cff	-1.4266661
11	0x3e435750	0.19076276
12	0x3e55fbd3	0.20896845
13	0xbfea0a4c	-1.8284392
14	0x3e4aee67	0.19817506
15	0x3e48c477	0.19606195
16	0xbde1c0d3	-0.110231064
17	0xbf49f651	-0.78891474
18	0x3e96de41	0.2946644
19	0xbd3dda64	-0.04635085
20	0x3e33e367	0.17567216
21	0xbc84acbc	-0.016195647
22	0x4007b5d8	2.1204739
23	0x3ea91a49	0.33027866
24	0x3e631227	0.22174893
25	0xbd587db4	-0.052854255
26	0xbbe1bc78	-0.0068889223
27	0x3e1dae14	0.15398437
28	0xbd050840	-0.03247857
29	0xbd29120c	-0.041276976
30	0x3e1ca9f0	0.15299201
31	0x3e66364e	0.22481653
32	0x3ec82049	0.39087132
33	0xbf577106	-0.84156835
34	0x3e78128e	0.24225828
35	0x3e441a49	0.19150652
36	0x3e226b40	0.15861225
37	0x3c4f18dc	0.012640204
38	0x3e369567	0.1783043
39	0xbdd97d21	-0.106195696
40	0x3dfe3cc9	0.124139376
41	0x3ea9dd13	0.3317648
42	0xbfa97c9f	-1.3241156
43	0x3e9630c5	0.29334083
44	0x3e98a0b1	0.29810098
45	0xbd52e1dc	-0.051484928
46	0x3e8d63a6	0.27615088
47	0x3e4f5fc4	0.20251375
48	0xbd1d8622	-0.038457997
49	0xbe8e53e7	-0.27798387
50	0x3e84109d	0.25793925
51	0x3d5ea801	0.05435944
52	0x3e52b3b4	0.20576364
53	0xbd95911e	-0.073030695
54	0x4030d444	2.7629557
55	0x3e2ab989	0.16672339
56	0x3e68a685	0.22719772
57	0x3d3db760	0.04631746
58	0x3d951b1b	0.072805606
59	0x3e5075d8	0.20357454
60	0x3d5dac59	0.05411944
61	0xbc67a6a8	-0.014138855
62	0x3e61e095	0.22058327
63	0x3e844102	0.25830847
64	0x3ee7c0e8	0.45264363
65	0x40b7cf15	5.7440286
66	0xbd1426ca	-0.036169805
67	0x3e85c5d7	0.26127502
68	0x3d16d4c2	0.036823995
69	0x3f3bd481	0.7337113
70	0x3d0ba9c2	0.03409744
71	0x3e8b951f	0.27262208
72	0xbc1b5dc6	-0.009482807
73	0x3e279a34	0.16367418
74	0x3fdc229a	1.719806
75	0xbe379d2d	-0.17931052
76	0xbd36664e	-0.04453116
77	0x3f8afd64	1.0858579
78	0x3ddf0029	0.108887024
79	0xbd6842b7	-0.05670425
80	0x3dc2f7d8	0.09519929
81	0x40671a2b	3.6109722
82	0xbdad2938	-0.084551275
83	0x3d229171	0.039689485
84	0xbe208072	-0.15673998
85	0xbe39ae68	-0.18132937
86	0x3e26d430	0.1629188
87	0x3ea6d697	0.32585594
88	0x3ee5f4cc	0.44913328
89	0xbda53952	-0.080675736
90	0x3d0e6085	0.034760017
91	0xbe8d2739	-0.27568987
92	0x3c41a823	0.011819872
93	0xbdcb09fb	-0.09914013
94	0xbcbad265	-0.022805402
95	0xbdb5e77f	-0.08882045
96	0x3d16812f	0.036744293
97	0xbd91eef5	-0.071256556
98	0xbd26e186	-0.04074242
99	0xbe11e8aa	-0.1424891
100	0xbdd35d91	-0.10320581
101	0xbd4b2dd2	-0.049604245
102	0xbdc9ef3a	-0.09860082
103	0xbc53a7ed	-0.012918455
104	0xbd569dec	-0.0523967
105	0x3ce1b0c9	0.027550118
106	0xbd9c40dc	-0.076295584
107	0xbe1db5a1	-0.15401317
108	0xbe252327	-0.16126691
109	0xbdfb739a	-0.122779086
110	0xbc9d12f0	-0.01917407
111	0xbd7b5549	-0.06136063
112	0xbd1b104e	-0.037857346
113	0xbdbdf825	-0.092758454
114	0xbd812716	-0.06306283
115	0xbd2772f4	-0.040881112
116	0xbbccb112	-0.0062466944
117	0x3ca1a233	0.019730663
118	0xbc525938	-0.012838654
119	0x3d66c1a3	0.05633701
120	0xbdf13bc3	-0.11778977
121	0x3d91c9fe	0.07118605
122	0x3db33547	0.08750396
123	0xbcf17c3e	-0.029478189
124	0xbaaf1763	-0.001335841
125	0x3ce222da	0.02760451
126	0xbdcd4935	-0.10023729
127	0xbd076074	-0.03305097
128	0xbd5302f6	-0.051516496
129	0xbaf7f364	-0.001891714
130	0x3b9fc57a	0.004875836
131	0xbd7e13eb	-0.062030714
132	0xbda523bc	-0.080634564
133	0x3d7f7f10	0.062377036
134	0xbdcac464	-0.0990074
135	0xbcb08fbe	-0.021552917
136	0xbd702a10	-0.058633864
137	0x3d2b78a2	0.04186309
138	0xbdc082ca	-0.09399946
139	0xbceb253e	-0.028704282
140	0xbddd993a	-0.10820241
141	0xbcfe7011	-0.031059297
142	0x3d588e4f	0.05287009
143	0xbc84d479	-0.016214596
144	0x3cbbffaf	0.022949068
145	0xbd66c145	-0.05633666
146	0x3d62223a	0.055208422
147	0x3cc96ec3	0.024588948
148	0x3aa9a2d3	0.0012942202
149	0xbd10d815	-0.035362322
150	0xbd8f5546	-0.069986865
151	0xbc19514b	-0.009357761
152	0xbcd5d0d6	-0.026100557
153	0xbd6353bb	-0.055499773
154	0x3d30a037	0.043121543
155	0xbdfbf049	-0.1230169
156	0xbde35aa9	-0.111012764
157	0x3c906e12	0.01763061
158	0xbc211cc5	-0.009833519
159	0xbdd234b4	-0.102639586
160	0x3e850df8	0.2598722
161	0xbed196f3	-0.40935478
162	0x3e9c7fab	0.30566153
163	0x3d9bf1d7	0.07614487
164	0x3e68af49	0.22723116
165	0xbdb11f9e	-0.086486086
166	0x3e11371e	0.14181182
167	0xbefb9388	-0.49135995
168	0x3ca23f19	0.019805478
169	0x3eb51403	0.3536683
170	0xbf8b84e2	-1.0899928
171	0x3e430e3f	0.19048403
172	0x3e4d29ef	0.20035528
173	0xc02851e7	-2.629999
174	0x3e5cfd9c	0.2158112
175	0x3eb0bf43	0.3452092
176	0xbd90d8c8	-0.07072598
177	0xbec895c6	-0.39176768
178	0x3e914978	0.28376365
179	0x3decd9cd	0.1156498
180	0x3e42edaf	0.19035982
181	0xbda68b50	-0.081320405
182	0x4019e17a	2.404387
183	0x3eb0729c	0.3446244
184	0x3e0b23da	0.13587895
185	0x3db0efba	0.08639474
186	0x3cd5ed83	0.026114231
187	0x3e9dbf9a	0.30810243
188	0xbc84dffe	-0.016220089
189	0xbdcf2d04	-0.10116008
190	0x3e6d5b7e	0.23179433
191	0x3e16fed8	0.14745653
192	0x3e9c415d	0.30518618
193	0xbfa72c11	-1.3060323
194	0x3daf0642	0.085461155
195	0x3ee557f0	0.44793653
196	0x3dd03409	0.10166175
197	0xbc4730d4	-0.012157638
198	0x3970cadc	0.00022963755
199	0xbc433395	-0.011914154
200	0xbc6f8a82	-0.014620425
201	0x3ee3abe4	0.4446708
202	0xbfd7a5f6	-1.6847522
203	0x3e0b5a04	0.13608557
204	0x3e9333f2	0.2875057
205	0xbe3113f4	-0.17292768
206	0x3e959018	0.29211497
207	0x3ce8f510	0.028437167
208	0x3e20d771	0.15707184
209	0x3ecd6e53	0.40123233
210	0x3e128516	0.14308581
211	0xbda1d49f	-0.079018824
212	0x3dce4c07	0.10073095
213	0x3b73a7a1	0.0037178772
214	0x4003715b	2.0537937
215	0x3dd78921	0.10524202
216	0x3e888c03	0.2666932
217	0xbd506a3b	-0.05088256
218	0x3c592476	0.013253322
219	0x3e34960a	0.1763536
220	0x3c8a4cf3	0.016882395
221	0x3cfa9a47	0.030591143
222	0x3d274ac2	0.04084278
223	0x3d7b7228	0.061388165
224	0x3cacb17c	0.021080725
225	0x3d691183	0.056901466
226	0xbdd54770	-0.10414016
227	0xbdc8446c	-0.097786754
228	0x3d644fc9	0.05574015
229	0xbc391e1c	-0.011298683
230	0xbddf37da	-0.10899325
231	0xbd00d620	-0.031454206
232	0xbd8057e9	-0.062667675
233	0xbddac3b2	-0.10681857
234	0x3d87cc02	0.06630708
235	0x3d1d42e5	0.038393874
236	0xbe037276	-0.12836632
237	0xbdde1c5e	-0.10845254
238	0xbde7bb98	-0.113150775
239	0xbdd455c3	-0.1036792
240	0x3d3a5b93	0.04549749
241	0xbdeca890	-0.11555588
242	0x3c26e442	0.010186257
243	0x3bf04073	0.0073319017
244	0xbd8810d0	-0.06643832
245	0xbdb76a6d	-0.08955846
246	0xbcb2eab6	-0.021840435
247	0xbdd9241b	-0.1060259
248	0x3d805174	0.06265536
249	0xbc2cb675	-0.010541548
250	0x3d3b7d5a	0.04577384
251	0x3d8c17d1	0.0684048
252	0xbd634f38	-0.05549547
253	0xbce7f1b6	-0.028313499
254	0xbd6ecb4d	-0.05829935
255	0xbe026c26	-0.12736568

hidden_layer3.bias f4 [16]
0	0x3f13207b	0.57471436
1	0x3f29b0db	0.66285485
2	0xbf1d4b6d	-0.61443216
3	0xbddfce51	-0.109280236
4	0x3c96bd0f	0.018400697
5	0x3f6829da	0.9068886
6	0x3ea3f139	0.32019976
7	0x3d0d442f	0.034488853
8	0xbed7b9d7	-0.42133972
9	0xbe075823	-0.13217215
10	0x3f0b371c	0.54380965
11	0xbe01f371	-0.12690522
12	0x3e3dbd46	0.18529233
13	0xbdcd5de5	-0.100276746
14	0x3f5ee7d3	0.87072486
15	0xbd0b211a	-0.033967115

out_layer.weight f4 [2, 16]
0	0x3f081f62	0.53172886
1	0x3eaaa54c	0.33329237
2	0xbfebbb05	-1.8416449
3	0x3d4a96ad	0.049460102
4	0xbd6c0942	-0.057626016
5	0x3f1d2a09	0.61392266
6	0x3e60d38d	0.219557
7	0xbc768367	-0.015045977
8	0xc065946a	-3.5871835
9	0x3de5909a	0.11209221
10	0x3ea060fa	0.31323987
11	0xbd83311f	-0.064058535
12	0x3e5c9c17	0.21543919
13	0xbdf58a83	-0.1198931
14	0xc02aca99	-2.6686156
15	0xbdc6c389	-0.09705264
16	0x3e4952c6	0.19660482
17	0x3e887494	0.26651442
18	0x3f161835	0.58630687
19	0xbd4c91ff	-0.04994392
20	0x3cab05de	0.020876821
21	0x3dc9832b	0.098394714
22	0x3f099830	0.53747845
23	0x3d2a56c1	0.04158664
24	0xc04f2a09	-3.2369406
25	0xbde8c1b6	-0.113650724
26	0x3ea79683	0.3273202
27	0x3db87afe	0.09007834
28	0x3f0ab39f	0.5418033
29	0xbae8fc65	-0.0017775415
30	0xbf8ec189	-1.1152812
31	0x3c39924e	0.011326386

out_layer.bias f4 [2]
0	0x3f35e87e	0.7105788
1	0x3d7564e8	0.059910685
