models/DQNparam3.pth (torch, 45859 bytes, 8 tensors)

hidden_layer1.weight f4 [64, 126]
000000 db 5c 89 be 33 2e 2f 3e dc cb 37 3d e3 db bc 3d
       -0.26828656 0.17107467 0.04487215 0.092216276
000010 c2 82 36 3d 3a d8 56 3e a4 d5 71 3c d6 14 d5 bc
       0.044558294 0.20980921 0.014760409 -0.026010912
000020 b2 8e 8a 3d 9f 00 d8 3b cb d7 6b 3e 67 fe c5 3e
       0.06765498 0.006591871 0.23031537 0.38670656
000030 ff 5d 67 3d d2 f6 7a bd 42 ba 15 3c 91 e2 99 3e
       0.056486126 -0.061270542 0.009138646 0.3005567
000040 7d 43 00 3e 3b ba 97 3e 26 b9 ae bd 42 85 f4 bd
       0.12525745 0.2963427 -0.08531408 -0.119394794
000050 e5 08 ad 3e df b1 f9 bd af 9a e0 3e 80 7d 91 bd
       0.33795848 -0.12192129 0.43868014 -0.07104015
000060 61 b5 19 3f 40 66 00 3f 00 65 13 bd 22 06 06 3e
       0.6004239 0.5015602 -0.035984993 0.13088277
000070 a8 9c 10 be 4c a6 36 3e 90 d7 92 3e ad c6 69 3d
       -0.1412226 0.17836875 0.28680086 0.057074238
000080 09 ac e8 be 68 a2 b5 bd 1d fb 00 3e e2 31 c3 3e
       -0.45443752 -0.08868867 0.12595792 0.38123995
000090 be 69 14 bd c3 5c 03 be dd f1 3e 3d c8 8b 85 bd
       -0.036233656 -0.12828355 0.046617378 -0.06520802
0000a0 e0 b3 8b bd 4d b7 11 be e0 9d 9b 3e 91 a7 44 3e
       -0.06821418 -0.1423008 0.30393887 0.19204547
0000b0 da 19 ca bc d4 d9 42 bd 75 69 85 be 94 c3 8b be
       -0.02467053 -0.04757102 -0.2605702 -0.27297652
0000c0 ad ac 98 bd e6 7b a4 3d 94 c8 36 be eb 4d 6d bf
       -0.0745481 0.08031444 -0.17849952 -0.9269702
0000d0 66 b0 ab 3e 7a 25 07 3f a6 93 6a bf 0e 9c f1 bd
       0.3353302 0.5279156 -0.91631544 -0.11797343
0000e0 4d 9b 05 3f f6 9a 71 bd 07 70 6e bb a2 9c 37 bc
       0.52190095 -0.058985673 -0.0036382691 -0.011206778
0000f0 21 c8 ab 3e 96 7a 65 be 8d ea 3b be 44 ce e9 bd
       0.33551124 -0.22410044 -0.18351193 -0.11416295
000100 c9 71 fc bd fa 59 78 3c 90 a9 bd bc b8 18 ef bb
       -0.1232639 0.015158171 -0.023152143 -0.007296648
000110 2e 7b bb bd 2a 8a 5b bd 48 1d 2a 3d b0 46 40 3c
       -0.09154354 -0.05359856 0.04153183 0.011735603
000120 78 d3 bb bc 2d 41 0a bd ef 18 13 be 03 84 7e bd
       -0.022927985 -0.033753563 -0.1436498 -0.062137615
000130 30 b9 69 be 4b e4 7b 3e 67 d6 9a 3e e1 32 07 3e
       -0.2282455 0.24598806 0.302417 0.13203003
000140 5b dc 6c 3e 2f 37 2b bd 83 67 4c bd 89 9e c0 be
       0.23130934 -0.041800674 -0.049903404 -0.37620953
000150 67 bf 22 3e 58 6c 10 3e 0b 78 23 3d 7c d7 82 3d
       0.15893327 0.1410383 0.039909404 0.06388757
000160 e3 0f 84 3d b6 94 a3 3d 75 4a c1 3d e9 f9 b4 be
       0.06448343 0.07987349 0.0943803 -0.35346916
000170 0b e0 8f be 50 46 1d be 5b 25 e9 bc 2e dd 6a bd
       -0.2810062 -0.15358853 -0.028460195 -0.05733984
000180 81 58 b8 be d1 23 d0 be bb 37 46 3d 27 0b 96 bd
       -0.36005023 -0.40652326 0.048392992 -0.07326346
000190 91 7c 85 bc db 6c 18 3d 18 4d bd 3b fc 93 09 3e
       -0.01629475 0.037213188 0.0057770126 0.13435358
0001a0 63 bd 12 3e 51 c3 01 be df 5e 14 be 0f 0b be 3c
       0.14330058 -0.12672164 -0.14489315 0.023198633
0001b0 33 06 dc 3d a9 dd ec 3d 4a 2b a0 bd e2 f9 b6 bc
       0.1074337 0.11565716 -0.07820757 -0.02233595
0001c0 09 45 aa bc b0 af ca 3d 1a 83 95 3e 05 8e 84 3e
       -0.020784872 0.09896791 0.29201585 0.25889602
0001d0 35 c1 86 3e ed 06 00 3e c8 52 1a be df ad be be
       0.2631928 0.12502642 -0.15070641 -0.37242028
0001e0 18 16 a5 be 00 d0 06 be 67 6b fc bd a8 37 06 be
       -0.3224342 -0.13165283 -0.12325173 -0.13107169
0001f0 fd d5 77 be 7c 35 df be b9 81 67 bd bb 75 a5 bc
       -0.24202724 -0.43595493 -0.056520198 -0.02019774
000200 0d 6d d4 bc 32 0e d5 bc fd c2 49 bd bc 98 1b bd
       -0.025930906 -0.026007745 -0.04925822 -0.037987456
000210 ec 8f a2 bc 96 61 70 bc 88 70 c8 bc b4 fc ac ba
       -0.019844018 -0.014671704 -0.024467722 -0.001319787
000220 2d 34 a2 3c 38 85 8f bd f0 63 e8 bc 5e 1c d2 3b
       0.01980027 -0.07007831 -0.028367966 0.006412073
000230 44 72 1c bd fd 1f 75 bd 28 f3 8c bd 1c 85 af bb
       -0.03819491 -0.05984496 -0.06882316 -0.005356444
000240 4b 0b 2e bd 69 da 96 3a b4 1f 96 bd 2d d4 be bc
       -0.04249124 0.0011509183 -0.07330266 -0.023294533
000250 9c 20 8b 3c 6e 7f 55 bd 14 1b 0f bb 24 ff 93 bd
       0.016983323 -0.05212348 -0.0021836208 -0.072263986
000260 ff 5b 8d bb 58 8d 66 bc 04 33 b1 3c dc 48 50 bd
       -0.0043139453 -0.014071785 0.021630771 -0.050850734
000270 d0 60 2e bd f6 28 02 3c 82 4f f7 bc ff d8 87 bd
       -0.042572796 0.007944336 -0.03018928 -0.066331856
000280 11 59 6e bd dc fc 2a bd 08 5d 51 bd 4f 0f 45 bd
       -0.05819041 -0.04174505 -0.051114112 -0.048110303
000290 d7 1e f3 bc c7 6f ed bc ca 70 0b bb 83 93 75 3c
       -0.029677792 -0.028983964 -0.0021276944 0.014988783
0002a0 16 2d 70 bd b4 3f 1f bd 2f 2e 0d bb 32 2f af 3c
       -0.058636747 -0.03887911 -0.002154242 0.02138481
0002b0 bf 99 73 bd 88 d4 48 bd 8f 95 8b bd 65 03 05 3c
       -0.059472796 -0.04903081 -0.068156354 0.008118485
0002c0 f2 c7 94 3c a2 f0 6b bd 4b 21 0f bd 7b e7 23 bd
       0.018161748 -0.057602532 -0.03494386 -0.04001568
0002d0 66 f2 12 bd f2 1f 59 bd 18 cc e7 bc 64 b8 39 3c
       -0.0358757 -0.05300898 -0.028295562 0.011335466
0002e0 e1 21 8e bc 96 4a 82 bb 05 8e 26 bc a0 80 28 3c
       -0.01735014 -0.0039761765 -0.010165696 0.010284573
0002f0 58 61 a3 bb 7c 7a 9c bc 83 42 3c bc bf fa ee bb
       -0.0049859695 -0.019101374 -0.011490467 -0.007293075
000300 af 35 81 3c 6d b3 1c bd de 9c 8f 3c 9d d7 f5 bc
       0.015772669 -0.03825705 0.017530855 -0.030010039
000310 d6 0c 92 3c 1c c5 31 bd 21 fb 4b 3c bf 33 3d bd
       0.017828386 -0.04340087 0.0124500105 -0.046191927
000320 a0 21 6b bd df 1f 39 bd 16 4f 88 3c a8 eb b3 ba
       -0.057405114 -0.04519641 0.016639274 -0.0013726847
000330 32 3c e5 bc 14 93 aa 3c 1f 2f f0 bc 4c 90 7d bd
       -0.027982805 0.020822085 -0.029319344 -0.06190519
000340 64 da 0b bd f9 47 51 bd 62 90 80 39 16 54 a5 bc
       -0.03414382 -0.05109403 0.00024521636 -0.020181697
000350 a9 d2 1c bd d5 db 43 bd 4b d6 17 bd 4a 3d 42 bd
       -0.03828684 -0.04781707 -0.0370696 -0.04742173
000360 5b c8 ad 3c bd 76 4a bc 49 14 06 3c 4d ba 64 bd
       0.021213701 -0.012357411 0.008183547 -0.055841733
000370 c9 4e 05 3b 9e d6 73 bc 98 f4 c9 bc 85 41 dc bb
       0.002034115 -0.014882712 -0.024652764 -0.0067216777
000380 40 32 b6 bb 34 a4 6f bd 1f 49 17 bc a8 5c 36 bd
       -0.0055601895 -0.058506206 -0.009233742 -0.044521958
000390 1f d0 1c bc 77 70 dc 3c b7 35 91 3c ef 00 00 bc
       -0.009571104 0.026909096 0.017725809 -0.007812723
0003a0 ab b1 23 3c df 21 24 3c a5 43 31 bc 80 95 42 bd
       0.00999109 0.010017841 -0.01081935 -0.047505856
0003b0 15 88 65 bc e1 8d c0 3c d6 8f 7a 3c 7e 5c d3 3b
       -0.014009495 0.023505153 0.015293082 0.006450235
0003c0 0e e2 6d bc 0e 4c 23 3a e8 2c ad bb a9 56 0b bd
       -0.014519228 0.00062292896 -0.0052848943 -0.034018192
0003d0 f5 e8 bb 3c 1d 65 5d bc 8c d0 78 bd ae d5 9e 3b
       0.022938231 -0.013512877 -0.06074576 0.00484725
0003e0 d7 55 64 3c 46 86 9b bb 1d 53 32 bd ec e8 08 bd
       0.013936481 -0.0047462313 -0.043536294 -0.033425257
0003f0 4d 45 bc be 10 8c d1 3d 19 b5 32 be ca b8 8d 3c
       -0.36771622 0.10231793 -0.17451896 0.017300028

hidden_layer1.bias f4 [64]
000000 49 62 05 3e fd bb 52 bd 85 55 3f 3e 9a 8d 32 3e
       0.13025774 -0.05144881 0.18684967 0.17436829
000010 97 94 55 bd 8c 3e 80 3f d5 e5 d5 bd a9 9a a8 bd
       -0.05214366 1.0019088 -0.104442276 -0.08232624
000020 a0 88 41 3c cc 47 0e 3f aa 8b 67 3e 3f c9 15 3f
       0.011812359 0.55578303 0.22611871 0.585102
000030 4b a9 9c 3e 32 9b 64 be 8c c6 52 bf cb 30 1f 3f
       0.3059791 -0.22324827 -0.8233421 0.6218383
000040 68 02 39 3f b5 25 66 3e 16 81 11 3b cb 69 93 3e
       0.72269297 0.22475322 0.0022202185 0.2879165
000050 3a db 28 3f 1c af 0e 3c 00 b5 87 3e cd 95 54 bb
       0.65959513 0.0087087415 0.2650528 -0.003243792
000060 94 fe 2a 3f 8c 0d 2c 3f 8e 06 2e 3f 95 5c f4 3e
       0.66794705 0.6720817 0.6797875 0.47726884
000070 bd 5d 92 3e 62 1d 91 bc 23 3a 4a 3f 1e 1f 5f 3e
       0.28587142 -0.017714206 0.7899496 0.21789214
000080 a4 78 8d bd 2d b3 58 3e 19 09 0a 3e ba 84 1c 3f
       -0.06907776 0.211621 0.13480033 0.61140025
000090 7a 8c d4 bd d9 ba c5 3e b0 da a9 3d 3e dd ae 3d
       -0.10378356 0.38619116 0.082936645 0.08538292
0000a0 8a e0 43 3d 56 e3 b9 3e b3 be 25 3f 5c 45 06 3e
       0.04782156 0.36306256 0.6474411 0.13112396
0000b0 3d ac a1 be fa cf 37 3f 98 b3 ad 3e e4 bc b5 3d
       -0.3157672 0.7180172 0.33926082 0.08873919
0000c0 89 2f 7f be 8a f9 59 3e a5 9c 7e 3e 21 1a 28 3e
       -0.24920477 0.21286598 0.24864443 0.16416217
0000d0 99 7b 15 3e ef d4 8c 3e 92 04 b6 ba 02 76 c6 3e
       0.1459793 0.27506205 -0.001388686 0.38761908
0000e0 67 9e 39 bd 41 42 c8 3e 10 bf be 3e 9f 60 88 3e
       -0.04531708 0.39113048 0.37255144 0.26636216
0000f0 7f 22 60 bd 67 ec 37 be 3e a2 86 3e 67 f0 8a 3e
       -0.054720398 -0.17961274 0.26295656 0.27136537

hidden_layer2.weight f4 [32, 64]
000000 07 d2 45 3f e2 00 7f bd a8 c7 a8 3d 9a 9b 75 3d
       0.772736 -0.0622567 0.082412064 0.059962846
000010 56 d7 49 3a 5b 82 90 3e 18 6f 94 3e b4 02 e6 3e
       0.0007699629 0.28224453 0.28991008 0.44923937
000020 19 7e ae bc 07 52 cb 3d 42 de 3b 3f 40 24 e3 3c
       -0.021300362 0.09927755 0.73386014 0.027727246
000030 83 36 cd bd 3f d1 17 3e 72 5f a2 3c 07 31 a2 3e
       -0.10020163 0.14825915 0.019820902 0.3167803
000040 7f 2b af be b6 a3 81 3d 1d 5a 4c 3c d2 f9 15 3d
       -0.34212872 0.063300535 0.012472657 0.0366152
000050 22 82 bc 3d 97 15 96 be d3 20 32 3e 0c d3 73 bc
       0.09204508 -0.29313347 0.17395334 -0.01488186
000060 e7 50 00 3f 33 bb 6d 3e 29 32 8f 39 36 97 9b 3d
       0.5012345 0.23215942 0.00027312458 0.075972006
000070 59 dd 06 3c 94 96 cf bc 96 d9 0a 3e ad 9b 4d 3f
       0.008231484 -0.025340356 0.13559565 0.8031567
000080 60 6a bf bb 4d d1 23 3e 77 d1 49 3f 2b 37 3a 3d
       -0.0058415383 0.1599781 0.78835243 0.04546277
000090 5b 24 f5 b8 9a a3 2f 3d 29 8d c7 3d f6 db c1 bc
       -0.00011689282 0.042880632 0.09743721 -0.023664456
0000a0 42 5d 27 3e e2 8a 62 3f 04 ce 8c 3f 0c cd 31 3e
       0.16344169 0.8849317 1.1000371 0.17363375
0000b0 d0 bc d0 3d 0a 78 88 3e 13 9a 68 3f 9e 82 94 3e
       0.10192263 0.26654083 0.908601 0.29005903
0000c0 d9 dc 99 be 74 26 0a 3e 0f 87 4f bd 3c ee 84 3d
       -0.30051306 0.13491231 -0.05066591 0.06490752
0000d0 63 42 85 3f fb a5 d0 bd cf 1f 3c bd 50 ed 98 bd
       1.0410885 -0.10187908 -0.045928773 -0.07467139
0000e0 4a 1a 46 bc d5 c4 13 3e fb 86 d8 3d c8 a1 06 be
       -0.012091229 0.14430554 0.105726205 -0.13147652
0000f0 e7 f4 73 3f 63 14 1a bf 71 ab 64 3f 7c 65 fb 3e
       0.95295566 -0.6018736 0.893241 0.49100864
000100 fb f0 e0 bc f4 0b 13 bd cf df b1 bd 00 c9 0f bd
       -0.027458658 -0.03590007 -0.08685266 -0.035103798
000110 79 5f 26 3d 12 cc b0 bd 69 c2 f9 bc 07 4c d9 bc
       0.040618394 -0.08632673 -0.03048821 -0.02652551
000120 bc 85 24 3d 9c fa 99 bc 3a 8e 95 bc af 8a 64 bd
       0.0401666 -0.018796258 -0.018256295 -0.05579632
000130 6b a0 29 3d 71 61 e7 3c c2 33 a4 3c 9c e0 84 bd
       0.041412752 0.028244706 0.020044211 -0.06488153
000140 f7 fa 0b bd 7c 3b 22 bc ad ba 13 3d 36 5d 87 bd
       -0.034174886 -0.0099018775 0.0360667 -0.066095755
000150 ac aa 65 bd 42 bc 88 bc b8 34 40 bd 7c fd 22 bc
       -0.05607097 -0.01669133 -0.046925277 -0.009948131
000160 fb 95 5b bd b0 fb 99 bd 60 2b 3e 3d 63 22 b3 bc
       -0.05360983 -0.07518709 0.046428084 -0.021866983
000170 a5 a7 b4 bd 4b 27 b3 bd e3 da 7b bd 35 97 12 3c
       -0.08821038 -0.08747729 -0.061488044 0.008947183
000180 f7 9f 76 3c 40 5b f3 bc d3 ed 2b bc a9 69 01 3b
       0.015052787 -0.029706597 -0.010493713 0.0019746816
000190 b6 14 dc 3b 82 f0 35 bd fd ef b0 bc e0 0d 16 bd
       0.006716336 -0.04441882 -0.02159881 -0.036634326
0001a0 76 b6 38 3d a2 68 76 bc ca e3 b4 3b 81 35 05 bd
       0.045095883 -0.015039595 0.0055203186 -0.03252173
0001b0 c4 94 1d bd d6 b7 08 bc 59 1e a3 bd 73 23 77 bd
       -0.038471952 -0.008344611 -0.07964773 -0.06033654
0001c0 06 85 c1 bc ea f0 87 3c 77 1d dd 3c f8 28 0a bd
       -0.023623 0.016594369 0.026991589 -0.033730477
0001d0 d1 d3 63 bd ca f3 8c bd 52 cf 11 bd f7 6c 94 bd
       -0.055621926 -0.068824366 -0.035598107 -0.07247346
0001e0 58 15 33 bb e7 a1 44 bc ed 68 e4 bc 54 8e d9 3c
       -0.0027325954 -0.012001491 -0.027882064 0.026557125
0001f0 05 8d 7a bc 1f f0 ae bd 65 0c 4d bd 3f 41 21 bc
       -0.015292411 -0.08541893 -0.05006065 -0.009842216
000200 78 59 ac bd 08 09 90 bd f9 f4 83 bd 60 50 45 3d
       -0.08415502 -0.070329726 -0.06443209 0.048172355
000210 bd 00 91 3d cf f9 c2 3d f9 6e ca 3d 7b 47 0a 3e
       0.07080219 0.095203035 0.098844476 0.1350383
000220 05 27 42 bd d2 65 b4 3d bf 0b 20 3e 6a cb b6 bd
       -0.047400493 0.08808483 0.15629481 -0.08925517
000230 15 45 9e 3d 01 98 6c bd ed 3e 06 3e 23 fa 70 bd
       0.0772802 -0.05776215 0.13109942 -0.0588323
000240 fd 60 85 bd 32 2d f1 3d b0 0b 31 bc f1 c9 1d be
       -0.0651264 0.117761984 -0.010806009 -0.15409066
000250 fd 3a 8b 3d 99 c0 9d be 67 8a f0 3c 95 bf 61 bc
       0.067983605 -0.30811003 0.02936287 -0.013778587
000260 1e d9 06 bf 74 d4 f1 bc 29 20 1b bc 36 5b 4b 3d
       -0.52675045 -0.02952025 -0.009468117 0.049647532
000270 00 fe ac bc 07 a8 08 bd 2f d4 b4 3c 91 42 c1 bd
       -0.02111721 -0.03336337 0.022073833 -0.09436525
000280 31 9d 89 bd c3 76 eb bc 6f 3a b0 3e 26 df a2 3d
       -0.06719435 -0.028743153 0.3441958 0.079527184
000290 43 5e da bc 6b 5e a4 3e b7 76 18 3c a6 c0 4b 3e
       -0.026656276 0.32103285 0.009305648 0.19897708
0002a0 7d 41 8c 3e f4 09 91 be b6 b1 b8 be ae 46 e5 3d
       0.27393714 -0.28327906 -0.36073083 0.11195122
0002b0 25 53 03 3e 9d a4 4e 3e 4c 6e 2c 3e 86 6b 33 3e
       0.12824686 0.20179982 0.1683895 0.17521486
0002c0 13 77 bd 3e da 7e af 3d 05 07 9c bd 01 4e 07 3e
       0.3700491 0.08569117 -0.07618526 0.1321335
0002d0 e4 63 8d be fc f1 0a be 19 20 e1 bc a7 36 09 be
       -0.27615273 -0.13568872 -0.027481126 -0.13399754
0002e0 41 d9 22 bd af 84 57 3e b7 84 49 3e 7f 80 f2 3c
       -0.03975797 0.21046709 0.19679533 0.029602287
0002f0 98 53 bf be 5c c8 d2 3e 5a 4b 8f be 18 76 9e 3e
       -0.37368464 0.41168487 -0.27987176 0.30949473
000300 ee f5 a6 3e d7 31 eb 3b 02 24 9b 3d 6f 75 87 3d
       0.32609504 0.007177572 0.07575227 0.066141956
000310 ad 18 98 3d 5a 82 4e 3e 21 91 51 3e ec d3 60 3e
       0.074265815 0.20166913 0.20465519 0.21955842
000320 ce d5 a7 bc 3e 48 06 3e 94 85 36 3f 53 6b 60 3e
       -0.020487692 0.13113496 0.71297574 0.21915941
000330 f1 f9 ae 3d 87 7f 33 3d 05 e2 8a bd 8b 78 34 3e
       0.08543766 0.04382279 -0.06781391 0.17624108
000340 c5 f3 57 3e b3 4b 33 3e 3e 9f f2 bb a4 05 0d 3e
       0.21089084 0.17509346 -0.007404237 0.13771683
000350 bc 7f 4d 3e ff 46 49 bd 73 0c 1b 3e ce 37 55 bd
       0.20068258 -0.049139973 0.15141468 -0.052055173
000360 eb f2 1f 3f 0c 67 1b 3e ed 1a b5 3c c1 9c ac 3d
       0.6248004 0.15176028 0.022107566 0.08428336
000370 f7 e6 94 3e 34 07 01 3d 3b 9e 8c 3e 63 44 ce 3e
       0.29082462 0.03150101 0.2746447 0.4028655
000380 4c 27 f1 3b fe 9b 98 3d a7 c9 96 3e 46 4e 0b 3e
       0.007359421 0.07451628 0.29450724 0.13604078
000390 e7 41 17 3c 2b 94 ad bd ee c1 33 3e ff 49 7b 3a
       0.009232021 -0.084755264 0.17554447 0.00095859164
0003a0 d2 27 70 bd 81 25 f6 3e 0d 6d 28 3f bd 0c 04 3e
       -0.058631726 0.48075488 0.657914 0.12895484
0003b0 76 fa 7d 3d d4 b9 5e 3d c2 2f 06 3e 9f 24 c0 3d
       0.062006436 0.05437644 0.13104156 0.09381985
0003c0 3d 10 84 bd e2 84 00 3e d2 32 10 3e 0f 09 c7 3c
       -0.0644841 0.12550691 0.14081886 0.024296312
0003d0 3a d8 4a 3f 32 b0 0d 3e 69 e6 64 3d bc d7 95 3d
       0.79236186 0.13836744 0.0558838 0.07316539
0003e0 fe 5b 9b 3d 4d 68 96 3e 58 90 c2 bc 10 ad ff 3d
       0.075859055 0.2937645 -0.02375047 0.12484181
0003f0 a8 5e ec 3e e3 fc b5 be 62 3a ee 3e 42 ac e1 3d
       0.46165967 -0.355445 0.46528918 0.11019184

hidden_layer2.bias f4 [32]
000000 ae 09 8f 3f f2 12 67 bc 74 3d 49 be d5 45 1d 3f
       1.1174829 -0.014103638 -0.19652349 0.6143468
000010 88 64 2a 3f c7 63 fe 3e 0a 34 a9 3e df f8 41 3f
       0.6655965 0.496855 0.33047515 0.7577037
000020 0e 22 22 3d 7a ff 11 3f 38 bf 3a 3f 34 b5 d0 bd
       0.03958326 0.5703045 0.72948027 -0.10190812
000030 ea 28 10 be 2b b8 92 be b8 57 1d 3d 71 c0 a9 bd
       -0.14078107 -0.28656134 0.038413733 -0.082886584
000040 3b 9f 38 bd bb 58 2d 3f ce c7 7a bd b2 fd 25 3f
       -0.04507373 0.67713517 -0.061225705 0.64840233
000050 67 77 c4 bd 63 7f 27 3f 68 19 13 bd d7 ec cc 3e
       -0.09593087 0.6542875 -0.0359129 0.40024444
000060 b5 a3 3f be 0e d4 b4 3e 08 a6 de 3e 04 5b 03 3f
       -0.18714793 0.35318035 0.43486047 0.51310754
000070 5d c1 0b bf e7 b7 31 3f 90 cd 28 3f 7c cb 88 3d
       -0.54591924 0.6942124 0.65938663 0.066794366

hidden_layer3.weight f4 [16, 32]
000000 72 f6 11 3c 53 41 17 3c fc 72 1d be 1e 8e 6a 3e
       0.008908855 0.009231883 -0.15375894 0.22905776
000010 b2 4c ba 3c a4 50 e6 3d 92 c2 ba bf 01 24 ca 3d
       0.02274165 0.1124585 -1.4590628 0.098701485
000020 15 69 e1 bd e0 f3 64 3e 9f 96 c7 3f 1f f4 2a bd
       -0.11006371 0.22358656 1.5592841 -0.04173672
000030 ac 2c 37 3f 90 55 c1 bd ce e4 b4 bd 74 5b 91 bd
       0.7155254 -0.09440148 -0.088327035 -0.070975214
000040 f0 ec 94 bd 71 06 1e 3f 18 59 5c 3d 5f ed 83 3e
       -0.07271755 0.6172858 0.053795904 0.25767037
000050 7a 53 c9 3d ed 71 57 3d bd 30 f1 bf f6 e1 84 3e
       0.09830375 0.052598882 -1.8842999 0.25953645
000060 c9 3a 81 bd f7 66 83 3e ec 72 fe 3d 7d 36 76 3e
       -0.063100405 0.25664493 0.12424263 0.24044223
000070 3f 22 d6 3d 26 db 40 3e 96 fb 6a 3f 18 41 cd 3e
       0.10455751 0.18833598 0.9179014 0.40088725
000080 4b 9d a4 3c 9f b3 5d bd c8 77 21 3d e0 7a b8 3d
       0.020094534 -0.05412638 0.039420873 0.090078115
000090 f5 82 bb bd 4b 98 8c bd f2 69 fd bd 39 8c 34 3d
       -0.091558374 -0.06864985 -0.12373723 0.04407904
0000a0 88 48 b5 bd a0 70 0f 3b 29 d0 8d bd f8 80 70 3d
       -0.08851725 0.0021887198 -0.06924469 0.058716744
0000b0 d2 53 86 bd ff dc 8e bd 96 db da bd 4f 60 60 3c
       -0.06558956 -0.069757454 -0.10686414 0.013694837
0000c0 a5 86 9e 3d 6d 3c 4f bd 18 de f0 bc bc e1 87 3d
       0.07740525 -0.050594736 -0.029402778 0.06634852
0000d0 ea 3c 3c bd 70 f3 73 3b ff 3e 1b 3c 60 54 7a 3d
       -0.04595653 0.0037223957 0.009475469 0.061115623
0000e0 25 12 ab 3c a5 65 cc bd ba 47 e4 bd e1 c4 99 bc
       0.020882675 -0.09980325 -0.11146493 -0.018770637
0000f0 0e 63 94 3c 1a b5 82 bd 04 b1 00 bd 72 6d 0a bd
       0.01811364 -0.06382199 -0.031418815 -0.03379578
000100 e1 ff 90 bb d3 2d 83 bd eb f6 c3 bd c5 be 5a 3d
       -0.0044250344 -0.06405225 -0.0956858 0.05340459
000110 87 8e c8 bd 57 b7 1d ba ee 37 5d 3d eb ee f0 bd
       -0.0979281 -0.00060163945 0.054008417 -0.1176432
000120 cc da f7 bd 24 76 97 3b 59 7f 80 3d 2d ff cd bd
       -0.12102279 0.0046222378 0.0627429 -0.100584365
000130 86 ad ce 3c 56 e5 0c be 81 e5 6f 3d ad d7 17 bc
       0.025229227 -0.1375936 0.05856848 -0.00926773
000140 42 74 93 bd ec df fc 3c ca 90 3b bc 9b 23 c6 3c
       -0.07199909 0.030868493 -0.011448095 0.0241869
000150 70 ea 89 3c c3 d7 ab bc 58 7d ab bd 81 41 58 3d
       0.016835421 -0.020976907 -0.08373517 0.052796844
000160 c3 e3 b1 3c 73 e5 dd bc a6 46 a9 bd c3 8f 03 bd
       0.02171505 -0.027086949 -0.08265428 -0.032119524
000170 21 f8 7b 3b 15 5a ce 3c 8a 7b 58 3c f1 76 8b bb
       0.0038447457 0.025189439 0.013213048 -0.0042561223
000180 b2 c8 54 3e ea 7f a0 bd 33 d7 a9 be 1d 68 bb 3d
       0.20779684 -0.07836898 -0.33171996 0.091507174
000190 20 fb dd 3d d8 6f 3d 3e f5 f1 f2 bf 8d 80 9d 3d
       0.10838914 0.18499696 -1.898009 0.07690535
0001a0 d9 c6 0f bc 1e 20 3f 3e 41 74 88 3f 0d a5 d6 bd
       -0.008775436 0.18664595 1.0660478 -0.104807
0001b0 66 fb 09 3f ef 00 84 be a8 00 fc bc 73 31 68 bd
       0.5389923 -0.25781962 -0.030762032 -0.056687783
0001c0 e9 b8 8b 3c 0f 64 ed 3e 53 ef 32 bc e8 ba 82 3e
       0.017055945 0.463654 -0.010921317 0.25533223
0001d0 7f 95 8b 3c ec 5e 3e 3e 16 7a 01 c0 2a a5 93 3e
       0.017039059 0.18590897 -2.0230765 0.28836948
0001e0 20 c0 11 be 37 f6 81 3e af 86 61 3e 36 37 d5 3d
       -0.14233446 0.2538316 0.22024034 0.10410921
0001f0 f5 16 38 3e a8 d3 8c 3e dd ea 22 3f e5 4f ab bd
       0.17977507 0.2750523 0.6363962 -0.08364848
000200 a4 ec c8 3c 9c 23 ca bc 87 9c 30 bd c4 4d 41 bc
       0.024526902 -0.024675183 -0.043118026 -0.011798326
000210 56 be ed bd f7 a6 30 bd 3f 99 b9 3c 59 04 46 be
       -0.11608569 -0.04312798 0.022656081 -0.19337596
000220 76 e1 23 3e 24 f1 8c 3c 3b 22 fc bd 10 89 ca 3c
       0.16003975 0.017204829 -0.123112164 0.02472356
000230 85 2e 11 3d a9 8d a3 bd 7c c8 19 3c a3 37 d5 3d
       0.035444755 -0.07986004 0.009386178 0.104110025
000240 1c 8f a0 3b a7 e2 df bd 98 05 95 3d c6 7a 8c bd
       0.0048998725 -0.109319024 0.072764575 -0.06859355
000250 e6 fa 01 bd ee e5 0a be 19 a3 23 be 36 40 2f 3c
       -0.031733416 -0.13564274 -0.15980186 0.010696461
000260 be 04 93 bd 06 a7 9e bc 69 87 0a be bd 0a 1b bd
       -0.07178639 -0.019366752 -0.13528217 -0.037852038
000270 13 61 ab 3d f5 ed 09 be 31 77 b4 be 27 13 b1 be
       0.08368125 -0.1346968 -0.35247186 -0.34584925
000280 b7 48 84 bd fb 64 4a 3d 77 32 5b 3d 7c f2 b9 3c
       -0.06459182 0.04941271 0.053514924 0.022698633
000290 d2 4e bf bb 0a ca dd bc b1 77 68 3d a5 d2 c7 bd
       -0.0058382535 -0.027073879 0.05675477 -0.09756974
0002a0 a6 92 5e bd ab f5 71 3d b1 c3 64 bd 47 8d 04 bd
       -0.054339074 0.059072178 -0.05585069 -0.032361295
0002b0 b3 fc 07 be c9 a9 9f bb 0d 65 dd 3b 1a c2 f9 bb
       -0.13279991 -0.004872535 0.006756431 -0.0076220157
0002c0 9a a3 26 bc 5d 42 45 3d be 27 b8 bd 83 4a 98 bd
       -0.010170842 0.048158992 -0.08991955 -0.07436087
0002d0 b3 44 dd 3c da ab 71 3b 15 c9 c9 bd 64 51 9d bc
       0.027010297 0.0036876113 -0.098528065 -0.01920385
0002e0 f7 b3 8d bc ea b8 13 bd db 88 e9 bd 97 1f 92 bd
       -0.017297728 -0.03606502 -0.11403056 -0.071349315
0002f0 e5 1e 9a bd e5 1c 85 3d 00 7d df bc 40 3b 6f 3d
       -0.07525424 0.06499652 -0.027281284 0.058406115
000300 93 11 ad bd 8e 3c 01 3d 46 3f 03 3e a3 ab 1e be
       -0.08450618 0.03155189 0.12817106 -0.15495162
000310 42 31 2a be b4 c4 87 be 3c 87 9b c0 bd ea a3 be
       -0.16620353 -0.2651726 -4.860258 -0.3201503
000320 50 8b a4 3f 86 38 43 3e 80 ed 85 40 fd 86 d3 bd
       1.2855015 0.1906453 4.1852417 -0.10328481
000330 1c fb 25 c0 84 47 1b bf 58 6d 5b 3d be 01 4e bd
       -2.5934515 -0.60656 0.053571075 -0.05029463
000340 ad 3c e1 3b eb a6 3f 3f 03 c2 a2 3d d3 c4 23 3e
       0.006873688 0.7486407 0.07947161 0.15993051
000350 3d 20 19 3e 32 ad 26 bf 11 75 7c 40 73 11 1b be
       0.14953704 -0.65108025 3.9446452 -0.15143375
000360 41 02 84 be a6 9a 9e be c2 d5 82 be 59 13 1c be
       -0.2578297 -0.30977362 -0.2555371 -0.15241756
000370 42 f5 a4 bd 11 72 a6 be 2b f3 5d 3f fa f2 f1 3e
       -0.08054592 -0.325089 0.8669917 0.4725569
000380 5e f9 04 3e 19 df 32 3d e9 19 d9 3e 56 fb d5 3d
       0.12985751 0.043669794 0.4240258 0.10448329
000390 90 fe 43 3c 91 cf 33 3d 47 23 a4 40 57 44 a9 bd
       0.011962548 0.043899123 5.1293063 -0.08264988
0003a0 04 6a 2b 3f 3f 2e d4 3c 7a 40 ca be ef f1 a3 3d
       0.6695864 0.025900958 -0.39502317 0.080051295
0003b0 d6 e2 51 be a1 f7 ba 3e fd ed b0 bd c7 21 ea 3d
       -0.20496687 0.3651705 -0.08639143 0.11432224
0003c0 15 9d 35 3c 4c f6 8e be c7 e2 09 bd 9e b9 8c 3c
       0.011084815 -0.27922285 -0.033663537 0.017178353
0003d0 d2 3a a5 bd 94 fe 79 bd ad 97 45 40 7a 01 9f bd
       -0.0806786 -0.0610338 3.0873826 -0.077639535
0003e0 78 fd c6 3e d5 e6 8d 3c 56 e2 c4 3a 56 53 05 be
       0.38865256 0.017321983 0.0015021067 -0.13020071
0003f0 26 b3 29 3e bf 8e d1 3d 60 ba 07 bf d3 8a b4 3f
       0.16572246 0.10232305 -0.5301876 1.4104866

hidden_layer3.bias f4 [16]
000000 05 25 b3 3e e0 9c 4f bd 48 1b 4f bd 26 87 1b 3f
       0.3498918 -0.050686717 -0.050563127 0.60753095
000010 f0 fd b4 3c 2a 07 dd bb 6b 7e 05 3f 7c d2 0f be
       0.022093743 -0.006745239 0.52146024 -0.14045137
000020 84 a8 0e bf f8 44 46 3f 83 a5 a9 3e fc b5 e8 bd
       -0.55725884 0.7744899 0.33134088 -0.11362836
000030 0a 29 92 bd bf 9c dc 3f 56 30 ea bd 3d ce 96 3e
       -0.07136734 1.7235335 -0.114350006 0.29454222

out_layer.weight f4 [2, 16]
000000 ce da 92 3e 95 2d aa 3d 5c be e3 bc d5 47 a3 3e
       0.2868256 0.08309475 -0.027800731 0.3189074
000010 ee 3c 00 bd c7 23 94 bd 92 02 0b 40 3a f5 5c bf
       -0.031308107 -0.072333865 2.1720319 -0.86311686
000020 68 65 9d bf e3 5d cd 3e 64 0c 0a 3e 6c 90 8f bd
       -1.2296572 0.40110692 0.13481289 -0.07009968
000030 ed 96 ec 3b b0 43 51 3f e9 5f af 3b 28 28 38 3e
       0.00722014 0.8174391 0.0053520096 0.17984068
000040 5b f1 1f 3f f7 62 18 3d 31 c8 90 3c 1a c6 cb 3e
       0.62477654 0.037203755 0.017673584 0.39799577
000050 ff f6 1d 3e 45 17 9b bc 38 1d bc 3e 6d 47 05 bf
       0.15426253 -0.018931994 0.36741042 -0.5206211
000060 f9 a1 8e be dd 3d 84 3e 27 23 04 3f 71 7a 74 3d
       -0.2785795 0.25828448 0.5161614 0.05968708
000070 8c 7b ae bc d7 45 fb be 11 fe 57 bc 65 50 00 3f
       -0.021299146 -0.4907672 -0.013183133 0.5012267

out_layer.bias f4 [2]
000000 58 7d 27 3f 01 02 34 3e
       0.65425634 0.1757889
