models/DQNparam1.pth (torch, 45859 bytes, 8 tensors)

hidden_layer1.weight f4 [64, 126]
0.21592095 0.46345535 0.15431334 -0.021365147 -0.049212713 -0.2312605 0.2656904 -0.22583851
0.14956251 0.124448694 -0.23550855 0.20856827 -0.47459027 -0.22324967 -0.10206382 0.2473498
0.055532727 -0.0022474125 -0.7343844 -0.62960577 -0.31660485 0.3478415 0.3067903 0.095367
0.18948661 -0.15541324 -0.364409 -0.20942718 0.18361728 0.39242288 0.12514727 -0.24977796
0.45714146 -0.28979567 -0.20340148 0.5084371 0.13803972 -0.2966848 0.054077085 -0.20307706
-0.08485211 -0.5318831 0.17914917 -0.2283961 0.21911041 0.13308 -0.0956942 0.22675622
-0.19524437 0.03825638 0.42009124 -0.29775766 -0.38139147 -0.4595289 -0.37426946 -0.31557566
0.287154 0.10960662 -0.37619174 0.0627327 -0.24222223 0.23060873 -0.14256425 -0.0070212013
-0.12198562 0.051212817 -0.034252312 -0.023099134 -0.16945797 -0.106058866 0.36255467 0.3473466
0.26554066 0.07463228 0.061893817 0.02122062 -0.08728054 0.2365666 0.25577262 0.31389368
0.33108997 0.20219935 0.09854339 0.02410542 0.035251252 -0.17253529 -0.11134469 -0.07811853
-0.328764 -0.38034007 -0.26421356 0.27671853 0.20046286 0.17092288 0.035108704 -0.048240732
-0.015287131 -0.04569392 0.31375566 0.28750414 0.16946463 0.1421442 0.18276954 -0.03485801
-0.02017186 0.04652966 0.05780454 -0.14008322 -0.15426177 0.05450462 -0.046764184 0.13465919
0.22945662 0.16983049 0.07070772 0.14334197 -0.05360006 -0.32227066 -0.33620775 0.24611823
0.14861509 0.22446212 0.28131774 0.12712772 0.022110041 0.030401109 -0.30671978 -0.060160544
-0.3207117 0.012626646 -0.011585641 0.40980366 0.31969523 0.07838036 -0.32571468 -0.34416828
-0.08019668 -0.09937159 -0.41309988 -0.041292235 0.16395408 0.07588878 -0.26593885 -0.012808491
0.21843195 0.10395965 0.13555658 -0.31198955 -0.26472855 -0.1653541 -0.08390977 0.2456143
-0.09885005 0.20465045 -0.07786021 -0.11081124 0.34592128 -0.04974024 0.33443078 0.09490382
0.3384182 -0.19563562 -0.028103732 0.026046965 -0.14326549 0.22135228 -0.2266575 0.3065516
0.09290519 0.28431422 0.055177882 -0.0066789677 0.040060684 0.22800478 -0.065112226 -0.4984927
-0.23248434 -0.2139974 0.046774097 -0.2488866 0.019147886 0.00953282 -0.011163711 0.007105029
-0.084741354 0.064933635 0.092209876 -0.09540505 0.10013746 0.19789712 0.15065785 0.08428653
0.1802782 0.17103112 0.111112125 0.085557856 0.3843526 0.3099916 0.30176678 0.22904584
0.10883571 0.17385052 0.04827546 0.03591962 -0.002407868 0.08797656 0.096850656 0.06320639
0.13186006 0.020056866 0.2578981 0.34483376 0.31835532 0.13532838 0.12039715 0.2707043
0.09796186 0.0059325914 -0.01645487 0.058789704 0.021935876 -0.014725987 -0.115227535 -0.11087614
0.1894975 0.08471121 -0.03162754 -0.14361821 -0.04496833 -0.12659244 0.026464643 0.03517711
-0.07305316 -0.11208908 -0.14858715 -0.02442313 -0.073235564 -0.096686214 -0.03455387 0.027290665
0.018653246 -0.06535517 0.08469636 -0.12581353 -0.032790378 0.14066824 0.033372283 0.05796248
-0.036753446 -0.053678066 -0.104474865 -0.12824014 -0.27668002 -0.20222034 -0.056745302 0.033242803
00000000: 621a 5d3e 054a ed3e 5104 1e3e f605 afbc
00000010: 4593 49bd 8dcf 6cbe 9208 883e 3642 67be
00000020: ea26 193e f5de fe3d 2729 71be ec92 553e
00000030: 7ffd f2be 909b 64be d606 d1bd 4449 7d3e
00000040: 4976 633d 5349 13bb 9e00 3cbf d82d 21bf
00000050: 081a a2be 4818 b23e 9e13 9d3e c64f c33d
00000060: c708 423e a624 1fbe d193 babe 1474 56be
00000070: 2b06 3c3e a7eb c83e 9b26 003e cbc5 7fbe
00000080: 720e ea3e 1960 94be 7a48 50be ef28 023f
00000090: 495a 0d3e 12e7 97be ef7f 5d3d 6ff3 4fbe
000000a0: f1c6 adbd 7e29 08bf e172 373e abe0 69be
000000b0: 7b5e 603e 2046 083e 52fb c3bd c832 683e
000000c0: 24ee 47be b9b2 1c3d 3316 d73e b173 98be
000000d0: be45 c3be 5f47 ebbe 3fa0 bfbe 2293 a1be
000000e0: d905 933e 7079 e03d 349c c0be 007a 803d
000000f0: 1b09 78be b224 6c3e 5dfc 11be 1b12 e6bb
00000100: 99d3 f9bd 88c4 513d 274c 0cbd 653a bdbc
00000110: 6486 2dbe 6435 d9bd c4a0 b93e 6ad7 b13e
00000120: f2f4 873e cfd8 983d 5f84 7d3d ded6 ad3c
00000130: 24c0 b2bd 843e 723e a1f4 823e acb6 a03e
00000140: a084 a93e 590d 4f3e 1ed1 c93d bb78 c53c
00000150: 9e63 103d 17ad 30be af08 e4bd 9cfc 9fbd
00000160: c153 a8be efbb c2be 0047 87be 0dae 8d3e
00000170: 2346 4d3e 6806 2f3e 25ce 0f3d 1398 45bd
00000180: e076 7abc 8c29 3bbd 95a4 a03e be33 933e
00000190: 2388 2d3e 408e 113e f027 3b3e 46c7 0ebd
000001a0: 753f a5bc e295 3e3d 74c4 6c3d fa71 0fbe
000001b0: ccf6 1dbe 3d40 5f3d cd8b 3fbd 19e4 093e
000001c0: adf6 6a3e 0be8 2d3e 36cf 903d 3dc8 123e
000001d0: bd8b 5bbd a900 a5be 6c23 acbe 6b06 7c3e
000001e0: 8e2e 183e 66d9 653e e108 903e c52d 023e
000001f0: 1e20 b53c bf0b f93c 600a 9dbe e76a 76bd
00000200: 5334 a4be fedf 4e3c b3d1 3dbc c9d1 d13e
00000210: 18af a33e e285 a03d 13c4 a6be d336 b0be
00000220: 283e a4bd 5583 cbbd d481 d3be 0c22 29bd
00000230: 94e3 273e 946b 9b3d 2329 88be b4da 51bc
00000240: a0ac 5f3e cce8 d43d 58cf 0a3e 18bd 9fbe
00000250: 808a 87be 9652 29be e3d8 abbd 5182 7b3e
00000260: e571 cabd e38f 513e 2c75 9fbd 01f1 e2bd
00000270: 981c b13e 6cbc 4bbd 833a ab3e ef5c c23d
00000280: 2645 ad3e b454 48be cc39 e6bc 7260 d53c
00000290: 30b4 12be 2caa 623e e718 68be 55f4 9c3e
000002a0: 1445 be3d a291 913e 3402 623d 3edb dabb
000002b0: ac16 243d 167a 693e 8f59 85bd 6f3a ffbe
000002c0: 6010 6ebe 2222 5bbe 3296 3f3d 21dc 7ebe
000002d0: 07dc 9c3c 8c2f 1c3c ffe7 36bc 4ed1 e83b
000002e0: e08c adbd edfb 843d 88d8 bc3d b963 c3bd
000002f0: de14 cd3d 8ba5 4a3e 0d46 1a3e 6b9e ac3d
00000300: d99a 383e c822 2f3e c18e e33d f538 af3d
00000310: ddc9 c43e 38b7 9e3e 2d81 9a3e fe8a 6a3e
00000320: 42e5 de3d df05 323e 7dbc 453d 7420 133d
00000330: 52cd 1dbb 0e2d b43d a359 c63d 5a72 813d
00000340: 5306 073e 4c4e a43c 380b 843e 0d8e b03e
00000350: 78ff a23e 8693 0a3e c892 f63d c199 8a3e
00000360: 3aa0 c83d 2f66 c23b 5dcc 86bc 79cd 703d
00000370: deb2 b33c 4445 71bc 6afc ebbd 0813 e3bd
00000380: a20b 423e 127d ad3d e18b 01bd a710 13be
00000390: b630 38bd 73a1 01be 61cc d83c e015 103d
000003a0: e59c 95bd f68e e5bd 3b27 18be 0413 c8bc
000003b0: 87fc 95bd 6c03 c6bd 5c88 0dbd ac90 df3c
000003c0: b1ce 983c eed8 85bd 4975 ad3d 43d5 00be
000003d0: 344f 06bd 560b 103e 60b1 083d 116a 6d3d
000003e0: c88a 16bd 88dd 5bbd ebf6 d5bd 6251 03be
000003f0: 01a9 8dbe d912 4fbe c36d 68bd 9b29 083d

hidden_layer1.bias f4 [64]
0.37500694 0.30087924 0.42818147 0.26827928 0.32176024 0.6191249 0.379069 0.1643678
-0.16656062 0.28253204 0.3198714 -0.03905352 0.23583922 0.40832216 0.2603843 -0.3986111
0.16775939 0.14199673 0.73504966 0.36079514 0.02552479 -0.07560614 0.02390794 0.06055201
0.15503673 0.12920661 0.22197935 -0.3701798 0.42183045 0.19019532 0.2795601 -0.34575173
0.32466897 0.15061925 -0.2895434 0.17777263 0.81979835 0.39345056 0.21164657 -0.077244125
-0.32169843 0.6256745 -0.07642898 0.14940117 0.17316067 0.5986837 0.20487504 0.20457843
0.3262538 -0.25496104 0.056210715 -0.06403883 0.21210654 0.28700063 0.46886495 0.8288326
0.33581677 0.33471972 0.4386346 -0.07609245 -0.086695574 0.2200569 0.4155182 0.49700168
00000000: e900 c03e d80c 9a3e 9a3a db3e e75b 893e
00000010: c2bd a43e f87e 1e3f 5515 c23e 0850 283e
00000020: de8e 2abe 0aa8 903e 2fc6 a33e 95f6 1fbd
00000030: d67f 713e 9a0f d13e 1751 853e c116 ccbe
00000040: 1ec9 2b3e 9767 113e 372c 3c3f 24ba b83e
00000050: 5d19 d13c 64d7 9abd 96da c33c 6205 783d
00000060: f3c1 1e3e bd4e 043e 8e4e 633e 3588 bdbe
00000070: 29fa d73e 90c2 423e 8022 8f3e 5f06 b1be
00000080: 033b a63e ef3b 1a3e 083f 94be 070a 363e
00000090: 4ede 513f 5a72 c93e e1b9 583e 2b32 9ebd
000000a0: a8b5 a4be 342c 203f cc86 9cbd 9ffc 183e
000000b0: 0851 313e 5643 193f c3ca 513e 027d 513e
000000c0: bd0a a73e 418a 82be 353d 663d ca26 83bd
000000d0: 7532 593e bff1 923e 110f f03e 602e 543f
000000e0: 2df0 ab3e 6260 ab3e b794 e03e 5cd6 9bbd
000000f0: 738d b1bd 9956 613e cdbe d43e 0177 fe3e

hidden_layer2.weight f4 [32, 64]
-0.49765196 0.21292187 0.18841997 -0.045514688 0.007669728 0.99229115 0.26253912 0.15220957
0.17333141 -0.04697448 -0.1154531 0.3754074 -0.11858341 -0.10515332 -0.39474744 -0.19080509
0.1861108 -0.29825503 0.41810128 -0.41298875 -0.15502307 0.015370173 0.02057726 0.8093938
-0.31413972 0.3621825 1.0090152 0.15980664 0.32903636 0.33824342 0.14524171 -0.1377508
0.020813633 -0.15085165 0.13936661 -0.050079312 0.52096415 -0.42443523 0.20276041 -0.09966745
-0.29555848 0.17639868 0.09525357 0.07334296 -0.042707227 0.6529328 -0.06770008 0.2787528
0.073871434 -0.20658886 0.48284572 0.017674267 -0.10916708 0.10445134 0.32512406 0.6656943
0.015473341 -0.08257661 -0.10281538 -0.038657505 -0.40123314 -0.6563672 -0.40546617 0.27719185
-0.04269428 -0.48461267 -1.423468 0.10756757 0.6853628 -1.2115823 0.4686392 0.13468903
-1.4319185 -0.9748968 0.28570828 0.59635764 -0.46917802 -0.1356485 -0.5434593 -1.930351
-0.63513315 0.18234201 -3.3968096 0.22998525 0.14616358 0.043060347 -0.7917126 -0.59521884
-0.31324083 0.09824969 -0.8576072 -0.108052365 -0.1632514 -1.1061436 -0.36633745 0.118536
0.5885233 -0.6507083 -1.1183099 0.029437717 0.85544354 -2.853037 0.1500724 -0.020419216
-0.1977393 0.18623883 0.00297197 0.087016195 0.81727576 0.2577967 0.07757688 -1.2613016
0.01536701 -1.6912228 -2.97833 -0.03997266 -0.31239957 -0.22169855 1.8917313 0.23576668
0.004121503 -0.47570917 0.30301836 0.023382982 0.3489002 0.22067952 -0.8734373 -0.06384216
-0.08932658 0.28116745 0.07502278 -0.22306018 0.09381404 0.14974019 0.10250607 0.092441745
0.0824155 0.18989812 0.022580732 -0.005858794 -0.0062788054 0.21835108 0.0057149036 -0.31446075
0.13103563 -0.5647418 0.72654885 -0.28282982 -0.21376407 -0.024499413 0.1097286 0.50568664
-0.16723865 0.04317373 0.51722026 -0.011266884 -0.0066892533 0.15505314 0.084636346 0.0053520305
-0.34394842 0.03161816 -0.07194283 0.029798687 1.2351176 -0.07483106 0.28462207 0.046181075
0.12763202 0.11202866 0.08687991 -0.51596606 0.012305157 0.17552607 0.3938634 0.15991479
0.11183357 -0.22397472 0.074174635 -0.073510654 0.16004637 -0.21916322 0.5344037 0.144458
0.20823294 -0.07317992 0.20716172 -0.0663534 -0.19962412 0.12886696 0.69311565 0.14191662
0.48420113 -0.14265703 -0.3694715 -0.39180073 0.09273175 -0.43387163 0.06583179 0.36353338
-0.68005574 0.5524163 0.566872 -0.25108078 -0.28502995 -0.013856843 0.38578248 -0.039993692
0.21595556 -0.75545335 0.15976824 0.25341457 -0.40167433 -0.046745 0.07797979 -0.8395308
0.502824 -0.3589128 1.0469698 0.16087268 0.20340787 -0.21115907 0.3170765 0.059599645
0.17035763 0.3643034 -0.019724604 -0.0957361 0.58812684 -0.55715656 0.3025347 -0.043191228
0.1186197 -0.09775062 0.054295696 -0.33985937 0.26332515 0.12063459 -0.43044558 -0.5129391
0.22424981 0.16835321 0.19745356 0.03552187 0.18432948 0.84478164 1.033656 0.26364154
-0.06772564 -0.57742685 0.021841578 -0.0443335 -0.9194686 0.42711416 -0.49160784 0.4389014
00000000: 3dcc febe 3108 5a3e 2af1 403e 9c6d 3abd
00000010: 5752 fb3b cb06 7e3f 876b 863e d3dc 1b3e
00000020: ca7d 313e 5068 40bd ad72 ecbd 6635 c03e
00000030: dcdb f2bd a05a d7bd 561c cabe 6962 43be
00000040: d493 3e3e e2b4 98be 5f11 d63e 4373 d3be
00000050: 5ebe 1ebe 2ed3 7b3c a491 a83c 6f34 4f3f
00000060: ecd6 a0be fc6f b93e 6927 813f 5aa4 233e
00000070: 7477 a83e 3e2e ad3e 3eba 143e 8c0e 0dbe
00000080: 5a81 aa3c db78 1abe 1fb6 0e3e f71f 4dbd
00000090: e85d 053f 934f d9be 6da0 4f3e 731e ccbd
000000a0: 7153 97be dba1 343e 4e14 c33d d534 963d
000000b0: c6ed 2ebd 9b26 273f 57a6 8abd b0b8 8e3e
000000c0: e849 973d 088c 53be 8e37 f73e a0c9 903c
000000d0: fd92 dfbd 96ea d53d a976 a63e f16a 2a3f
000000e0: e583 7d3c ed1d a9bd df90 d2bd 5557 1ebd
000000f0: 6e6e cdbe ae07 28bf 4399 cfbe 17ec 8d3e
00000100: 33e0 2ebd 271f f8be 3334 b6bf 634c dc3d
00000110: f073 2f3f 2115 9bbf 7af1 ef3e eceb 093e
00000120: 1b49 b7bf d692 79bf 5b48 923e e5aa 183f
00000130: 1a38 f0be 71e7 0abe 2620 0bbf be15 f7bf
00000140: 1698 22bf ddb7 3a3e 5465 59c0 4181 6b3e
00000150: e8ab 153e 0c60 303d adad 4abf 4360 18bf
00000160: 1a61 a0be 2237 c93d 258c 5bbf 8f4a ddbd
00000170: 602b 27be 1d96 8dbf 9590 bbbe 01c3 f23d
00000180: 77a9 163f d294 26bf c724 8fbf 5e27 f13c
00000190: 59fe 5a3f 2998 36c0 94ac 193e 3346 a7bc
000001a0: 2c7c 4abe 64b5 3e3e 62c5 423b 8c35 b23d
000001b0: fc38 513f eefd 833e a1e0 9e3d 5572 a1bf
000001c0: e9c5 7b3c fd79 d8bf f59c 3ec0 5fba 23bd
000001d0: d6f2 9fbe f204 63be 4024 f23f d26c 713e
000001e0: ac0d 873b 2790 f3be 3925 9b3e ab8d bf3c
000001f0: 0ca3 b23e d0f9 613e 9699 5fbf aebf 82bd
00000200: dbf0 b6bd 2ef5 8f3e 8ba5 993d e369 64be
00000210: 9321 c03d 7e55 193e b4ee d13d 1952 bd3d
00000220: 75c9 a83d a774 423e 3afb b83c 20fb bfbb
00000230: 70be cdbb 6d97 5f3e 1644 bb3b 0001 a1be
00000240: 342e 063e eb92 10bf 1bff 393f 12cf 90be
00000250: f8e4 5abe feb2 c8bc 63b9 e03d ae74 013f
00000260: 9c40 2bbe f0d6 303d 8c68 043f bd98 38bc
00000270: 8631 dbbb 40c6 1e3e d255 ad3d 1660 af3b
00000280: 021a b0be 0b82 013d c356 93bd 601c f43c
00000290: 5518 9e3f 0741 99bd fcb9 913e 5e28 3d3d
000002a0: f8b1 023e 486f e53d 18ee b13d 5a16 04bf
000002b0: 929b 493c 1bbd 333e 77a8 c93e b4c0 233e
000002c0: 0009 e53d a159 65be dfe8 973d c18c 96bd
000002d0: 32e3 233e 536c 60be aece 083f ccec 133e
000002e0: 043b 553e 5bdf 95bd 3422 543e 4be4 87bd
000002f0: 446a 4cbe b3f5 033e 0770 313f 9752 113e
00000300: 36e9 f73e af14 12be 5e2b bdbe 1b9a c8be
00000310: 25ea bd3d 6c24 debe d1d2 863d 0c21 ba3e
00000320: 2218 2ebf 286b 0d3f 861e 113f a98d 80be
00000330: 72ef 91be d007 63bc 4885 c53e 6dd0 23bd
00000340: 7423 5d3e 6465 41bf 499a 233e 8ebf 813e
00000350: 42a8 cdbe af77 3fbd deb3 9f3d 7eeb 56bf
00000360: 13b9 003f 6bc3 b7be 1b03 863f cfbb 243e
00000370: 274a 503e 153a 58be da57 a23e c21e 743d
00000380: 3b72 2e3e fa85 ba3e 7e95 a1bc 4a11 c4bd
00000390: 7b8f 163f d0a1 0ebf d4e5 9a3e 49e9 30bd
000003a0: e3ee f23d 7a31 c8bd 2a65 5e3d 0c02 aebe
000003b0: 8ed2 863e 450f f73d 5d63 dcbe fa4f 03bf
000003c0: bea1 653e c964 2c3e 4431 4a3e 617f 113d
000003d0: dec0 3c3e 9c43 583f d74e 843f 06fc 863e
000003e0: beb3 8abd 3fd2 13bf 1ced b23c 0b97 35bd
000003f0: 4b62 6bbf b5ae da3e 06b4 fbbe afb7 e03e

hidden_layer2.bias f4 [32]
0.017903047 0.019249583 0.38859576 0.054698974 0.11546702 -0.5482241 0.44032395 -0.27822888
-0.19622438 0.32115528 -0.082888134 0.4206255 0.505677 0.11616458 0.41401514 0.3973799
-0.16789119 0.12063812 0.67654854 -0.05981296 0.4310337 0.0028463802 1.0763252 0.4660999
-0.37292805 0.00978445 -0.035306554 0.3467928 -0.011553238 -0.064896315 -0.11143918 0.6067962
00000000: 69a9 923c 4db1 9d3c 06f6 c63e 080c 603d
00000010: f979 ec3d 6a58 0cbf 2472 e13e 0474 8ebe
00000020: 0bef 48be 776e a43e 41c1 a9bd 3a5c d73e
00000030: 0c74 013f b2e7 ed3d cbf9 d33e 6175 cb3e
00000040: abeb 2bbe 1e11 f73d 4932 2d3f 6ffe 74bd
00000050: 73b0 dc3e 568a 3a3b 06c5 893f a5a4 ee3e
00000060: 6df0 bebe f54e 203c 9b9d 10bd d38e b13e
00000070: cb49 3dbc 5ce8 84bd 3a3a e4bd ff56 1b3f

hidden_layer3.weight f4 [16, 32]
-0.14245892 -0.8932274 0.22238381 0.14671123 0.11510825 0.15650621 0.16084129 -0.6638346
-0.032198064 0.38719574 -1.4675468 0.20698987 0.2041807 -1.7448361 0.18029438 0.18741919
-0.12807399 -0.8193077 0.30086944 -0.05385354 0.19302763 -0.01879764 1.9712224 0.33324948
0.23852815 -0.061409667 -0.008004018 0.15437324 -0.037735775 -0.047958367 0.14887635 0.2544897
0.34755915 -0.88353246 0.22204866 0.19125876 0.1756981 0.1697182 0.19148624 -0.10879731
0.1442336 0.31875056 -1.2672892 0.29788387 0.29433158 0.058129977 0.26447058 0.21317391
-0.044683114 -0.27502513 0.25715822 0.0631585 0.21425706 -0.08477741 2.4693363 0.15323743
0.19582593 0.053814754 0.08459047 0.21638101 0.062879674 -0.016427487 0.1979419 0.2868638
0.47437814 5.2219276 -0.045346543 0.27186215 0.08800829 0.85215235 0.014928074 0.219002
-0.011017758 0.23512964 1.6925166 -0.21879734 -0.09038728 1.0523912 0.08543092 -0.08013592
0.110608935 3.2287297 -0.113529086 0.046113912 -0.18369499 -0.10462187 0.023946742 0.35293424
0.45409647 -0.09373458 0.04038653 -0.2841433 0.013733125 -0.115187705 0.0069264397 -0.10389661
0.04269199 -0.08279067 -0.047337294 -0.1655534 -0.119911514 -0.05763357 -0.11456107 -0.015009532
-0.06087802 0.032009598 -0.08864536 -0.17894277 -0.18737084 -0.14265317 -0.022277735 -0.07129292
-0.043985195 -0.10777302 -0.07327063 -0.04749844 -0.0072578294 0.022924414 -0.014916813 0.06545617
-0.13685617 0.08270878 0.10166799 -0.03424977 -0.0015520699 0.032072786 -0.11646244 -0.038400836
-0.05985532 -0.0021979217 0.0056650736 -0.07207148 -0.093686685 0.07247391 -0.11503348 -0.025041634
-0.068124786 0.04863936 -0.10921492 -0.03335059 -0.12571692 -0.036086813 0.06142806 -0.018839223
0.026663778 -0.06545578 0.064144865 0.028569095 0.0015037121 -0.04108633 -0.08131546 -0.010872485
-0.030325381 -0.06448342 0.050101504 -0.14292936 -0.12898223 0.020484438 -0.011425243 -0.11925362
0.16473836 -0.20833595 0.28273615 0.036499705 0.21927774 0.0060486197 0.11007486 -0.5679566
0.023011344 0.32981783 -1.1467695 0.15292776 0.16035789 -2.0808322 0.1948665 0.33913264
-0.08217418 -0.99181694 0.2984641 0.13436979 0.17712939 -0.09445278 2.1860785 0.32739043
0.09788003 0.10037924 0.030341275 0.31190783 -0.018845605 -0.11753456 0.21166232 0.16146596
0.24880533 -1.546585 0.03822841 0.4393902 0.14991471 0.093930624 -0.008836353 0.0589662
-0.016987 0.43993685 -1.7432222 0.12629277 0.27814826 0.0020295123 0.22955833 0.019038936
0.18249668 0.3451983 0.105832994 -0.09180942 0.09191792 0.0044630193 1.9000264 0.07837629
0.24069822 -0.0591188 0.0153986085 0.19016728 0.019615104 0.035542864 0.00028669278 0.035984453
0.024493003 0.066111974 -0.120997064 -0.113615245 0.064762704 -0.013127571 -0.12663585 -0.0365456
-0.07281156 -0.12410906 0.07704005 0.044608597 -0.14914462 -0.12600757 -0.13146633 -0.12046144
0.052862052 -0.13426067 0.011835078 0.0085187 -0.077192485 -0.10405503 -0.025375694 -0.1231881
0.07279727 -0.012247879 0.053183146 0.07947729 -0.06447842 -0.032896552 -0.06773617 -0.14798205
00000000: c0e0 11be 8daa 64bf 95b8 633e 783b 163e
00000010: e0bd eb3d 2a43 203e 94b3 243e 10f1 29bf
00000020: 1ee2 03bd 853e c63e 93d8 bbbf 27f5 533e
00000030: bf14 513e ca56 dfbf 179f 383e d1ea 3f3e
00000040: d425 03be 26be 51bf 8f0b 9a3e 8895 5cbd
00000050: 09a9 453e 82fd 99bc 0451 fc3f ad9f aa3e
00000060: b940 743e b488 7bbd 4923 03bc 0514 1e3e
00000070: d490 1abd fe6f 44bd 0b73 183e 794c 823e
00000080: 46f3 b13e 2f2f 62bf b960 633e 56d9 433e
00000090: 34ea 333e 9cca 2d3e f814 443e 20d1 debd
000000a0: f9b1 133e 4633 a33e 8836 a2bf 3c84 983e
000000b0: a1b2 963e b319 6e3d b068 873e 434a 5a3e
000000c0: a405 37bd 18d0 8cbe 3eaa 833e 3e59 813d
000000d0: 3466 5b3e c79f adbd 9b09 1e40 46ea 1c3e
000000e0: 9886 483e dc6c 5c3d c53d ad3d fc92 5d3e
000000f0: 0fc7 803d f092 86bc 48b1 4a3e d0df 923e
00000100: b1e1 f23e 081a a740 4cbd 39bd 8431 8b3e
00000110: b13d b43d a826 5a3f e194 743c 0f42 603e
00000120: d483 34bc d3c5 703e 62a4 d83f 690c 60be
00000130: f71c b9bd c1b4 863f 68f6 ae3d 4d1e a4bd
00000140: f086 e23d 82a3 4e40 f081 e8bd f1e1 3c3d
00000150: 8a1a 3cbe fe43 d6bd f52b c43c ccb3 b43e
00000160: 557f e83e eaf7 bfbd 596c 253d 3b7b 91be
00000170: e700 613c 88e7 ebbd 30f7 e23b bfc7 d4bd
00000180: ccdd 2e3d 288e a9bd c0e4 41bd d586 29be
00000190: 2b94 f5bd 2e11 6cbd ff9e eabd 8aea 75bc
000001a0: 3b5b 79bd 7f1c 033d b38b b5bd c63c 37be
000001b0: 24de 3fbe ac13 12be cc7f b6bc 0602 92bd
000001c0: d229 34bd 1ab8 dcbd e90e 96bd b98d 42bd
000001d0: 16d3 edbb fbcb bb3c a665 74bc e20d 863d
000001e0: 0624 0cbe 3963 a93d 4f37 d03d 7d49 0cbd
000001f0: d36e cbba c15e 033d dc83 eebd 324a 1dbd
00000200: da2a 75bd 020b 10bb 15a2 b93b 369a 93bd
00000210: cede bfbd 346d 943d ac96 ebbd 1d24 cdbc
00000220: 0285 8bbd 113a 473d 12ac dfbd a19a 08bd
00000230: f0bb 00be c4cf 13bd fd9b 7b3d b754 9abc
00000240: ff6d da3c ae0d 86bd 625e 833d bc09 ea3c
00000250: 3518 c53a 244a 28bd b888 a6bd 8222 32bc
00000260: ef6c f8bc e20f 84bd 3c37 4d3d 135c 12be
00000270: eb13 04be fbce a73c f130 3bbc 3e3b f4bd
00000280: 2cb1 283e 0556 55be cbc2 903e b780 153d
00000290: 588a 603e 8033 c63b ee6e e13d 9b65 11bf
000002a0: 4982 bc3c e2dd a83e 58c9 92bf 1899 1c3e
000002b0: dc34 243e 5b2c 05c0 158b 473e cba2 ad3e
000002c0: f04a a8bd b7e7 7dbf 49d0 983e 3c98 093e
000002d0: 6861 353e 7670 c1bd b6e8 0b40 b89f a73e
000002e0: 5375 c83d a293 cd3d 448e f83c 62b2 9f3e
000002f0: 1962 9abc f6b5 f0bd 02be 583e 5557 253e
00000300: d3c6 7e3e 7ff6 c5bf 6595 1c3d c1f7 e03e
00000310: 3e83 193e b35e c03d 5ac6 10bc 8b86 713d
00000320: 5228 8bbc 673f e13e e821 dfbf e452 013e
00000330: 7369 8e3e 9101 053b 5711 6b3e 8bf7 9b3c
00000340: 69e0 3a3e d5bd b03e f8be d83d 9406 bcbd
00000350: 763f bc3d 853e 923b 1134 f33f c083 a03d
00000360: 9879 763e 8e26 72bd 724a 7c3c 36bb 423e
00000370: dbaf a03c 6595 113d 414f 9639 6f64 133d
00000380: 8da5 c83c b765 873d 4fcd f7bd 1caf e8bd
00000390: 4fa2 843d 0615 57bc d4ac 01be d7b0 15bd
000003a0: 3a1e 95bd e42c febd 2cc7 9d3d 81b7 363d
000003b0: 5eb9 18be 2108 01be 1c9f 06be 7db4 f6bd
000003c0: e185 583d a17b 09be eae7 413c 0492 0b3c
000003d0: 1817 9ebd ce1a d5bd b0e0 cfbc 0b4a fcbd
000003e0: bc16 953d 54ab 48bc 92d6 593d fdc4 a23d
000003f0: 430d 84bd 89be 06bd 43b9 8abd 9b88 17be

hidden_layer3.bias f4 [16]
0.4807629 0.5963789 -0.61470413 -0.12696925 0.021379158 0.75683755 0.2798485 0.040071476
-0.50710404 -0.15356657 0.479067 -0.14744699 0.18415312 -0.11650829 1.0519501 -0.039465286
00000000: 8e26 f63e 4aac 183f 405d 1dbf 3a04 02be
00000010: 5823 af3c 1bc0 413f 4d48 8f3e fd21 243d
00000020: 92d1 01bf 8e40 1dbe 4548 f53e 58fc 16be
00000030: a392 3c3e e69b eebd 4da6 863f 5aa6 21bd

out_layer.weight f4 [2, 16]
0.5133736 0.32635704 -1.7408643 0.057466086 -0.06695382 0.5762641 0.20256102 -0.01748143
-2.915876 0.13023639 0.30745074 -0.0744275 0.21427299 -0.13929985 -2.5493896 -0.11276232
0.21564 0.22655708 0.50572735 -0.05802821 0.024256103 0.119628236 0.51875234 0.048318163
-2.9219651 -0.13204716 0.31020796 0.10465908 0.51318425 -0.0020652679 -0.9179114 0.0131597575
00000000: 746c 033f 4518 a73e a4d4 debf 8f61 6b3d
00000010: 161f 89bd 0b86 133f 286c 4f3e 3735 8fbc
00000020: b69d 3ac0 b05c 053e 2f6a 9d3e 726d 98bd
00000030: 616a 5b3e 9fa4 0ebe 3329 23c0 eeef e6bd
00000040: bbd0 5c3e 94fe 673e 5977 013f fdae 6dbd
00000050: bcb4 c63c a6ff f43d f4cc 043f 44e9 453d
00000060: 7a01 3bc0 5f37 07be 94d3 9e3e 8057 d63d
00000070: 0b60 033f 7259 07bb 3efc 6abf 069c 573c

out_layer.bias f4 [2]
0.6365193 0.035158165
00000000: eef2 223f 0202 103d
