models/DQNparam3.pth (torch, 45859 bytes, 8 tensors)

hidden_layer1.weight f4 [64, 126]
000000 ec 24 39 bd 5c 94 a9 bd b8 a4 47 3d bc 94 7a bd
       -0.045201227 -0.082802504 0.048741072 -0.061177
000010 30 54 ac bd 56 61 ab 3d ac ee 0b 3d d0 18 84 bd
       -0.08414495 0.08368175 0.034163162 -0.06450045
000020 24 92 82 bc 8f 1a 13 bd c0 1b 8a bb b0 59 af 3d
       -0.015938826 -0.035914 -0.004214734 0.085620284
000030 58 6a 8b bd d6 a4 95 3d 50 2e b0 bb 94 fd ee 3c
       -0.06807393 0.073068306 -0.0053766146 0.02917365
000040 98 0f 1f 3d 9c 39 b2 3d c0 8d 5b bc d0 f8 d5 bc
       0.03883323 0.08702394 -0.013400495 -0.02611962
000050 80 1f b9 ba 80 d9 95 3b 8e b1 8c 3d 2f c0 8c bd
       -0.0014123768 0.004573047 0.06869803 -0.068725936
000060 e3 5a 44 bd 9f 24 8c bd a1 8d 11 bd e0 70 7c bb
       -0.04793824 -0.068429224 -0.03553546 -0.0038519427
000070 94 af af 3d ee f4 83 3d 45 ff 98 bd 71 15 05 bd
       0.08578411 0.06443201 -0.07470564 -0.03249115
000080 10 1e ab 3b f4 4f ab 3d fb a7 22 bd 70 e7 e6 bc
       0.0052220896 0.08364859 -0.03971098 -0.02818653
000090 25 3c 3a bd ec 46 f7 3c bc ca aa bc b0 de 92 3b
       -0.045467515 0.030185185 -0.020848624 0.004482113
0000a0 16 75 a5 3d 98 f4 a4 bd 54 18 ba bc 0c 0b 15 3d
       0.08078973 -0.08054465 -0.022716679 0.03638749
0000b0 80 f5 1f 3c c3 ea a3 bd 6c 35 a0 bd 88 a4 a9 bc
       0.009763122 -0.080037616 -0.078226894 -0.020708337
0000c0 5e 22 a8 3d 0c cd 91 3d 50 8d 8b bd 80 93 7c 3c
       0.0820968 0.07119188 -0.068140626 0.015416026
0000d0 20 d4 e3 bb fe ac 88 3d b6 e2 b3 3d 44 47 bb bc
       -0.0069527775 0.06673621 0.08783476 -0.02286113
0000e0 b8 41 34 bd b0 b8 2c 3d 0e ec 7b bd be 5e 0c 3d
       -0.044007987 0.04216832 -0.061504416 0.03427004
0000f0 54 54 80 bd 18 e7 78 3c 84 e1 49 3d 6e 14 a1 bd
       -0.06266084 0.015191816 0.049287334 -0.07865225
000100 75 5a ae bd 8c df 4b 3d 94 e8 49 3d cd dc 17 bd
       -0.08513347 0.049773738 0.04929407 -0.037075806
000110 e4 fb e8 bc b8 28 ab 3c dc 16 62 3d 0d 9e 69 bd
       -0.028440423 0.02089344 0.05519758 -0.057035495
000120 e0 0b f8 3b 10 58 47 bc e4 35 d3 3c 5c 5a 8a 3c
       0.007569775 -0.012166992 0.025782533 0.01688879
000130 01 be 95 bd 48 77 9a bc 7d b7 9a bd ae 43 07 3d
       -0.07311631 -0.018855706 -0.07554529 0.03302353
000140 be 84 8b 3d 9a 30 a9 3d 57 ab 30 bd 32 9e b0 bd
       0.06812428 0.08261223 -0.043132152 -0.08623923
000150 34 25 b0 bc f8 46 5b bc 64 32 a8 bc 7c f1 10 3d
       -0.021502115 -0.0133836195 -0.02053184 0.035386547
000160 00 8e 2b 3b f8 c5 55 bc fa 92 a2 3d fe 5c 58 bd
       0.0026177168 -0.013047688 0.0793819 -0.05282306
000170 3c 9e 96 3d 3b c9 24 bd de 08 b6 bd fc cf 39 3d
       0.073543996 -0.04023097 -0.0888841 0.045364365
000180 e1 82 41 bd 43 7c 96 bd 9b 57 0f bd 1d 0e 89 bd
       -0.047243956 -0.0734792 -0.034995656 -0.06692145
000190 b9 a5 17 bd 40 97 b1 3c 44 05 58 bd c4 8e d1 bc
       -0.03702328 0.021678567 -0.052739397 -0.025580771
0001a0 e0 97 1b 3d 6b 26 46 bd bb ee 74 bd 64 7a 03 bd
       0.037986636 -0.048376482 -0.059797984 -0.032099143
0001b0 b0 39 ab 3b 84 c5 99 3d 4e 70 0e 3d 00 c7 62 ba
       0.0052253827 0.07508376 0.03477507 -0.0008650869
0001c0 cc 71 17 3d c6 9d b5 bd 6e 61 92 3d 50 a0 9a 3b
       0.03697376 -0.088679835 0.071474895 0.004718818
0001d0 18 16 36 3d 1a 30 99 3d 98 2f b4 bd 38 03 73 bc
       0.044454664 0.07479878 -0.0879814 -0.01483231
0001e0 24 e7 3e 3d 77 56 16 bd f8 e1 11 bc e0 7a b2 3d
       0.04660715 -0.036703553 -0.008903973 0.08714843
0001f0 00 d1 ae 3d 5c ba e9 bc a8 77 65 3c 14 4a 7e 3d
       0.08535957 -0.028531246 0.014005579 0.062082365
000200 7c 23 73 3d 9b d8 9d bd d8 c3 a7 3d f4 b6 bd 3c
       0.059360012 -0.0770733 0.08191651 0.023158528
000210 9c 39 b0 bc be 9a 10 3d c8 ea 29 bc 7c c1 9b bc
       -0.021511845 0.035303824 -0.010370918 -0.019013159
000220 6c f3 c8 bc 64 bc 1d 3d c6 33 88 3d f4 ac af bd
       -0.024530135 0.03850974 0.066505 -0.0857791
000230 b4 6e ab bd 38 ad 8d 3c 57 ef 35 bd 4c 09 33 3d
       -0.08370724 0.017294511 -0.044417705 0.043710038
000240 c9 5d 9f bd 04 94 7f bd a6 37 a1 3d 22 6c aa bd
       -0.0778156 -0.062397018 0.07871942 -0.08321406
000250 40 da 2d bc 18 ce 5e bc a9 95 1d bd e8 ba 74 3c
       -0.010611117 -0.013598941 -0.038472805 0.01493714
000260 28 ac 32 3d 8a 29 86 3d ae 0f ac bd 32 7b a2 3d
       0.043621212 0.06550892 -0.08401428 0.07933654
000270 6b 17 1f bd 60 b6 7d bc b8 0f 13 3c c5 1b 8e bd
       -0.038840692 -0.015485376 0.008975916 -0.0693889
000280 16 1c a9 3d e0 56 50 3d 93 6f 56 bd e2 87 a4 3d
       0.0825731 0.0508641 -0.0523525 0.0803373
000290 99 ac 09 bd 77 08 96 bd 48 d6 8f bd cc e8 bd bc
       -0.033611868 -0.07325833 -0.07023293 -0.023182295
0002a0 08 cd 94 3d 00 10 cc 3a 9d ce b2 bd 10 36 3b 3d
       0.07265669 0.0015568733 -0.087308146 0.045705855
0002b0 bb 6c 99 bd 50 ca 06 bc ac ad 02 3d cc 26 9e 3d
       -0.07491442 -0.008226946 0.031903908 0.07722244
0002c0 5a e2 84 3d 34 08 b6 3d d2 46 50 bd 3b 6e 60 bd
       0.06488486 0.08888283 -0.05084879 -0.054792624
0002d0 46 88 7a bd 04 0c e7 3c b8 82 94 bc f2 73 23 bd
       -0.061165117 0.028203972 -0.018128738 -0.039905496
0002e0 40 66 7a bc ac 7c 76 bd 65 2c 02 bd 90 38 ca 3b
       -0.015283167 -0.06017749 -0.03178062 0.0061712936
0002f0 08 5a 2f bc 46 72 8a 3d 92 80 a4 3d e0 ae 67 3c
       -0.0107026175 0.06760077 0.08032335 0.014140815
000300 c0 60 58 bc 28 23 5b 3d c5 68 62 bd 43 af 57 bd
       -0.013206661 0.053500324 -0.055275697 -0.052657377
000310 18 d6 b7 bc f0 bc 74 3d dc 81 1a 3d a2 3a ae 3d
       -0.022440955 0.059750497 0.0377215 0.08507277
000320 54 44 c3 3c 74 74 9a 3d 78 56 ac bc fa bd 1e bd
       0.023836292 0.07541743 -0.021037325 -0.038755395
000330 68 85 6a 3d 10 95 b9 3b 18 30 d2 bc 7e 71 53 bd
       0.057256132 0.0056635216 -0.025657699 -0.051621906
000340 2e 4e 91 3d 60 24 89 bc 83 ec 45 bd ba b7 af bd
       0.0709499 -0.016740978 -0.04832126 -0.08579965
000350 04 f5 1b 3d f0 7f 95 bd dc a4 9b 3c 3a 1c 74 bd
       0.038075462 -0.07299793 0.01899951 -0.05959723
000360 2c 3f c0 3c 88 05 c6 bc 76 85 9a bd 04 e6 a0 bd
       0.023467623 -0.02417256 -0.07544987 -0.07856372
000370 89 1f 39 bd 88 7b cf bc 00 be 85 3c 54 92 3c 3d
       -0.04519609 -0.025327459 0.01632595 0.046037987
000380 d2 e6 85 3d 06 44 9a 3d fe a0 1b bd b9 49 96 bd
       0.06538166 0.07532506 -0.03799533 -0.0733828
000390 e4 51 8a 3d d7 56 2f bd 0c 29 ac 3c 93 09 07 bd
       0.06753901 -0.042807426 0.021015666 -0.032968115
0003a0 84 54 98 bc 34 2d 6e bd 60 ff 0c bb f1 0a 1d bd
       -0.018594988 -0.058148578 -0.002151452 -0.038340513
0003b0 68 16 f5 bc 78 af 31 3c e0 28 23 3b fd 91 9a bd
       -0.02991791 0.010845058 0.002489619 -0.07547376
0003c0 d4 1e 38 3d 24 ea c0 3c 8c b7 ad 3d e0 95 e9 bc
       0.044951275 0.023549147 0.084822744 -0.028513849
0003d0 6e 07 f9 bc b1 67 28 bd 08 18 79 bc d2 94 8f 3d
       -0.03039905 -0.041114513 -0.015203483 0.07010807
0003e0 d0 d9 29 3d 74 d4 ad bd 82 fc af bd 36 4a 08 bd
       0.041467488 -0.08487788 -0.08593084 -0.033273898
0003f0 68 e1 0e 3d 80 65 36 3d f8 4e b3 bc c6 bb a9 bd
       0.034882933 0.04453039 -0.021888241 -0.08287768

hidden_layer1.bias f4 [64]
000000 54 1f 1a 3d 64 41 3a bd 20 b5 83 3d f8 15 8c 3c
       0.037627533 -0.045472518 0.06431031 0.01710032
000010 00 29 21 bc f8 c2 6e bd b2 fe 87 3d fe 73 ac 3d
       -0.009836435 -0.058291405 0.06640376 0.08420561
000020 09 f1 68 bd 30 02 75 3d 44 4d e2 bc e0 b4 3d 3b
       -0.056870494 0.05981654 -0.027624734 0.0028946921
000030 ce 68 fb bc 30 09 76 3d 88 fa a8 bd 19 7e 3c bd
       -0.030689623 0.060067356 -0.0825091 -0.046018694
000040 15 49 64 bd 8d de 36 bd 00 1a a0 3b e8 03 42 bc
       -0.05573376 -0.044645835 0.004885912 -0.011841752
000050 f0 ed 19 bc 6a ee b5 bd f2 25 ee bc 7e c5 9a bd
       -0.009395108 -0.088833645 -0.029070828 -0.075572
000060 00 12 00 39 58 c4 a7 3c 42 7e 84 3d db 3b 51 bd
       0.00012213737 0.020479366 0.06469394 -0.051082473
000070 20 db 9e 3b 46 49 a2 3d 98 d9 5c 3d f4 2b 96 3d
       0.004847899 0.07924132 0.05391845 0.07332602
000080 3a 84 0f 3d 68 4e 74 3d 72 61 90 bd 40 56 a7 3d
       0.03503821 0.059645087 -0.07049836 0.08170748
000090 b4 70 e2 3c e0 64 0a 3d 12 a1 a3 3d 8e 7f aa 3d
       0.027641632 0.03378761 0.07989706 0.083251104
0000a0 3b fc a9 bd f2 6e 70 bd a0 24 ad 3b 0b fd 9c bd
       -0.08300062 -0.058699556 0.005283907 -0.076654516
0000b0 20 63 69 3b 25 8a 9f bd 5e 46 71 bd a6 d5 19 bd
       0.0035612062 -0.07790021 -0.058904998 -0.037557267
0000c0 d0 9b 62 3d 98 23 40 3d 34 e8 8c 3d 88 35 74 bc
       0.055324376 0.046908945 0.06880227 -0.014905341
0000d0 3a 81 ad bd 10 e1 d7 3b fc 76 a4 bc a4 9b dc 3c
       -0.08471914 0.006588109 -0.020076267 0.026929684
0000e0 80 76 96 bd b4 bb 4d 3d e4 2b 6f 3d 1a ec 82 bd
       -0.07346821 0.050227836 0.058391467 -0.06392689
0000f0 e8 58 90 3d a8 f0 93 bd d9 ac 90 bd 88 c0 85 bd
       0.070482075 -0.07223636 -0.07064218 -0.06530863

hidden_layer2.weight f4 [32, 64]
000000 e6 d7 f0 3d e0 fd 9c 3d 60 5f 2c bd 26 28 85 bd
       0.11759929 0.0766561 -0.042083144 -0.06501798
000010 40 55 c4 3c a2 5b ee bd ca 78 e7 3d 40 9c 30 3c
       0.023966432 -0.11638571 0.113023356 0.01077944
000020 62 07 99 bd fa 34 83 3d 80 a0 a2 3b c4 01 0d 3d
       -0.07472111 0.06406589 0.0049629807 0.034425512
000030 ec 82 d6 bd d0 0c 31 3c 00 5a 71 bd f2 3d f1 bd
       -0.1047419 0.010806277 -0.05892372 -0.11779393
000040 60 d8 0c bd 90 5a 75 bc 30 17 52 3c 9c d8 48 bd
       -0.03438604 -0.014975205 0.012822911 -0.0490347
000050 88 18 b1 bd 96 c2 fc bd 98 22 90 3c 56 b7 84 3d
       -0.08647257 -0.12341802 0.01759462 0.06480281
000060 d0 66 e2 3d a0 fd 54 3c b0 70 c2 bc a0 60 32 3c
       0.11054766 0.012999922 -0.023735374 0.010887295
000070 3c 08 b2 3d a8 4f b1 bc 60 bb ed bd 5c b0 85 bd
       0.08692977 -0.021644428 -0.116080046 -0.065277785
000080 90 a3 e0 3d 04 1c eb 3d e2 a7 e1 bd 60 41 25 bc
       0.10968697 0.11479953 -0.11018349 -0.010086387
000090 8a a2 ab bd f2 4e f7 3d 1c fd cc bd 18 16 30 bd
       -0.08380611 0.120756045 -0.10009214 -0.04298982
0000a0 52 59 b9 bd 68 08 0a 3d 02 9f 9b bd 76 d1 a5 bd
       -0.090502396 0.033699423 -0.07598688 -0.08096592
0000b0 80 6e 00 3d b0 8e a2 3c f0 46 95 3d 28 8b 2e bd
       0.03135538 0.01984343 0.07288921 -0.04261318
0000c0 08 c1 60 3d fe 4c e1 bd d2 29 b5 bd 08 64 fd bd
       0.05487159 -0.11001013 -0.08845867 -0.12372595
0000d0 36 8c ad bd 10 03 8a 3d c4 31 a1 3d fc 0f b4 3d
       -0.08474009 0.067388654 0.0787082 0.08792111
0000e0 36 10 cd 3d 70 b0 e4 bd 88 a4 fe bc 2c 67 04 bd
       0.100128576 -0.11166465 -0.031084314 -0.032324955
0000f0 f6 95 c3 bd e0 cc 55 bc f4 26 6b 3d fc d8 fe bd
       -0.09550087 -0.013049334 0.057410195 -0.1244373
000100 a0 95 af bd 0c e7 34 bd 88 14 6b bd 40 b0 a6 bb
       -0.085734606 -0.044165656 -0.057392627 -0.0050869286
000110 e8 77 f3 bd 06 bd 82 bd 48 b8 c7 bc 2a aa bd 3d
       -0.11888105 -0.063837096 -0.024379864 0.09260972
000120 a0 cf 10 bd 50 fd 83 3d fc d4 28 bd 62 a5 b8 3d
       -0.035354257 0.064448 -0.041218743 0.09015919
000130 2c d4 ee 3d 88 43 99 3c 10 d9 44 3d d0 1c 19 3d
       0.11661562 0.01870896 0.04805857 0.037380993
000140 9c a0 b2 3d 76 52 b9 3d 38 8c 1d bd e4 ce 8a bd
       0.0872204 0.09048931 -0.0384638 -0.067777425
000150 a0 de b7 bb a2 81 80 3d 7a f2 ab 3d ba 86 80 3d
       -0.0056112558 0.062747255 0.08395858 0.06275697
000160 88 0c e0 3c 82 97 a1 3d ee 9e b6 bd 2a 8b 9a bd
       0.027349725 0.07890226 -0.08917032 -0.07546075
000170 dc 06 2d bd 5c 96 f6 bd 0c 06 06 bd 5a 00 c9 3d
       -0.04224287 -0.120403975 -0.03272061 0.0981452
000180 bc 6b 87 3d 92 14 ac 3d 14 38 62 3d d0 48 41 3d
       0.066123456 0.08402361 0.05522926 0.04718858
000190 90 19 29 3c 48 38 05 bd 2c 6a 99 3d f2 23 8f bd
       0.010321036 -0.032524377 0.07490954 -0.06989278
0001a0 ba 36 f9 3d a8 b9 41 bd 2e a0 db bd 18 88 dd 3d
       0.121686414 -0.047296196 -0.10723911 0.108169734
0001b0 1a 74 ea 3d 00 f1 ae ba d4 2e 68 3d 38 32 1f bd
       0.11447926 -0.001334697 0.056685284 -0.03886625
0001c0 f0 35 bc 3c 98 4d 79 bd a4 2e 75 bd 90 fc 26 3d
       0.022974938 -0.060865015 -0.059858933 0.040768206
0001d0 1c 4e 60 bd e0 fb 22 bc 50 1c 51 bd d8 8c 4c 3d
       -0.05476199 -0.009947747 -0.05105239 0.049939007
0001e0 98 9d bb bd 18 a0 8b bd d0 e5 f3 bc 00 d0 9f 3b
       -0.09160918 -0.06817645 -0.02977267 0.0048770905
0001f0 10 95 30 bc 74 f4 5b 3d 92 3b d6 bd 7a 84 dd 3d
       -0.010777727 0.053699926 -0.10460581 0.108162835
000200 a4 73 20 3d 54 2e db bd ec 97 61 3d 74 c0 71 3d
       0.039172783 -0.10702196 0.055076525 0.05902143
000210 54 0f c0 3d 54 a5 0e bd a0 a5 78 bd 10 39 d3 3c
       0.093779236 -0.034825638 -0.060704827 0.025784045
000220 3a 83 c4 bd d6 b2 fc 3d 40 8b c0 bb 92 97 99 bd
       -0.09595342 0.12338798 -0.005875975 -0.07499613
000230 98 79 cb 3d ec 8d 29 bd 90 28 47 bd f0 2c 65 bd
       0.099353015 -0.041395113 -0.048622668 -0.05595106
000240 80 ba 8f ba 22 34 e1 bd 96 f8 dd 3d f0 08 db 3d
       -0.0010965616 -0.10996272 0.1083843 0.10695064
000250 74 64 fc bd 68 28 89 3d ee 6c be 3d 12 a7 83 bd
       -0.123238474 0.0669716 0.092981204 -0.064283505
000260 a8 d1 c5 bc f0 f1 14 3c fa 44 d2 bd 68 31 cd bd
       -0.024147823 0.0090908855 -0.102670625 -0.10019189
000270 94 25 7e bd 0e 7d a9 bd 88 f4 ab bc c0 1d 2d 3b
       -0.062047556 -0.082758054 -0.020990625 0.0026415437
000280 a0 19 01 bd d2 52 e3 3d d0 ee e4 bc 00 0e 0d bd
       -0.03151858 0.11099781 -0.027945906 -0.03443718
000290 00 58 25 bb f0 d2 c8 bc 50 d4 65 bd 4c 9d 54 3d
       -0.0025229454 -0.024514645 -0.05611068 0.051907822
0002a0 5a ad c3 bd 12 52 8c 3d 58 f2 e0 3d c0 77 2b 3c
       -0.095545486 0.06851591 0.109837234 0.010465562
0002b0 70 a8 85 bd 80 f1 ce bb 36 9e b2 bd 74 91 9a bd
       -0.065262675 -0.00631541 -0.087215826 -0.07547274
0002c0 7c ad e5 3d 84 b2 1f bd 7c 6a 59 bd 90 59 08 bd
       0.1121473 -0.038988605 -0.053080067 -0.03328854
0002d0 bc 3c 5e bd e2 13 93 bd f8 a3 29 3d da 1b a3 3d
       -0.05425714 -0.07181527 0.04141614 0.07964297
0002e0 00 79 07 3c f4 52 40 bd 50 42 06 3d 68 d4 05 3d
       0.008268595 -0.04695411 0.032778084 0.03267327
0002f0 ba 57 98 bd fa 79 e3 3d 68 2a b3 3c 6e ac 8e 3d
       -0.074386075 0.111072496 0.021870807 0.06966482
000300 ae fc e0 3d 52 0e ff 3d 00 22 a2 3d 44 53 d7 3d
       0.10985695 0.12453903 0.07916641 0.105139285
000310 10 fb 76 3d b0 56 cc bd c8 6e 47 bd 22 e9 ba bd
       0.060298026 -0.09977472 -0.048689634 -0.09126498
000320 f8 b4 a4 bd e0 20 8a 3c 48 23 9e 3c b8 b7 63 3d
       -0.080423295 0.01686138 0.019303933 0.05559513
000330 78 22 04 3d 5a 86 cb 3d 30 b9 df bc 60 21 fb bc
       0.032259434 0.09937735 -0.027309984 -0.030655563
000340 ba e5 b1 3d 4c ce e1 bd 70 2b 7e bd 80 64 15 3c
       0.08686395 -0.11025676 -0.062053144 0.009118199
000350 00 ab 11 ba 98 6e b9 3c 2c c7 84 bd 70 f8 a1 3d
       -0.0005556792 0.022635743 -0.064833015 0.07908714
000360 64 0b 07 3d 18 90 d3 bc e8 b0 f2 bc 94 8a 69 bd
       0.032969847 -0.025825545 -0.029625371 -0.057016924
000370 50 0c e9 bc 0a 9b e7 bd 62 1c 81 3d 18 98 d8 bd
       -0.028448254 -0.11308868 0.06304242 -0.105758846
000380 ac b3 74 bd ca 28 af 3d 1e f6 b7 bd 08 28 f2 3d
       -0.05974166 0.08552702 -0.0898249 0.118240416
000390 90 cb 06 bc 2a 52 a4 3d 28 e0 fe bc 60 cd f5 3d
       -0.008227244 0.08023484 -0.031112745 0.12002063
0003a0 80 2b 7e 3c 00 18 dd ba d8 52 bf 3c 84 47 34 3d
       0.015513301 -0.0016868114 0.023354933 0.044013515
0003b0 88 81 96 3d 90 3b 91 bd b8 1f f7 bd be 70 c9 3d
       0.07348925 -0.07091439 -0.12066597 0.09835957
0003c0 c2 25 b0 3d d8 38 b1 bc 42 52 c2 3d 9e 4a a1 3d
       0.08600952 -0.02163355 0.09488346 0.0787556
0003d0 68 a3 c6 bc 46 c1 b2 3d dc cb 5d bd a4 74 7c bd
       -0.02424784 0.0872827 -0.054149494 -0.061634675
0003e0 c0 85 f9 bc 3e bd d2 bd fc a6 37 3d 46 70 bf bd
       -0.030459285 -0.10290001 0.044836983 -0.09347586
0003f0 60 c6 5b 3c 52 1d e8 3d f0 15 66 bd 48 03 71 3d
       0.0134139955 0.113337174 -0.056173265 0.05884102

hidden_layer2.bias f4 [32]
000000 ce d2 eb bd 84 1a bd bd 00 b1 17 bd f4 b3 29 3d
       -0.11514817 -0.09233573 -0.037034035 0.041431382
000010 42 d1 b6 3d c0 ec d4 bb c4 b3 c0 bd a0 12 92 bc
       0.089266315 -0.0064979494 -0.094092876 -0.017831147
000020 8c 50 32 bd ca 38 e5 3d 96 0c c2 3d e8 18 89 3c
       -0.043533847 0.11192472 0.09475057 0.016735509
000030 50 d6 0a 3d 54 17 59 3d b8 17 89 bd f8 0b e9 3c
       0.03389579 0.053000763 -0.06693977 0.02844809
000040 90 24 af 3d 9e a6 c2 3d a0 6d f4 bd d8 23 81 bc
       0.085518956 0.09504436 -0.11934972 -0.015764162
000050 10 b8 a6 3c 5a a6 f8 bd 34 a2 c5 3d a8 09 92 bd
       0.02035144 -0.12141104 0.096500784 -0.07130748
000060 ec 84 28 3d 10 fb f8 bc 1e 7d 86 3d dc ef 20 3d
       0.04114239 -0.030393153 0.06566833 0.039291248
000070 40 21 29 bd b0 c3 25 bc 40 59 50 3b 8c 59 6a bd
       -0.041291475 -0.010117456 0.0031791478 -0.057214305

hidden_layer3.weight f4 [16, 32]
000000 82 6b f2 3d 2c 1d 8f 3d 69 ca fa bd de bd 91 3d
       0.11836912 0.06987986 -0.12245638 0.071162924
000010 9e 47 d5 3d 94 3d 29 3d 7f eb 13 3e 36 09 d2 3d
       0.104140505 0.04131849 0.14445303 0.10255663
000020 4a 80 f9 bd f0 2a 80 bc 27 ea 2a 3e f4 6f 44 bd
       -0.12182672 -0.015645474 0.16690885 -0.04795833
000030 31 52 1b 3e 08 c5 94 bc 0d 79 1f 3e 9f ca 09 3e
       0.15168072 -0.018160358 0.15573521 0.134562
000040 8d d7 14 3e f1 52 cc bd 12 32 f6 3d 54 22 21 bd
       0.14535351 -0.09976757 0.12021269 -0.03933938
000050 a1 3a 11 3e 48 6d 23 3d 04 59 1a be 37 d8 e0 bd
       0.14182521 0.03989914 -0.1507302 -0.1097874
000060 78 1d 87 bc ec b3 01 bd 7c f8 06 bd 68 6d 13 bd
       -0.016493544 -0.031665727 -0.032951817 -0.03599301
000070 7e 35 8c bd b2 d8 f0 3d 7c 6a 4a bd b9 e4 f7 bd
       -0.0684614 0.11760081 -0.049417958 -0.12104172
000080 98 0c c4 bd a6 eb 31 be 60 52 ea bc 46 1c 27 be
       -0.095727146 -0.17375049 -0.028603733 -0.16319379
000090 1c ed 1f 3d 45 20 1e 3e 27 84 2d 3e b0 7c 5c 3c
       0.039044484 0.15441997 0.16944943 0.013457462
0000a0 10 b1 db bd d2 74 fb 3d aa 5c 30 be 8a 38 da bd
       -0.10727131 0.12278141 -0.17222849 -0.10655315
0000b0 48 8b e1 bc 0f f3 22 3e 30 0e 14 bc c6 2d f3 3d
       -0.027532235 0.15913032 -0.009036586 0.11873965
0000c0 49 ef 1f 3e 97 9f 04 3e e0 21 68 3c 71 bd 9d bd
       0.15618624 0.12951504 0.014168233 -0.07702149
0000d0 34 1f 78 3d 10 69 81 bc 82 c2 e7 3d 7b 24 18 3e
       0.060576633 -0.015797168 0.11316396 0.14857666
0000e0 00 88 dc 3a f2 05 e9 3d 2e 45 9e 3d 29 c0 ed bd
       0.0016825199 0.11378087 0.07728039 -0.11608917
0000f0 c4 d3 36 bd f1 d2 dc bd fd 0f 0d 3e 58 18 18 3d
       -0.04463555 -0.107824214 0.1377563 0.03713259
000100 dc 1d 4a 3d 6c 4b 06 be 8c 9f 8e 3d 90 1b 2c bd
       0.049344882 -0.13114709 0.06964025 -0.042018473
000110 b8 0a de 3c de 7b ab 3d 6c 6a 30 be 83 ba 2a be
       0.02710472 0.08373235 -0.17228097 -0.16672711
000120 6d 3f 14 3e 59 56 de bd 9d 16 01 3e 0c 36 24 bd
       0.1447732 -0.10856313 0.12606283 -0.040090606
000130 1a d7 92 3d 06 31 11 be 83 a5 31 3e 88 6a ff 3c
       0.071699336 -0.14178857 0.17348294 0.031178728
000140 dc 2b 02 bd 2e 58 fb 3d 60 e2 59 3c cc dd 34 be
       -0.03178011 0.12272678 0.013298601 -0.17662734
000150 93 12 04 be 50 9c 19 be 90 81 69 3c 24 c1 a8 bd
       -0.1289771 -0.15001035 0.0142520815 -0.08239964
000160 fe 17 e6 bd 00 7a a1 b9 20 ef 95 3c b1 d2 c9 bd
       -0.11235045 -0.0003079921 0.0183025 -0.09854639
000170 f9 d7 2e be 44 64 08 be 2e 8f cd 3d 08 ab 1f be
       -0.17074575 -0.13319498 0.10037075 -0.15592587
000180 5c 3e 53 3d 9c 19 5f 3d 58 e7 e8 bc b8 20 15 bd
       0.051573142 0.054467782 -0.028430626 -0.036408156
000190 b8 b4 fd bd a0 19 7c 3c d0 c8 08 be dd 44 a0 bd
       -0.12387985 0.015386969 -0.13357854 -0.07825635
0001a0 a6 85 ff 3d 89 2b dc bd 10 98 75 bc 6f a9 0d be
       0.12476663 -0.10750491 -0.014989868 -0.13834165
0001b0 48 1f ef 3c b6 4c 6a bd 28 9c a4 bc ac 41 64 3d
       0.02918972 -0.057202064 -0.020093992 0.055726692
0001c0 d4 19 7c 3d a7 42 13 be 48 6b 53 3d 50 86 29 be
       0.06154807 -0.14380895 0.051615983 -0.16555142
0001d0 a1 41 02 3e fd fe 16 3e 60 5a c7 3c 78 a8 70 bd
       0.12720348 0.14745708 0.024335086 -0.058754414
0001e0 e0 70 8a 3d c3 cf 88 bd 24 5a 24 bd 35 99 09 3e
       0.067598104 -0.066802524 -0.040125027 0.1343735
0001f0 12 42 a4 3d c9 4f 30 3e 36 73 d2 3d 2d b4 fd bd
       0.080204144 0.17217936 0.10275881 -0.123878814
000200 e9 73 f6 bd 88 e3 70 3d b0 c2 bb bc 71 02 01 3e
       -0.12033827 0.05881074 -0.022919983 0.12598588
000210 b0 1f d0 3c b0 ba 86 3d 89 26 05 3e 02 1e a1 3d
       0.025405735 0.065785766 0.13002981 0.07867052
000220 a8 15 e1 bc f8 7b 02 bd 80 ed 81 ba 74 b1 0b 3d
       -0.027476147 -0.031856507 -0.00099127 0.03410478
000230 58 50 46 3d ed 62 16 be d2 04 16 be 84 e1 47 3d
       0.048416466 -0.14686175 -0.14650276 0.048799053
000240 60 70 c5 bb 80 6a eb bc 59 88 20 3e f6 a9 84 bd
       -0.006025359 -0.028737307 0.15677013 -0.0647773
000250 48 9f 73 bd 56 e3 e6 3d 5e 64 d6 bd be 50 1f be
       -0.059478074 0.1127383 -0.10468362 -0.15558144
000260 d3 99 15 3e d7 9b 12 3e b8 50 1a be f6 1c 00 be
       0.1460946 0.1431726 -0.15069854 -0.12511048
000270 2c ca 17 bd ca 14 25 be 30 03 23 bd e3 2a c0 bd
       -0.03705804 -0.16121212 -0.03979796 -0.0938318
000280 1e b2 ae bd 10 26 36 3c 12 1f f5 3d ea 87 2a be
       -0.08530067 0.011117473 0.11968817 -0.1665341
000290 22 88 8e 3d d4 cc 64 3d 2c 34 40 bd b2 a4 9c 3d
       0.06959559 0.0558594 -0.046924755 0.07648601
0002a0 22 c4 89 3d 35 57 11 3e 0c c2 c1 bd 0d 1b 8a bd
       0.067268625 0.14193423 -0.0946084 -0.06743441
0002b0 3a a7 81 bd 16 a4 8e bd b0 1f 52 3d ef 6f 01 be
       -0.06330724 -0.06964891 0.05129975 -0.12640356
0002c0 26 48 ae bd 77 18 09 3e fc 67 3b 3d 75 21 00 be
       -0.08509855 0.13388239 0.045753464 -0.12512763
0002d0 e8 da 3b 3d 73 a1 21 3e 02 d3 56 bd c5 f0 06 3e
       0.045863062 0.15784244 -0.052447326 0.13177784
0002e0 fe 8b b5 3d 74 89 ca bd a7 52 34 be db d9 c8 bd
       0.08864592 -0.09889498 -0.17609654 -0.09807178
0002f0 3c 9a 70 3d 8b 19 0a 3e ba 1f e2 bd 28 6b 2c bd
       0.05874084 0.13486306 -0.110412076 -0.04209438
000300 52 c3 8e 3d 80 40 0c be b1 8f 1a 3e e4 90 3d 3d
       0.06970848 -0.1369648 0.15093876 0.046280757
000310 82 cf 7a bd 06 ed 8f bd 40 9e 49 bb 99 d5 1c 3e
       -0.06123305 -0.070276305 -0.003076449 0.15315856
000320 14 b5 40 bd d3 02 09 3e cd 11 01 be 00 a8 25 3a
       -0.04704769 0.13379984 -0.12604447 0.00063192844
000330 ec 9f 0c be f1 29 aa bd e2 5c 2d be 70 de 11 bd
       -0.1373288 -0.08308781 -0.16929963 -0.035612524
000340 40 cd 16 bb 47 b4 0f 3e 8c c0 5f 3d 45 0e 16 3e
       -0.0023010522 0.14033614 0.054626986 0.14653881
000350 26 bb 6e bd c4 15 07 be 49 1f f5 bd 80 da 66 3c
       -0.058283947 -0.13191897 -0.11968858 0.01409018
000360 4f bc 0d 3e 50 9f 2e 3d 36 47 5d bd 6a 80 f9 bd
       0.13841365 0.0426324 -0.05402299 -0.12182696
000370 c0 b6 6d 3d 80 36 09 bc 60 e7 67 3c 98 37 a7 bc
       0.058035612 -0.00837481 0.014154285 -0.020412251
000380 3f 3a c6 bd cc a7 55 3d 70 f0 bc 3c ce 98 96 3d
       -0.09679078 0.052161977 0.023063868 0.07353364
000390 26 53 1d be 8c 60 45 3d 9f a7 d2 bd b6 1f 00 be
       -0.1536375 0.048187777 -0.102858774 -0.12512097
0003a0 86 1b cd 3d f8 76 03 bd 50 26 ba 3c ea f3 01 be
       0.10015015 -0.03209588 0.022723347 -0.12690702
0003b0 b6 79 d9 3d 80 5e de 3a 60 1d be bc dc 5c bc bd
       0.10618918 0.0016965419 -0.023207366 -0.09197399
0003c0 4a 6b 1a be a1 48 04 be 70 e0 9c bd 54 ba 0d be
       -0.1507999 -0.1291833 -0.076599956 -0.1384061
0003d0 04 45 0e be 12 01 98 3d a8 85 b3 3c 5f bc 08 3e
       -0.13893515 0.07422079 0.021914318 0.13353108
0003e0 7c e3 0b be 3e f3 29 be 90 96 07 be 8e 4c f9 3d
       -0.13660997 -0.16596696 -0.13241029 0.12172805
0003f0 8b b8 04 3e 4b da a9 bd 50 c6 16 bd a3 db 0e 3e
       0.12961023 -0.08293589 -0.03681022 0.13950972

hidden_layer3.bias f4 [16]
000000 c0 fe 53 bb 44 e8 12 3d 22 9e 99 3d 2f a2 14 be
       -0.0032347888 0.035866037 0.075008646 -0.14514993
000010 d8 6e 9b bc e5 84 31 be 60 7a f5 3c b8 7c 6f bd
       -0.018973753 -0.17335851 0.02996558 -0.05846855
000020 1b 77 16 be 49 e6 12 be 8b de 8c bd 70 ee e0 3c
       -0.14693873 -0.1434566 -0.06878384 0.027457446
000030 1f f4 29 3e f2 a6 a3 3d 94 7c 94 bd bb fb 33 be
       0.16597031 0.07990827 -0.07250324 -0.17576496

out_layer.weight f4 [2, 16]
000000 00 ce 8a ba 90 4b 5c bd 1a 13 51 3e 9c e8 65 3e
       -0.0010589957 -0.053783 0.20417443 0.22452015
000010 32 45 28 be 08 72 06 3d c4 40 76 3e b2 61 05 3e
       -0.16432646 0.032823592 0.24048144 0.13025549
000020 70 28 35 bd f4 c5 33 be b0 07 16 be b6 be 56 be
       -0.044228017 -0.17555982 -0.1465137 -0.20971188
000030 bc 06 d7 bd 64 b9 78 be 2c f6 c4 3d e0 8b fd bd
       -0.10499331 -0.24289471 0.09617266 -0.12380195
000040 ee 39 0c be 3c 03 9a bd 7e a9 2c 3e 54 2b b0 bd
       -0.13693973 -0.07520148 0.16861531 -0.08602014
000050 c4 18 6f be 62 d6 51 be 38 22 49 3d c6 2f 15 3e
       -0.23349291 -0.20491937 0.0491049 0.14569005
000060 04 1d b3 bd 40 ea 36 bd a0 e0 5f bc 94 6a a8 bd
       -0.08745769 -0.044656992 -0.013664395 -0.08223453
000070 da 63 3f 3e 30 1c 8e bc 8c c5 11 3e 30 00 d3 bd
       0.18690434 -0.017347425 0.14235514 -0.1030277

out_layer.bias f4 [2]
000000 8c db 7e 3e 1c ee a3 3d
       0.24888438 0.080044
