models/DQNparam1.pth (torch, 45859 bytes, 8 tensors)

hidden_layer1.weight f4 [64, 126]
0	0xbe0e9140	-0.13922596
1	0xbeacae46	-0.3372671
2	0xbe748e13	-0.23882322
3	0xbead6003	-0.33862314
4	0x3d58fc38	0.05297491
5	0x3e2a91e3	0.16657214
6	0x3ed6b5d4	0.419356
7	0xbd36fcb6	-0.044674598
8	0x3d432261	0.04764021
9	0xbe32e31d	-0.1746945
10	0x3ecf3046	0.40466517
11	0xbe01170a	-0.12606445
12	0xbfa72ba2	-1.3060191
13	0xbf2a5553	-0.66536444
14	0x3e118eb8	0.14214599
15	0x3f2eedd6	0.6833166
16	0xbf88640c	-1.0655532
17	0x3eeaad1d	0.458352
18	0xbebc1c14	-0.36740172
19	0xbdd97dd1	-0.10619701
20	0x3eaf3a33	0.3422409
21	0x3f7fbbfd	0.9989622
22	0x3f2324a7	0.637278
23	0xbf8ff687	-1.1247109
24	0x3e94f600	0.29093933
25	0x3f2eedba	0.6833149
26	0xbfc33d6d	-1.5253121
27	0xbf8da989	-1.1067363
28	0x3e00f1f9	0.12592305
29	0xbe9938b6	-0.2992608
30	0x3e0a374c	0.13497657
31	0x3eca8ce1	0.39560607
32	0xbecf042e	-0.40432876
33	0x3e81e40d	0.253693
34	0xbf014a50	-0.50504017
35	0x3d2a4b20	0.04157555
36	0xbec36386	-0.38161868
37	0xbe3faac3	-0.18717484
38	0x3eac6636	0.3367173
39	0xbef2a809	-0.47393826
40	0xbe6150ce	-0.22003481
41	0xbe9d9068	-0.30774236
42	0x3e208244	0.15674692
43	0x3db91f4b	0.09039172
44	0x3eaa3b24	0.33248246
45	0xbda0bca1	-0.07848478
46	0xbf423ace	-0.7587098
47	0xbd7fa043	-0.062408697
48	0x3e3fd313	0.18732862
49	0x3e308c3f	0.17241
50	0x3f5a39b0	0.85244274
51	0x3ea0a28b	0.3137401
52	0x3de50382	0.1118231
53	0xbeb37949	-0.3505347
54	0xbf350513	-0.7071087
55	0xbf8f1f7e	-1.1181486
56	0x3e007569	0.12544788
57	0xbf445815	-0.766969
58	0xbdbbeb2f	-0.09175717
59	0xbf03c0d0	-0.51466084
60	0x3e5eaa0a	0.21744552
61	0xbe3378f5	-0.1752661
62	0xbf0c5cb4	-0.54828954
63	0x3e3061b9	0.17224778
64	0xbe446994	-0.191809
65	0xbd1c0d2c	-0.0380985
66	0xbe1c5058	-0.15265024
67	0x3e88edc2	0.26743895
68	0x3e90bb83	0.2826806
69	0x3dbe3f8f	0.092894666
70	0xbe6c503a	-0.23077479
71	0xbe1cbe24	-0.15306908
72	0xbdd7215b	-0.10504409
73	0xbe13958d	-0.14412518
74	0xbe87e1d1	-0.26539472
75	0xbe065f0f	-0.131222
76	0x3ea2a3c0	0.31765556
77	0x3e6facf9	0.23405828
78	0x3e726257	0.23670326
79	0x3e816bcf	0.25277564
80	0x3e83c1ff	0.25733945
81	0x3e406549	0.18788637
82	0x3e38a986	0.18033418
83	0xbce32850	-0.027729183
84	0xbedca2c6	-0.43092936
85	0xbeda15f1	-0.42594865
86	0xbec45ea9	-0.3835347
87	0xbee2ddee	-0.44309944
88	0xbee64f5d	-0.44982424
89	0xbf14b4f0	-0.5808859
90	0xbf3ec900	-0.7452545
91	0x3e843281	0.2581978
92	0xbe47e623	-0.19521384
93	0x3dab02ff	0.08350181
94	0x3daf8002	0.085693374
95	0x3db24023	0.08703639
96	0x3e88f7d8	0.2675159
97	0x3edb4788	0.42828012
98	0xbcf56b9e	-0.029958542
99	0xbd14b7fa	-0.036308266
100	0x3d9794e6	0.07401447
101	0x3d9d2660	0.07673335
102	0x3dbb9993	0.09160151
103	0x3cc7904a	0.024360795
104	0xbc950a4f	-0.018193392
105	0xbc2406d0	-0.01001139
106	0x3e010a7d	0.12601657
107	0x3e9d745f	0.30752847
108	0x3cc0ae5e	0.023520645
109	0xbd20c326	-0.039248608
110	0xbe85a350	-0.2610116
111	0xbef424dd	-0.47684374
112	0xbe007786	-0.12545595
113	0xbdfd4c25	-0.12368039
114	0xbe1db891	-0.15402438
115	0x3dc61f23	0.096739076
116	0x3d3b4086	0.04571583
117	0xbe13865d	-0.14406724
118	0xbdc7d402	-0.09757234
119	0xbd57f5a2	-0.052724488
120	0xbdb1b016	-0.08676164
121	0x3c0fc6ef	0.008775457
122	0x3dd8e448	0.10590416
123	0x3ddb285c	0.10701057
124	0x3e452eca	0.1925613
125	0x3e27d08d	0.1638815
126	0xbd3261af	-0.04355019
127	0xbc988dc5	-0.018622288
128	0xbd5e6565	-0.054295916
129	0x3c27ca4b	0.0102411015
130	0x3c48c9ac	0.012255114
131	0xbd7060b9	-0.058685992
132	0xbd850935	-0.06495897
133	0xbd8773b7	-0.06613868
134	0xbbc997c0	-0.006152123
135	0x3c2af9d2	0.010435538
136	0xbc19dbf4	-0.00939082
137	0xbbc9ca15	-0.0061581233
138	0xbd6e0036	-0.05810567
139	0xbd5b6b20	-0.05356896
140	0xbd92d657	-0.07169788
141	0x3c2d12f7	0.010563604
142	0xbd86a2ea	-0.06574042
143	0x3d829890	0.06376755
144	0xbd618a6b	-0.055063646
145	0xbc43320e	-0.011913789
146	0xbd0a92fb	-0.033831578
147	0x3cc85781	0.024455788
148	0xbd3ddba6	-0.04635205
149	0xbcba445d	-0.022737676
150	0xbd8fab12	-0.07015051
151	0xbd120347	-0.035647657
152	0xbb168bd8	-0.0022971537
153	0x3cada149	0.02119507
154	0xbb959d1c	-0.004565848
155	0xbb32fe42	-0.0027312194
156	0xbc1892bc	-0.009312328
157	0xbd07fca1	-0.03319991
158	0xbd00e2b4	-0.0314662
159	0x3c7fc1c1	0.015610159
160	0xbd902964	-0.07039145
161	0x3cbe6d6a	0.023245532
162	0xbd05d052	-0.032669373
163	0xbd44bc4d	-0.04803114
164	0xbc029c4c	-0.007971834
165	0xbc28cc17	-0.010302565
166	0xbd0bcc56	-0.034130417
167	0xbd849414	-0.06473556
168	0xbd5459d8	-0.051843494
169	0xbcdb0244	-0.026734479
170	0x3b372315	0.0027944495
171	0xbb1d004d	-0.0023956478
172	0x3c7e3136	0.0155146625
173	0x3c65143e	0.013981877
174	0xbd546676	-0.051855527
175	0xbd46000e	-0.048339896
176	0xbd0118bf	-0.03151774
177	0xbce94711	-0.02847627
178	0x3ca3fb32	0.02001724
179	0x3cb4d4d5	0.022074142
180	0xbd58ddb5	-0.05294581
181	0x3c9985dc	0.018740587
182	0xbd4c7daf	-0.04992455
183	0xbbfe8e83	-0.0077684536
184	0xbd84a722	-0.064771906
185	0xbd83cdd0	-0.0643574
186	0xbd7ff33c	-0.062487826
187	0xbd093584	-0.033498302
188	0x3bce5da8	0.006297786
189	0x3cb15812	0.02164844
190	0xbccaa822	-0.024738375
191	0x3c58fffd	0.013244626
192	0xbc5d93d9	-0.013524019
193	0xbcff77c6	-0.031185042
194	0xbc73e703	-0.01488662
195	0x3cc988c3	0.024601346
196	0xbb60395e	-0.003421388
197	0x3c83915d	0.016060526
198	0xbd8a7582	-0.06760694
199	0x3b034307	0.0020028965
200	0xbd8d54ea	-0.06900962
201	0xbce8c1e3	-0.028412765
202	0xbcb0fd97	-0.021605296
203	0x3b9f48bc	0.0048609655
204	0xbd7cf9d8	-0.061761707
205	0xbd849c04	-0.0647507
206	0xbc745506	-0.014912849
207	0x3d0ac818	0.03388223
208	0xbc4da96f	-0.012552603
209	0xbd232327	-0.039828446
210	0xbd5fdb22	-0.05465234
211	0x3c8274d8	0.015924856
212	0xbd060728	-0.03272167
213	0xbd30371c	-0.043021306
214	0xbd5e9f91	-0.054351393
215	0xbad4bc7d	-0.001623049
216	0x3cbc5d7f	0.022993801
217	0xbd1c8142	-0.038209207
218	0xbcc91feb	-0.024551352
219	0x3c973190	0.01845625
220	0xbd0ba3ff	-0.034091946
221	0xbd33fe2c	-0.04394357
222	0xbd7d0666	-0.06177368
223	0x3cb56ebf	0.022147534
224	0x3c71a27a	0.01474821
225	0x3b731b09	0.0037094972
226	0xbc72e545	-0.01482517
227	0xbd79fc5f	-0.061031695
228	0xbc43f817	-0.011961005
229	0x3c75c68b	0.01500095
230	0x3bfbb409	0.007681374
231	0xbcd05537	-0.025431259
232	0x3c0bc481	0.008530737
233	0xbbc97adf	-0.0061486806
234	0xbca609c1	-0.020268323
235	0xbd717d8b	-0.058957618
236	0x3cce28f8	0.02516602
237	0x3c41eed6	0.011836728
238	0x3ba5c5db	0.0050589866
239	0xbcf27c37	-0.029600246
240	0xbceb9ad1	-0.028760346
241	0xbd3fd6dc	-0.046835765
242	0x3cdc7751	0.026912363
243	0xbcea0518	-0.028566882
244	0xbc7bd8dc	-0.0153715275
245	0xbd871273	-0.06595316
246	0xbd3d7396	-0.04625281
247	0x3ccd39a2	0.025051896
248	0x3c9c228b	0.01905944
249	0xbd810629	-0.06300003
250	0xbd6be8e8	-0.057595164
251	0xbce9b6dc	-0.028529577
252	0x3ec2a0b1	0.38013223
253	0x3e246100	0.16052628
254	0x3d0feedb	0.0351399
255	0x3e35fc3e	0.17772004

hidden_layer1.bias f4 [64]
0	0x3f2ef961	0.6834927
1	0xbd2f66ec	-0.042822763
2	0x3f02c90b	0.5108802
3	0x3ee2d177	0.44300434
4	0x3d4b8613	0.04968841
5	0xbcd310d4	-0.02576486
6	0x3eb11e48	0.34593415
7	0x3e22da2d	0.1590354
8	0x3dab2156	0.08355968
9	0x3e1b8a56	0.1518949
10	0x3ec25eb9	0.37962893
11	0xbb6f0346	-0.0036470457
12	0x3d7814f6	0.060566865
13	0xbc8e307f	-0.01735711
14	0x3e963c5d	0.2934293
15	0x3e6cfbef	0.2314298
16	0x3ec58110	0.3857503
17	0x3edc59f7	0.43037388
18	0x3f247bb5	0.6425126
19	0x3eac77c9	0.3368514
20	0x3ec6d638	0.3883531
21	0x3ee6a5bb	0.45048317
22	0x3ec646d3	0.3872591
23	0xbd63ed2b	-0.055646103
24	0x3e494731	0.19656064
25	0xbd4d1ee1	-0.050078277
26	0x3ec7ed9f	0.39048478
27	0x3eb95cdf	0.36203668
28	0xbc8cf007	-0.017204298
29	0x3dd78401	0.105232246
30	0x3e8053cc	0.25063932
31	0x3f01b8d7	0.5067267
32	0x3ef0810a	0.4697345
33	0x3f128de7	0.57247776
34	0x3eab8b37	0.3350465
35	0xbc984c08	-0.018590942
36	0xbcbabd5f	-0.022795377
37	0x3e8cdb13	0.2751089
38	0x3f417f01	0.7558442
39	0x3f246b63	0.6422636
40	0x3e63d8f7	0.22250734
41	0x3eae0707	0.33989736
42	0x3e80ef23	0.25182447
43	0x3e880ec8	0.26573777
44	0x3f2a84b7	0.66608757
45	0x3d311420	0.043232083
46	0xbd807a7a	-0.062733606
47	0x3e7f1aed	0.24912615
48	0x3f3b2bb8	0.73113585
49	0x3e3913eb	0.18074004
50	0x3ed8d529	0.42350128
51	0x3f065428	0.5247216
52	0xbd62b089	-0.05534414
53	0x3ea31b63	0.31856832
54	0x3ef5ed14	0.4803244
55	0x3bd8aad2	0.0066121602
56	0xbd72d70b	-0.059287112
57	0x3e67bc51	0.22630431
58	0x3e0a9a51	0.1353543
59	0x3e65e61b	0.2245106
60	0x3f43c722	0.7647573
61	0x3ee77073	0.4520298
62	0x3e9f5d7b	0.31126007
63	0x3edbbdf3	0.42918357

hidden_layer2.weight f4 [32, 64]
0	0x3e06893d	0.1313829
1	0x3d9b6739	0.075880475
2	0x3d6f623d	0.058443297
3	0x3cde7e68	0.027159885
4	0xbe22e5dd	-0.15907998
5	0x3d29cdd6	0.041456066
6	0x3d03bd7e	0.032163136
7	0x3e50db38	0.20396125
8	0x3cc9c4f7	0.024630053
9	0x3d8c6122	0.06854464
10	0xbd917d6c	-0.071040004
11	0xbd24e4d4	-0.04025729
12	0xbcf9e695	-0.030505458
13	0x3c917728	0.017757013
14	0x3dc3e0de	0.095643744
15	0x3c6f8d2b	0.014621059
16	0xbd2f8246	-0.042848848
17	0x3e0f85b0	0.14015841
18	0x3d425c96	0.047451578
19	0x3e377948	0.17917359
20	0x3dcccb9b	0.09999772
21	0x3e399dd9	0.1812662
22	0x3eed5927	0.4635708
23	0xbd3d1016	-0.04615792
24	0x3eb4cbcf	0.35311744
25	0x3cb24ea6	0.021766018
26	0x3de3516e	0.11099516
27	0x3e04805a	0.12939587
28	0xbe6243d5	-0.22096188
29	0xbe4b7610	-0.19869256
30	0xbe0a637c	-0.13514513
31	0x3e0c3696	0.13692698
32	0x3d8c1c17	0.06841295
33	0x3e14c3b9	0.14527787
34	0x3e88dacd	0.26729432
35	0xbdb72a7b	-0.089436494
36	0x3d1392d4	0.036028698
37	0x3e305545	0.17220028
38	0x3e571a94	0.21006233
39	0x3e8a27b8	0.26983428
40	0x3e79d7e1	0.24398758
41	0x3e912c19	0.28353956
42	0x3e091914	0.13388473
43	0x3c7fa364	0.01560292
44	0x3e419925	0.18906076
45	0xbeb589d3	-0.35456714
46	0xbd38c59c	-0.04511033
47	0x3d2577e0	0.040397525
48	0x3efce177	0.49390766
49	0xbe2eb8e5	-0.17062719
50	0xbd85be5a	-0.06530447
51	0x3e9fb1b0	0.31190252
52	0xbd95c138	-0.07312244
53	0x3dd09eef	0.10186564
54	0x3f175b8d	0.5912407
55	0x3c16d089	0.009204992
56	0xbe97b85f	-0.2963285
57	0x3d166c26	0.036724232
58	0x3b6786b0	0.0035328083
59	0x3e0592d1	0.13044287
60	0x3e768968	0.24075854
61	0xbcfab72a	-0.030604918
62	0x3d99f52e	0.075174674
63	0x3e32b1e2	0.1745067
64	0x3c2063d2	0.009789424
65	0x3cc8e065	0.024521062
66	0xbd832495	-0.06403462
67	0xbd1f01be	-0.03882002
68	0xbd549281	-0.05189753
69	0xbd0c20aa	-0.03421084
70	0xbc4736fd	-0.012159106
71	0xbcb254ae	-0.021768894
72	0xbcbddd8a	-0.023176927
73	0x3bba4c43	0.0056853606
74	0xbd770176	-0.060304128
75	0x3ca781a4	0.02044756
76	0xbcf55511	-0.02994779
77	0x3c0e1b88	0.008673556
78	0xbd732839	-0.05936453
79	0xbcad5de4	-0.021162935
80	0xbb063489	-0.002047809
81	0x3c02c5b1	0.007981704
82	0x3d1b7b64	0.03795947
83	0xbd82fe07	-0.06396108
84	0xbc89cf1d	-0.016822392
85	0xbd0598f4	-0.03261657
86	0xbd4a37c3	-0.049369585
87	0x3c5f2834	0.013620425
88	0xbd762925	-0.060097832
89	0xba5d0b22	-0.000843214
90	0x3cfbd624	0.030741759
91	0xbd0eca7a	-0.034861065
92	0xbc390675	-0.011293043
93	0xbc4ab222	-0.012371572
94	0xbcd85d4a	-0.026411671
95	0x3c0bb786	0.008527642
96	0xbbc68aed	-0.0060590417
97	0xbcb12af4	-0.021626927
98	0xbd4311a7	-0.047624256
99	0xbd6ebc6e	-0.05828517
100	0x3cbde73d	0.023181552
101	0xbd9c5da6	-0.076350495
102	0x3c5844ad	0.013199967
103	0xbd2b5220	-0.041826367
104	0x3d085e25	0.03329291
105	0xbab041e5	-0.0013447372
106	0xbcfb4912	-0.030674491
107	0x3cd7f5a0	0.02636224
108	0xbd2385bd	-0.039922465
109	0xbc1b3505	-0.00947309
110	0x3d284f50	0.041091263
111	0xbdb4ce31	-0.088283904
112	0xbd81587e	-0.06315707
113	0xbd9ae0bc	-0.07562396
114	0xbd649250	-0.055803597
115	0xbd815550	-0.063151
116	0xbc4f8d6b	-0.012667994
117	0xbbcddf8b	-0.006282752
118	0x3c85b520	0.016321719
119	0xbc4ac15f	-0.012375205
120	0x3c9efa29	0.019406395
121	0x3cce30b7	0.025169713
122	0xbce5569f	-0.027995406
123	0xbb5f898e	-0.0034109089
124	0x3cb445c2	0.02200592
125	0xbdb5a7ad	-0.08869872
126	0xbca566e8	-0.020190671
127	0x3c845f88	0.016158834
128	0xbe97a37c	-0.29616916
129	0xbd808328	-0.06275016
130	0x3f26865d	0.6504877
131	0x3f0a5605	0.54037505
132	0xbd13c0cc	-0.036072537
133	0x3cd81f5c	0.02638214
134	0x3e95a26a	0.29225475
135	0x3e0da6cd	0.1383316
136	0x3e656b1b	0.22404139
137	0xbe912bf9	-0.2835386
138	0xbf0622fd	-0.5239714
139	0x3cf173c2	0.029474143
140	0x3f41e4e6	0.75739896
141	0x3c9ea0a7	0.019363714
142	0x3eea5240	0.45765877
143	0x3e52d065	0.20587309
144	0xbeb59dbc	-0.35471904
145	0xbe7bbce7	-0.2458378
146	0x3f47038c	0.7773979
147	0xbf0a702b	-0.54077405
148	0xbe9a41cd	-0.30128327
149	0xbf551fa2	-0.8325139
150	0x3e449a2e	0.1919944
151	0xbd3d2479	-0.04617736
152	0x3ecd83dc	0.40139663
153	0xbd0d1e81	-0.03445292
154	0x3e2dcd84	0.16972929
155	0x3f713943	0.94228
156	0xbeafa38c	-0.34304464
157	0x3f0f6288	0.5600972
158	0xbe839d1d	-0.25705805
159	0x3dda0211	0.106449254
160	0x3f22c0cd	0.6357544
161	0x3d63d0c4	0.055619016
162	0xbda5e839	-0.081009336
163	0xbe533c52	-0.20628479
164	0xbcb8f921	-0.022579731
165	0x3e9eae56	0.30992383
166	0x3e8ce2fb	0.27516922
167	0x3f6fb234	0.9363129
168	0xbe0cc22a	-0.13745943
169	0x3f2e41ab	0.6806895
170	0x3dba69de	0.09102224
171	0xbedd7b60	-0.4325819
172	0xbea4b904	-0.32172406
173	0xbf53a64d	-0.8267563
174	0x3d1b111e	0.03785812
175	0xbe095844	-0.13412577
176	0x3f305f2b	0.68895215
177	0xbed39d8d	-0.4133114
178	0xbed25838	-0.4108293
179	0xbeed9bbe	-0.46407884
180	0xbd46c185	-0.0485244
181	0xbd2637d0	-0.04058057
182	0x3e4a1cb3	0.1973751
183	0xbc645515	-0.013936301
184	0xbdceb945	-0.10093931
185	0x3e4bccb5	0.19902308
186	0xbf35a14e	-0.70949256
187	0x3f133876	0.5750803
188	0x3d22ea72	0.039774366
189	0x3f18c6e2	0.5967847
190	0x3e86ca9a	0.26326448
191	0xbd0657e5	-0.032798667
192	0x3ca30afe	0.019902702
193	0xbbf8b2a6	-0.007589656
194	0x3d7803f9	0.060550664
195	0x3d4c2bae	0.049846344
196	0xbd8593d7	-0.06522339
197	0x3db19b64	0.086722165
198	0x3ce835f1	0.028346034
199	0xba07c918	-0.00051798066
200	0x3d8f89ed	0.07008729
201	0x3dd75c44	0.10515645
202	0x3da86516	0.082224056
203	0xbd1f518d	-0.038896132
204	0xbe7908eb	-0.24319808
205	0x3cc42391	0.02394274
206	0x3da28f1e	0.07937454
207	0x3c5fedf0	0.013667569
208	0xbcd39764	-0.025829025
209	0x3e1198ef	0.14218496
210	0x3cdb2876	0.026752692
211	0xbdf81c29	-0.12114746
212	0x3e71f809	0.23629774
213	0x3e985a34	0.2975632
214	0x3e1c9c8e	0.15294096
215	0x3da25563	0.079264425
216	0x3e9c1bb3	0.30489883
217	0x3d786167	0.060639765
218	0x3e702c8b	0.23454492
219	0xbdccf501	-0.10007668
220	0xbeb4308e	-0.35193294
221	0x3c5f87d1	0.013643221
222	0x3d5b4d3c	0.053540453
223	0x3debd086	0.11514382
224	0x3df1c2f2	0.11804761
225	0x3d8bfcf2	0.06835355
226	0x3e2b2eb3	0.16717033
227	0xbd48a7c9	-0.048988137
228	0xbd2b865c	-0.041876182
229	0x3e88db0b	0.26729617
230	0x3e257971	0.16159607
231	0x3e6ac8f4	0.2292822
232	0x3e36c796	0.17849573
233	0x3e82813d	0.25489226
234	0x3db87585	0.0900679
235	0x3e07a641	0.13247015
236	0x3e655b1f	0.22398041
237	0xbe9c0214	-0.30470335
238	0xbd04ed3a	-0.0324528
239	0x3db1907b	0.086701356
240	0x3f07ba37	0.53018516
241	0xbcefab5c	-0.029256515
242	0xbc5347a4	-0.012895498
243	0x3ea0780d	0.3134159
244	0x3dad1a5d	0.08452294
245	0x3db18d00	0.08669472
246	0x3f076ecf	0.52903455
247	0x3d92b722	0.07163836
248	0xbdf77040	-0.12081957
249	0x3dc0ba77	0.09410565
250	0x3cc1a239	0.023636924
251	0x3e316cbd	0.17326637
252	0x3d4fc18c	0.05072169
253	0x3d00589f	0.031334516
254	0xbd99ba66	-0.07506256
255	0x3e01e879	0.12686338

hidden_layer2.bias f4 [32]
0	0x3f2e72f9	0.68144184
1	0x3bfd9070	0.0077381656
2	0xbc0080c3	-0.007843199
3	0x3f2283be	0.6348227
4	0x3f2c2a69	0.6725221
5	0x3f059ff8	0.5219722
6	0x3f410729	0.7540155
7	0x3e22b733	0.15890197
8	0x3ed4a816	0.4153449
9	0x3f5f4e94	0.87229276
10	0x3e311297	0.17292248
11	0xbd0ee2c4	-0.03488423
12	0x3b8e532a	0.00434341
13	0x3e315fb7	0.17321669
14	0x3f408eb3	0.7521774
15	0x3f39bd2a	0.72554266
16	0x3f20cf9b	0.6281678
17	0x3f375e76	0.7162851
18	0x3f32ff79	0.6992107
19	0xbd43bb7e	-0.04778623
20	0x3c00ec6c	0.007868867
21	0x3f010198	0.50393057
22	0x3f14cebe	0.58127964
23	0x3f0996af	0.5374555
24	0x3ef4897c	0.47761142
25	0x3f226c9b	0.6344697
26	0xbe3e1e3b	-0.1856622
27	0x3dde753e	0.10862206
28	0x3f28323e	0.65701663
29	0x3f20c749	0.62804085
30	0x3e77c0fd	0.24194713
31	0xbcba44bc	-0.022737853

hidden_layer3.weight f4 [16, 32]
0	0x3ea43fff	0.32080075
1	0xbd83087b	-0.06398102
2	0xbe7ea1f8	-0.24866474
3	0x3e7cd83d	0.24691863
4	0x3ef78da2	0.48350245
5	0x3d8bae64	0.06820372
6	0x3efb2616	0.49052495
7	0xc0852b14	-4.1615086
8	0xbf299f76	-0.66258943
9	0x3e223879	0.15841855
10	0xbfa3e490	-1.2804127
11	0xbc49b53b	-0.012311275
12	0xbbc3da43	-0.0059769466
13	0xc049997f	-3.1499937
14	0x3eb3368f	0.35002562
15	0x3ea98956	0.33112592
16	0x3e4eba2b	0.20188205
17	0x3f09413a	0.5361515
18	0x3ee2f868	0.44330144
19	0x3ddb8683	0.107190154
20	0xbcc0d7af	-0.023540346
21	0x3d610f43	0.054946195
22	0x3e70f130	0.23529506
23	0x3d22ac3e	0.039715044
24	0x3e5bd2bd	0.21467109
25	0x3e322441	0.17396642
26	0xbeeead73	-0.46616706
27	0xbf132002	-0.57470715
28	0x3e692134	0.22766572
29	0x3e964b12	0.2935415
30	0xc00617dc	-2.0952063
31	0xbd6453d6	-0.055744015
32	0xbc372d34	-0.011180211
33	0x3d8bb853	0.068222664
34	0xbd9f1055	-0.07766787
35	0xbcc8c538	-0.024508104
36	0x3b85e7a0	0.0040864497
37	0xbda6630b	-0.0812436
38	0xbb5cd263	-0.0033694736
39	0x3d7fd795	0.062461454
40	0xbcb75393	-0.022378718
41	0xbd394007	-0.045227077
42	0xbb368c1f	-0.0027854515
43	0xbc8cbc1c	-0.017179541
44	0x3d5f507b	0.05452011
45	0x3acaaae2	0.0015462304
46	0xbde27748	-0.11057907
47	0xbdf4032b	-0.11914667
48	0xbbacf716	-0.0052784784
49	0xbdabc4aa	-0.0838712
50	0xbd5043dd	-0.05084597
51	0xbe013dd5	-0.12621243
52	0x3c23f7c0	0.010007799
53	0xbab5f8ce	-0.0013883354
54	0xbccf32aa	-0.025292713
55	0xbde96a95	-0.11397282
56	0x3c146c0d	0.009058964
57	0xbd904ae0	-0.07045531
58	0xbc55d3ac	-0.013050955
59	0x3c392c81	0.011302114
60	0x3bf2764d	0.0073993565
61	0x3cb65bcc	0.022260569
62	0xbcbee425	-0.023302147
63	0xbd28fcf1	-0.04125685
64	0xbc280a3a	-0.010256344
65	0x3dde6976	0.10859959
66	0x3e81887e	0.25299448
67	0xbd9e354f	-0.077250116
68	0x3de1fcc4	0.11034539
69	0xbe160af2	-0.14652613
70	0x3de145a6	0.109996125
71	0x40ebe5ae	7.371787
72	0x4005a1b7	2.0879953
73	0x3e622e9d	0.22088094
74	0x409cbd39	4.8980985
75	0xbd92c73f	-0.071669094
76	0x3d059172	0.03260941
77	0x40bb6a4c	5.8567257
78	0x3e2e2e6e	0.17009899
79	0x3dabf717	0.08396738
80	0x3b19508e	0.0023393962
81	0xbd1e7efa	-0.038695313
82	0xbde71d53	-0.1128489
83	0xbd61ad1b	-0.055096727
84	0x3ca469f8	0.020070061
85	0xbe1905c6	-0.14943609
86	0xbe448069	-0.1918961
87	0xbdb5760c	-0.08860406
88	0xbd2c5952	-0.04207737
89	0xbe0a34e9	-0.13496746
90	0x3f3cb77c	0.73717475
91	0x3f65708b	0.8962485
92	0xbdbe287f	-0.09285068
93	0xbda4b1ba	-0.08041711
94	0x3fffe2ec	1.9991126
95	0x3c06807e	0.008209346
96	0xbdcf6082	-0.10125829
97	0x3ba85d68	0.005138088
98	0x3d5a207d	0.05325364
99	0x3d189d7e	0.03725957
100	0xbd804037	-0.06262248
101	0x3b686473	0.0035460263
102	0xbd74854f	-0.059697445
103	0xbdd2b639	-0.102886625
104	0xbc6ca840	-0.014444411
105	0x3d639de3	0.055570494
106	0xbc92e12d	-0.017929638
107	0x3d4f386a	0.05059091
108	0xbddfdcd0	-0.109307885
109	0x3cf23ba8	0.029569462
110	0xbcce77ca	-0.025203604
111	0xbd59a157	-0.05313238
112	0xbc0f400e	-0.008743299
113	0x3e189b2c	0.14902943
114	0xbd30fbde	-0.04320895
115	0x3d962ebf	0.07333135
116	0xbddeeeec	-0.108854145
117	0xbd22cb4a	-0.039744653
118	0xbe1b9c8b	-0.15196435
119	0xbe2478ab	-0.16061656
120	0x3d3be294	0.04587038
121	0xbd7115f1	-0.058858816
122	0xbdceab8e	-0.10091315
123	0xbd690297	-0.056887235
124	0xbe0569ea	-0.13028684
125	0xbb5a745e	-0.003333352
126	0x3d49c29a	0.049257852
127	0x3b364c80	0.0027816594
128	0x3ea63155	0.32459512
129	0x3d4fd392	0.05073888
130	0x3e2e42ea	0.17017713
131	0x3e528739	0.20559396
132	0x3edf7452	0.43643433
133	0x3e125600	0.14290619
134	0x3e7ba7f7	0.24575792
135	0xbfda763a	-1.706733
136	0xbebf5c45	-0.37375084
137	0x3e43d573	0.19124393
138	0xbffbf9e9	-1.9685642
139	0x3d16f9b0	0.036859214
140	0x3b75f20c	0.0037528304
141	0xbf86b846	-1.0524986
142	0x3e8a09a2	0.26960474
143	0x3e88c6f0	0.26714277
144	0x3e938912	0.28815514
145	0x3ed7334d	0.42031327
146	0x3e81f50b	0.25382265
147	0xbd8fc24e	-0.070194826
148	0x3dcc49f8	0.09975046
149	0x3ed48edc	0.41515243
150	0x3ddbd29e	0.107335314
151	0x3e2e8b34	0.1704529
152	0x3e0856f7	0.13314424
153	0x3e5ef69f	0.21773766
154	0xbe755f94	-0.23962241
155	0xbef446a9	-0.4771016
156	0x3e502e44	0.20330149
157	0x3e837339	0.25673845
158	0x3e41968d	0.18905087
159	0xbd9591ba	-0.07303186
160	0xbdf86b9b	-0.12129899
161	0xbd066b85	-0.032817382
162	0xbe608e56	-0.21929297
163	0xbdba284b	-0.090897165
164	0x3f2c2d53	0.6725666
165	0xbe5311c4	-0.20612246
166	0x3ee9dd0d	0.4567646
167	0xbf8709eb	-1.0549902
168	0x3fd4bf18	1.6620817
169	0x3eaf1e9c	0.3420304
170	0x3f92f0cd	1.1479737
171	0xbd293814	-0.041313246
172	0xbd0da575	-0.03458162
173	0xbff3e28b	-1.905351
174	0x3e9b94ba	0.30386907
175	0xbf0683da	-0.5254494
176	0xbe14b69a	-0.14522782
177	0x3f117bb4	0.5682938
178	0x3d368d3c	0.044568285
179	0xbd27fdc0	-0.04101348
180	0x3dd63f4e	0.10461293
181	0x3eb6e2d3	0.35719928
182	0xbde3bb03	-0.11119654
183	0xbdc795f9	-0.09745402
184	0x3ca1004f	0.019653467
185	0x3e122e2a	0.14275423
186	0xc030c4bc	-2.7620077
187	0xc0156679	-2.3343794
188	0xbdf4ddba	-0.119563535
189	0xbea37ce3	-0.31931219
190	0xbf3410e0	-0.7033825
191	0xbd7f202b	-0.062286537
192	0xbdf33b9a	-0.118766025
193	0x3ddd33e8	0.10800916
194	0xbbd483ab	-0.0064854226
195	0xbc68105a	-0.014164055
196	0xbc1e116e	-0.00964771
197	0xbde362e9	-0.1110285
198	0xbd9bb692	-0.07603182
199	0xbd4f2488	-0.05057195
200	0xbe416575	-0.18886359
201	0x3d974be5	0.073875226
202	0x3cccc6cb	0.024997136
203	0xbd7424b4	-0.059605315
204	0x3be9c10c	0.0071336087
205	0xbd9846d2	-0.07435383
206	0xbda43c54	-0.08019319
207	0x3ca7491e	0.020420607
208	0xbd1e809a	-0.038696863
209	0x3ddc07c3	0.10743668
210	0x3c968fa3	0.018379038
211	0x3da0b61a	0.07847233
212	0xbbe59111	-0.0070058187
213	0xbd538a60	-0.051645637
214	0x3d647178	0.055772275
215	0x3d7aebd4	0.06126006
216	0xbcc7239d	-0.024308974
217	0x3b1dced9	0.002407959
218	0xbe2dc1ce	-0.16968462
219	0xbd0d8728	-0.034552723
220	0xbd09855a	-0.03357444
221	0xbdc6ae7e	-0.097012505
222	0xbe24bf70	-0.16088653
223	0x3d326e7b	0.043562394
224	0xbd5862f2	-0.052828737
225	0x3db3be15	0.0877649
226	0xbd439944	-0.047753587
227	0x3da5e45b	0.08100196
228	0xbcc28779	-0.023746239
229	0x3db90313	0.090337895
230	0xbca27e9b	-0.01983576
231	0x3ce67793	0.02813319
232	0xbdbe481e	-0.09291099
233	0x3b099b7e	0.0020997222
234	0xbced6369	-0.028978067
235	0x3dafc6da	0.0858285
236	0xbc0281db	-0.00796553
237	0xbcf2007c	-0.029541247
238	0xbd5bfadf	-0.053706046
239	0xbdafb062	-0.08578564
240	0x3d8c4a98	0.06850165
241	0xbda56562	-0.08075978
242	0xbcce0402	-0.025148395
243	0xbcab19f9	-0.020886408
244	0x3d904553	0.070444725
245	0xbdae8f6b	-0.085234486
246	0xbdbbe3cf	-0.091743104
247	0xbda590af	-0.08084237
248	0xbd2e0930	-0.04248923
249	0x3cff16ff	0.031138895
250	0xbdbc3efe	-0.09191702
251	0xbd1c949a	-0.038227655
252	0x3c762364	0.015023086
253	0xbdbe1e29	-0.09283096
254	0xbc8e970a	-0.017406005
255	0xbda207a1	-0.07911611

hidden_layer3.bias f4 [16]
0	0x3f803e5d	1.0019032
1	0x3d97ca57	0.0741164
2	0xbebf9a21	-0.3742228
3	0xbd2f1bc4	-0.04275109
4	0x3f42a172	0.76027596
5	0x3f1669c3	0.5875513
6	0xbd6f9c4b	-0.058498662
7	0xbd90b8a6	-0.07066469
8	0xbc16f71b	-0.009214188
9	0x3bee1856	0.0072660847
10	0x3e392eb6	0.18084225
11	0x3f0079b3	0.501857
12	0x3f3f6d81	0.74776465
13	0x3f2ec4f5	0.6826928
14	0x3c713e6a	0.014724353
15	0x3d3425a9	0.043981228

out_layer.weight f4 [2, 16]
0	0x3f3125bd	0.6919821
1	0xbd5b2be8	-0.05350867
2	0xc03ff63d	-2.9994042
3	0x3d91f463	0.07126691
4	0x3eb5df92	0.35522133
5	0x3faf4717	1.369357
6	0x3d87b7da	0.06626864
7	0xbd548c07	-0.051891353
8	0xbd988cc6	-0.074487254
9	0xbdaac2ce	-0.08337937
10	0xbe50464b	-0.20339315
11	0xbdcaabf4	-0.09896079
12	0x3e96ece5	0.2947761
13	0x3dec68d3	0.11543431
14	0xbdc65a86	-0.09685235
15	0xbcf701be	-0.030152198
16	0xbdebdbc0	-0.11516523
17	0x3e0b447b	0.13600342
18	0xbf847c89	-1.0350505
19	0xbcb49bf2	-0.022047017
20	0x3e759426	0.23982295
21	0x3f546788	0.82970476
22	0xbd96fe3e	-0.073727116
23	0x3cce6bf2	0.025197957
24	0x3e10b603	0.14131932
25	0x3e1691db	0.14704077
26	0x3f6e65da	0.93124163
27	0x3f1b0a3e	0.60562503
28	0x3e7cb2a6	0.24677524
29	0x3ed63fc6	0.4184553
30	0x3e0944ee	0.13405201
31	0x3dc1a377	0.094550066

out_layer.bias f4 [2]
0	0x3f3c9be0	0.73675346
1	0x3e2d520d	0.16925831
