models/DQNparam1.pth (torch, 45859 bytes, 8 tensors)

hidden_layer1.weight f4 [64, 126]
00000000: 056b c13d 9fcf 98be 280a a9bd e2da 58bd
00000010: 96ad 6dbd f620 d13d f308 2dbe 425d bf3d
00000020: ca1a 0f3e c7e8 fdbc 3cf1 cebd c983 d9bd
00000030: 581c 8ebd bbea 3abd 4d5f 12be d9c6 483e
00000040: 5eeb 003d 25c6 8bbe b349 23be 916f d6bc
00000050: bd64 7fbe 3070 763e 75a1 18be 84c3 793d
00000060: c6cc 863e b6a4 233e 9820 25be 4fbb bfbe
00000070: f20e cabd c0bf 123e 2956 df3c 6849 143e
00000080: 015e f63c 1739 5bbe 87f8 8ebe 2796 953c
00000090: 195d c83b a154 0dbe a67c b4bd 9d8d 0dbf
000000a0: 6aa4 8cbe 4353 c0bd c5f8 30be 7f7a 503e
000000b0: 9199 d5bd 63c0 983e 82d1 46be 5efa 10be
000000c0: 8852 c5be b5b0 1b3e 8bc0 6b3e a18d 523e
000000d0: 8cdb 1dbc 744c bbbd e891 82be 48d7 713b
000000e0: d5ee 953d 697a c63d 8c1e f1bd 5fb3 b1bd
000000f0: 1928 4dbd 23ce 863d 4b81 94be 1d76 b93e
00000100: 355e a03e 93b0 1a3e 791a 243e 2148 c23d
00000110: c8fe f9bb e85e 32bd 8694 9c3e 4c9c 773e
00000120: c994 3a3e 67b1 603e 607a d4bc 9406 b7bd
00000130: 8980 fabd 53d1 cebd b8c9 9dbd 5241 76bd
00000140: a118 37bd 97a0 85bd 4853 12be 9bdd bbbd
00000150: 2ae5 dc3c bf9d b83d 06ef d63d 71ca e23d
00000160: 9a9e 903d 4baf cf3d f93f 233e 3515 993e
00000170: 44f4 503e 02d2 223e e219 6b3e 6b03 ee3d
00000180: 9e64 513c 1592 e4bd 9d0b 943e a845 9a3e
00000190: 824e 3e3e 0d7b 1b3e cb72 1bbd 9c7a 553d
000001a0: bb43 91bd c064 9c3e 5368 983e e2bc 4a3e
000001b0: 308c 413e f4dc 573e 3ee1 363e 6559 e9bc
000001c0: a41f 1b3d d9e0 f73b ac9b 363d 5f76 b63d
000001d0: ba47 6b3d b225 7f3d 1a7d 87bd cd4d 413e
000001e0: 2f12 553e fe9f de3d a27e 0f3e 0470 263d
000001f0: 1fcf c0bc 4236 54be eb8e 83bb 0008 a8be
00000200: 5884 86be f4f8 0c3e 637f 293d a5fe a43e
00000210: b3a3 96bb bd51 e13e 07b8 b23c 71da 7f3d
00000220: f5b1 43bc 543c 823e 8e4f 37bc 8bf5 833d
00000230: a348 23bf fa06 823e 8dad 623c 9fd4 be3c
00000240: f181 843d af0a 03bf ced7 d8be 79cb f23d
00000250: 0f50 413f 315d 55be 162a 50be a7ad 9b3e
00000260: 9746 fa3d b7ff 68bd 1e74 b43c d2e5 d03e
00000270: f855 63bd c061 803e 8c46 02be 141e 5dbe
00000280: 225d 01bf 18b0 dbbc 926a 32be f658 9a3e
00000290: fcd5 ba3d 8dcf 933e 73a0 043e e600 883d
000002a0: 6469 cc3d 1867 6cbe 1da5 463e 77a2 123d
000002b0: 831b 763d dfe4 64be cf89 ec3c d521 6abe
000002c0: e0fe 8b3e c3b4 253d b40b 23be f3be 92be
000002d0: 360c d33e bbbb 46bd 438f e83b c712 99be
000002e0: c756 b4bd 89b4 00bd 3705 38be 5fa8 25bd
000002f0: ca4f 8fbe ee4d 733c bd2f a5bc 2d94 95bd
00000300: 6411 7cbd db82 1cbd 5629 dfbb de1f 5dbd
00000310: 08d5 513e e734 a33d 4db3 8abc db83 bfbd
00000320: 543d 8bbe 8268 9dbe dd36 2ebf ced4 03bb
00000330: 17c7 d1bd 0a90 a6bc 7350 533d 7e8c 453b
00000340: 7d6f 703d bc22 b83d ac03 49be 72b7 2fbe
00000350: baf9 133d 210c 093e d445 403e 43a2 433d
00000360: 62f1 49bc 96e0 2dbc ad6c a13d ecdb 98bd
00000370: 32a5 19be 9eca bdbd 341a d8bc 53a1 97be
00000380: ac47 91bd e790 abbd 0703 473d 19ad 803d
00000390: bf20 6dbd b068 6c3d 9ac8 b4bd f635 1f3e
000003a0: b4cf f93d 5d8d 933d ecb6 82bd 6609 bebb
000003b0: 01ce 61be 9eb9 4fbe 44b2 acbd a91a 51bb
000003c0: bc88 22bd 0b82 63bd c37e 233d f371 973d
000003d0: e859 903d c5d0 f43d 64bc e43d 3cdd f43d
000003e0: 1c73 933d e279 093d ed9d 19bc e68c 00be
000003f0: c19e c5bc 714a d8bc ce6c f23b bd3a 11bd
0.094442405 -0.29845902 -0.0825389 -0.052943118 -0.058026873 0.10211365 -0.16897945 0.093439594
0.13975063 -0.030994786 -0.101046056 -0.10620839 -0.06939 -0.045634013 -0.14294167 0.19607104
0.031474464 -0.2729961 -0.15946083 -0.026176246 -0.24940772 0.24066234 -0.14905341 0.060977474
0.26328105 0.15980801 -0.16125715 -0.37447593 -0.09866132 0.1433096 0.027262764 0.14481127
0.030074121 -0.21408497 -0.27923986 0.018260075 0.0061146137 -0.13801815 -0.08812837 -0.5529421
-0.27469188 -0.09390881 -0.17282398 0.20359229 -0.10429681 0.2983428 -0.19415858 -0.14158008
-0.3853953 0.15204127 0.23022668 0.2056184 -0.009634864 -0.09145442 -0.25501943 0.0036902
0.07320944 0.09691317 -0.117734045 -0.086767904 -0.05008707 0.06582286 -0.29004893 0.36222926
0.31321874 0.1510642 0.16025724 0.09486414 -0.0076292492 -0.04354754 0.30582064 0.24180716
0.1822082 0.21942674 -0.02593726 -0.089368016 -0.122315474 -0.10098519 -0.077044904 -0.060120888
-0.044701222 -0.06524771 -0.14289582 -0.09173127 0.026964743 0.09014463 0.10494809 0.11073769
0.07061501 0.10140856 0.15942372 0.29898992 0.2040568 0.15900424 0.22959092 0.11621746
0.012780337 -0.111606754 0.2891511 0.30131269 0.18584636 0.15183659 -0.037951272 0.052118883
-0.07092997 0.30545616 0.29767093 0.19798616 0.18901134 0.2108038 0.1785936 -0.02848501
0.03787197 0.0075646457 0.044582054 0.08909296 0.05744145 0.06229181 -0.06615658 0.18877335
0.20807718 0.1087036 0.1401315 0.04063417 -0.023536263 -0.20723823 -0.00401484 -0.32818604
-0.26272845 0.13766843 0.04138125 0.32225528 -0.004597151 0.44007674 0.021816267 0.06246418
-0.011944284 0.25436652 -0.011188401 0.06443318 -0.6378271 0.25395948 0.013835323 0.023294745
0.06470097 -0.51188177 -0.42352146 0.118552156 0.75512785 -0.20836331 -0.20328555 0.30405924
0.12220495 -0.056884494 0.022028025 0.4080034 -0.055501908 0.25074577 -0.12722224 -0.21593505
-0.50532734 -0.026817366 -0.17423466 0.30145997 0.091228455 0.28869286 0.12951832 0.06640796
0.09981039 -0.23086202 0.19398923 0.03579947 0.06008483 -0.22352932 0.028874306 -0.22864468
0.27342892 0.04045559 -0.15922433 -0.28661308 0.41220254 -0.048518877 0.0070971563 -0.29897138
-0.08805614 -0.03142217 -0.1797074 -0.040443774 -0.27990562 0.014850123 -0.020164365 -0.07303653
-0.061540022 -0.03821073 -0.0068103475 -0.05398547 0.20491421 0.07969075 -0.0169312 -0.09351321
-0.27195227 -0.30743796 -0.68052465 -0.0020115855 -0.102430515 -0.020332355 0.051590394 0.0030143554
0.058700074 0.08991 -0.19630307 -0.17159823 0.03612683 0.13383533 0.18776637 0.047762167
-0.012325617 -0.0106126275 0.078820564 -0.07463822 -0.15004423 -0.09267162 -0.026379682 -0.29615268
-0.070937485 -0.08377247 0.04858687 0.06283016 -0.057892557 0.057717025 -0.08827324 0.15547928
0.12197819 0.07204697 -0.06382546 -0.00579946 -0.2205124 -0.20285651 -0.08432439 -0.003190676
-0.03968118 -0.05554394 0.03991581 0.07394781 0.07048398 0.11953882 0.11168745 0.119562596
0.0719969 0.033563502 -0.009376031 -0.12553748 -0.024123551 -0.026402684 0.0073982244 -0.035456408

hidden_layer1.bias f4 [64]
00000000: 4952 c33d c59f f23e 0234 0abd 8e5b 01bd
00000010: fef7 d6bd ae05 0f3e f40a 8b3e 90f3 8fbd
00000020: 553d 3ebe 9064 eebe 10c6 0f3d be9b 703e
00000030: b68b 9dbd 5952 d63e 4888 bc3e 5cfd c93e
00000040: db04 253e bbec 8f3e dc15 c03e 5caf 213f
00000050: 2fe4 5d3f de96 f13d a360 f83e 033d 21bd
00000060: 56ae cc3e 9b58 be3e 098f 2cbe 685c 8a3a
00000070: 2d82 8b3e 68aa db3e 4ea3 833e c9fb e23e
00000080: 41db 263d 10d3 2a3f b282 423f 0765 3d3f
00000090: 9dac 803d fbaa 403e c3da 2f3f a996 46bc
000000a0: 88ad 303f 2223 903e c65c a93e b661 a5bd
000000b0: 9fbf 0a3f 4e9d 9f3e 9350 9fbd 38e2 503d
000000c0: eb5c 59bd 4c57 86bd 94df 85be 58b2 3aba
000000d0: 5924 58be 2cc8 f93e fade 643e 8882 cd3e
000000e0: 6621 f33d a66d da3e d4fd 533d 7c59 0abe
000000f0: 0d99 85bd 8fca 33bc c44f 2fbd a663 053f
0.09537179 0.4738752 -0.033741005 -0.031581454 -0.104965195 0.1396701 0.27156794 -0.07028878
-0.18578084 -0.46561098 0.035100996 0.23496911 -0.07692663 0.418597 0.36822724 0.3945111
0.16115133 0.281103 0.37516677 0.631582 0.86676306 0.11796354 0.48511228 -0.039364826
0.39976758 0.37176976 -0.16851439 0.0010556104 0.27247754 0.42903447 0.2571053 0.44332722
0.04073644 0.66728306 0.75980675 0.7398228 0.06282923 0.18815224 0.6869318 -0.012120881
0.6901479 0.28151804 0.33078593 -0.080752775 0.5419864 0.311747 -0.0777904 0.05099699
-0.05306713 -0.06559619 -0.2614714 -0.0007121912 -0.21107616 0.48785532 0.22350684 0.4013865
0.118716046 0.4266178 0.05175574 -0.13510698 -0.06523333 -0.010973587 -0.04280068 0.52105176

hidden_layer2.weight f4 [32, 64]
00000000: 6f3f 353e c905 5f3d fb09 63bd 7108 1fbe
00000010: 6d8b 263e 1ebb 6dbf f173 ac3e 3bc4 1b3c
00000020: 68af 2cbf 2104 703e 21c0 afbd e635 ca39
00000030: 2b58 e7bc c873 10be 397e c4bf daf6 f3be
00000040: 97d3 a13e 67f9 f23d 4f92 453e a2b9 223e
00000050: af4f 053e 24d2 7abf a6fc 233e 0f1c 03bd
00000060: 0295 713d a5da b93e 8ab0 b1be f062 ba3e
00000070: e186 6a3e 6c7f 89bc 54da 9e3e e31f 483e
00000080: 78de c2bf 2c51 193f b162 22bd cdd1 653e
00000090: 34c0 ffbd 98e1 3d3e 4adb 643e 5d6e d53b
000000a0: af06 5c3d 59be febd 3c7b 863e b6c5 3abd
000000b0: 6725 823e b0ac 903e 5cd7 4f3d 56e4 3bbd
000000c0: 36be 833f ed27 2ebd abe5 f5be 9b4c c43b
000000d0: a3c3 193e 2b6e 033f ecf6 9bbb eeee 5f3f
000000e0: 6610 b13c 6d60 d23d 5a62 20be 6fe7 dabd
000000f0: 24d9 95bc 5217 a03c b68d e5bd 763f 623e
00000100: 0fa3 a0bd fe79 2a3d 0add 25bd f4c4 8fbe
00000110: 9f42 153d 88b7 f6be 0618 77bf 91b8 5b3d
00000120: b345 35bf dd38 4ebf 5be7 f0bc 6800 5e3e
00000130: fd0a ae3d c9b6 e2be 18d2 f73e db3c 4fbe
00000140: 7b4d cebc 5d28 f13d 5a5a 343e 6cb7 42bd
00000150: d082 0d3e 5190 90bc 4325 5fbd cdbf 3e3d
00000160: 26c4 41bf ffb5 6fbe 86f0 73bf 9745 87bc
00000170: b6b2 8e3e b4bc 2abe 1790 f63d ad9a a43e
00000180: a0f1 0d3f 708f 243f b2da e9bd d15d 3a3e
00000190: e965 6cbf 61f0 0bbf 553f bd3d f716 42bf
000001a0: 974b 2e3d d75d cb3d 2c2b c43e a5c5 533c
000001b0: da26 31be c5d1 743e 6016 5b3c a127 0e3f
000001c0: 0e4d 073f a54b e93c c3c9 f73e ebd9 6bbe
000001d0: c22e 743d 1f76 753e 2d8a 133d 1fc3 fa3d
000001e0: ae15 783f c499 95bd c55a 05be e7fe 8d3e
000001f0: 7597 84bd eda3 193d 174b 6b3f 0921 89be
00000200: f140 003e 185e 3f3e c5d8 303c b28e bd3c
00000210: ef4b 003e a027 26be 339e 1a3f e21a ab3d
00000220: f29d a83d 8e21 61be 77aa 08bd 09a3 3dbd
00000230: 0951 e03c 8c96 833e 5ef4 8a3f 7099 2b3f
00000240: ae8a 50bd f7f5 ee3d 8529 eb3e 0c94 da3d
00000250: 31ba f23d 3cf9 3abe 384e 83be f105 64bd
00000260: cfe3 513a 06a4 263c d790 0e3c f1a8 9e3d
00000270: 09b4 bcbd 38e7 083e b15a d03d dc0b da3c
00000280: 6d36 4b3f f684 b13e 5c30 443e bb0a fa3c
00000290: a546 d53d 6358 293d 1b22 e2bd ca98 ff3d
000002a0: 51eb 233c 594d 7e3e d9c3 9b3e a736 293c
000002b0: e6df dc3d 5072 103e a94f aa3c 103a 833c
000002c0: b47a c43e f944 93bc 1f87 cf3d 4580 ae3d
000002d0: d6a3 5bbd 171e 44be 5dc0 a83c 5f96 953c
000002e0: 8c2d 6f3d 919e f23d b086 163e 0048 0fbe
000002f0: d539 0f3d 6b31 e13d ef81 dc3d b233 803d
00000300: bff5 26be 404f 1b3d 00f4 973d 41ad 01c0
00000310: 2a52 0340 d1cd 38bf 46ab 3dbf 2472 00bd
00000320: 439d 2cbe c6ed 3ebf 729a 113e cf69 c53f
00000330: 1861 563b d38c aebe ffd2 88bf 0df4 5f3e
00000340: 1ac0 073e bff7 fa3d b701 0fbe a7a6 173f
00000350: 7050 3bbe ca0e 8f3e 8f03 de3e 56f1 68bd
00000360: a04e 02bf 973e 28bf 31d6 bd3e 2d55 e53e
00000370: b4b9 59be 4724 0fbe e9e4 cd3e cb00 dcbe
00000380: 54f3 bb3c 0be0 ee3e 88ec 29be d44b 303e
00000390: 22b8 aebe 5398 3f3f 5f31 833d e9fc babd
000003a0: 6ccd b23e 3b94 13be f6a5 a13e 43c2 a2bd
000003b0: f2ee f4bd 2d82 233e c034 27bd ace3 25be
000003c0: 8764 633e ce26 90bc 36f0 67bf 4945 0ebe
000003d0: 33a5 8bbf d0b7 fabf 96dc 2cbf fded 473f
000003e0: bf4c 2a3f 03e6 fdbe da51 70be 3b3f 70be
000003f0: 3752 793d eecb 563d 029d 94be 01b4 ab3e
0.17699979 0.054448877 -0.05542944 -0.15530564 0.16264124 -0.92863643 0.33682206 0.009507234
-0.6745515 0.23439075 -0.085815676 0.000385686 -0.028240284 -0.14106667 -1.535102 -0.4764927
0.31606743 0.11863976 0.19294094 0.15891126 0.13018678 -0.979769 0.16014346 -0.03200918
0.058979996 0.36299625 -0.34705 0.36403608 0.22903015 -0.016784392 0.31025946 0.19543414
-1.5224142 0.59889483 -0.0396449 0.22443314 -0.12487832 0.18543088 0.22349277 0.0065134005
0.05371731 -0.1243865 0.26265895 -0.045598708 0.2541916 0.2825675 0.050742492 -0.045872055
1.0292423 -0.042518545 -0.48026785 0.0059905774 0.15016036 0.5133998 -0.00475966 0.8747395
0.021614265 0.10272298 -0.15662518 -0.10688674 -0.018292017 0.01954237 -0.1120867 0.22094521
-0.07843601 0.041620247 -0.040494002 -0.2807995 0.036440488 -0.48186898 -0.9652103 0.053642813
-0.7080948 -0.80555516 -0.029407194 0.21679842 0.084981896 -0.4428008 0.48402476 -0.20238058
-0.02518343 0.11775277 0.17612591 -0.047538206 0.13819432 -0.01764694 -0.054478895 0.046569634
-0.75689924 -0.2340927 -0.95288885 -0.016512675 0.2787072 -0.16673547 0.12039202 0.32149258
0.55446815 0.6428137 -0.11418666 0.1819985 -0.92343 -0.54663664 0.09240595 -0.7581629
0.042552557 0.09930008 0.38314188 0.01292554 -0.17299977 0.23908146 0.013372034 0.5552922
0.5285195 0.028478453 0.4839612 -0.23032348 0.059614904 0.23970841 0.036020447 0.12244248
0.9690808 -0.07304719 -0.13022907 0.27733538 -0.06474201 0.037509847 0.91911453 -0.26783016
0.12524773 0.18688238 0.010793869 0.023139331 0.12528966 -0.16226053 0.6039764 0.08354737
0.08233251 -0.21985456 -0.033365693 -0.04629806 0.02738239 0.25700796 1.0855825 0.67031
-0.050913505 0.11668008 0.45930114 0.10672769 0.118519194 -0.18259138 -0.25645614 -0.05566973
0.00080066634 0.010170942 0.008701525 0.07747067 -0.092140265 0.13369453 0.10173548 0.026616983
0.7937992 0.34671754 0.19159073 0.030522695 0.10413865 0.041344058 -0.11041661 0.12480314
0.010004834 0.24834193 0.30422857 0.010327972 0.10784893 0.14106107 0.020789938 0.016018897
0.38374865 -0.017977225 0.10133194 0.08520559 -0.053623043 -0.19152103 0.020599538 0.01826018
0.058393046 0.118466504 0.14699817 -0.1399231 0.034967262 0.10995754 0.1076697 0.0625986
-0.16304682 0.037917376 0.07419586 -2.0261996 2.05189 -0.7218905 -0.7408947 -0.031358853
-0.16856866 -0.74581563 0.14219072 1.5422915 0.003271168 -0.34091815 -1.0689391 0.21870442
0.13256875 0.12254285 -0.13965498 0.59238666 -0.18292403 0.2794097 0.4336209 -0.05687078
-0.5090122 -0.65720505 0.37077478 0.44791546 -0.21262246 -0.13978682 0.40213707 -0.42969355
0.022943176 0.46655306 -0.16594136 0.17216426 -0.34124857 0.74841803 0.06405901 -0.0913027
0.3492235 -0.14412014 0.3157193 -0.07947209 -0.11959638 0.15967627 -0.04082179 -0.16200131
0.22206317 -0.017596629 -0.9060091 -0.13893618 -1.090979 -1.9587345 -0.6752409 0.78097516
0.66523355 -0.49589548 -0.23468724 -0.2346162 0.06086942 0.052440576 -0.29026037 0.3353577

hidden_layer2.bias f4 [32]
00000000: 9fbe f63e b9df 1e3f 32ca 163f 692e 343f
00000010: 8757 283f 94d2 b93e 64db 30bd 2ad7 0c3f
00000020: 015d 2abe 4f6d 123f 6a6f d4bd 0d5a 913c
00000030: 0f37 393f f00d 2d3f 5e46 383f 13b2 c03e
00000040: 6c89 f23d c739 91bd 2756 e63e 9db0 f93e
00000050: bee4 833f 4a4f 2c3f 73a0 a13e 912a 91bd
00000060: 5273 213f 5c05 4a3f 94d9 dc3e 31ec 1cbe
00000070: 4ba6 adbd 3037 de3c 9143 23be 3d57 dc3e
0.48192307 0.62060124 0.58902276 0.70383316 0.65758556 0.3629347 -0.043177977 0.55015814
-0.1663704 0.5719804 -0.10372813 0.017743135 0.7234964 0.6759939 0.7198237 0.3763586
0.118426174 -0.07091098 0.44987604 0.48767558 1.0304182 0.67308486 0.31567726 -0.07088197
0.6306659 0.7891443 0.4313475 -0.15324475 -0.084789835 0.027125925 -0.15943743 0.43035308

hidden_layer3.weight f4 [16, 32]
00000000: 6115 473e 5c02 413f 2589 dd3d 2e02 223f
00000010: 8d24 72bd 846c b23f 0259 bb3d 86b4 2f3e
00000020: ff40 12bd 2ef0 2c3e 56df fabd 7a39 b4bd
00000030: 8cd9 9d3f 1429 c53d f349 12bf 9b9f d13d
00000040: 692b 7b3d 2fc3 a73c 5eef 3b3e 9fae 1e3e
00000050: a5f6 a23e 83b5 1f3e 3df6 7a3e 5e37 4b3d
00000060: cd65 3d3c 67a3 3d3f bdac b0bd c8d8 e0be
00000070: aa0e f13c 9016 08bf 88ce acbe 2eec 163f
00000080: acc8 cb3c 5620 313f e7b6 e13d 1825 5c3d
00000090: af0d a53d 3e63 ad3f 4ac1 1a3d cc1d 473e
000000a0: fed3 d03d 41bc af3e c079 693d 1e2a 663c
000000b0: 452f 7b3f ccec 06bd 7d5a 0ebf e3e7 073e
000000c0: 3f09 d43e 97ed e03e c6c1 283e 5e65 543e
000000d0: 658f 2bbd 4ef8 b0bc 34cf 493e 2729 a13b
000000e0: 7bb2 fbbe aea2 473f 4c66 913c e5c4 27be
000000f0: 53ba 47bd 612e 41be 8edf 6b3e 710c 0b3f
00000100: c69a 98bd 1a97 643d a3dd 39bd ee7a 14bd
00000110: 71db b9bd 35ce e93d 9d90 083d 0b5a 20bd
00000120: 16ab dfbd fad0 bc3c a21a e2bc c731 74bb
00000130: a156 a03c 2269 d1bd 146e eabd 3d07 d7bc
00000140: a4f3 c9bc 8d1a 323c fcdb 8b3c 6f84 863d
00000150: 632c 8e3b 5c76 573d ee88 8bbd b664 273d
00000160: 8a65 babd 38b8 35bd e378 a8bc e163 173b
00000170: 39c6 9dbb a9a2 9fbd 0437 a8bd dcf0 eabd
00000180: e4dd 74bd 14e6 193f 8302 c4bc 5392 c9bf
00000190: 3885 003e e921 b93f b152 923d d23f 843e
000001a0: a581 6dbd 2eab 1f3e b72f 86bd f530 d93d
000001b0: 6210 233f 1a5a a3bd 9f4c c2bf a229 f7bd
000001c0: b6a6 4f3f 018d 8a3f 024c b73e 5bf4 033e
000001d0: 25f4 5bbf 58bd c2be b4fd df3e 0bb1 c43b
000001e0: 77fc 583e 1201 2a3f 338a 643e fa80 a9bd
000001f0: 3df6 453d ef31 063e 21e6 3d3f 858f af3e
00000200: ba51 c63e c45c 143f 795f 263e 5494 ea3f
00000210: 1a44 653e d2b3 a83f 5ce7 2e3d be78 c43e
00000220: 5866 ad3d e832 8d3e 447f 9ebd 5fbc ef3d
00000230: 9a60 c63f 13c5 6a3e ca54 0ebf 2037 e73d
00000240: da57 19be b8ce 55bd d77b 7e3e 5e18 363e
00000250: d927 f13e 267b 873e 527f 9b3e 1be3 43bd
00000260: ec54 a0be ae92 173f 597b 0e3d cbd9 42bf
00000270: baf4 033e c9a1 84bf b8c2 2cbf ffa3 323f
00000280: 28d8 1ebe d185 10be 9d4d dbbc 1a18 bd3c
00000290: 5f8f babd f810 28bd 7c60 afbd 5d0d c7bd
000002a0: c28b eabd 7d9e bcbd 3e0d 223d 6b8a 973d
000002b0: c23e f1bd 5de4 77bb fb76 f6bd 596a 9e3d
000002c0: 16b0 373d 3cc7 753d 5366 adbd b645 15bd
000002d0: 8ab3 d5bd 4989 d0bd 60cd 493d c97d 813d
000002e0: 9926 0cbd 639a c73a b1d2 a1bd e0ee 053b
000002f0: 8c56 cfbd d973 89bd 84b1 de3c 9846 18bd
00000300: 07f1 843d 6b44 b8bc 08f7 fb3c 4728 4a3d
00000310: 0551 eabd 1fdb c9ba d2c6 a7bb d040 043d
00000320: 7977 ed3d 9929 63bd f9fe 0a3d 0330 98bd
00000330: cad4 76bd 8526 9dbd b983 b3bc 14ee a63d
00000340: 3e89 3fbd b219 c4bd f8cf c7bd a304 c3bc
00000350: 6cb0 873d 8180 97bd 7ee7 093c d705 0f3d
00000360: 717e dcbd 0e8f 6cbd 3dcc 82bb 4802 8ebd
00000370: 4190 3e3d 8f1a 7fbd 7168 a83d ed71 d7bd
00000380: b55a f93d e5d9 2c3f 07f1 1f3e 5c53 b8bd
00000390: c684 1b3d a11d 983f 31b3 833d e180 ef3d
000003a0: 6bae f6bd e0ba 633e 9e2b 0d3d 2e3f 61bd
000003b0: 95d2 843f da03 afbd 3c17 03bf beb9 4ebb
000003c0: 3257 a03e 6bd1 263f 48bc c33d 2298 d93c
000003d0: 0ce7 573d 42f6 d63c 236e 553e 4433 0abc
000003e0: 94be 7ebe 15c1 153f daf5 273e 7e00 9dbe
000003f0: 367a a9bd c473 7cbe 4ae7 e3be 16cf 1b3f
0.19441749 0.75394225 0.10817174 0.63284576 -0.05911689 1.3939366 0.09147836 0.17158708
-0.035706516 0.16888496 -0.12249629 -0.08800025 1.2332015 0.09626976 -0.5714409 0.102355205
0.061320696 0.020478813 0.1835303 0.154963 0.318288 0.15596585 0.24507995 0.04961335
0.011559916 0.7407746 -0.08626697 -0.4391539 0.029425938 -0.5315943 -0.3375132 0.5895413
0.024875961 0.69189966 0.11021214 0.053746313 0.080592506 1.3545911 0.03778199 0.1944496
0.10196684 0.34323314 0.057000875 0.014048127 0.98119 -0.03294067 -0.55606824 0.13272052
0.41413304 0.43931267 0.16480169 0.20741794 -0.0418848 -0.021602776 0.19707948 0.004918236
-0.49159607 0.77982605 0.017748974 -0.16383703 -0.048761677 -0.18865348 0.23034498 0.5431586
-0.07451396 0.055808164 -0.045377385 -0.036250047 -0.09075058 0.11416284 0.03334104 -0.03914837
-0.10921304 0.023048867 -0.02760059 -0.0037261115 0.019572558 -0.102251306 -0.11446777 -0.026248569
-0.02465231 0.010870588 0.01707267 0.065682285 0.0043387874 0.05260311 -0.06813227 0.04086753
-0.09101398 -0.044365138 -0.020565456 0.0023100304 -0.0048148897 -0.07794697 -0.082136184 -0.114717215
-0.059781924 0.60116696 -0.023926979 -1.574778 0.12550819 1.4463474 0.071446784 0.2582994
-0.057984967 0.15592644 -0.0655207 0.10605041 0.63696873 -0.0797617 -1.5179633 -0.12068488
0.81113756 1.0824281 0.35800177 0.12886183 -0.8591941 -0.38035083 0.43748248 0.0060025505
0.21190058 0.66407883 0.22318344 -0.082765535 0.048330534 0.13104986 0.74179274 0.34289184
0.38734227 0.5795405 0.16247357 1.8326516 0.2238926 1.3179877 0.04270111 0.3837337
0.08466786 0.275779 -0.07739118 0.11705851 1.549823 0.2292674 -0.5559813 0.11289811
-0.14974919 -0.052199095 0.24851929 0.17782733 0.47100714 0.26461142 0.30370575 -0.047824007
-0.3131479 0.5920819 0.034785602 -0.76113576 0.12886325 -1.0361873 -0.6748462 0.6978149
-0.15512145 -0.14113547 -0.026770407 0.023082782 -0.09109377 -0.041031808 -0.08563325 -0.09719346
-0.11452438 -0.09209917 0.03956341 0.07399448 -0.11779548 -0.0037825324 -0.120344125 0.07735128
0.044845663 0.060004458 -0.084667824 -0.036443435 -0.10434635 -0.10182435 0.049268126 0.0632282
-0.034216497 0.0015228506 -0.07901514 0.002043657 -0.101239294 -0.06711549 0.027184255 -0.0371767
0.06491285 -0.022493562 0.030757442 0.049354818 -0.114412345 -0.0015400386 -0.005120137 0.032288373
0.11595053 -0.055459592 0.033934567 -0.074310325 -0.060261525 -0.07673363 -0.021913396 0.081508785
-0.046761744 -0.095752135 -0.09756464 -0.023805922 0.06625447 -0.07397557 0.008417008 0.03491768
-0.10766304 -0.057753615 -0.0039916323 -0.06934029 0.04652429 -0.062281188 0.082230456 -0.105197765
0.12175504 0.6751998 0.15619288 -0.090002745 0.03796842 1.1884042 0.064306624 0.116945036
-0.12044986 0.22239256 0.034465425 -0.054991893 1.0376765 -0.085456565 -0.5120733 -0.0031543816
0.31316525 0.65163296 0.09557396 0.0265618 0.052710578 0.026240472 0.20842795 -0.008435074
-0.24877387 0.58497745 0.16402379 -0.30664438 -0.08275263 -0.24653536 -0.44512397 0.60862863

hidden_layer3.bias f4 [16]
00000000: fc02 063f f0b7 fa3e ec5c 9f3d ec6d 64bd
00000010: 9b0f 913f b64d 9a3d 1fe9 e4bd 575b 063f
00000020: 2978 e5bd 96a9 253e dc03 023f c7c1 49bf
00000030: f07e f43d ab0c 223d 4d62 6c3f c748 ccbd
0.52348304 0.48968458 0.07781395 -0.055768892 1.1332887 0.075343534 -0.11177277 0.52483124
-0.11204559 0.16177973 0.5078714 -0.78811306 0.11938274 0.039562862 0.92337495 -0.09974819

out_layer.weight f4 [2, 16]
00000000: 5ed3 e63e d4fd 173e e9b3 59bd eb26 d3be
00000010: 864c 343f ef8e d4bd 2a2a 483c 2e94 6d3e
00000020: a14e 6d3c 0a81 21c0 a9e0 9e3e 602e 26c0
00000030: 02c0 e73f 86d8 cdbd 82f5 253f 9ecc a33d
00000040: a9a0 7b3e 16bb 0b3f 0baa 293e c2f0 463f
00000050: d533 ce3c 95bc fb3c 8806 ad3d 7f45 f53e
00000060: 6669 e23d ed92 7cbe 7e9e e43e 0396 0cc0
00000070: 1007 e83f 9732 47bc 58b2 963e 8f5c 5d3c
0.45083135 0.14842921 -0.05315009 -0.4124063 0.70429265 -0.10378825 0.012217084 0.23201057
0.014484079 -2.523501 0.31030777 -2.5965805 1.8105471 -0.10051064 0.6482774 0.07998012
0.24573006 0.54582345 0.16568772 0.7771112 0.0251712 0.030729571 0.08448511 0.47904584
0.110552594 -0.24665423 0.4465217 -2.196656 1.8127155 -0.012158058 0.2943294 0.013510837

out_layer.bias f4 [2]
00000000: 35af 053f 58c9 373e
0.5222047 0.179479
