models/DQNtoggle_param1.pth (torch, 110633 bytes, 8 tensors)

hidden_layer1.weight f4 [64, 378]
0.05556369 0.0023218745 0.036676213 0.090572886 0.07901719 -0.044850834 -0.051441435 0.12427563
0.17127857 0.1303877 0.085380286 0.02506641 0.026531858 0.036430694 0.049933128 0.10469189
0.04466323 0.019101504 0.009024111 0.08577169 0.11084424 -0.032799516 -0.04639865 -0.12917106
-0.13242054 -0.0073231403 0.014835068 0.07519184 0.091158986 0.12572715 0.20840216 0.22018659
0.08077945 0.3120381 0.16863258 0.02638483 -0.033255067 0.11718434 0.020421358 0.0010888233
0.03338337 0.043714948 -0.09470442 0.059996333 -0.04187053 -0.042678416 0.0123276 0.038446646
-0.055037487 0.025299158 0.08767942 0.104478374 0.15950824 0.008331919 0.045091935 0.14273508
-0.01838744 0.105644 0.043911517 0.18204021 0.101657644 0.085552454 0.10553857 0.049210127
0.028174173 0.057424467 0.058036525 0.044615082 0.055578295 0.011149161 0.0036805682 0.017961012
0.07830119 0.005946682 0.015665207 0.049082875 0.05787243 0.06095574 0.036585785 0.038244884
0.012766257 -0.015136637 0.070002526 0.0067520062 0.015506901 0.017132852 0.00034830897 0.01668382
-0.049864147 -0.026170019 -0.020096896 0.010944214 -0.00457963 0.030112252 0.028378112 -0.005925037
0.047369417 -0.016611908 0.06419493 0.0023932862 0.04928541 0.0018082641 0.0084565235 0.0105833085
0.03926957 0.0694012 0.03675811 -0.00452203 0.089037076 0.00010782636 0.079214714 -0.0014055051
0.015596755 -0.0133199645 0.021994213 -0.00016597474 -0.03468814 0.0066610742 0.035005547 0.057642147
0.06047141 0.024460105 0.04390949 0.049147323 0.076018155 -0.0025416925 -0.07177519 -0.048863422
-0.0008085277 -0.012146197 -0.025293946 -0.060900766 -0.018445518 -0.02867971 -0.028823659 -0.07894041
-0.041599974 -0.04922638 -0.079459675 -0.05683371 0.00064365054 -0.036711615 0.011843714 -0.021859538
-0.053651787 -0.042931765 -0.08406756 -0.035305776 0.0067642652 -0.06160258 0.00014118869 0.010157827
-0.048656788 -0.01984389 -0.047691993 -0.013911474 -0.053805035 0.010349434 -0.042566445 -0.026601804
-0.017824508 -0.05554585 -0.020389942 -0.08067666 -0.06975784 -0.06705085 -0.06219695 0.010925153
-0.04126977 -0.07254217 -0.04137178 -0.041880697 -0.020795867 -0.0051057846 -0.05889551 -0.06815305
-0.08628617 -0.030406598 -0.0745298 -0.034481227 0.009942978 -0.055029538 -0.085809305 -0.07433153
-0.06065319 -0.07043013 -0.055023026 -0.051651448 -0.052444115 0.05018338 0.0034833967 0.050749548
0.013190316 0.04080423 0.016466014 0.008692057 0.03553284 0.016298011 0.09256706 0.035737872
0.058100514 0.020150281 -0.006490902 0.05932661 0.0934487 0.009182293 0.04024861 0.022785686
0.033173345 0.04305119 0.051867977 0.069569916 0.0025213645 -0.0040658587 0.06309678 0.005148912
0.06493172 0.04249311 0.021006562 -0.0023889088 -0.0063498206 0.05483271 -0.0010805542 0.03605832
0.0010466981 0.021859573 0.005176955 0.06129778 0.026165923 0.05062297 0.057461433 -0.00035807453
-0.0020324178 0.015076371 0.053101566 0.06552609 0.029665107 0.023633333 0.06984612 0.02024493
0.06728561 0.053869843 0.050646655 0.052734148 0.007098701 0.08016894 0.07530735 0.040866032
0.03835559 0.054483242 -0.00391859 0.04932616 0.12892461 0.13604769 0.084758624 0.076682664
00000000: c096 633d 972a 183b cc39 163d 477e b93d
00000010: c4d3 a13d 82b5 37bd 41b4 52bd 3984 fe3d
00000020: a663 2f3e 5a84 053e dcdb ae3d 1258 cd3c
00000030: 5759 d93c 5a38 153d ae86 4c3d b468 d63d
00000040: cbf0 363d c27a 9c3c ddd9 133c 11a9 af3d
00000050: 4e02 e33d c958 06bd 830c 3ebd 6b45 04be
00000060: 4099 07be f4f6 efbb c90e 733c 2efe 993d
00000070: 90b1 ba3d 9ebe 003e 6067 553e 9878 613e
00000080: b26f a53d 75c3 9f3e 05ae 2c3e 0025 d83c
00000090: 7736 08bd 58fe ef3d b14a a73c d9b6 8e3a
000000a0: 00bd 083d 720e 333d 64f4 c1bd b7be 753d
000000b0: 6f80 2bbd 90cf 2ebd b4f9 493c 3b7a 1d3d
000000c0: fd6e 61bd 2e40 cf3c 4591 b33d c2f8 d53d
000000d0: 2156 233e 9a82 083c 52b2 383d 2529 123e
000000e0: 42a1 96bc e25b d83d 90dc 333d c068 3a3e
000000f0: e231 d03d 2036 af3d 9b24 d83d 8f90 493d
00000100: 86cd e63c eb35 6b3d b5b7 6d3d 4ebe 363d
00000110: 11a6 633d f8aa 363c b035 713b f922 933c
00000120: 605c a03d 62dc c23b 5254 803c 200b 493d
00000130: a40b 6d3d baac 793d fada 153d aba6 1c3d
00000140: 9029 513c a8ff 77bc 7c5d 8f3d ef3f dd3b
00000150: a810 7e3c 325a 8c3c 3d9d b639 82ac 883c
00000160: 593e 4cbd 8262 d6bc 3fa2 a4bc 5c4f 333c
00000170: b910 96bb f8ad f63c 3779 e83c d026 c2bb
00000180: 6f06 423d b215 88bc a278 833d aed8 1c3b
00000190: 80df 493d 4603 ed3a 3b8d 0a3c 9d65 2d3c
000001a0: 21d9 203d 3722 8e3d ac8f 163d 892d 94bb
000001b0: 1259 b63d d620 e238 533b a23d ed38 b8ba
000001c0: 8889 7f3c fb3b 5abc 352d b43c 8109 2eb9
000001d0: 2715 0ebd 2445 da3b fa61 0f3d 2c1a 6c3d
000001e0: dfb0 773d 8f60 c83c 70da 333d b44e 493d
000001f0: 68af 9b3d 8692 26bb dffe 92bd 0325 48bd
00000200: 60f3 53ba d800 47bc 4035 cfbc 1573 79bd
00000210: 0e1b 97bc b6f1 eabc 981f ecbc 82ab a1bd
00000220: bc64 2abd 9aa1 49bd c1bb a2bd 77ca 68bd
00000230: a8ba 283a eb5e 16bd 230c 423c c612 b3bc
00000240: fac1 5bbd 38d9 2fbd 9d2b acbd ca9c 10bd
00000250: c5a6 dd3b fd52 7cbd 0d0c 1439 046d 263c
00000260: 574c 47bd a78f a2bc ae58 43bd f3ec 63bc
00000270: ab62 5cbd ac90 293c 275a 2ebd 07ec d9bc
00000280: b404 92bc 0c84 63bd cf08 a7bc ce39 a5bd
00000290: 33dd 8ebd f551 89bd 3bc2 7ebd 6aff 323c
000002a0: 7e0a 29bd fd90 94bd 7575 29bd 188b 2bbd
000002b0: 185c aabc 6d4e a7bb 6b3c 71bd d493 8bbd
000002c0: ceb6 b0bd 4217 f9bc 14a3 98bd 303c 0dbd
000002d0: dfe7 223c a766 61bd cabc afbd 213b 98bd
000002e0: 7b6f 78bd ac3d 90bd d35f 61bd 7890 53bd
000002f0: a4cf 56bd 168d 4d3d b349 643b c2de 4f3d
00000300: 321c 583c 5622 273d bce3 863c 2169 0e3c
00000310: e28a 113d 6883 853c cc93 bd3d e061 123d
00000320: cefa 6d3d 3412 a53c a2b1 d4bb 7600 733d
00000330: 0862 bf3d 5471 163c badb 243d 0ca9 ba3c
00000340: c6e0 073d 7256 303d 8473 543d ac7a 8e3d
00000350: 7a3d 253b e53a 85bb e238 813d 34b8 a83b
00000360: ecfa 843d 410d 2e3d f415 ac3c 3d8f 1cbb
00000370: 2812 d0bb 4498 603d 62a1 8dba e4b1 133d
00000380: 5c31 893a d912 b33c 72a3 a93b 6213 7b3d
00000390: eb59 d63c 085a 4f3d ae5c 6b3d f3bb bbb9
000003a0: 5032 05bb e202 773c 0781 593d 8b32 863d
000003b0: 3d04 f33c b19a c13c 7c0b 8f3d b2d8 a53c
000003c0: 0acd 893d a0a6 5c3d de72 4f3d c3ff 573d
000003d0: 389c e83b 9d2f a43d bd3a 9a3d 2463 273d
000003e0: c01a 1d3d d229 5f3d 8467 80bb 3a0a 4a3d
000003f0: d004 043e 1650 0b3e ee95 ad3d cd0b 9d3d

hidden_layer1.bias f4 [64]
0.2884462 0.27356353 0.42472348 0.3874208 -0.35303056 0.54060006 -0.01887946 -0.34645265
0.86093974 -0.44336417 0.4925271 -0.37403977 -0.397184 0.4349802 0.35391375 -0.59584475
0.48535407 0.4140633 -0.42306435 0.11188863 -0.52156496 0.27274275 0.41760558 0.36848506
-0.4845461 -0.18519817 0.29365724 0.36417517 0.3724463 -0.42654234 0.40166563 0.27389577
0.29010433 0.6379483 0.7422748 -0.27817166 0.3498613 0.61379147 0.011754227 0.35025
-0.06134468 0.20711273 0.43973947 0.26771116 0.5796891 -0.12788668 0.37901366 0.09955211
-0.16932121 0.22541276 -0.25120637 -0.67345244 0.082338065 -0.3984949 -0.3190681 0.31351763
-0.27808732 0.36024258 -0.4327552 0.40823582 0.40297556 0.061342146 -0.10916165 0.3198491
00000000: 38af 933e 8510 8c3e 5b75 d93e 055c c63e
00000010: 6cc0 b4be c464 0a3f 19a9 9abc 3e62 b1be
00000020: 8c66 5c3f a100 e3be 832c fc3e 2482 bfbe
00000030: b45b cbbe bab5 de3e 2f34 b53e 4889 18bf
00000040: 5480 f83e 1b00 d43e e49b d8be de25 e53d
00000050: 4885 05bf f0a4 8b3e 66d0 d53e 13aa bc3e
00000060: 6d16 f8be 97a4 3dbe 3e5a 963e 2b75 ba3e
00000070: 48b1 be3e c263 dabe 1ea7 cd3e 113c 8c3e
00000080: 8e88 943e 9450 233f b905 3e3f 846c 8ebe
00000090: 0521 b33e 7021 1d3f cd94 403c f853 b33e
000000a0: 8f44 7bbd 5c15 543e 8825 e13e 7011 893e
000000b0: 8166 143f baf4 02be 140e c23e fae1 cb3d
000000c0: 8a62 2dbe 9ad2 663e 1f9e 80be 6167 2cbf
000000d0: dca0 a83d 8607 ccbe e55c a3be 6285 a03e
000000e0: 7661 8ebe b771 b83e 1792 ddbe 4904 d13e
000000f0: d052 ce3e e741 7b3d 2590 dfbd 43c3 a33e

hidden_layer2.weight f4 [32, 64]
0.13401315 0.09408666 0.06636556 0.061694764 -0.12113177 -0.002415917 -0.008285133 0.01736235
0.21157621 -0.13359514 -0.0011481629 -0.1554362 -0.027359068 -0.08394535 0.12968129 -0.15883675
-0.042955186 0.17774297 -0.2702784 0.058784433 -0.18397973 0.0030054285 0.11046871 -0.0365587
-0.14328769 0.08161028 0.120646074 0.0033501014 0.13996382 0.038220443 -0.0030971041 0.05701237
0.10888778 0.07767181 0.14365448 0.04146643 0.03552993 0.1911237 -0.040006865 0.13251619
-0.31527427 0.076215446 0.106608905 0.021105189 0.006937693 -0.060948778 -0.06372702 0.07493192
-0.08880545 -0.07301256 -0.06538545 -0.19164121 0.1442073 0.07120605 -0.0092526125 0.085987374
-0.045061905 0.0369651 -0.1335115 0.07046563 0.03863988 0.14140046 -0.10553583 0.1236015
0.07935457 -0.05757335 0.11800945 -0.083587326 -0.006641737 0.17790438 -0.051749155 0.06359494
0.2136332 -0.11058686 0.09473173 0.0320508 -0.15573926 0.121927865 0.026168823 -0.1117871
0.077778004 0.21799162 0.05766074 0.07096784 -0.021634925 0.13660145 0.09481509 0.05628438
-0.025587026 0.05730091 -0.053174898 0.09153306 0.060004603 0.12738653 0.069651365 0.06292453
0.17005992 0.079895735 0.20213906 0.08041283 0.17175813 0.12135408 -0.03947711 0.07332757
-0.10167586 0.12055517 0.06468536 0.14811824 0.17945872 -0.0711717 0.124780715 -0.03420854
0.10310274 0.14301626 -0.0821441 -0.106396705 0.22329582 -0.023767494 -0.18872131 0.1281102
-0.23330824 -0.043367203 -0.12357869 0.05679919 0.06364363 -0.01763602 0.104325555 -0.079414286
-0.066143245 0.15460463 0.055575904 0.034743268 -0.11828965 0.23056702 0.18428196 0.15239802
0.06640526 -0.04010916 0.110134654 0.05555117 -0.10643054 0.13427763 0.06166827 0.07865527
0.014860182 -0.004940004 -0.1240043 0.055911895 -0.14262277 -0.048405048 -0.015296031 -0.056337155
-0.23448195 0.060578723 0.049764525 0.1581805 0.068383254 0.0014260875 0.105299175 0.088778704
0.1426072 0.07270817 0.12390452 0.08225168 -0.032220297 0.1844981 0.10557299 0.058402795
-0.18968813 0.14507216 -0.0035119716 -0.014925573 0.006528697 0.08897372 0.16340825 0.055033933
-0.014429997 -0.017304925 -0.03482824 -0.14319885 -0.061320066 -0.120847546 -0.12232312 0.09671911
-0.09940082 0.031008521 -0.18135197 0.061874427 0.10670045 0.1487387 0.008802257 -0.008251546
0.17213055 -0.04031723 0.13052852 -0.04345852 -0.08757462 0.19862586 0.016768506 0.012952834
0.17589149 0.12048814 0.10866908 -0.06052644 -0.009423779 0.050152887 -0.042649794 0.1493545
0.13770628 0.20581079 0.023918707 0.15144698 0.0061234226 0.06667193 0.14222835 0.04645062
0.022075305 -0.05118042 -0.04457265 -0.07182374 0.13989742 -0.06345394 0.009776817 -0.03196946
0.19619803 0.23801221 0.24176766 -0.058428142 0.16592574 0.18371508 0.03733763 -0.022652818
-0.010188353 -0.0059648645 0.1431455 0.13562904 0.15322657 0.00971781 -0.050344624 -0.0389945
-0.0263954 0.123933665 0.07967609 0.27970088 0.18090804 0.009327485 -0.049332675 0.13425083
0.33606023 0.015691275 -0.081343114 0.014697226 -0.0011233847 -0.0058836946 0.13426107 0.04908832
00000000: be3a 093e 82b0 c03d abea 873d a6b3 7c3d
00000010: ef13 f8bd 5d54 1ebb 5ebe 07bc 7d3b 8e3c
00000020: 6fa7 583e 2acd 08be f47d 96ba ab2a 1fbe
00000030: 2020 e0bc 8aeb abbd 2ccb 043e 1aa6 22be
00000040: c7f1 2fbd 4102 363e ee61 8abe f2c7 703d
00000050: 2f65 3cbe b9f6 443b 6b3d e23d 93be 15bd
00000060: 02ba 12be 4a23 a73d 4a15 f73d 608d 5b3b
00000070: ad52 0f3e 0a8d 1c3d c9f8 4abb ce85 693d
00000080: 8e00 df3d 6612 9f3d 291a 133e b4d8 293d
00000090: d587 113d eeb5 433e 3dde 23bd 53b2 073e
000000a0: a16b a1be d816 9c3d c555 da3d cae4 ac3c
000000b0: 9655 e33b 6da5 79bd 5083 82bd e875 993d
000000c0: a2df b5bd 9c87 95bd cfe8 85bd 983d 44be
000000d0: 14ab 133e 7ad4 913d 4598 17bc 261a b03d
000000e0: d592 38bd b768 173d 3db7 08be 4950 903d
000000f0: da44 1e3d 48cb 103e 2b23 d8bd c922 fd3d
00000100: a684 a23d 08d2 6bbd f0ae f13d d52f abbd
00000110: eea2 d9bb 912c 363e ecf6 53bd 103e 823d
00000120: a9c2 5a3e 5d7b e2bd b602 c23d b347 033d
00000130: 1d7a 1fbe 51b5 f93d 0060 d63c a3f0 e4bd
00000140: 134a 9f3d 3239 5f3e ab2d 6c3d 9657 913d
00000150: ba3b b1bc 40e1 0b3e 6a2e c23d 738a 663d
00000160: e29b d1bc 5cb4 6a3d eccd 59bd af75 bb3d
00000170: 63c7 753d 9d71 023e 60a5 8e3d 93de 803d
00000180: 3024 2e3e 60a0 a33d 8bfd 4e3e 7baf a43d
00000190: 5de1 2f3e 7d88 f83d c0b2 21bd c42c 963d
000001a0: 6f3b d0bd a1e5 f63d c279 843d 4fac 173e
000001b0: 07c4 373e 78c2 91bd 088d ff3d 411e 0cbd
000001c0: 8827 d33d db72 123e 2a3b a8bd 84e6 d9bd
000001d0: a9a7 643e 0cb4 c2bc 2940 41be 522f 033e
000001e0: 5be8 6ebe cfa1 31bd d316 fdbd 44a6 683d
000001f0: 9757 823d 6a79 90bc a3a8 d53d f5a3 a2bd
00000200: 1c76 87bd ad50 1e3e 8fa3 633d f54e 0e3d
00000210: d841 f2bd c319 6c3e 69b4 3c3e 3a0e 1c3e
00000220: 7bff 873d 8149 24bd 478e e13d a089 633d
00000230: 41f8 d9bd 1380 093e de97 7c3d 0416 a13d
00000240: 1f78 733c c2df a1bb f7f5 fdbd df03 653d
00000250: b40b 12be 5f44 46bd 349c 7abc cac1 66bd
00000260: 091c 70be 6521 783d e3d5 4b3d 12fa 213e
00000270: 850c 8c3d 8eeb ba3a 18a7 d73d 9cd1 b53d
00000280: 9f07 123e 05e8 943d a7c1 fd3d 9273 a83d
00000290: 6ef9 03bd 12ed 3c3e a736 d83d c537 6f3d
000002a0: 9b3d 42be cc8d 143e 1b29 66bb 648a 74bc
000002b0: aeee d53b db37 b63d 7e54 273e 436b 613d
000002c0: cb6b 6cbc 0fc3 8dbc 0ea8 0ebd b8a2 12be
000002d0: c02a 7bbd eb7e f7bd 8b84 fabd ab14 c63d
000002e0: a892 cbbd 9505 fe3c 55b4 39be 0a70 7d3d
000002f0: c485 da3d f54e 183e 5737 103c 7e31 07bc
00000300: fe42 303e ae23 25bd 45a9 053e 9001 32bd
00000310: 535a b3bd 9464 4b3e 1b5e 893c 2038 543c
00000320: e61c 343e 7cc2 f63d e58d de3d 93ea 77bd
00000330: 3266 1abc 1d6d 4d3d 8db1 2ebd 63f0 183e
00000340: e002 0d3e 10c0 523e 2af1 c33c eb14 1b3e
00000350: fea6 c83b 4b8b 883d 4fa4 113e 0143 3e3d
00000360: 45d7 b43c 8fa2 51bd d091 36bd 5318 93bd
00000370: 4541 0f3e 24f4 81bd f12e 203c 69f2 02bd
00000380: 23e8 483e 79b9 733e f191 773e 5952 6fbd
00000390: 70e8 293e ce1f 3c3e 58ef 183d 6792 b9bc
000003a0: 0ded 26bc e974 c3bb bc94 123e 57e2 0a3e
000003b0: 6de7 1c3e 7337 1f3c 2a36 4ebd b2b8 1fbd
000003c0: 2a3b d8bc efd0 fd3d 382d a33d f434 8f3e
000003d0: f53f 393e 4fd2 183c 0f11 4abd 0d79 093e
000003e0: 1610 ac3e fd8a 803c 3897 a6bd a2cc 703c
000003f0: 893e 93ba 02cc c0bb bc7b 093e d610 493d

hidden_layer2.bias f4 [32]
0.25514078 0.36128655 0.27707127 0.51792485 -0.047992453 -0.44799966 0.12296921 -0.4606567
0.4486828 -0.09797766 -0.51689315 0.031420022 -0.3433667 0.46308038 0.040579155 -0.06263423
0.3397125 -0.67217016 0.20441276 -0.2946579 0.3959796 0.46263945 0.009086487 0.4436897
-0.33651143 -0.47695985 0.19724728 -0.08405665 -0.47776696 -0.06255936 -0.1211783 0.48773083
00000000: d0a1 823e 8dfa b83e 49dc 8d3e b996 043f
00000010: bc93 44bd 3660 e5be 48d7 fb3d 32db ebbe
00000020: c1b9 e53e 83a8 c8bd 1c53 04bf 48b2 003d
00000030: c3cd afbe df18 ed3e 5436 263d 6046 80bd
00000040: ccee ad3e 5813 2cbf 9451 513e 66dd 96be
00000050: d7bd ca3e 14df ec3e 7ddf 143c 4c2b e33e
00000060: 3a4b acbe 1534 f4be 31fb 493e e525 acbd
00000070: df9d f4be 1f1f 80bd 542c f8bd dbb7 f93e

hidden_layer3.weight f4 [16, 32]
0.111920424 0.11144463 0.21567893 0.23274706 -0.23541029 0.05526955 -0.08518377 -0.16652769
0.12977158 0.12895663 -0.10598843 -0.10981866 0.07447703 -0.084453225 -0.08315063 -0.038486533
-0.050729536 -0.24795102 -0.08940732 0.30320945 0.2240334 0.22188796 0.1933814 0.014601309
-0.12345722 -0.16009238 0.023875672 -0.2154584 -0.1690751 -0.24214178 0.028516054 -0.0226008
0.16623978 -0.06289707 0.09434636 -0.047213804 -0.095915474 -0.28140682 0.19380434 -0.068908766
-0.009198123 -0.16027407 -0.10549281 -0.0533599 -0.009604145 -0.015901813 -0.14520292 -0.06806112
0.18734127 0.14369778 -0.0032985855 -0.41640738 0.04053584 0.14135648 -0.04101455 0.24637792
0.08521274 -0.11340404 0.17802171 -0.17493832 -0.0010863047 -0.44892505 -0.019806683 0.13320954
-0.06259063 -0.113068424 -0.063071154 -0.032311354 0.06965956 -0.020458339 -0.11051194 0.01769692
-0.16746835 -0.08611809 -0.03721196 0.06922566 0.13610454 0.07679655 0.15996763 -0.05680435
-0.14618061 -0.12512197 -0.10570412 0.088688895 0.07196707 0.070192665 -0.088603064 -0.15999433
-0.15212657 -0.01788249 -0.100819774 0.07931238 -0.11689612 -0.046400085 0.06321177 0.16618142
-0.07622322 0.21894723 0.0021003715 0.1348347 -0.21233374 -0.2379876 0.031862285 -0.054428253
-0.06730327 -0.064386725 -0.14585619 -0.007726189 -0.217745 0.22400717 0.10897635 -0.14642887
-0.073811494 0.09614868 0.20727812 -0.51575536 -0.029807938 0.21561 -0.6152832 0.04000549
-0.23969813 0.12006638 0.22741096 0.08668843 -0.056745447 -0.17018178 -0.17177047 -0.031019634
0.1804925 0.17017372 0.13157749 -0.07235172 -0.226745 -0.3640489 0.23146427 -0.19490989
0.21631327 0.18504624 -0.03690901 0.013946158 -0.04686978 0.055100337 -0.028495593 0.15067782
0.09148867 -0.08665349 -0.0310469 -0.6282067 0.21076538 0.1456784 -0.44394597 0.18076526
-0.106423646 -0.23050486 -0.06434211 -0.21455505 0.0050282236 -0.1676159 -0.16126151 0.15206955
0.14073484 0.0341113 0.21464281 0.12187932 -0.04011603 -0.26108974 0.053999882 -0.15348132
0.15980199 0.11491843 -0.2576133 0.104206905 -0.19864053 0.079734765 0.21193783 -0.11596644
0.03649662 -0.13054559 0.14062692 -0.26101473 0.008028982 0.12284603 -0.10282867 0.0065696766
-0.25328606 -0.029695181 0.10575176 0.060875174 -0.077022165 -0.20040879 0.17220376 0.11986566
0.078834 -0.00077334524 -0.13789868 0.0760172 -0.23053463 0.0044117435 -0.15700904 -0.2810434
0.035135172 -0.1476515 -0.22849868 0.15267323 0.057365388 -0.14202386 0.14362895 -0.11721505
0.02500673 0.011384002 0.16502316 -0.48981482 0.09219426 0.019750273 -0.2714228 0.17589274
-0.25601503 -0.3008479 0.037494898 0.1320339 -0.12304438 -0.35656518 0.010295413 0.09638018
0.09540853 0.057639457 -0.09057423 0.21835478 -0.22932622 -0.3790024 0.21592505 -0.14289773
0.061378684 -0.08080785 -0.08884459 -0.06513774 0.12654372 0.08695494 -0.053378016 -0.17434093
0.2378074 -0.16169684 0.11938961 -0.35713598 0.090489335 0.059259553 -0.21346834 0.2313875
-0.18292059 -0.30609703 -0.019195855 -0.5283428 -0.12079488 -0.44780028 0.105983764 0.19888252
00000000: 8936 e53d 153d e43d f0da 5c3e 3f55 6e3e
00000010: 650f 71be 5362 623d d474 aebd 3c86 2abe
00000020: d7e2 043e 350d 043e 7610 d9bd 9be8 e0bd
00000030: 6a87 983d d0f5 acbd e14a aabd 0ea4 1dbd
00000040: c6c9 4fbd dfe6 7dbe 2f1b b7bd 453e 9b3e
00000050: 0369 653e 9936 633e c605 463e 543a 6f3c
00000060: 24d7 fcbd 42ef 23be ea96 c33c 20a1 5cbe
00000070: 0622 2dbe 04f4 77be 809a e93c 5025 b9bc
00000080: c33a 2a3e 2ed0 80bd aa38 c13d 4363 41bd
00000090: 556f c4bd 8e14 90be a574 463e 0a20 8dbd
000000a0: b9b3 16bc e31e 24be 9d0c d8bd e98f 5abd
000000b0: b45a 1dbc 8544 82bc 13b0 14be a163 8bbd
000000c0: 64d6 3f3e 8325 133e 152d 58bb 5933 d5be
000000d0: e908 263d c1bf 103e dffe 27bd 7e4a 7c3e
000000e0: 0484 ae3d 6140 e8bd 534b 363e 0823 33be
000000f0: 5662 8eba 81d9 e5be a041 a2bc 1568 083e
00000100: 842f 80bd 6b90 e7bd 732b 81bd e958 04bd
00000110: aca9 8e3d 3f98 a7bc 1654 e2bd 22f9 903c
00000120: d37c 2bbe ae5e b0bd 916b 18bd 2fc6 8d3d
00000130: fd5e 0b3e 8247 9d3d 8ece 233e aeab 68bd
00000140: 5fb0 15be f91f 00be 677b d8bd 86a2 b53d
00000150: 7963 933d 2cc1 8f3d 8675 b5bd 8ed5 23be
00000160: 11c7 1bbe 4d7e 92bc 997a cebd 876e a23d
00000170: 3c67 efbd 040e 3ebd 2c75 813d 762b 2a3e
00000180: eb1a 9cbd b433 603e 63a6 093b 1c12 0a3e
00000190: 046e 59be 05b3 73be 0782 023d 29f0 5ebd
000001a0: 4cd6 89bd 30dd 83bd 535b 15be f92b fdbb
000001b0: 8cf8 5ebe 2362 653e fe2e df3d 73f1 15be
000001c0: 7b2a 97bd 99e9 c43d b740 543e 8b08 04bf
000001d0: c72f f4bc dec8 5c3e 3383 1dbf ccdc 233d
000001e0: 6d73 75be 5de5 f53d 6bde 683e b489 b13d
000001f0: ea6d 68bd 2244 2ebe 99e4 2fbe e31c febc
00000200: 07d3 383e 0542 2e3e 40bc 063e 232d 94bd
00000210: d72f 68be 9e64 babe f804 6d3e 7596 47be
00000220: 3a81 5d3e c37c 3d3e e72d 17bd 6d7e 643c
00000230: 87fa 3fbd e4b0 613d 976f e9bc 494b 1a3e
00000240: 695e bb3d 6377 b1bd 1256 febc 27d2 20bf
00000250: e1d2 573e b82c 153e e34c e3be 871a 393e
00000260: a4f4 d9bd 7709 6cbe ccc5 83bd 52b4 5bbe
00000270: ccc3 a43b 81a3 2bbe bd21 25be 1fb8 1b3e
00000280: cb1c 103e 4ab8 0b3d 53cb 5b3e dd9b f93d
00000290: b550 24bd 8ead 85be fb2e 5d3d 352a 1dbe
000002a0: 22a3 233e 5b5a eb3d e4e5 83be 6e6a d53d
000002b0: 6c68 4bbe fb4b a33d 3b06 593e d07f edbd
000002c0: 7b7d 153d bead 05be 8100 103e b9a3 85be
000002d0: fe8b 033c b396 fb3d d697 d2bd 7146 d73b
000002e0: b6ae 81be 4f43 f3bc 6194 d83d 3f58 793d
000002f0: ccbd 9dbd f637 4dbe 2f56 303e 217c f53d
00000300: b873 a13d 52ba 4aba 5035 0dbe e8ae 9b3d
00000310: 4511 6cbe 6390 903b fac6 20be ece4 8fbe
00000320: e6e9 0f3d f431 17be 8ffb 69be 5f56 1c3e
00000330: f8f7 6a3d b46e 11be 7813 133e 720e f0bd
00000340: eada cc3c f783 3a3c d5fb 283e 02c9 fabe
00000350: 58d0 bc3d 53cb a13c eef7 8abe 3a1d 343e
00000360: 6714 83be bc08 9abe 4094 193d e533 073e
00000370: b1fe fbbd b68f b6be 18ae 283c f962 c53d
00000380: 8c65 c33d 5a17 6c3d fb7e b9bd 6598 5f3e
00000390: 7ed4 6abe 9a0c c2be 751b 5d3e c853 12be
000003a0: 3768 7b3d 967e a5bd 27f4 b5bd ef66 85bd
000003b0: ad94 013e 6e15 b23d e8a2 5abd 6e86 32be
000003c0: c883 733e db93 25be 8a82 f43d 87da b6be
000003d0: 7952 b93d 25ba 723d 7297 5abe d8f0 6c3e
000003e0: 894f 3bbe c0b8 9cbe a040 9dbc 7941 07bf
000003f0: 4e63 f7bd 1446 e5be 040e d93d dca7 4b3e

hidden_layer3.bias f4 [16]
0.42200837 0.17613487 -0.048848942 0.23025268 0.39088187 0.29567125 0.1669445 0.5500979
0.3543841 0.21745287 0.095543586 -0.15615378 0.31758687 -0.2112443 -0.37644663 -0.17578103
00000000: 7b11 d83e b35c 343e d415 48bd 5cc7 6b3e
00000010: ab21 c83e 3962 973e 80f3 2a3e 37d3 0c3f
00000020: d571 b53e f7ab 5e3e 5bac c33d c7e6 1fbe
00000030: bf9a a23e 6d50 58be 9dbd c0be f1ff 33be

out_layer.weight f4 [5, 16]
0.015692705 -0.041311868 -0.11340921 0.14156428 0.16969168 0.28678688 0.25054 0.35705695
0.2906873 0.014403859 -0.16487026 -0.18475525 0.13990396 -0.18253319 -0.19678761 -0.16390827
0.3101444 0.14268939 0.1386567 -0.045295175 0.065803155 0.06198083 -0.28555316 0.16001391
-0.19423296 0.31518936 0.04826643 -0.2078518 0.14556602 -0.19038264 -0.25890154 0.24379201
-0.1657293 0.15862758 0.23567498 -0.05966256 0.28960064 0.042614114 0.31022105 0.104644656
0.25850525 0.09890331 0.29042464 0.16250134 -0.116976894 -0.2625742 -0.2641108 0.18819746
0.16844691 0.28986388 0.19872771 0.1485768 0.2563137 -0.05511435 0.34619048 0.12986
0.14915912 0.17194249 0.13190845 0.08531913 -0.28921527 -0.18081158 -0.016363781 -0.16008586
0.060400777 0.0058419737 -0.09413184 0.25182793 0.019276762 0.24385858 0.19295526 0.24775383
0.044083316 -0.14526024 0.28890744 -0.1006724 -0.25980857 -0.08332101 -0.39136785 0.13793795
00000000: fd8d 803c a236 29bd 1743 e8bd 3af6 103e
00000010: a8c3 2d3e bbd5 923e c746 803e 2bd0 b63e
00000020: f7d4 943e 2afe 6b3c c0d3 28be 7b30 3dbe
00000030: fc42 0f3e fbe9 3abe b182 49be 92d7 27be
00000040: 3fcb 9e3e 2b1d 123e 06fc 0d3e 6f87 39bd
00000050: cec3 863d 9cdf 7d3d 0634 92be b0da 233e
00000060: 01e5 46be 8060 a13e 05b3 453d 1ad7 54be
00000070: 420f 153e abf3 42be be8e 84be 9da4 793e
00000080: f1b4 29be 456f 223e c854 713e ba60 74bd
00000090: 8946 943e 238c 2e3d 4bd5 9e3e f04f d63d
000000a0: cd5a 843e d28d ca3d 8ab2 943e c066 263e
000000b0: 9591 efbd 2070 86be 8839 87be d6b6 403e
000000c0: 597d 2c3e 0a69 943e 477f 4b3e 8424 183e
000000d0: 8d3b 833e 96bf 61bd e13f b13e 05fa 043e
000000e0: 2bbd 183e b111 303e 0213 073e ccbb ae3d
000000f0: 0614 94be ac26 39be 560d 86bc 8ced 23be
00000100: ce66 773d 076e bf3b 32c8 c0bd 97ef 803e
00000110: 4dea 9d3c 10b6 793e 1096 453e 2eb3 7d3e
00000120: b590 343d 1abf 14be adeb 933e 552d cebd
00000130: a105 85be 35a4 aabd 5e61 c8be 9b3f 0d3e

out_layer.bias f4 [5]
-0.006241294 0.32869756 -0.063212164 0.10033375 -0.13116588
00000000: c583 ccbb 0c4b a83e 6175 81bd c87b cd3d
00000010: 5950 06be
