models/DQNtoggle_param1.pth (torch, 110633 bytes, 8 tensors)

hidden_layer1.weight f4 [64, 378]
000000 2c f1 51 3d 98 e9 b7 3c 78 b0 8c 3b d8 79 0e bc
       0.05125539 0.022450253 0.0042934977 -0.008696042
000010 46 75 39 3d 00 2e f9 3c a8 05 3f bc 5d 32 c6 bc
       0.045277856 0.030417442 -0.011659063 -0.024193937
000020 30 01 9d bb b8 bf da bc 42 a5 b5 bc 6d 5b b0 bc
       -0.0047914013 -0.026702747 -0.022173528 -0.02152797
000030 38 ed 9f 3c 3c 13 0b 3d 2c de 0e 3d 7a 8a 80 bc
       0.019522294 0.03395389 0.03487985 -0.01569103
000040 a6 32 b5 bc e8 3d 68 bc bc 54 13 3c 4a b6 8a bc
       -0.022118878 -0.014174916 0.00899237 -0.016932625
000050 68 4e 83 3c 30 e4 84 3b 75 5d 33 bd 46 93 4a bd
       0.016028598 0.0040555224 -0.0437903 -0.049456857
000060 70 bc b4 bb e0 c1 70 3c 58 22 35 bc e0 09 2a 3c
       -0.0055156276 0.014694661 -0.0110555515 0.010378331
000070 a0 ab 34 bb 4c b0 14 3d 68 b4 ab 3c d0 e8 41 3d
       -0.0027568117 0.036300942 0.020960048 0.047341168
000080 a4 d3 92 3c f4 5d 50 bc 0c a3 9a 3c 0c a5 c1 3c
       0.017923184 -0.012717713 0.018876575 0.02363827
000090 d4 0a 2f 3d 94 51 1f bd b4 98 f0 3c 38 71 d2 bb
       0.042734936 -0.03889616 0.02936969 -0.006422188
0000a0 88 59 25 bd 30 7f 82 bc 14 18 4e 3d 2c ef ed bc
       -0.040368587 -0.015929788 0.05031593 -0.02904471
0000b0 5c 26 33 3d 08 04 8e 3b 37 9c 40 bd 17 ee 43 bd
       0.043737754 0.0043339767 -0.047023978 -0.047834482
0000c0 03 de 16 bd b9 3c 4b bd 80 f5 a2 3b fc 5a 02 bc
       -0.03683282 -0.049618457 0.0049731135 -0.007956263
0000d0 38 2e 11 bd 80 13 3c bd d8 4e 17 3d b3 17 db bc
       -0.03544447 -0.045917034 0.036940426 -0.0267447
0000e0 bc ac 40 3d 1c 1b 68 bc ea b9 be bc c8 dd 85 bc
       0.047039732 -0.01416662 -0.02328201 -0.016341105
0000f0 2d 0a ef bc a0 fb af ba bc 40 8b 3c 9e 1e 0e bd
       -0.029179657 -0.001342643 0.016998641 -0.034697168
000100 e4 5e e5 bc da b4 4e 3d c8 95 06 3d 15 16 dc bc
       -0.027999349 0.050465442 0.032857686 -0.026865998
000110 48 80 46 3c 38 dc 90 3c 62 3c 3f bd 25 b4 3d bd
       0.012115546 0.017683133 -0.046688445 -0.046314377
000120 27 ca d0 bc 76 7b 3f 3d bc 9e e2 3c 88 8e a6 bb
       -0.025487019 0.0467486 0.027663581 -0.005082909
000130 e0 87 e0 ba c2 6b 40 3d 3c 1b f2 3c 28 6f e0 3b
       -0.0017130338 0.046977766 0.029554002 0.0068491884
000140 88 4d 69 3c 08 bb dc bb 98 d5 61 3c 80 cd f1 bb
       0.014239676 -0.006736163 0.013783835 -0.007379234
000150 a2 c5 27 3d 11 5e fb bc d7 15 18 bd 9e f7 9c bc
       0.04095996 -0.030684503 -0.037130203 -0.019161042
000160 7a c1 96 bc 4d 16 44 bd 2a 9e 00 3d b0 aa 21 3d
       -0.018402804 -0.04787283 0.031400837 0.03946942
000170 98 1b 80 bc e8 78 d8 3b aa 0a dc bc 58 00 90 3c
       -0.015638158 0.00660621 -0.026860554 0.017578289
000180 ee cb 4a bd de 23 24 3d 30 4f 26 3b 8a e3 f0 bc
       -0.04951089 0.040073268 0.002537679 -0.029405374
000190 ac 0a 8c bc 10 85 44 bc 10 9d 10 bd b8 c2 1f 3c
       -0.017094932 -0.011994615 -0.035306036 0.009751014
0001a0 94 71 92 3c 2f ab b5 bc 6c 73 ef 3c 84 73 07 bc
       0.017876424 -0.022176353 0.029229842 -0.008267287
0001b0 65 b3 36 bd 24 01 12 bd 10 2c 16 3c 2c b8 30 bc
       -0.044604678 -0.03564562 0.009165779 -0.0107860975
0001c0 78 87 ca 3c 3a 7a d7 bc 10 67 76 bc 30 86 79 3c
       0.0247228 -0.0263034 -0.01503922 0.015229747
0001d0 36 1d 24 3d 70 3c d7 3b c3 fc d4 bc e1 c8 cf bc
       0.04006692 0.006568484 -0.025999432 -0.025364341
0001e0 58 5c d6 bb 7a fb 37 3d 10 ed d2 bb c5 64 01 bd
       -0.00654177 0.04491756 -0.0064369515 -0.031590242
0001f0 5e bd bc bc e4 18 7c bc 0e f2 18 bd 3c d6 d6 3c
       -0.023039516 -0.015386794 -0.037340216 0.026225202
000200 90 0b 52 3c f4 dd c9 3c 00 19 21 3a 50 c8 7f 3c
       0.0128201395 0.024641968 0.0006145388 0.015611723
000210 a4 28 97 bc 50 f4 54 3c 90 e2 c9 3c 06 e2 37 bd
       -0.018451996 0.012997702 0.024644166 -0.044893287
000220 83 7a 50 bd 6c 8b 06 bd e4 13 a2 3c 84 93 42 bc
       -0.050898086 -0.032847807 0.019784875 -0.011875991
000230 10 19 69 3c d8 af e1 3c 00 89 2d bd 88 9f f6 3b
       0.014227167 0.02754967 -0.04236698 0.007526342
000240 00 f9 67 bc fe 37 2f bd 40 89 c3 3c 00 ab ae 3a
       -0.014158487 -0.042778008 0.023869157 0.0013326108
000250 06 d8 4a 3d 90 3d 00 3b 5a 12 bd bc 70 38 31 3d
       0.049522422 0.0019567944 -0.02308004 0.043266714
000260 18 7d 2f bd c8 e3 0b 3c 34 63 26 3c 60 36 4a bc
       -0.042843908 0.008538194 0.010155488 -0.012342066
000270 10 80 39 3c 0c de 84 3c b2 6a 32 3d e0 42 da bb
       0.011322036 0.016219161 0.043558784 -0.006660804
000280 ac 0f 18 3c 56 ef a4 bc cd 3a 42 bd b0 98 93 bc
       0.00928108 -0.020133656 -0.047419358 -0.018017143
000290 18 08 2e 3d 8d 22 e1 bc 8e 8c c8 bc 3c 5f c4 bc
       0.042488188 -0.027482295 -0.024481084 -0.023971193
0002a0 48 50 d7 3b e2 d8 2c 3d 80 40 3c bd f7 e6 a9 bc
       0.0065708496 0.042199023 -0.04595995 -0.020740015
0002b0 78 1a d7 bc fb 39 e1 bc b6 27 0a 3d 58 71 38 3c
       -0.026257738 -0.027493468 0.033729278 0.011257492
0002c0 30 91 4d bb 34 8a 90 3c fb c1 cd bc 4a 51 c7 bc
       -0.0031367056 0.017644025 -0.025116911 -0.024330754
0002d0 75 c7 fc bc 80 c4 92 ba b8 bc 24 bd 44 a7 6b bc
       -0.030856827 -0.0011197478 -0.04021904 -0.014383141
0002e0 34 32 e5 3c 44 59 29 3d 38 9f 7a 3c 7a 2b 4c 3d
       0.02797804 0.041344896 0.01529675 0.04984615
0002f0 bc a5 b8 3c c8 85 98 bc 95 f3 a5 bc 68 7d a2 3b
       0.022539966 -0.01861848 -0.02025775 0.0049587972
000300 42 2b 19 bd 96 24 ca bc 3e cf 24 3d d8 cc be 3c
       -0.03739477 -0.024675649 0.040236704 0.023291036
000310 58 28 1a bc a8 ea ee bb 7c 03 0c bd 4c 3e 35 bd
       -0.009409033 -0.007291157 -0.03418301 -0.044248864
000320 c4 b2 f8 3c 1a 6c f9 bc 00 fd bf 39 5c f8 bf 3c
       0.03035868 -0.030447055 0.0003661886 0.023433857
000330 60 d6 51 3b 50 fc 4e 3c 30 d0 4b 3c b0 a7 3e 3b
       0.0032018647 0.012633398 0.0124397725 0.0029091649
000340 16 db d5 bc 32 c0 48 bd 0a a2 37 3d 88 92 a8 3b
       -0.026105445 -0.049011417 0.044832267 0.005144421
000350 98 bd 82 bc 50 43 55 bb 42 34 25 3d ba d9 32 bd
       -0.015959546 -0.0032541342 0.04033304 -0.04366467
000360 4c 64 a1 3c 04 6c b7 bc c1 05 33 bd 18 54 5b 3c
       0.019701146 -0.022390373 -0.04370666 0.013386749
000370 92 cf 8a bc 80 4f da ba d8 28 1b 3c d3 a3 4f bd
       -0.01694468 -0.0016655773 0.009470187 -0.050693344
000380 72 bf fd bc 97 db e9 bc 50 fe 48 3d 9a 63 07 3d
       -0.030975077 -0.028547091 0.049070656 0.03305397
000390 78 2b 37 bc 40 4c 1e 3c be 06 17 3d 10 31 7f 3b
       -0.011179797 0.009661734 0.036871664 0.0038939156
0003a0 84 52 0c 3c 60 68 a9 3c d0 bc 7f 3c c0 a9 a6 bb
       0.008564595 0.020679653 0.015608981 -0.0050861537
0003b0 78 a0 1a 3c 60 e8 4c 3b 48 1a 5e 3c e4 ac 39 bd
       0.009437673 0.0031266436 0.013556071 -0.045330897
0003c0 00 50 56 bb 3c 2a bb 3c 80 8a 39 bc 0a 06 0b bd
       -0.0032701492 0.022847287 -0.011324525 -0.033941306
0003d0 20 f4 ac bb 00 36 1d b9 40 44 2f bd 6a 5d 2f 3d
       -0.0052781254 -0.00014992803 -0.042789698 0.042813696
0003e0 a9 a7 25 bd 88 40 d5 3c 18 42 42 bc 8a c3 40 3d
       -0.040443096 0.026031747 -0.011856578 0.04706148
0003f0 63 91 18 bd 4d 0f 24 bd 5a 65 32 3d 61 d0 b9 bc
       -0.037248027 -0.040053654 0.043553688 -0.02268237

hidden_layer1.bias f4 [64]
000000 d4 9a 2a bd 84 57 4b bc c2 07 04 bd 52 ad 3c 3d
       -0.04165156 -0.012411002 -0.03223396 0.04606373
000010 e6 b7 b3 bc dc ab 1f bd 20 39 95 3b 70 d6 8c 3c
       -0.021938276 -0.038982257 0.004553929 0.017192096
000020 bc 9a 73 bc 30 bb b3 3b a4 c8 d9 bc 08 f5 44 bc
       -0.0148684345 0.005484961 -0.02658493 -0.012021311
000030 a8 41 03 bc c9 06 13 bd 30 b3 64 3c d0 46 d0 bb
       -0.008011259 -0.035895143 0.013958737 -0.0063560978
000040 d4 de e1 3c 34 13 a7 3c 80 47 49 bc 90 e8 e9 3b
       0.027572073 0.020394899 -0.012285113 0.0071383193
000050 9c 5d 12 3d 68 cc 35 bc 2c 85 4a bd 61 20 bd bc
       0.035733804 -0.0110960975 -0.04944341 -0.023086729
000060 c0 23 81 3a a0 16 cc 3c e8 5d 4e 3c d1 15 1c bd
       0.0009852573 0.024913132 0.012595631 -0.038106743
000070 60 bb 63 bb 56 0d 10 3d 28 98 0d bd 19 5c 2c bd
       -0.0034749135 0.03516897 -0.034568936 -0.04208002
000080 30 02 c5 3c bc 03 35 3d 80 c0 fa b9 0c 3f 8c 3c
       0.024048895 0.044193015 -0.0004782714 0.017119907
000090 6c 43 00 bc 70 fe 09 3d 78 f3 44 3d 88 f0 b2 3c
       -0.007828575 0.033689916 0.048083752 0.02184321
0000a0 9c a0 8b 3c b6 cc 2e bd 00 fb 07 b9 b6 27 41 bd
       0.017044358 -0.042675696 -0.00012968108 -0.047157012
0000b0 c0 3c 2d bb f8 b2 0a bc 50 6c b8 3b 94 27 d6 3c
       -0.0026433915 -0.008465521 0.005628146 0.02614192
0000c0 a4 88 dc 3c e8 f5 5b 3c ba ce 45 3d 7c 70 5c bc
       0.026920624 0.013425328 0.048292853 -0.013454553
0000d0 a0 64 c7 3b be c4 2a bd 42 4e d4 bc e0 12 73 3c
       0.0060849935 -0.041691534 -0.025916222 0.014836043
0000e0 d8 4e a8 bb 98 f9 e4 bc f8 a2 64 3c 06 a3 ab bc
       -0.005136352 -0.027951047 0.01395487 -0.02095176
0000f0 3f 9f 02 bd 38 20 e9 3b 40 a0 98 3a 08 1b 0a bd
       -0.03189015 0.0071144365 0.0011644438 -0.033717185

hidden_layer2.weight f4 [32, 64]
000000 9c 26 0b 3d fa e7 b8 3d c0 04 35 bc e0 f3 73 bc
       0.033972368 0.09028621 -0.011048496 -0.014889687
000010 a4 80 4f bd f4 44 f7 3d 1c 1d 8e 3d 12 ae bb bd
       -0.05065979 0.12073699 0.06939146 -0.09164061
000020 90 b3 3f bc a0 ee 10 bc 4c f4 7a 3d ae 50 ff 3d
       -0.011700526 -0.008845955 0.061268136 0.1246656
000030 14 7b de bd 88 f5 95 3d b0 82 12 3c e8 f6 7e 3d
       -0.10863319 0.07322222 0.008942291 0.062247187
000040 78 66 4f 3d 78 29 7a 3d 78 d6 9b 3d fe dc b8 bd
       0.05063483 0.061074704 0.07609266 -0.09026526
000050 3c 54 f1 3d d6 fd f0 bd 44 f8 1f 3d 30 e3 e0 3c
       0.117836446 -0.11767165 0.039055124 0.027452081
000060 24 35 d4 3d 72 2d c2 3d dc 21 5b bd 84 13 22 bd
       0.10361698 0.09481324 -0.053499088 -0.039569393
000070 a2 2f cd bd 14 08 2f 3d 92 0f c0 3d 08 e9 e6 3d
       -0.10018851 0.042732313 0.0937797 0.11274916
000080 c0 7e f3 bd c4 7f 38 3d 14 2b 54 bd 00 cf 7e bc
       -0.1188941 0.04504372 -0.051798895 -0.015552282
000090 e6 70 f4 bd c0 1f 59 bb 54 ab 10 bd 20 b3 d2 3c
       -0.11935596 -0.0033130497 -0.03531964 0.02572018
0000a0 7c 32 a6 3d 3c 2b 7e bd 4e 8a 92 bd 66 c1 85 bd
       0.08115098 -0.06205295 -0.07155286 -0.065310284
0000b0 b6 d0 b0 bd 70 48 07 bc 90 2b 19 3c d6 b5 d1 bd
       -0.086335585 -0.008257017 0.009348765 -0.102397606
0000c0 38 ea 75 3d 16 3a f8 bd 74 4d af bd d8 71 03 bd
       0.06003782 -0.12120454 -0.08559695 -0.03209099
0000d0 12 4e ad bd 98 b5 fc 3c 00 59 9d bb d8 26 9f 3d
       -0.08462156 0.03084831 -0.0048018694 0.07771081
0000e0 32 da c0 3d a6 30 c6 3d a2 f2 f3 3d 80 dd e3 ba
       0.094166175 0.09677248 0.11911513 -0.0017384738
0000f0 62 46 97 3d b0 eb ff 3c 72 75 e6 3d 70 02 96 bd
       0.07386471 0.031240314 0.1125287 -0.07324684
000100 36 e2 cd bd e8 4d 94 bc fc 94 6a 3d 5c b2 0f bd
       -0.10052912 -0.018103555 0.05727099 -0.035082206
000110 de 2f 89 3d 9e 7e 82 bd 4a 5d a9 bd b0 ea 40 3c
       0.06698583 -0.063718066 -0.082697466 0.011774704
000120 0a 57 b9 3d fc a6 20 bd 6e 1d bf bd 60 98 f4 3d
       0.090498045 -0.03922175 -0.09331785 0.11943126
000130 ee e3 c3 bd f4 6a c6 3d 88 a1 e8 3d de a6 9a bd
       -0.095649585 0.096883684 0.11358935 -0.07551359
000140 4a a4 b2 bd 40 ee f5 3c 0c 80 8f bd e6 a6 ea 3d
       -0.08722742 0.030020833 -0.07006845 0.114576146
000150 90 aa b6 bc b0 97 96 bc 6a f1 b5 bd 08 e1 7c bd
       -0.022298127 -0.018382877 -0.08883937 -0.061738044
000160 66 f9 d7 bd d4 f6 94 bd a0 b3 a3 3c a8 4c 15 bd
       -0.10545616 -0.07273641 0.019983113 -0.03645006
000170 c4 9d e4 bd 80 c1 35 3c 32 63 fd 3d 88 79 cd 3c
       -0.11162904 0.011093497 0.12372436 0.025082365
000180 d4 37 42 bd 9a bf be bd 70 92 78 3d b2 56 fe bd
       -0.047416523 -0.09313889 0.06068653 -0.124188796
000190 f0 8e 9e bd 78 28 a4 bd 9c ef d4 bd 1c 4c eb bd
       -0.07742107 -0.08015531 -0.10397264 -0.11489126
0001a0 c2 d5 ee 3d 40 5a d7 3c 3c 74 93 3d 40 c7 db bd
       0.11661865 0.026288152 0.07199904 -0.10731363
0001b0 2a 13 84 bd 82 fd ae 3d 38 51 ae 3d c2 8d d8 bd
       -0.06448968 0.085444465 0.08511585 -0.10573913
0001c0 98 0c 11 bd 90 36 fb 3c dc 11 00 bd 10 40 0e bd
       -0.0354124 0.030665666 -0.031267032 -0.034729064
0001d0 8a 4c d9 bd 18 34 d8 3d 38 6e 04 3d 52 ac d0 bd
       -0.10610302 0.10556811 0.032331675 -0.101891175
0001e0 60 bd 93 bc 2e f7 a2 3d 20 07 15 bc 3a 39 bf bd
       -0.018034637 0.07957302 -0.009095937 -0.09337087
0001f0 e8 8c 87 3d 7c 63 fc bd 30 fb bb bd 24 1b 54 3d
       0.066186726 -0.12323663 -0.091787696 0.051783696
000200 b4 25 4c 3d 90 dc 2c bd ce c9 cf bd a8 38 cf bc
       0.049840644 -0.042202532 -0.10145913 -0.02529557
000210 be 13 ee bd 84 b6 26 3d 9a d8 d7 bd 10 b7 7f 3c
       -0.11624859 0.040701404 -0.1053936 0.01560761
000220 a2 37 d3 3d d8 9d 71 3d be 54 90 bd 0e 47 87 bd
       0.103133455 0.058988422 -0.07047413 -0.066053495
000230 38 e5 88 bd 78 95 5b bd 44 6c 09 bd 08 7c 96 bc
       -0.06684345 -0.05360934 -0.033550516 -0.01836969
000240 c2 92 ed bd a0 9e 81 3b 42 62 94 3d 80 4c 4e 3c
       -0.116002575 0.003955677 0.07245304 0.012591481
000250 80 d8 1c 3b fa d3 a0 3d 80 74 a5 ba f8 92 f3 bc
       0.0023932755 0.07852931 -0.0012623221 -0.029733166
000260 aa a3 92 bd 78 36 45 bd da 11 ba 3d de e8 f3 3d
       -0.07160123 -0.04814765 0.09085436 0.1190965
000270 f2 7e ad 3d 28 ef 08 3d c6 e7 f8 bd 56 21 cc 3d
       0.084714785 0.033431202 -0.12153582 0.09967296
000280 c0 ed e7 bd ac 48 79 3d b8 49 e6 bd 20 bf 58 3c
       -0.11324644 0.06086032 -0.112445295 0.0132291615
000290 70 4a 86 3c 20 27 52 bd 0e d4 e2 3d d8 6d bf bd
       0.016392916 -0.051306844 0.110756025 -0.09347123
0002a0 28 b6 27 bd 7a 77 9f 3d 8a a0 8a bd 8a 5b 85 bd
       -0.040945202 0.0778646 -0.06768902 -0.065116
0002b0 e8 ea 1f bd 6a c9 ea bd e0 9f 67 3d a8 3b 60 3d
       -0.039042383 -0.11464198 0.056548953 0.054744393
0002c0 c8 16 33 3d 58 c4 44 bd 20 ae f6 3c 14 70 67 3d
       0.043722898 -0.04803881 0.030112326 0.05650337
0002d0 14 09 33 3d 86 9e f9 bd f8 7b 65 bd bc fc 75 3d
       0.04370983 -0.12188439 -0.05602643 0.06005548
0002e0 7c 04 d2 bd 6c 76 7d bd 98 4c 2c bd 90 38 b8 bd
       -0.102547616 -0.061880514 -0.042065233 -0.089951634
0002f0 48 fc 82 bd 20 ef e0 bd dc e0 2d bd ac 49 81 bd
       -0.06395775 -0.109831095 -0.04245077 -0.0631288
000300 ca 02 85 bd c4 4b e8 bd b4 a6 80 3d d0 7d 10 bc
       -0.064946726 -0.11342576 0.06281796 -0.008819059
000310 06 bd 93 3d 80 fa 99 3c 02 fe e5 3d 4c a2 05 bd
       0.07213788 0.018796206 0.11230089 -0.03262548
000320 d4 0b 38 bd 24 a5 97 bd d4 74 a2 3d 64 c6 c5 3d
       -0.044933155 -0.07404545 0.079324394 0.09656981
000330 04 a8 09 bd 60 be 3e bc e8 ee 15 bd 84 98 6d bd
       -0.033607498 -0.011642069 -0.036604792 -0.05800678
000340 18 2d 80 3d 98 89 72 bd 42 59 90 bd 62 92 c3 bd
       0.06258601 -0.05921325 -0.070482746 -0.09549405
000350 48 71 be bc e6 23 a1 3d 20 ec 9c 3d a6 9d b6 bd
       -0.023247376 0.07868175 0.07662225 -0.08916788
000360 a8 23 9d bc b0 44 6d 3d ce f9 b9 bd e4 0b 92 bd
       -0.019182041 0.057926834 -0.090808496 -0.07131174
000370 aa 46 b9 3d b8 0e 25 3d ce b7 ee bd 3c 01 2b 3d
       0.09046681 0.04029724 -0.11656152 0.041749224
000380 10 f6 bc bd 38 bd aa 3d b4 49 71 bd c8 92 b0 bc
       -0.0922662 0.08336872 -0.05890818 -0.021554366
000390 24 8e 84 3d ec 1a 1f bd 88 ca 0b bd a6 c8 f6 3d
       0.06472424 -0.038844034 -0.034128696 0.120499894
0003a0 f0 e8 59 bd 6e 6a 9a bd c8 bf 85 3c 10 53 25 3d
       -0.053200662 -0.07539831 0.0163268 0.040362418
0003b0 20 a0 b4 bb 60 76 47 3d 72 15 dc bd 6a 69 e7 3d
       -0.0055122524 0.048696876 -0.10746278 0.11299403
0003c0 f4 f4 36 bd 40 4b b5 bb 48 d7 9c bc 2e 8c 89 3d
       -0.0446672 -0.005532652 -0.019145623 0.0671619
0003d0 4e cf 80 bd 38 d2 dc bd fe a2 b9 3d ce f4 9e bd
       -0.0628954 -0.107822835 0.090642914 -0.077615365
0003e0 b0 95 83 bc 5a d5 98 3d e8 bc 91 bc 88 9a ad 3c
       -0.016062587 0.074625686 -0.017790273 0.02119185
0003f0 d0 cf 8b bc 1e 0d a6 3d d0 31 a7 bd 1c 66 43 3d
       -0.017066866 0.08107971 -0.08163798 0.0477048

hidden_layer2.bias f4 [32]
000000 a8 99 83 bc 56 6a d7 3d b0 60 86 3c 9e 86 c7 3d
       -0.01606448 0.10518329 0.016403526 0.09742473
000010 6a f4 bb 3d 48 77 e9 bd e4 b8 72 3d 14 62 f4 bd
       0.09177478 -0.11399704 0.059258357 -0.119327694
000020 38 60 aa 3c 00 28 07 3b ec 3e 40 3d f4 d3 af 3d
       0.020797834 0.0020623207 0.046935007 0.08585349
000030 fc 57 4d 3d 90 a7 f1 3d 3e 1f ea 3d c0 17 1f 3c
       0.050132737 0.11799538 0.1143174 0.009710252
000040 24 6c ee bd 3c 4d 85 3d 14 4e 2e 3d 8e c9 86 3d
       -0.1164172 0.06508872 0.04255493 0.06581412
000050 e0 c1 2d bd 06 77 e0 bd 3c 9f dd bd dc df 85 3d
       -0.04242122 -0.10960202 -0.10821387 0.065368384
000060 d0 43 a9 bd 10 34 09 bc d0 ee 1e 3d c0 32 ab 3b
       -0.08264887 -0.008374229 0.038801968 0.0052245557
000070 a0 a4 a7 bd 2c 87 52 bd 88 1b 6b 3d 04 e0 d0 3d
       -0.081856966 -0.05139844 0.057399303 0.101989776

hidden_layer3.weight f4 [16, 32]
000000 84 b6 58 bd 53 0f 21 be 72 f9 b5 3d 2b a9 22 3e
       -0.052908435 -0.15728502 0.088854685 0.15884845
000010 f6 d1 aa 3d 4b 38 31 3e 40 14 6b 3d d1 9b 06 3e
       0.08340828 0.1730663 0.05739236 0.13145377
000020 68 87 6d bd 10 7e 47 bc 7f a0 2a 3e 6a 91 75 bd
       -0.05799046 -0.012176052 0.16662787 -0.05995313
000030 ae 98 0f be 54 37 89 bd 72 f6 5b bd 26 23 fa bd
       -0.14023086 -0.06700006 -0.053701825 -0.12213735
000040 1a af a7 3d 8e 79 e6 3d 00 08 0a ba 53 12 a3 bd
       0.08187695 0.112536535 -0.00052654743 -0.079624794
000050 80 7c e2 3b 20 25 38 3d 18 e5 8d bc 4e 1b 7e bd
       0.006911814 0.04495728 -0.017321154 -0.06203776
000060 57 8f 0c 3e fd fc 19 3e 60 ae eb bb c0 a9 10 3d
       0.13726555 0.15037914 -0.007192418 0.035318136
000070 6a 6c ce 3d cd 65 2b 3e 12 65 b7 bd 49 4e 08 3e
       0.10079272 0.16738053 -0.089548245 0.13311113
000080 2d ff 12 3e 79 ba 2b 3e 7d 74 22 3e 5a 9a a9 3d
       0.14355154 0.16770352 0.15864749 0.08281393
000090 a0 a0 2b bc 50 61 b5 3c c0 94 42 bb f2 01 84 3d
       -0.010475308 0.022141129 -0.0029690713 0.064456835
0000a0 60 10 24 bd 1b f6 32 3e b0 4a 79 3d e6 b8 e6 3d
       -0.04005468 0.17476694 0.060862243 0.11265735
0000b0 14 aa 1b bd aa 5d 1e be 60 10 fa 3c 80 27 e1 bd
       -0.038003996 -0.15465418 0.030525386 -0.10993862
0000c0 27 23 0c 3e 2a a3 95 3d 7b 42 00 3e c2 60 9b 3d
       0.13685285 0.07306512 0.1252536 0.075868145
0000d0 66 84 f4 3d a0 fd cf bb 7d 76 0d 3e 34 df 12 bd
       0.119393155 -0.006347373 0.13814731 -0.035857394
0000e0 e5 75 29 3e 28 20 13 3d d7 7a fa bd 5c f1 07 3d
       0.1654888 0.03591934 -0.12230461 0.033189163
0000f0 e9 d6 00 3e 46 ff 11 be bb a1 0a 3e 05 90 0c 3e
       0.12581982 -0.14257535 0.13538258 0.13726814
000100 18 1e f1 bc 5c 03 b3 bd 34 4b 2e be 08 82 01 be
       -0.029433295 -0.08740875 -0.17020875 -0.12647259
000110 f8 f3 57 bd f8 7f 94 bc 8a 1d bc bd 50 c0 80 bc
       -0.0527229 -0.018127427 -0.09185322 -0.015716702
000120 33 87 db bd ea 68 b2 3d 6d e5 e3 bd 11 e0 1f 3e
       -0.107191466 0.08711417 -0.11127744 0.15612818
000130 73 05 22 3e f5 99 25 3e e1 51 c8 bd 3a bc 7c bd
       0.15822391 0.16172011 -0.09781242 -0.061702944
000140 74 d1 0d be 5b 5f ba bd e8 58 12 3d 9e f0 96 3d
       -0.13849431 -0.09100219 0.03572932 0.07370113
000150 15 de 29 be 58 ba 4f 3d 1b db 1b be 18 bb 27 be
       -0.16588624 0.05071482 -0.15220301 -0.16379964
000160 70 ef 32 3c 89 2c 17 be b1 4c 9b bd c2 96 c5 3d
       0.010921344 -0.14763083 -0.07582987 0.096478954
000170 49 75 14 3e 5a 75 93 3d 4e e7 eb 3d de 85 be 3d
       0.14497866 0.072001174 0.11518727 0.09302877
000180 1a 40 23 be cd e3 18 be a6 65 c2 3d 56 e3 99 bd
       -0.15942422 -0.14930649 0.09492044 -0.07514064
000190 50 99 c0 3c c6 d4 e5 3d 2d 33 1f be c6 39 ca 3d
       0.023510605 0.11222224 -0.15546866 0.09874301
0001a0 d2 3b c1 3d 80 71 3c 3c ec 44 06 3d 3e 3c 28 be
       0.09435238 0.01150167 0.032780573 -0.1642923
0001b0 b1 1b c5 bd f8 e4 8f 3d 96 fc e0 bd d8 15 c1 bc
       -0.09624422 0.07026094 -0.10985677 -0.023569986
0001c0 9d a4 2f 3e 8a 3e 84 3d 78 87 a8 bd 00 d2 9c ba
       0.17152639 0.06457241 -0.082289636 -0.001196444
0001d0 ee 3a 23 be 30 f0 32 3d 0a 43 b8 3d af 9d f0 bd
       -0.15940449 0.043686092 0.08997162 -0.11748826
0001e0 a0 67 5c 3d 76 89 a1 3d 38 de a5 bc 3a 2a fb 3d
       0.053809762 0.07887547 -0.020247564 0.122639135
0001f0 22 13 9c bd 38 d6 c8 bc 78 25 82 bd 08 4f 37 3d
       -0.07620837 -0.02451621 -0.06354803 0.044753104
000200 f1 1c f1 bd d5 7e 94 bd 6f 6c 01 3e 70 97 aa bc
       -0.11773098 -0.07250754 0.1263902 -0.020824164
000210 5d bb 2f 3e 0e df e9 3d a0 00 db bc b5 ce 87 bd
       0.17161317 0.114194974 -0.026733696 -0.06631223
000220 1d cd 0a 3e 32 9f fe 3d 38 a5 49 bd 8e 77 93 3d
       0.13554807 0.12432708 -0.04922983 0.072005376
000230 cd 41 0d 3e 90 24 c1 3c 26 68 a2 3d a0 93 01 bc
       0.13794632 0.023577005 0.07930021 -0.007908732
000240 81 4f 15 3e a4 d7 3f 3d 1f 9c 28 3e e3 bc 28 3e
       0.1458111 0.04683651 0.16465805 0.16478305
000250 df c8 fd bd c5 16 87 bd a7 6b 31 3e 62 b1 c3 3d
       -0.12391829 -0.0659614 0.17326222 0.095553175
000260 5f e9 ef bd 8e 03 da 3d 3c 04 e9 bd ac 11 21 bd
       -0.11714434 0.10645209 -0.11377761 -0.039323494
000270 bd 5e 27 be 80 98 eb 3a 80 69 11 3d a3 f7 cb bd
       -0.16344734 0.0017974526 0.035501003 -0.09959342
000280 7e 92 10 be f1 82 e0 bd 00 b1 f2 ba 92 bb f2 bd
       -0.14118382 -0.10962475 -0.0018515885 -0.118521824
000290 fa f8 b4 3d 34 5d 13 bd bb 7e 26 3e 88 4e 7e 3d
       0.08836551 -0.035977557 0.16259281 0.062086612
0002a0 d9 e6 11 be 66 60 ca 3d 40 39 2d 3c fd bd c8 bd
       -0.14248218 0.09881668 0.0105727315 -0.098018624
0002b0 80 dd 03 3d c0 b1 2b 3d 78 05 6e 3d e1 65 20 3e
       0.03219366 0.041917562 0.058110684 0.15663864
0002c0 a9 8b 27 be 81 62 09 3e f9 0d 29 3e 3b 99 85 bd
       -0.1636187 0.13416483 0.16509236 -0.06523367
0002d0 70 75 1c be ca 72 8a bd 73 08 26 3e ec 45 16 3d
       -0.15279174 -0.067601755 0.1621416 0.036687776
0002e0 3a 41 fd 3d a0 54 9a 3c 28 34 48 3d 9d 34 27 3e
       0.123659566 0.01883918 0.048877865 0.16328664
0002f0 e8 a1 34 3d 5b 4c db bd c5 40 eb bd c4 5e 3a 3d
       0.04409972 -0.10707923 -0.11486963 0.04550053
000300 cf 1b 34 be c0 2c 0b bb c1 ad 23 be ea 57 23 be
       -0.17588733 -0.002123639 -0.1598425 -0.15951505
000310 d9 42 23 be 9a fe 1a be 32 a5 63 bd 74 49 86 3d
       -0.15943469 -0.15136185 -0.055577464 0.06556979
000320 a2 95 fa 3d 58 ad 54 3d be d5 b2 3d 0d c6 07 3e
       0.122355714 0.051923126 0.08732174 0.13259144
000330 ae 42 d8 bd 40 13 b1 bb f2 ec ad 3d 1b 1e 8d bd
       -0.10559593 -0.005403906 0.08492459 -0.06890508
000340 79 ca 9e bd b7 a1 2c be 39 5b 0e be 4f 4c 1a 3e
       -0.07753462 -0.16858564 -0.13901986 0.15068172
000350 16 eb f1 3d 62 32 af 3d 80 fc 1d 3d 50 a0 8a bc
       0.11812417 0.08554532 0.03857088 -0.016922146
000360 e1 3b 07 3e d0 94 59 bc 3a e3 a6 3d ea b3 eb 3d
       0.13206436 -0.013280109 0.08148809 0.11508925
000370 5f ce 1b 3e 1d 84 0c 3e 70 1e 01 be 9a aa 27 be
       0.15215443 0.13722272 -0.12609267 -0.16373673
000380 38 a2 30 be 50 00 31 3c b0 c4 4d 3c 16 63 ef 3d
       -0.17249382 0.010803297 0.012559101 0.11688821
000390 a0 05 05 be 50 d0 80 3c 88 b7 75 3d 28 5d 5f 3d
       -0.12990427 0.015724331 0.059989482 0.0545322
0003a0 75 ac 03 3e 1a ce aa 3d 20 8b 60 3d 55 77 22 3e
       0.12858756 0.08340092 0.05482018 0.15865834
0003b0 d8 c8 c9 bc 1d 22 0c 3e 16 62 b4 3d 41 14 a6 bd
       -0.024631903 0.13684888 0.08807771 -0.08109332
0003c0 56 2f fa bd 30 6b 64 bc f8 ed 39 bd 90 cb 0d 3d
       -0.1221606 -0.013941571 -0.04539296 0.03461796
0003d0 4c 9c 1c bd ce c0 fb bd e7 72 fd bd 08 1c d0 bc
       -0.038234994 -0.12292634 -0.123754315 -0.025403991
0003e0 bd 54 21 3e f4 ae 6b 3d 39 3c 28 3e d0 b9 34 bd
       0.15754981 0.057539895 0.16429223 -0.044122517
0003f0 40 3e 5f bd 92 97 88 3d 06 b0 2b be cc 4b cb bd
       -0.054502726 0.06669535 -0.16766366 -0.099265665

hidden_layer3.bias f4 [16]
000000 49 88 10 3e 22 50 ff bd 5f dd 24 3e 86 47 db 3d
       0.14114489 -0.12466456 0.16100071 0.107070014
000010 90 cb 05 3d ad 0a eb bd 16 a3 ae 3d 61 7b 04 3e
       0.032664835 -0.114766456 0.085272 0.1293769
000020 1d 7e 09 be 09 92 08 3e 4a cb c2 bd 8d 34 d6 bd
       -0.13427015 0.13336958 -0.095114306 -0.10459242
000030 15 3f e0 bd 40 da a4 3b 40 f8 c1 bb 97 72 34 3e
       -0.10949532 0.0050309002 -0.0059194863 0.17621838

out_layer.weight f4 [5, 16]
000000 90 cc 16 bd e8 53 09 bd b2 32 2d be f0 44 24 bd
       -0.03681618 -0.033527285 -0.1691387 -0.040104806
000010 58 b8 14 3d 40 92 73 3c 4c 1b 5f be 42 e4 01 3e
       0.036308616 0.014866412 -0.21787757 0.1268473
000020 14 d6 ea 3d a2 a9 53 be 80 e5 19 bd f6 6d 5b be
       0.114666134 -0.20670179 -0.037572384 -0.21428666
000030 12 18 3e be 8c ca 0b be f4 01 cc bd 70 9e 50 be
       -0.1856387 -0.13651484 -0.0996131 -0.20372939
000040 bc 91 f5 3d 52 c3 02 3e 10 24 4c be 3a 04 52 be
       0.11990687 0.12769821 -0.19935632 -0.20509425
000050 ae f0 21 be 24 7d 48 3e b0 95 9d bd 9c 27 87 3d
       -0.15814468 0.19578987 -0.07694566 0.06599352
000060 e0 20 59 3e d0 01 d3 bc c8 e9 d7 bd e4 08 3f be
       0.21203947 -0.0257577 -0.10542637 -0.18655735
000070 e0 c2 1d 3d 76 2c 2e 3e e0 32 43 3e e8 97 1a bd
       0.038515925 0.17009148 0.19062376 -0.037742525
000080 14 44 75 be e0 b0 1e 3c 9a fc 5d 3e 34 57 09 3e
       -0.23951751 0.009685725 0.21678391 0.13412172
000090 ea 17 71 be 36 fb 5d 3e 00 70 18 3a 0e 7b 0d be
       -0.23544279 0.2167786 0.0005815029 -0.13816473
0000a0 90 df 21 3d 04 d5 6d 3e 28 8d 09 3e 30 7e e8 3c
       0.039519846 0.2322579 0.13432753 0.028380483
0000b0 b6 96 04 be 18 32 85 bd d8 f0 4e 3e 40 af df bb
       -0.12948117 -0.06503695 0.20209062 -0.0068263113
0000c0 00 8e c4 3a 52 ff 2f be 80 89 76 be a0 ea c6 3c
       0.0014995933 -0.1718724 -0.2407589 0.0242818
0000d0 72 ad 02 be d0 42 12 be 20 6d cd bc 26 b7 2f 3e
       -0.12761477 -0.142833 -0.025076449 0.1715971
0000e0 42 cd 78 be 00 70 67 39 60 7b 36 be d0 fe 3d 3e
       -0.2429705 0.000220716 -0.17820501 0.18554235
0000f0 5c 54 a7 bd 0c 4a ff bd ec bb 29 be 9a 5e 46 be
       -0.08170387 -0.12465295 -0.16575593 -0.19372025
000100 40 de 6a 3d f4 eb a4 3d e0 95 72 3e 7c df da bd
       0.05734086 0.08052817 0.23689985 -0.106871575
000110 42 74 1b be 9c 93 1e be 00 0a 6e 3a 00 ea 3b bd
       -0.15181068 -0.15485996 0.00090804696 -0.045877457
000120 c6 a5 22 be c0 27 d1 bc f0 a5 93 bc c0 e6 b5 3d
       -0.1588355 -0.02553165 -0.018023461 0.08881903
000130 e0 b6 ee bd e6 dd 56 be 38 3e 13 3d fc 93 37 be
       -0.116559744 -0.20983085 0.03594801 -0.17927545

out_layer.bias f4 [5]
000000 bc dc b5 bd b6 d5 2d be e4 4d be 3d 50 63 90 bd
       -0.08879992 -0.16976056 0.092922 -0.07050192
000010 14 20 c2 bd
       -0.09478775
