models/DQNtoggle_param2.pth (torch, 110633 bytes, 8 tensors)

hidden_layer1.weight f4 [64, 378]
00000000: a47f 36bc 640a 0c3d f03a 633b c438 923c
00000010: 81d6 ebbc 40e9 e8ba f018 18bc 5c9f a63c
00000020: 4e89 153d 5893 34bd e06d 8a3b 81d0 03bd
00000030: fab7 483d a479 03bd dc71 e03c d077 003b
00000040: 0cc9 503d 3c6a 44bd 8634 1b3d 7033 4a3d
00000050: 4cdc 013d 405e 903c a455 41bc f090 373d
00000060: a05a 163d 14fa 043c 987b 563c 3222 18bd
00000070: 491f 1ebd d357 ffbc c8cb a33b 3f06 4bbd
00000080: f83b f33c 3cb1 18bd 209a a83a 2e90 153d
00000090: 699b 15bd bbf8 ddbc 8a91 2b3d 6245 86bc
000000a0: 68ec a23c a441 333d 2a52 3cbd b4aa 4ebc
000000b0: e2a4 aebc 75a0 b4bc c395 4bbd 2649 1dbd
000000c0: 2012 b8ba 184d c03b c05f 61ba a611 13bd
000000d0: c069 1b3d 70b7 183b 7407 ac3c ce1c 3bbd
000000e0: 90ae 413c 189d e8bb b4ed d4bc 8558 2dbd
000000f0: d082 503c 9c39 e23c 6c33 c43c 4515 d6bc
00000100: d0f5 d63c 9819 bfbc b003 df3c 38fe f03b
00000110: 7e67 1b3d 989a e23b 843e 1b3d 48a4 bc3c
00000120: d01d 393c d019 7abc f3a4 2dbd 3441 013d
00000130: d7b1 f0bc 50a3 d6bb bef3 25bd 9eef 503d
00000140: b851 e8bc a6f9 27bd 9023 4c3b 94c3 403d
00000150: f86a 1a3d b827 263d 2686 18bd 00cd 7c3c
00000160: 8c17 153c 0017 63b9 00b6 573b 4c14 debc
00000170: cc94 823c 2c33 e13c 2c91 d43c d802 953c
00000180: 70e3 573b ca15 013d 4cb5 093c 0091 1a3d
00000190: 10ea 22bc dc27 c33c ecfd 103d 3c02 0ebd
000001a0: 4f72 bbbc 00a5 5cba 6da4 eebc 2603 b6bc
000001b0: 6634 0ebd 1e6e 243d a8c5 293d f077 7a3c
000001c0: 88f0 6a3c 44b5 1fbc 694e 11bd 90d8 ef3c
000001d0: 680d c73b 181e 1ebd e08e ddbb a77f b2bc
000001e0: c082 c53b cf4b 27bd 87be e2bc 617a e9bc
000001f0: 8c82 a13c 9ee9 1d3d 9111 34bd 1e1a 3d3d
00000200: 24ec 143c fae3 30bd f819 d33b 96c0 bebc
00000210: e4d5 10bc 0aff 88bc 0094 f23b 304b 6ebc
00000220: 4ef8 27bd a837 ff3c fcf2 57bc 9c4c 813c
00000230: 3469 a1bc 7168 2fbd 849f 123d c00a 8cbc
00000240: 10db 973c 60d7 daba 884f 4dbc 6491 163c
00000250: 8079 7a3a a252 48bd feb6 2e3d 3dd4 debc
00000260: d61d 27bd ec74 cf3c 3227 87bc 48e3 4b3c
00000270: 0a4a a5bc 308e 1bbb 746c 9abc c448 4bbc
00000280: 0e22 44bd e16a c8bc 0ca0 c03c 80df 2d3b
00000290: 2013 13bd 19f4 c3bc f0fa 5ebc 807f dc3c
000002a0: 5c3d 72bc 0c35 ec3c 43ce 20bd ccbc 843c
000002b0: f298 4d3d 0ea3 a1bc 5287 1dbd 782f 90bb
000002c0: 198d 12bd 687d 943c 3002 3e3b 46ba 103d
000002d0: 80bf 9d3c 88a3 a1bc 2c35 843c c634 98bc
000002e0: 927e 3c3d 88f6 463c 4d2c 26bd a09a 483c
000002f0: 80ab 0b3b 8855 1c3d 70e6 4e3c dc6c 0bbc
00000300: 2252 9fbc a01f 513d a148 1dbd 7500 24bd
00000310: 7558 dcbc 9408 02bc 8a02 043d 6c35 843c
00000320: c0ad 243b f4e1 503d 58db 98bb 4871 afbb
00000330: be48 12bd b890 c1bb 98bc bd3c 39f6 bfbc
00000340: 0083 f03b 280c 803b 3412 a8bc 70fc d73c
00000350: 7823 343d f8c9 583c 28c3 5dbc 600b 333b
00000360: d49d 403d 1003 603b 40b1 df3c 191e 46bd
00000370: f095 ed3c c0d1 7eba fb38 b9bc 085d 893c
00000380: a3a8 37bd 409d 12bb 10b9 8e3c a8ef fdbb
00000390: 2e39 20bd aed6 1f3d c441 46bd 1a7d cfbc
000003a0: a084 e9ba 607e 31bc 847b 4b3d 5c4e f23c
000003b0: 54d6 053d e3fb edbc 6029 a5bb a681 34bd
000003c0: 5b0c 39bd de46 22bd 0861 c2bc 70fc b2bb
000003d0: 64b1 353d e486 e9bc 7aef 023d bc1a ea3c
000003e0: b064 cd3c a3fd cfbc 1c65 233d 660c 4d3d
000003f0: 6bee d2bc c84d 663c eece 2b3d 4a40 183d
-0.01113883 0.034189597 0.003467258 0.017849334 -0.028788807 -0.0017769709 -0.009283289 0.02033966
0.036507897 -0.04408583 0.004224524 -0.032181267 0.04900358 -0.032098427 0.027398042 0.0019602664
0.050972983 -0.047952875 0.037891887 0.04936546 0.031704232 0.017623067 -0.0118002035 0.044815958
0.03670752 0.008116264 0.0130909905 -0.037141986 -0.038604055 -0.031169808 0.004998658 -0.049566504
0.029691681 -0.0372784 0.0012863316 0.036514454 -0.036525164 -0.027096143 0.041886844 -0.016390506
0.019888118 0.04376377 -0.045976795 -0.012613941 -0.021318857 -0.022049168 -0.04970337 -0.038399838
-0.0014043488 0.0058685653 -0.0008597337 -0.035905503 0.037942648 0.0023302697 0.020999648 -0.045681767
0.011821404 -0.007098805 -0.025992252 -0.042320747 0.012726501 0.02761536 0.023950301 -0.026133189
0.02624026 -0.023327634 0.027223438 0.007354524 0.037940495 0.0069154017 0.037901416 0.023027554
0.011298612 -0.015264943 -0.042393636 0.031556323 -0.029381676 -0.00655023 -0.040515654 0.051009767
-0.028359279 -0.041009568 0.0031149127 0.047061518 0.03769967 0.040565223 -0.03723731 0.015429735
0.009099852 -0.00021656975 0.0032914877 -0.027109288 0.015940093 0.027490221 0.02594813 0.018189833
0.003294196 0.03151492 0.008405041 0.03773594 -0.0099435 0.023822717 0.03539841 -0.0346701
-0.022881655 -0.0008416921 -0.029131139 -0.022218298 -0.03471794 0.04014408 0.041448265 0.015287384
0.014339574 -0.009747807 -0.03547517 0.02927807 0.006074596 -0.03860292 -0.006761417 -0.021789385
0.0060275495 -0.04084378 -0.027678741 -0.028500738 0.01971557 0.038552873 -0.043962065 0.046167485
0.009089503 -0.043186165 0.0064423047 -0.023285192 -0.008840058 -0.016723175 0.007402897 -0.014544293
-0.041008286 0.031154469 -0.013180491 0.0157836 -0.019703485 -0.042824212 0.035796657 -0.01709497
0.018537074 -0.0016696267 -0.012531169 0.009189937 0.0009554848 -0.04890693 0.042654984 -0.027200812
-0.04079994 0.025324307 -0.016498182 0.012444325 -0.020176906 -0.0023735873 -0.018850543 -0.012407485
-0.04788404 -0.024465026 0.023513816 0.0026530921 -0.03590691 -0.023920106 -0.013609633 0.026916265
-0.014785137 0.028833888 -0.039259207 0.016203307 0.05019469 -0.01973107 -0.03845913 -0.00440019
-0.035779092 0.018126205 0.0028993003 0.035333894 0.019256353 -0.019731298 0.016138636 -0.018579852
0.046019144 0.012143739 -0.040569592 0.012243897 0.0021311939 0.038167506 0.012628183 -0.008509841
-0.019448344 0.05105555 -0.038399342 -0.0400395 -0.026897648 -0.0079366155 0.032228984 0.016138755
0.0025127977 0.050996736 -0.0046648197 -0.0053540803 -0.035713904 -0.0059071444 0.023161218 -0.023432838
0.007339835 0.003907699 -0.020516492 0.026365489 0.043979138 0.013231747 -0.013535298 0.0027320012
0.047025517 0.0034181513 0.0273062 -0.048368547 0.02900216 -0.0009720586 -0.022610178 0.016767994
-0.04483856 -0.002237156 0.017422229 -0.0077495165 -0.03911703 0.039023094 -0.048402563 -0.025328208
-0.0017816015 -0.010833353 0.04967834 0.02957838 0.032675102 -0.029050773 -0.0050403327 -0.044068955
-0.0451778 -0.039618365 -0.023727909 -0.005462222 0.044358626 -0.028506704 0.031966664 0.028577201
0.025072426 -0.025389498 0.039891347 0.050060652 -0.025748452 0.01405663 0.04194539 0.037170686

hidden_layer1.bias f4 [64]
00000000: a0d9 023b 2136 27bd 9165 49bd 2841 733c
00000010: b65b a1bc dfea f2bc b073 78bc 2412 5bbc
00000020: 1098 833b d2c9 fcbc 1985 50bd 79bb 31bd
00000030: b400 3b3d 8c5e 263c 8040 c8bb 5c58 493d
00000040: 8ceb 173c 7c50 58bc ccbf 7bbc 0572 cfbc
00000050: 7044 a83c a848 a83c f287 433d bd33 ccbc
00000060: 7084 883c 58dd 293d 34cc 2a3d b053 2dbd
00000070: 2a53 263d 7b33 16bd 78f2 19bc 58bb 6f3c
00000080: 5270 0dbd c065 e03b 485e 46bd ac91 013d
00000090: 4c2f 313d 398a 17bd 0b79 f5bc f0f3 6ebb
000000a0: a2d5 163d 598a d5bc c086 9b3a bc04 903c
000000b0: 31f6 37bd 474d 1dbd c0ba deba 88fd e4bb
000000c0: 0207 05bd 1c57 9d3c 0260 debc 3e0b 423d
000000d0: 003f c6ba d25e 04bd 80dd e53b 1674 2b3d
000000e0: b40f dc3c b0b1 7ebb 5cdd b5bc 46da 8bbc
000000f0: f428 1d3d a82c 8a3c 503d 1b3d 3c48 c43c
0.001996614 -0.040823106 -0.049169127 0.014847077 -0.019697051 -0.02965301 -0.015164301 -0.013371024
0.00401593 -0.030857954 -0.05090818 -0.04339168 0.045654967 0.010154378 -0.0061112046 0.04915653
0.009272467 -0.013202783 -0.015365552 -0.025322923 0.020540446 0.020542458 0.04773707 -0.024927014
0.016664714 0.041470855 0.04169865 -0.04231614 0.040606655 -0.03667019 -0.009396188 0.014632069
-0.034530945 0.006848067 -0.048429757 0.031633064 0.043257996 -0.036997054 -0.029964944 -0.0036461316
0.03682483 -0.026066946 0.001186572 0.017580383 -0.04491252 -0.038403776 -0.0016992912 -0.006988231
-0.032477386 0.019206576 -0.02714539 0.047374003 -0.0015124977 -0.03231699 0.0070149302 0.041858755
0.026862957 -0.0038863234 -0.022200279 -0.017071854 0.038369134 0.016866997 0.03790027 0.023960225

hidden_layer2.weight f4 [32, 64]
00000000: b04e 5d3c 9cfb 883d c056 f33d 80c1 993a
00000010: c0d5 643b 2eee fbbd c052 0bbb 4a27 a23d
00000020: e048 9f3c c0f4 763b 48ff cf3d e0d7 a83d
00000030: f25e 8d3d 0a62 a7bd 9a33 f43d bca2 a73d
00000040: 6e9d dbbd a0e3 ccbc 320f f73d 1ad9 85bd
00000050: 4274 cebd 00e7 273a 6cff 7abd 96bf 8b3d
00000060: d2a5 94bd 9852 603d 20d5 a2bb 4c6d 78bd
00000070: dccd 7f3d 0867 ddbc 9886 8dbd dcd2 533d
00000080: 68a7 edbd 40db 15bb 009a ab3b b091 17bc
00000090: 8c63 8bbd 866a 9f3d f857 31bd 5002 0cbd
000000a0: ae89 cebd e0d0 9b3d 5a4e 8dbd d603 b8bd
000000b0: 2625 e33d 7c21 2abd 24c2 33bd 487e 86bd
000000c0: 2415 f33d 2edc 9f3d ae72 fbbd aefa d7bd
000000d0: b669 bcbd 3c24 9b3d 00c0 e5b9 5047 193c
000000e0: e81a e7bc 8823 d53d 70d6 5a3d 8aad d9bd
000000f0: c49c aa3d a88e c7bd 2c41 1fbd 84c2 edbd
00000100: dc9f 31bd bc79 d5bd 2474 04bd 10be a63c
00000110: c00b 4e3c 347f ebbd b667 b2bd e833 8c3c
00000120: 449c 85bd fa38 833d 6c60 bf3d 00bc 93bb
00000130: 544e 24bd b8e6 ad3c 520d bf3d b4c6 b3bd
00000140: e054 92bd ec4b d13d 6cf8 7dbd c86e fabd
00000150: 2ee9 db3d 8ccd bb3d d0bc 5b3c de36 f93d
00000160: b876 adbc 841f aa3d 3ced 873d 5ef1 dbbd
00000170: 0077 04bc b867 a6bc 88d7 c13d 5090 c03c
00000180: 6aa0 9abd eebb d3bd 54d9 323d ba1e debd
00000190: 82c9 a63d 5826 ba3c 187b fbbc 2010 cdbc
000001a0: d8bc a73c 90a9 bc3d 7890 22bd 08fe adbc
000001b0: f421 7ebd 1c44 7c3d 5016 123d 1c88 40bd
000001c0: e8b4 9dbc c8b9 9e3d 34aa 30bd 00a1 91ba
000001d0: 7881 a23d 8801 ebbd c07f 26bc e835 93bc
000001e0: 48f9 cb3d aae5 803d 1481 53bd 844c b4bd
000001f0: 4c77 6f3d 50f3 303c 6087 ca3b 2009 793d
00000200: aebb a2bd 6446 483d 402d 473c 542d 28bd
00000210: 3e01 debd 4006 b53b f452 8c3d 14a5 083d
00000220: 9801 f6bc f0bb 33bc 1810 e9bc 4a07 a43d
00000230: f0c5 69bd e0df 41bc caea 8d3d 5830 373d
00000240: 0064 66b9 1e5d ba3d 1893 fdbc 9ebd d7bd
00000250: 882d 8c3c 48f8 c6bc d61b ec3d 28c9 e63c
00000260: 8051 82bb b8f4 b33d 90df e93c 4419 c5bd
00000270: d63a eabd f4f1 45bd d067 093d c441 833d
00000280: 90a0 cfbc 50ad a63d c079 9abb 80ba 87bb
00000290: f048 fa3c a032 b4bd 9001 a8bd 606e af3c
000002a0: 8862 c1bd 08a6 78bd ccc7 b03d e079 373c
000002b0: b484 3d3d 806e 603b 8863 893d 5423 893d
000002c0: a0b5 adbc 6076 d33b c0ed c8bb d616 91bd
000002d0: 6847 b0bd 00aa 31ba c043 c3bd 826e d6bd
000002e0: f2fa a8bd 9844 0abd f817 b0bd a2b5 b93d
000002f0: d612 acbd 9406 9cbd 608f f0bd a849 5e3d
00000300: 6898 a33c 840a 56bd 9062 463c b8ca 18bd
00000310: 2061 b1bb b825 fbbc 8495 883d 70ad cbbc
00000320: 10af bb3d e4bf bebd 7eed d1bd e03a b2bb
00000330: 6008 0b3d 28fc f8bc b060 b03c 00ce 90ba
00000340: f22d 8cbd b294 873d 189f f7bd 607e 003c
00000350: 90e7 65bc fc55 4abd d86a 84bd 5091 0c3c
00000360: 7c85 e0bd 64d6 1d3d b6f0 ddbd c8b7 f3bd
00000370: e04b e7bd ec39 c7bd 2690 e93d 706f 133c
00000380: f843 4fbd e893 d73c 6ce2 8b3d 94ac 12bd
00000390: e02f a5bb 58d1 f03c 02af f63d f8d8 d5bc
000003a0: 6ec9 fc3d 0076 363d 58ca aebd 7808 2bbd
000003b0: d05a 3cbc d486 c8bd 2ca9 1d3d c8a3 853d
000003c0: e624 a2bd 3cf0 753d 4237 ccbd f476 b33d
000003d0: 003c 49b9 d4fc 833d 70fa 1f3c d0f0 bdbd
000003e0: 8a69 ab3d 68a9 f03d 8049 d0bb d0ce dd3d
000003f0: fc9b e83d d2fb 95bd 6e54 9dbd a806 8abd
0.01350753 0.06688616 0.118817806 0.0011730641 0.0034917444 -0.123012885 -0.002125904 0.0791765
0.01944393 0.0037682503 0.10156113 0.082443 0.06902875 -0.08172996 0.11923905 0.08185336
-0.10723387 -0.025010884 0.12063445 -0.065355495 -0.10080768 0.0006404966 -0.061278746 0.068236515
-0.0725819 0.054766268 -0.004969254 -0.06065111 0.062452182 -0.027026668 -0.06910437 0.051714763
-0.11604196 -0.002286628 0.005236864 -0.009251043 -0.068060964 0.077839896 -0.043296784 -0.034181893
-0.10084854 0.07608199 -0.0689971 -0.08985107 0.1109107 -0.04153584 -0.04388632 -0.06567055
0.11869267 0.07805668 -0.12277733 -0.1054586 -0.0919985 0.075752705 -0.00043821335 0.009355381
-0.028211072 0.10407168 0.05342716 -0.10628803 0.08330682 -0.097440064 -0.038880512 -0.116093665
-0.043365344 -0.104236096 -0.032337323 0.0203543 0.012576044 -0.114988714 -0.087111875 0.017114595
-0.06523946 0.06407352 0.09344563 -0.0045084953 -0.040113762 0.02122818 0.093287125 -0.08778134
-0.07145095 0.10219559 -0.06200449 -0.12228161 0.10737835 0.09170064 0.013411716 0.12168668
-0.021174774 0.083067924 0.06637046 -0.107393965 -0.008085012 -0.020313129 0.094649374 0.023506314
-0.07550128 -0.10338579 0.04366429 -0.108457044 0.08143903 0.022723362 -0.030698344 -0.025032103
0.02047579 0.09212029 -0.039688557 -0.021239296 -0.0620441 0.06158839 0.03566581 -0.047004804
-0.019251302 0.07750279 -0.04313107 -0.0011110604 0.079348505 -0.114749014 -0.010162294 -0.01797004
0.09959656 0.06293805 -0.05163677 -0.08803657 0.05846338 0.010800198 0.0061806887 0.060799718
-0.07945953 0.048895255 0.012156785 -0.041058853 -0.10840081 0.0055244267 0.068517596 0.033360556
-0.030030057 -0.010970101 -0.028450057 0.08009203 -0.057073534 -0.011833161 0.06929548 0.04472384
-0.00021971762 0.09099792 -0.030953929 -0.105342135 0.017111555 -0.024288312 0.11528747 0.02817209
-0.0039770007 0.08786911 0.028548986 -0.0962396 -0.11437003 -0.048326448 0.03354627 0.06409028
-0.025345117 0.081385255 -0.0047142208 -0.0041421056 0.030552357 -0.087987185 -0.08203423 0.021414936
-0.094426215 -0.060705215 0.08631858 0.011198491 0.046269134 0.003424555 0.06708437 0.066961914
-0.02120477 0.0064533204 -0.0061318576 -0.07084434 -0.0860737 -0.0006777346 -0.09534407 -0.104702964
-0.08250989 -0.033756822 -0.08598322 0.09067847 -0.0840203 -0.07618442 -0.117460966 0.054269463
0.019970134 -0.052256122 0.01210846 -0.037302703 -0.0054131895 -0.030657634 0.06669143 -0.024862975
0.0916425 -0.09313944 -0.10250376 -0.0054391474 0.033943534 -0.030393675 0.02153048 -0.0011047721
-0.06844701 0.06620158 -0.120908916 0.00784263 -0.01403226 -0.049398407 -0.06465691 0.008579567
-0.1096296 0.038534537 -0.108369276 -0.11900288 -0.11293769 -0.097278446 0.11404447 0.008998737
-0.05060193 0.026315644 0.06830296 -0.035809115 -0.0050411075 0.029396698 0.12045099 -0.026104435
0.12343107 0.044546127 -0.08534688 -0.041756123 -0.011496261 -0.097913414 0.038491413 0.065253794
-0.07917194 0.06004356 -0.09971477 0.08762923 -0.00019191206 0.064447075 0.009764299 -0.09274447
0.08369739 0.11751062 -0.006356418 0.10830462 0.11357877 -0.073234215 -0.07682119 -0.06739551

hidden_layer2.bias f4 [32]
00000000: 9c4a e13d 7e4f ddbd 285d 3f3d 00ca 90bd
00000010: 2e5f cdbd 5afd fbbd 4098 a03b e006 0cbd
00000020: 1012 f33d 3c93 22bd 1656 b5bd f896 563d
00000030: 16f4 cabd 60db afbd a491 34bd 4c2c 1dbd
00000040: 085a 5a3d c43d 043d d8a2 b73d 787b 19bd
00000050: 004e b93c a82f 5b3d 8896 5abd a828 1a3d
00000060: b812 62bd 1087 e83c 8048 adbd dc39 7e3d
00000070: d813 99bc 80ea 90ba e409 4e3d f881 e3bc
0.11000559 -0.108061776 0.0467197 -0.070697784 -0.1002792 -0.12304182 0.004900962 -0.034186244
0.118686795 -0.039691195 -0.0885431 0.05239007 -0.09909837 -0.08586764 -0.044084206 -0.038372323
0.053308517 0.032285467 0.08966607 -0.037471265 0.022620201 0.053512245 -0.053366214 0.03763643
-0.055193633 0.028384715 -0.08461094 0.062066898 -0.01868622 -0.0011056215 0.0503024 -0.027771935

hidden_layer3.weight f4 [16, 32]
00000000: ba37 d53d cc29 1a3d b44a f8bd d8b9 333d
00000010: 8ca9 243d d49e febd 5343 1f3e ee38 eabd
00000020: da90 0ebe da4a ffbd b787 22be 964c 973d
00000030: f0b8 b53c 602b 9cbd b920 2bbe 95cf 223e
00000040: 24d4 5d3d 01b5 0ebe 79f4 073e fa5c c03d
00000050: d04f debc a182 083e 5f9e 343e 8039 33bc
00000060: a661 9a3d 1c23 753d 986e bebd 8dd5 08be
00000070: 1040 b7bc 0289 c03d 2cca 783d 7244 c93d
00000080: a43b 493d 2a21 9a3d f0f1 a9bd d282 d43d
00000090: 9d96 2e3e 7e5a a03d c074 bc3c 1e10 c73d
000000a0: 0e33 e73d 55bf 0b3e b0a1 1bbc ad75 c6bd
000000b0: a031 e4bb f040 3a3c 50d8 d4bd 8c17 53bd
000000c0: d661 2ebe cdb1 333e f214 e93d 36ee db3d
000000d0: a216 e6bd c857 253d 6cc4 1f3d 0577 203e
000000e0: 429a ae3d 5096 0fbc 3859 ba3c fd54 1fbe
000000f0: 3888 0cbe 503f 3b3c 527d f0bd 8cca 56bd
00000100: d6f0 fe3d c24d a73d c218 06be 0a1a 1cbe
00000110: 2559 f5bd 3dc2 1a3e 6739 1c3e 4085 913c
00000120: e596 9dbd 8b1a 07be 8dd4 163e c7f3 b0bd
00000130: 8a45 ec3d ea67 aebd 67a7 083e 78bf 823c
00000140: ce56 ca3d a4d2 23bd 183a 96bc da8c 20be
00000150: 93c7 06be 9387 adbd 760c 89bd 529c c83d
00000160: d04e 1ebe e81c f23c a645 a2bd 38af d3bc
00000170: 92f7 cbbd 8601 87bd 8b9c 02be 21dc 123e
00000180: a3da 1abe 50fd 80bd 67ef 19be ba63 e43d
00000190: 5a74 f83d 30fd 64bc 88da c23c 505b 963c
000001a0: 3452 0bbd 9eea f03d ad8a 2d3e 5b25 043e
000001b0: e8d0 e1bd 4880 483d 4822 8f3c 7804 6c3d
000001c0: 40da 4a3c 19bb 1d3e 3772 033e fef0 c33d
000001d0: 0046 683d 0088 c8bc 5c5b 013d 40f3 383c
000001e0: 14c7 273d 9a4f fe3d c5ba b8bd 4068 863d
000001f0: 68c5 073d 4963 febd ce0e ed3d b616 f1bd
00000200: 30f8 7a3d 3ead 963d 3507 103e daa5 ab3d
00000210: 405a 04bc a07f 1e3d 9da9 0f3e dba8 22be
00000220: 2df6 86bd 1044 79bc 1d42 293e 50fa b8bc
00000230: 2d3e 133e a950 0abe 94b2 123d 305b 913c
00000240: 37e3 1a3e 80c1 c9bb 2a9b 2dbe deef 20be
00000250: f5b9 25be d88b 18bd e8bd d33c 2a48 fd3d
00000260: 6822 0fbe faed 04be 12d1 e53d 45dc 033e
00000270: 60b3 a23c 9e1b d03d 79c8 16be 0274 00be
00000280: d676 a23d 32d5 ff3d 6a56 aabd def0 72bd
00000290: e443 c2bd 86f3 61bd 9a63 f2bd 1849 ccbc
000002a0: 20e8 48bd 500a 0bbc f419 21be 14e5 03be
000002b0: 308e 053c d5a7 2c3e 58e3 613d 2479 373d
000002c0: 206b 3cbc a13e 303e 43dd 133e af63 1b3e
000002d0: 0422 30bd 1a00 aa3d 7a61 e23d 6c1f 793d
000002e0: 60e0 b33c 287e 353d 20e3 34bd 5f5d e5bd
000002f0: 1e53 b73d f25e 813d 1c0f 04be 1e76 d5bd
00000300: 9828 303d 0e15 993d f063 113d 7c6c 32bd
00000310: d658 dcbd 9832 50bd e0a1 353d b804 9d3c
00000320: 9cc9 11bd ff2d 34be c940 03be 80f7 3f3c
00000330: 7a19 abbd ab50 0f3e 880c febc c400 d8bd
00000340: a02c 193c 600b d43b 000b 03be cece 5fbd
00000350: 30cb 5fbc 4139 a0bd ecda 8a3d c19a 1e3e
00000360: 1edf e9bd d111 1f3e 9c0f 47bd de01 963d
00000370: c4df c8bd 89d8 343e 1604 9b3d b0da d0bc
00000380: 64a2 e1bd 18e2 883d 5a28 d93d 8453 143d
00000390: 78f3 b63c fae3 cf3d 10fa 7ebd f04b 9ebc
000003a0: 6abc ef3d 3eeb 9a3d 4369 173e 1e24 f63d
000003b0: e018 d83b b902 293e 0ca6 233d f68d a13d
000003c0: ce51 ee3d e223 cf3d daf7 8b3d 447a 1fbe
000003d0: 5b2c 043e 7885 8f3d 999e 1b3e d60d e03d
000003e0: 84be 34be f4a0 52bd 3707 153e 8bce 333e
000003f0: 4a75 e73d 40e3 113b fefc e53d 3371 073e
0.104110196 0.037637517 -0.121236235 0.043878406 0.040200755 -0.12432638 0.15553026 -0.1143664
-0.13922444 -0.12465449 -0.15872084 0.073876545 0.022182912 -0.076254606 -0.16711701 0.15899499
0.05415739 -0.13936235 0.13276853 0.09392734 -0.027137667 0.13331081 0.17638539 -0.010939002
0.07538156 0.059847936 -0.09298438 -0.13362713 -0.022369415 0.09401132 0.06073968 0.09827508
0.049129143 0.07525857 -0.08298099 0.103765145 0.17049642 0.0782976 0.02300489 0.09719871
0.11289035 0.13647206 -0.0094989985 -0.096904136 -0.0069639236 0.011368021 -0.10392821 -0.051536128
-0.17029509 0.17548294 0.11380948 0.107387945 -0.112347856 0.040366918 0.039005682 0.15670402
0.08525516 -0.008763865 0.022747621 -0.15559764 -0.13723838 0.011428669 -0.11742653 -0.052439258
0.124482796 0.08169128 -0.13095382 -0.15244308 -0.119798936 0.15113159 0.15256272 0.017763734
-0.076947965 -0.13193719 0.14729519 -0.08640247 0.11536701 -0.08515914 0.13345109 0.01596044
0.09879838 -0.039995804 -0.018338248 -0.1567873 -0.13162069 -0.08473124 -0.0669183 0.09795441
-0.15459752 0.0295548 -0.07923441 -0.025840387 -0.0995933 -0.065920874 -0.12755029 0.14341785
-0.15122466 -0.062983155 -0.15032731 0.11151834 0.12131567 -0.01397638 0.023785844 0.018354088
-0.034013942 0.117635 0.16947432 0.12904875 -0.11026174 0.048950464 0.017472401 0.05762145
0.012381136 0.15403403 0.12836538 0.0956745 0.056707382 -0.024478912 0.031581268 0.011288464
0.04096134 0.124175265 -0.090199985 0.06562853 0.033147246 -0.12421281 0.115750894 -0.1177191
0.061271846 0.07357262 0.1406525 0.08381243 -0.008078158 0.03869593 0.14029546 -0.15884726
-0.06589923 -0.015213981 0.16529126 -0.022580296 0.14379187 -0.13507332 0.035814837 0.017743677
0.15125738 -0.0061571 -0.16953722 -0.15716502 -0.16184218 -0.03724274 0.02584739 0.1236728
-0.13977969 -0.12981406 0.112215176 0.12876995 0.019860923 0.101615176 -0.14724912 -0.12544253
0.079328224 0.12491836 -0.083172634 -0.05931174 -0.09485605 -0.055163883 -0.11835404 -0.024937198
-0.049049497 -0.008486345 -0.15732557 -0.12880355 0.008151576 0.16860898 0.055148453 0.044793263
-0.01150015 0.17211391 0.14439873 0.15174745 -0.04300119 0.083008006 0.110537484 0.06082098
0.021957576 0.044309765 -0.044161916 -0.1119945 0.089514 0.063169375 -0.12896389 -0.1042292
0.043007463 0.07474719 0.0354957 -0.04356049 -0.107591316 -0.0508295 0.04434383 0.01916729
-0.03559266 -0.17595671 -0.12817682 0.011716723 -0.08354469 0.13995616 -0.031011835 -0.10547021
0.009349018 0.0064710826 -0.12797165 -0.054640584 -0.0136592835 -0.0782342 0.06780037 0.15488721
-0.11419509 0.1553414 -0.04859887 0.07324575 -0.09808305 0.17660727 0.07569139 -0.025494903
-0.11017302 0.06683749 0.106033996 0.03621246 0.022332892 0.10150905 -0.062250197 -0.01932332
0.11705859 0.075644 0.14786248 0.120186076 0.006594762 0.16504945 0.039953277 0.07888405
0.11636697 0.10114266 0.06834383 -0.15573984 0.12907545 0.07007879 0.15197219 0.10940139
-0.17650801 -0.051423028 0.14553533 0.17559259 0.11301668 0.0022260696 0.11229895 0.13226776

hidden_layer3.bias f4 [16]
00000000: eefa 03be 667e 28be b6d3 e43d 4562 e9bd
00000010: 8e86 bb3d f138 163e 9a78 bf3d 1196 1e3e
00000020: 0718 1e3e 1c29 40bd 82d7 26be 2136 333e
00000030: 18ff e8bc 98d3 123d e079 373d 05dc 153e
-0.12888691 -0.16454467 0.11173193 -0.113956966 0.09156524 0.14670159 0.09349175 0.15486933
0.15438853 -0.046914205 -0.16293147 0.17501117 -0.02844195 0.035846323 0.044793963 0.14634712

out_layer.weight f4 [5, 16]
00000000: 246d a03d 624d 473e d0bf 3dbd a0c8 72bd
00000010: 5caf 38be 0c38 433e 8208 0abe 6c5e 46be
00000020: 0075 4b3d 98da 84bd f251 5abe d285 213e
00000030: 40ee e83d baf0 2ebe fca7 72be 406c 1a3e
00000040: 68bf 3fbe 82cd 3a3e fa10 633e 76c6 363e
00000050: 64c8 923d 686f 733d 7881 433d 2096 9abd
00000060: c422 83bd f4e1 d13d 328e 603e 1089 513d
00000070: 002a 1c3a f428 4abe a0d4 0f3c 180f 95bd
00000080: 549a c2bd 16d7 3e3e 68d6 cd3d 3e80 2d3e
00000090: a0ce 383c 5042 983d 60e0 84bc b074 c0bc
000000a0: e076 4fbd 085a 8dbd 7823 37bd 54b3 3c3e
000000b0: eca4 603e 921e 063e 20db 69bc e02e 5ebc
000000c0: 00b6 92bc 44f7 c73d e4b3 febd 7882 4f3e
000000d0: d023 b5bc 58df 8cbd 00f4 1cbd b057 01be
000000e0: c03e b63b 8a4f 113e f01f e5bd 1cf0 d03d
000000f0: 781b f93d a030 d0bc fcb9 8a3d 52c2 1abe
00000100: 64c3 853d 1488 ef3d a846 6fbd c4c2 67be
00000110: d095 643d fc07 183e 122b 453e d26a 483e
00000120: 0256 593e c6a5 203e 9022 aabd b87f 57bd
00000130: 589e 4c3d 6242 323e ca63 40be 98da 043e
0.07833317 0.19463113 -0.046325505 -0.059273362 -0.18035644 0.19064349 -0.13479808 -0.19371957
0.049672127 -0.06487006 -0.21320322 0.15773705 0.113735676 -0.17084017 -0.23696893 0.15080357
-0.1872536 0.18242458 0.22174445 0.17849144 0.07167128 0.059432417 0.047730893 -0.07548165
-0.064031154 0.10248175 0.21929243 0.051156104 0.0005957186 -0.19742185 0.008778721 -0.072782695
-0.09502092 0.18636736 0.1005066 0.16943452 0.011279732 0.07434523 -0.016220272 -0.023493141
-0.050650477 -0.06901938 -0.04471156 0.18427783 0.21937913 0.13097599 -0.014273435 -0.013560981
-0.01790905 0.09763959 -0.12436655 0.20264614 -0.022111803 -0.06878537 -0.038318634 -0.12631106
0.0055616796 0.14190498 -0.11187732 0.10202047 0.121634424 -0.025413811 0.06773755 -0.1511319
0.065314084 0.11695877 -0.058416992 -0.22632891 0.055806935 0.14846796 0.19254711 0.19571999
0.21224216 0.15688238 -0.083073735 -0.052612036 0.049955696 0.17408136 -0.18788067 0.12974012

out_layer.bias f4 [5]
00000000: 901c 0ebd b09b 463d 567e 3b3e 5e56 66be
00000010: 606e cdbc
-0.034695208 0.04848832 0.18309912 -0.22493884 -0.025077045
