models/DQNtoggle_param2.pth (torch, 110633 bytes, 8 tensors)

hidden_layer1.weight f4 [64, 378]
00000000: e276 3bbd f686 3a3d 5626 04bd 60b3 8bbc
00000010: 025a c8bc 5c01 ee3c 3960 053c 4646 543d
00000020: 4565 e13c 69a6 eb3d cba5 9d3d 57ec be3d
00000030: fecb c13d 348f 1c3e 20e3 8ebd a8ee ddbd
00000040: e5dd 3dbc c079 9d3c 35f6 2bbd cfae 5e3d
00000050: c6b8 943d 17d9 cb3c 9665 b73d 59d7 5e3b
00000060: 23dd 38bd 986f 9fbc 745a 0e3c cbc9 25bd
00000070: 020a 9c3c e44f a9bd 7701 66bd 9708 f5bd
00000080: 4e90 02be b7ca 94bd e530 dabc 3991 8d3d
00000090: 3c19 933d 9a77 99bc e5a9 563c 70cc 88bc
000000a0: ec24 2bbd 72c8 273d c5a8 6d3c 1854 e13d
000000b0: 2e7c a83d b827 083c d3a7 ba3d ba4e 9abd
000000c0: 3418 153d 005e 67bc cbdd e4bd a6d1 03be
000000d0: 2411 4bbd 44c3 b9bd d5e7 9cbd 2d39 63be
000000e0: ed3b 18bd d8db efbd 995c e6bb 4078 e4bc
000000f0: 0a20 8abd 56ba c1bb d338 65bd 2e60 76bd
00000100: 4884 4bbd e211 1fbd ad50 8c3c dc41 c3b9
00000110: 01f4 bc3c 6141 103d d404 b2bc 326a 38bd
00000120: b52f 6a3c 9e73 c13b 1f61 3b3d ac59 263d
00000130: 9c7c bc3d 3b6e 96bd 9437 a1bc 4890 063c
00000140: fa58 51bc 0d21 1dbd b3be 59bd b966 10bd
00000150: 82c3 b03c 9193 c33c 556f c5ba 24ec c1bc
00000160: bf65 b7bb 36ed c13b 62e2 83bc d3ff 9abc
00000170: 997a 1c3c dfbc 9c3c 67d7 f3bb 4016 4f3d
00000180: e6eb 50bc b0ea 1ebd 7f49 c2bc eb11 e33c
00000190: 94c7 4e3d 16ad 00bc 2338 183d 6750 88bc
000001a0: fe4a 46bc d645 5a3d 651a 943c 50e7 3b3d
000001b0: 3ca6 8a3c 737b 283d e6ce 113b 2cfb a43c
000001c0: 4840 763d a073 f6bb ea86 dfbb 44e4 1a3d
000001d0: 1af1 2dbc 5a23 8b3d a0ee cd3b f27e 323d
000001e0: b143 4a3d 3b36 493c 027c 9b3c 7c23 f7bc
000001f0: 589a e03c c0f1 da3c 7e95 503c 5674 303d
00000200: e6e2 953d 251c 9c3d d450 833d cd3f 8a3d
00000210: 45f2 c93c e208 d93c 37b4 0f3d 8e90 5d3c
00000220: 0dd4 323d 5326 5c3d 0117 963c 3363 cd3c
00000230: 982b 9a3d fc5b e23c 532c c53c 63c5 9d3d
00000240: 6d7e 713c 5666 773d 5fe5 913c cdb6 ca3d
00000250: e0d0 093d 01c5 2b3d eb0e bf3c 2d62 493d
00000260: 3ff1 ce3c 1f80 273c cee1 843c 31eb a43d
00000270: 2c4d 3a3d 285d fa3c cc2a af3d 88c0 9b3d
00000280: d7db d73c d56b 8f3c 28bb 713d ea98 dc3d
00000290: 93ad b53d b3cb 273d 2a93 af3d 2102 2b3c
000002a0: 9526 063d 9b4b c43d a67c 913d 9387 0b3c
000002b0: 0de3 5a3d a31f d93d ca93 b03d c999 d43d
000002c0: f490 143d a3dd 173c cbb7 903c c7e4 bf3d
000002d0: 3b58 843d 5575 583d 4ac2 323d fb3e 473c
000002e0: 21cc a23c f74e a93c 4de3 b73d 2a2e b43d
000002f0: 1e62 813c b51c 01bc 7de6 083d a046 d03c
00000300: 0e77 dfbc 28d5 17bd 185b 26bc aed5 00bc
00000310: d198 283d c6cd e4bc 970d 493d 5368 25bd
00000320: 6573 1cbd 77ac 593c a8d6 823a d78e 023c
00000330: ce5b 5b3c 22f4 6bbc c203 7cbc 9723 e13c
00000340: 6b69 0abd 0c56 1b3c 3085 bcbb bc8f 0abd
00000350: 023f 2bbd 69fb 353c ad4b d2bb 05b3 0b3d
00000360: 9f7d a43b 51b6 9f3c 8039 cdbc a98c 0bbd
00000370: f0cb 313d 77d7 3cbc 34dc 0abd 6022 11bd
00000380: a0cb f238 de7e 473b a6ac 15bd 0171 bd3c
00000390: d3eb 183d 30f5 9e3b de10 8f3c f049 363d
000003a0: ca0f 0abd 6db1 cdbc b13a 533d 81c9 403d
000003b0: beb1 3bbc 7f75 373d 10b5 a43b ad0f 29bd
000003c0: 5d78 563d 2f4d 92ba 76b9 40bc 7d64 173d
000003d0: 9961 603d eccb 5d3d 1c51 0ebd c064 303c
000003e0: 3116 48ba f630 c1bc 9d6f 323d d587 523d
000003f0: 8b18 9e3d a5c9 163d 02be ad3c b30e 3c3d
-0.045767672 0.045538865 -0.032263122 -0.017053306 -0.024456982 0.029053383 0.008140617 0.05182483
0.02751411 0.115063496 0.07697638 0.09322422 0.094627365 0.15289003 -0.069769144 -0.10836536
-0.011588548 0.019223094 -0.04198285 0.05436593 0.07261805 0.02488379 0.08954923 0.003400287
-0.045132767 -0.019462392 0.008688558 -0.040475648 0.01904774 -0.08267191 -0.05615374 -0.11964529
-0.1275036 -0.07265227 -0.026634643 0.06912465 0.071825475 -0.018733788 0.013102029 -0.016699046
-0.04178326 0.040962644 0.01450557 0.11002368 0.082268104 0.008310251 0.09114041 -0.07534547
0.036400035 -0.014121532 -0.11175116 -0.12872943 -0.049576893 -0.09070447 -0.07661406 -0.2218978
-0.037166525 -0.11711854 -0.0070300815 -0.02788937 -0.06744392 -0.0059121056 -0.055962395 -0.060150318
-0.0496867 -0.038835414 0.017128313 -0.00037242367 0.023065569 0.0352186 -0.021730818 -0.04502315
0.014293601 0.005903675 0.04574692 0.04061286 0.09203455 -0.073452435 -0.019679822 0.00821311
-0.012777561 -0.038361598 -0.05316038 -0.035254214 0.0215776 0.023874076 -0.0015063087 -0.023672171
-0.005596846 0.0059181703 -0.016099159 -0.018920815 0.009550714 0.01913303 -0.0074414494 0.05055833
-0.012751555 -0.038798034 -0.023716686 0.027718505 0.0504833 -0.007853767 0.03716291 -0.016639901
-0.0121028405 0.053289257 0.018078992 0.045874894 0.01692497 0.041133355 0.0022248565 0.0201393
0.060119897 -0.007521108 -0.006821503 0.037815347 -0.010616565 0.06793852 0.00628455 0.043578096
0.04938096 0.012280996 0.01898003 -0.030168287 0.027417347 0.026726604 0.012730954 0.043079697
0.07318668 0.07622556 0.06411901 0.0675045 0.024651656 0.026493493 0.035083976 0.013523234
0.04365926 0.053747486 0.018321516 0.025071716 0.07527846 0.027631752 0.024068987 0.07703664
0.014739615 0.06040033 0.017809568 0.09898148 0.033646464 0.041935924 0.023322543 0.049165893
0.02526152 0.010223418 0.016220953 0.08052672 0.045483753 0.030561998 0.08553085 0.07605082
0.026349945 0.017507473 0.059016377 0.107713535 0.08870997 0.040965747 0.08572991 0.010437519
0.03275164 0.09584733 0.07103853 0.00851621 0.05343919 0.10601737 0.086219385 0.10380895
0.03627105 0.009269151 0.017665764 0.09369808 0.06462141 0.05284627 0.04364232 0.012161012
0.019872727 0.020667536 0.08978901 0.087978676 0.015793856 -0.007880379 0.033422936 0.025424302
-0.02727845 -0.037068516 -0.010153554 -0.007863445 0.041161362 -0.027930152 0.049085226 -0.040382694
-0.038195986 0.013285748 0.0009982185 0.007968626 0.013388587 -0.0144014675 -0.015381755 0.02748279
-0.03379194 0.009480964 -0.005753182 -0.033828482 -0.041808136 0.011107304 -0.0064177127 0.034106273
0.005019858 0.019496115 -0.025051832 -0.03406969 0.04340738 -0.01152598 -0.03390141 -0.035433173
0.00011577387 0.003044061 -0.036541604 0.023125174 0.037334275 0.004851006 0.017464098 0.044504106
-0.033706464 -0.025109017 0.051569644 0.04706717 -0.011455951 0.044789787 0.005026467 -0.041274715
0.05236088 -0.0011161919 -0.011762967 0.036961067 0.054780576 0.054149553 -0.03474532 0.010766208
-0.00076327013 -0.023582917 0.043563474 0.05139907 0.07719525 0.036813397 0.021208767 0.045912456

hidden_layer1.bias f4 [64]
00000000: fffb 16bf ee98 ffbe 4630 0b3f 2d58 cc3e
00000010: 6346 da3e 1c6e 1d3f 8be6 0a3f aa59 463e
00000020: 0d32 cd3e d33d 99be 842a fa3e 491f ea3d
00000030: 95a9 2f3d ff01 96bd 4818 c1be a4a6 08bf
00000040: 0890 043f 833d 043f a01d 0ebf f71d 283f
00000050: 7b0d 28bf 3507 10bf f1ea e0be 4c9e 033f
00000060: d818 463d fb26 17bf 975b a7be f9d2 c8be
00000070: e6cc b2be b93e abbe 32ef e73e 9d5c 283f
00000080: 1048 b9be 7e4f c93e 6594 febe 058f 083f
00000090: b4e6 0b3f 3728 f9be 8183 ab3d 52d5 a2be
000000a0: 205d 143f 2de6 103f 3020 b53e b5b4 833e
000000b0: b63d 033f e3aa 1e3f 5e09 a43e 352f 07bf
000000c0: 4409 adbe df09 043f 6ae2 01be 95f6 d33e
000000d0: 2d5a 1bbf cc01 b7be ef09 26bf 1afa f3be
000000e0: 75b2 df3e 07e6 5c3f 06de c73e 8ddd 063f
000000f0: d944 1f3f 9ec5 62be 27b3 db3e 3400 24be
-0.58978266 -0.49921364 0.54370534 0.39911023 0.42631826 0.6149614 0.5425803 0.19370142
0.40077248 -0.2992998 0.48860562 0.114317484 0.042886335 -0.073245995 -0.37713838 -0.53379273
0.51782274 0.5165636 -0.55513954 0.6567072 -0.6564557 -0.56261 -0.43929246 0.51413417
0.048363537 -0.59043854 -0.32687065 -0.3922346 -0.3492195 -0.3344629 0.4529968 0.65766317
-0.36187792 0.3931846 -0.4972259 0.5334323 0.546489 -0.48663494 0.08374692 -0.31803375
0.579546 0.5660122 0.3537612 0.25723806 0.5126604 0.619795 0.32038397 -0.5280641
-0.33796132 0.5157756 -0.12684026 0.41399065 -0.6068447 -0.35743558 -0.6485891 -0.4765175
0.4369084 0.86288494 0.39036578 0.5268181 0.6221443 -0.22145697 0.4291012 -0.16015702

hidden_layer2.weight f4 [32, 64]
00000000: eb71 25bd b1a9 5b3d aa33 efbb 0c3b b7bd
00000010: e3ad ae3d 2251 b4bd df33 803d 435c fd3d
00000020: fe1a 5bbd e184 98bd 4583 08be f084 1d3e
00000030: fd85 afbd 9bd4 093e 0dbb 233d f9e3 8d3e
00000040: 4133 8f3b b570 a639 acc2 3e3e 8ee9 01be
00000050: abb1 dabd bd12 e03d b794 283c 71a9 953d
00000060: b537 533d 345f 2a3e 372b ca3d fe9f 433d
00000070: 853d 383d 8aee f03d 1edd 873d 94ac 1f3c
00000080: e467 3d3e 4d53 9e3d 4bd8 81bd e093 6abd
00000090: ec78 213d 76f1 383d 019c 89bd 0044 0b3e
000000a0: c4ee 2abd 6669 44bd 6baa 193d 867b 073e
000000b0: 8c25 b2bd 2404 9a3c 7e53 843d 54bd 5b3d
000000c0: b211 27bd 18ab ecbd 0138 443d 4d59 883c
000000d0: d9ce ba3b 7bdf a4bc 9355 713c 83df 35bd
000000e0: 146e a63c f7ae 65be 17c0 f2bd 587e 5abd
000000f0: 7ba5 893c ddad 033e 1cba 113d 3f13 eebc
00000100: 5b14 71be 49b5 34bc d0ef e93d ec07 393d
00000110: 6f68 833d af00 a53e 0358 d33d 6a0f a2bd
00000120: f5ce c43d 3271 853c bf46 e43d 207b 903d
00000130: 8bb4 ff3d 9dc4 afbd 7de9 e9bc 5cff c0bd
00000140: 90c5 2cbd 1502 bebc 828f 933d cfbc 1d3e
00000150: 8316 68bd 28bd 29bc 421f 60bc 2239 e83d
00000160: f39a 023e 66e5 5dbe f876 3c3c 077c 7fbd
00000170: 3dbb 0e3d 3386 00bd 5faf adbc f751 093e
00000180: eea6 563c a98b 14bc 8828 37bd 8a65 003e
00000190: ea24 32bd a742 b5bd 6ba6 1cbd 4b7a 2ebd
000001a0: 014b d03d 66ce 7a3d 5abb 453d de08 203e
000001b0: cd5a 943b 5093 193d 646f b23d 0d74 65be
000001c0: 22d8 3f3b 69b0 8cbc 25e6 103e c675 3d3e
000001d0: 8c38 4bbe 7157 99bd f280 c6bd 1a76 0cbc
000001e0: bfb0 913d 7c6d 2f3d 87dc 5abd f220 1c3d
000001f0: ccee 89bd ed21 a9bd 39ed db3d 271d ae3c
00000200: b83e e93d e5c4 1a3e 1e55 d5bc 0a41 16be
00000210: 9084 a6bb ab96 40be 5220 e9bd b727 8e3c
00000220: c9d7 123e d7b1 283e 1445 b7bd d21f 103e
00000230: 0e38 a9bb 84da 6f3d b3b3 223e 9948 1a3e
00000240: f16e 6f3b bf9c 3fbd c423 913e f42d debd
00000250: 72ed 283e 23d9 0dbc d585 a7bd 737a eabc
00000260: 4986 143e 750a 583e 9f38 823d 0ffa 0d3e
00000270: fcfa 183e d28c adba 76a3 cb3d b197 863d
00000280: 3bf6 883e 01a1 5e3c b074 b63d 770c d93c
00000290: c5ce fcbd 724b 803d 8f13 a9bd 23a9 c93c
000002a0: c932 6cbe 298a debd 9f15 063d ea00 e23d
000002b0: 394e 6b3d 1cc5 95bd ff5b 8e3d ed1b 1c3d
000002c0: 66ca 913d b578 e33c 2129 123d 625d 52be
000002d0: 7073 c83c 9ad3 dfba 1b63 543e e0eb 9d3d
000002e0: b1d5 ad3d 1f7d 09be 40b1 75bd 3c44 0ebe
000002f0: 3b4b b8bc 5eb9 0c3d a2a5 a4bd 4299 023e
00000300: a4b0 e83d 250f a73c 8588 a23d c915 37bd
00000310: 1bbe b4bc c75b 3ebe b45e cfbc 924e 203e
00000320: 2a1b 033e c11c 883d 99be ccbd 7412 a9bd
00000330: 7372 543d b1dd 24bc 2b01 413e 0527 003e
00000340: d25e d3bc 8c8b 02be aed7 cb3c 6219 ae3c
00000350: 627d 703e f3bc b73d 83f1 dfbc e0ff e43d
00000360: a1c8 a93d 19d7 393e 891b 2b3c 9598 a73d
00000370: 3606 313e 49af 1fbd c739 09be fabc 05bd
00000380: c1d2 e73d 469d afbd cacb 923e 1b1c 003e
00000390: f929 b2bd b044 ce3d 3309 233e b10a f53d
000003a0: c72f 1dbe 1f1e 98bd da76 d2bd d207 0f3e
000003b0: d908 b6bd eb8c 73bd cd54 a8bd 3c76 843d
000003c0: 62d4 263e 645d 953c 5083 063e 4b6d 02be
000003d0: 42de 6c3e dbbf 433d c384 20bd f9c1 453d
000003e0: 036b 483d 62c4 97be 96ae 443d 2b4d 0abe
000003f0: 26df 5a3d 7427 2d3c 002a 8abd e9c4 1e3e
-0.040391844 0.053628627 -0.00729986 -0.08946809 0.0852926 -0.08804537 0.062598936 0.12371113
-0.05349254 -0.0744722 -0.13331325 0.15382743 -0.08570478 0.13460009 0.039973307 0.27712992
0.0043701236 0.0003174596 0.18628949 -0.1268675 -0.10678419 0.10941074 0.010289363 0.07307709
0.0515668 0.1663788 0.09871524 0.047760002 0.044980545 0.11764248 0.06633972 0.009745736
0.18496662 0.07730732 -0.06340083 -0.05726993 0.03942196 0.04515215 -0.067192085 0.13600159
-0.04173161 -0.04795208 0.03751604 0.13230714 -0.08698568 0.018800803 0.06461237 0.053647354
-0.04078836 -0.11556071 0.047904972 0.016644144 0.0057009277 -0.020126095 0.014729875 -0.04440261
0.020316161 -0.22430025 -0.118530445 -0.053343147 0.01680254 0.12859292 0.03557788 -0.029061912
-0.23542921 -0.01102955 0.11422694 0.04517357 0.064164035 0.32227084 0.10319521 -0.07913096
0.096097864 0.016289327 0.11146306 0.07054734 0.12485608 -0.08582423 -0.028553719 -0.09423706
-0.042180598 -0.023194352 0.07205106 0.15404056 -0.056662094 -0.01036004 -0.013679327 0.11339022
0.12754421 -0.2166954 0.011502974 -0.06237414 0.034846533 -0.031377982 -0.021201788 0.13410173
0.013101323 -0.009066501 -0.044716388 0.12538734 -0.043492235 -0.088506036 -0.038244646 -0.042597096
0.10170556 0.061231993 0.048274375 0.15628383 0.004527426 0.037494004 0.08712652 -0.22407551
0.0029273112 -0.017173963 0.14150293 0.18501958 -0.1984579 -0.07487381 -0.09692563 -0.0085730795
0.0711379 0.04282902 -0.053432968 0.038117357 -0.06735 -0.08258424 0.10738606 0.021254135
0.11388916 0.15114172 -0.026041564 -0.14673248 -0.0050817207 -0.18807475 -0.11383118 0.017352922
0.14340128 0.1647409 -0.089487225 0.14074638 -0.005164153 0.058558002 0.15888862 0.15066756
0.0036534632 -0.046780344 0.283476 -0.108486086 0.16496828 -0.008657726 -0.08179823 -0.028622841
0.1450435 0.21097739 0.06358456 0.13864921 0.14939493 -0.001324082 0.09943287 0.065719016
0.2675036 0.013588191 0.08908975 0.026495202 -0.12344126 0.0626439 -0.08255684 0.024616783
-0.23066248 -0.10866196 0.032735463 0.110353306 0.057447646 -0.07312986 0.069511406 0.03811257
0.071186826 0.027767519 0.035683755 -0.20543435 0.024469107 -0.0017076612 0.2074093 0.07711005
0.08488024 -0.13426636 -0.059983492 -0.13893217 -0.02249681 0.034356467 -0.080394045 0.12753776
0.113618165 0.020392964 0.07936195 -0.04469851 -0.022063306 -0.18589698 -0.025313713 0.15654972
0.12803331 0.06646109 -0.09997291 -0.08255473 0.05186696 -0.010062621 0.18848102 0.12514885
-0.02580205 -0.12748545 0.024883118 0.021252338 0.2348533 0.08971586 -0.027336841 0.11181617
0.0829022 0.1814846 0.010443577 0.081833996 0.17287526 -0.038985524 -0.13400947 -0.032650925
0.11319495 -0.085749194 0.28671104 0.12510721 -0.08699412 0.10071695 0.15921478 0.1196493
-0.15350257 -0.0742762 -0.102765754 0.13967827 -0.08888406 -0.05946056 -0.082192995 0.06467864
0.16291955 0.018233009 0.13136029 -0.12737004 0.2313166 0.04779039 -0.03918911 0.04828069
0.04893018 -0.29642016 0.04801806 -0.13506 0.053435467 0.010568488 -0.06746292 0.15504803

hidden_layer2.bias f4 [32]
00000000: 4138 c6be 224b f03e 3f76 fabe 05f7 1dbf
00000010: ed71 afbe 211a 2d3f 6e19 a93e 2b26 bbbe
00000020: 74d6 00be 9546 b6be d6eb dabe e679 b43e
00000030: af67 2a3f 5484 ae3e 4ad7 07bf 67ac 13bf
00000040: b750 373f 226c 0d3e 8048 a63e 35bb ee3e
00000050: 21a7 223f 85ab e83e 15fe fe3e 2921 94be
00000060: 8d91 fe3e 79ac e3be 9b87 fbbe f4f7 b9be
00000070: 4cb2 08bf f15f d03e 63c0 043f 4000 243f
-0.38714793 0.46932322 -0.4891834 -0.61705047 -0.34266606 0.67617995 0.33027214 -0.36552557
-0.12581807 -0.35600725 -0.42758054 0.3524925 0.6656446 0.34085333 -0.5306288 -0.5768494
0.71607536 0.1381078 0.32477188 0.46627203 0.6353627 0.4544336 0.49803224 -0.2893155
0.4972042 -0.44467524 -0.49126896 -0.36321986 -0.5339706 0.40698197 0.5185606 0.6406288

hidden_layer3.weight f4 [16, 32]
00000000: 197d c2bd 752c ce3d ec12 a73d 8feb c4bd
00000010: 4857 dcbe 1e54 08be 61c4 31bc e18d 71bd
00000020: db01 c83c f1d3 d33d 32c4 e2bd 4249 253e
00000030: 5594 a43d 682e d03d ab4f b1bd 0d29 bfbd
00000040: 7a8f 373e c35e 9abc baf3 a93d 08e3 2e3e
00000050: 9e98 31be beb8 2abe 98a3 383d f308 00be
00000060: c891 683e 91ad 90bd 34f2 04be b2d8 293e
00000070: f498 be3d 5ec7 9fbd 0c9c 423c 0e61 b93d
00000080: 187d cbbd 2b6a 56bd 06fb aebd 8aaf 893d
00000090: 71f1 dd3d c9e9 d63d 8a02 43be c944 f33c
000000a0: 297c 1abe 541d e2bd 1c4b 2d3e 93d1 bf3c
000000b0: 3ea6 e33d 9f99 8b3d cc56 e5bd 9e53 84be
000000c0: a625 083e 98ff 633d 4144 3c3e 23ac 313d
000000d0: bee0 5d3e cb6c 2fbe 50d3 1dba a3d4 83be
000000e0: 31d1 c43d 3370 233d 3931 4d3d 36b8 afbe
000000f0: 0e43 563d 4379 3ebd daab 1f3e aac8 1a3e
00000100: b2d1 9ebc 16e7 3a3c 09c1 003e 559c 8e3b
00000110: 1860 dcbd 4fb2 4d3c 73ea 19be b879 6ebd
00000120: 0b62 6e3d 6069 153e 2a03 b93c 89d0 ccbd
00000130: 203a 0c3e f5ef 23be 7c5a b83d 1178 f3bc
00000140: 2c3a dd3c 5d40 ccbd 2d7e 35be 96e5 12be
00000150: 61e2 27be 2114 d3bd 2c36 1ebe 1f28 073e
00000160: c6c8 d93c 0eac 91bd 261e 35be 232c ad3d
00000170: 213b 1cbb 5fe0 16be a082 ffbc 1e54 37bd
00000180: 2cac 4d3e 5568 c93c 6318 523e a09d 963e
00000190: 0c22 043e 56ba 87bd f120 873c 6ba2 093e
000001a0: 5432 503d 0432 4f3e 75be aa3d bd08 753c
000001b0: e84a 35be f895 c4bd 8261 143e 26b0 683e
000001c0: 4504 77bd 5f5d 563e bb25 223e 179e 163e
000001d0: 5b3c 97bd e97e 0abe 70cc 79be ab65 4a3c
000001e0: ab92 a6be 7541 913e c847 943e b55c 7d3e
000001f0: 7ca8 793e 8c77 babd 8301 6abe 4d6e bcbd
00000200: 1bb4 7fbd 0790 c9bc ba67 8b3d 9514 7fbe
00000210: 7cd6 c6be 4df2 213e 0358 1f3e 6cae b53c
00000220: ee54 9b3d 50ab 033c 7bb7 21be 5b0e a7bd
00000230: 49d9 7d3d d695 4d3e d676 19be c52c 52bd
00000240: 3592 323e 9fb9 c43c 10e5 363e 16f0 3b3e
00000250: 74b0 2abd 250d 043e 0e02 663e 373b 2ebe
00000260: 5640 9f3e 6f31 b5bd ec2e 90be c56d d03d
00000270: 28c4 603d 7dce 11be e5af 443c 0117 15bb
00000280: 16f7 b63b 0f03 3d3d df89 16be 9f65 d23d
00000290: cd32 4d3e 7179 203e 5f37 d4bd f789 16be
000002a0: ccda ee3d f08d 5cbd c002 2c3e 6885 153e
000002b0: cb2e e43b f4eb 98bd 6e1e 093e 5da5 14bc
000002c0: 79f5 d5bd 5817 4fbe 35c5 05be 2d50 a03d
000002d0: dd77 313d 0594 9abd e9b8 0bbe 8e5c bc3a
000002e0: cc4c 12be 587d db3c 137a 713e 19cf 0f3e
000002f0: d88e 263e f2f8 3dbe ed46 973d b094 9d3d
00000300: 2641 b9bd 901f 563d 9538 39be ec05 80bd
00000310: 4ee8 45be 13c2 f93c 12d1 433e b435 f9bd
00000320: 5d3b 2e3e 111b 0abd 3359 01be 76b6 8d3c
00000330: 6a95 0bbd 85de 953d 8efe 1a3e ee91 8cbd
00000340: 3d85 e03d e6b7 53be b1d8 ebbb 2d20 bcbc
00000350: 9779 353e 138a 9b3e dc30 133e b429 25bd
00000360: d554 373e ca94 a23d b859 a9be c099 c5be
00000370: 7c4e c93d a4fb 443e bab8 2e3e d1be 1a3b
00000380: b3a4 083d 6f34 013e ec22 043c 37bf 06be
00000390: 2a4d d9be 58e8 373e df03 c4bc bd89 3ebe
000003a0: 6c3d ebbd 12ef 013c 3ce4 46bd cd42 bd3d
000003b0: 3148 293e edc4 f8bd f689 e63d c121 e43d
000003c0: bd3a a93d 9007 8ebe 60f3 89bd 4e3a 6e3d
000003d0: af2b 533e a7f0 bd3d 8458 4c3e 9327 13be
000003e0: 5f7c 173d 4a0a 32be 9be1 b0bd 51d6 68be
000003f0: 9fee 313e cf13 643e 8d37 443e 14eb 5a3e
-0.09496517 0.10067073 0.08157906 -0.09615242 -0.4303534 -0.13313338 -0.010850043 -0.058973197
0.024414947 0.10343159 -0.110725775 0.16141227 0.080361046 0.10165101 -0.086577736 -0.09334002
0.17925826 -0.018844014 0.0829844 0.17078793 -0.17343375 -0.16672036 0.04507789 -0.12503414
0.22711861 -0.07064355 -0.12983018 0.16586569 0.09306517 -0.07801698 0.011878025 0.09051715
-0.09935969 -0.052347343 -0.08543973 0.067229345 0.10837067 0.1049381 -0.19043937 0.029695885
-0.15086426 -0.1104075 0.16923183 0.023415362 0.111156926 0.0681641 -0.11198196 -0.25845045
0.13295612 0.055663675 0.18385412 0.043377053 0.21667764 -0.17131345 -0.0006020563 -0.25748166
0.096102126 0.039901923 0.05009577 -0.3432023 0.052310042 -0.046502363 0.155929 0.1511561
-0.0193871 0.011407634 0.12573637 0.0043521323 -0.10760516 0.012554719 -0.15030842 -0.05822155
0.05819897 0.14590979 0.022584517 -0.100007124 0.13694048 -0.16009505 0.090016335 -0.029720338
0.027005278 -0.09973214 -0.17723913 -0.14345393 -0.1639495 -0.10306574 -0.15450352 0.13198899
0.026584994 -0.07112895 -0.17687282 0.08455684 -0.0023838955 -0.14734028 -0.031190217 -0.044757955
0.2008521 0.024585882 0.20517115 0.29417133 0.12903613 -0.06627338 0.0164952 0.13440864
0.050829247 0.20233923 0.08337108 0.014955697 -0.17704356 -0.09598917 0.14490321 0.22723445
-0.060306806 0.20934056 0.15834706 0.14708744 -0.07384559 -0.13524975 -0.24394393 0.012353341
-0.32533774 0.28370252 0.28961015 0.24742396 0.24380678 -0.09104833 -0.22852139 -0.09200726
-0.06242762 -0.02460481 0.06806894 -0.24910195 -0.38835514 0.15815087 0.15560918 0.022177897
0.075845584 0.00803645 -0.15792648 -0.08157035 0.061974797 0.20076689 -0.14986739 -0.051312227
0.17438586 0.024014292 0.17860818 0.18353304 -0.041672185 0.12895639 0.22461721 -0.17014776
0.31103772 -0.08847319 -0.281608 0.10177187 0.05487457 -0.14238925 0.012004827 -0.0022749307
0.005583654 0.046145495 -0.14701031 0.10273289 0.2003891 0.15671326 -0.10362124 -0.14701067
0.11662826 -0.0538463 0.16797924 0.14601672 0.006963586 -0.074668795 0.13390514 -0.009072629
-0.10447211 -0.20223749 -0.1306351 0.07827792 0.0433272 -0.07547764 -0.13644756 0.0014370845
-0.14287108 0.026793167 0.23581724 0.14043845 0.16265428 -0.18551996 0.07386575 0.076943755
-0.09045629 0.052276194 -0.1808799 -0.062511295 -0.19326898 0.03048805 0.19122723 -0.12168446
0.17014833 -0.03371722 -0.12631683 0.017298918 -0.03407804 0.07317833 0.15136167 -0.068637714
0.10962913 -0.2067562 -0.0071974625 -0.022964561 0.17722164 0.3037878 0.14374107 -0.040322974
0.17903455 0.079385355 -0.33076262 -0.38593864 0.09829423 0.19236618 0.17062655 0.002361227
0.033360194 0.12617658 0.008064967 -0.1315888 -0.42441684 0.17959726 -0.023927627 -0.1860723
-0.11486325 0.007930534 -0.048557505 0.09241257 0.16531445 -0.121469356 0.11256783 0.111392505
0.082631566 -0.27740145 -0.06735873 0.058161072 0.20622133 0.092744164 0.19955641 -0.14370565
0.036983844 -0.17386737 -0.08636781 -0.22738005 0.17376183 0.22273181 0.19161816 0.21378738

hidden_layer3.bias f4 [16]
00000000: 960d 6bbe 81ad cc3e 3305 c83d e028 26bf
00000010: e395 c43e a21d 5fbe 9a0a e83e 8ff9 ef3e
00000020: 5698 873e d87d 75be e320 063f 0962 e2bd
00000030: c329 00be de76 873e ee02 11bf 1aa9 c7bd
-0.22954401 0.39976123 0.09766617 -0.6490612 0.38395604 -0.21788648 0.45320588 0.46870086
0.2648341 -0.23973787 0.5239393 -0.11053855 -0.12515931 0.26457876 -0.56645095 -0.097490504

out_layer.weight f4 [5, 16]
00000000: 56a8 f3bc 4929 533e 9473 70be 0570 84be
00000010: a5d0 1abb c783 07bc 60c1 f1bc 9232 01be
00000020: a058 d8be 8027 7abd 07df 503e ecc4 9bbb
00000030: 07f3 463e 9f02 4a3e f42b 78be fb77 873e
00000040: 7c66 f33d b812 a8be d8a7 0e3e 3e21 43be
00000050: a320 273e d18a 69be 87e6 da3d 97cf f03d
00000060: b16d ec3d fba6 053d 07cb 843e c399 0d3e
00000070: 18ef 10bd 6b4b cabd 76c5 87be 0f01 8cbe
00000080: d54d 5d3e 6bb2 053e b99b 9e3d 469d debd
00000090: d2c1 f83d 3f23 433e e983 6b3e 5ad6 363e
000000a0: 4312 cebe 4fdc 243e 1b6c 5a3d e812 783d
000000b0: 67f9 42bd f563 8dbd 767f cabe 8c7b 873e
000000c0: f2d0 1bbe 80ed 913e d1b4 51bd f488 85be
000000d0: 382d 4d3c 9efb 5dbe 15c3 3e3e f428 333e
000000e0: e985 67be 5609 f3bb 3f1b 1b3e 798d 29bd
000000f0: b110 67be 2a54 6f3e 05cf b4bc 86c3 233e
00000100: 3983 133d b7a5 253e 9e1e 323e 1e29 62be
00000110: e2a4 5a3e 9099 dcbd 6f4a 293e 1700 913e
00000120: b15f c0bc f900 a6be dc40 9bbd 734a 0abe
00000130: b199 873d e3f6 713e e04e 3abb b66b e83e
-0.029743355 0.20621218 -0.2348159 -0.25866714 -0.0023622897 -0.008271164 -0.029511154 -0.12616947
-0.42255116 -0.061072826 0.20397578 -0.0047536995 0.19428645 0.19727562 -0.24235517 0.26458725
0.11884782 -0.3282678 0.13931215 -0.1905565 0.16321044 -0.2280686 0.10688501 0.117583446
0.115443595 0.032629948 0.25936148 0.13828187 -0.035384268 -0.09877666 -0.26517838 -0.27344558
0.21611722 0.13056342 0.077445455 -0.10869841 0.12146343 0.19056414 0.22999538 0.17855206
-0.40248308 0.16099666 0.053325754 0.060564905 -0.04760113 -0.06903831 -0.3955037 0.26461446
-0.15216425 0.2850151 -0.05119783 -0.2608105 0.012522988 -0.21678016 0.18629105 0.17496091
-0.22609676 -0.0074168844 0.15147112 -0.041394684 -0.22564961 0.2337195 -0.02207137 0.15992555
0.036013816 0.16176496 0.17394492 -0.22085997 0.2135196 -0.10771477 0.165323 0.2832038
-0.02348313 -0.32422617 -0.0758073 -0.13504963 0.06621111 0.23629336 -0.002842836 0.45394677

out_layer.bias f4 [5]
00000000: 71bc 443e 1960 0c3f 3f05 52be 67d3 9d3e
00000010: 6489 903e
0.1921251 0.54834133 -0.20509814 0.3082535 0.2822982
