models/DQNtoggle_param1.pth (torch, 110633 bytes, 8 tensors)

hidden_layer1.weight f4 [64, 378]
00000000: 81e9 11bc 5104 efbc 1597 1c3a ab56 7bbd
00000010: 3358 71bd 9033 38bd 3975 ea3d 943b 1a3c
00000020: b4ae 23bd 750b bebb eb29 18bd a1bf 953b
00000030: 692e 2dbb bce3 1ebd 13bd a53d 8907 7ebc
00000040: ed50 423b 6744 683c b94b 15be 91da 35bc
00000050: 690b 1dbe ef98 f0bc d601 be3d 34be 17bd
00000060: 21a9 d3bd b53e 8ebd 7c14 2fbc cb64 f7bd
00000070: f1b2 dcbc fe2e ce3c f6db c2ba bf5a 563d
00000080: 1524 f23c 8e01 9e3d 72dd 973d 14a7 9e3c
00000090: b131 b13c 4acc 05bd 886a c5bd de06 d0bc
000000a0: 4756 38bd 57b7 e1bd 12d2 f43c 19bd 4e3d
000000b0: 986b fa3c 0856 52ba e05f 23bb e018 7b3d
000000c0: ca71 94bd b773 483d 1190 eb3d 248d 7ebd
000000d0: 6316 94bc 55b0 263d 0567 0dbd b47d e6bb
000000e0: 078c 39bc a8d0 633d 7acc 0bbd 61d2 38bd
000000f0: 2ce7 e7bc 5f30 52bd bd44 adbc d7ae 833d
00000100: 1469 153d 0e1c 303d c899 78bc 367e 2ebd
00000110: a5c7 d3bc efb4 a83c 335a 663d 7a53 333d
00000120: 7fcd 5e3c ab69 b13d 19fd a63d a5e5 083d
00000130: 6483 e53c d7e2 7bbb e517 843d 9bae 9e3d
00000140: b162 ad3d aecc 583d fe71 bc3d 54a4 db3c
00000150: e85f a23d 98c4 8b3d a252 5f3d 8ed7 2b3d
00000160: 01db 8a3d 80df 7a3d ddeb 9b3b 565c d9bc
00000170: 87ca 3d3d fa50 76bc 1a2a 993d 1fbd 9d3d
00000180: 850d 633d 4c45 723d 75b1 23bd 622b 283d
00000190: 7169 d6bc 1b7c 2b3d c654 813c db93 51bd
000001a0: da59 0ebd d182 b43c 2f5b 4b3d eae1 813d
000001b0: 1f8e ab3d fa24 4f3d 77d3 053d 5207 e23c
000001c0: 1652 f33c 4ca1 ce3c 17d8 13bd 7c93 cbb8
000001d0: 3caa 10bd 4496 b1bb 3acc 3dbc 0d07 0f3d
000001e0: ae6f 733d 2f4d 833c 1380 353d 86c0 bc3c
000001f0: 690a 4c3d 0bcb 6e3d 9e38 6b3d 3680 973d
00000200: 46e2 bf3d 469e 023d 02d8 393d e3b3 8c3d
00000210: b686 c23d d653 f53b 7936 013c 5934 873c
00000220: 9619 9b3d 436c 0d3d 5adc a13d c327 a93c
00000230: 8376 623d 676b 3c3c 5148 aa3d 9789 933d
00000240: 3b56 193d 6092 a93d 292e b63c 6066 b63d
00000250: f956 213c ad2e 533d dadf 5f3d f01a e03b
00000260: 2009 173d 11d7 863d 42e5 3f3d e58a 003d
00000270: 1d83 9a3c e011 4f3d d053 9d3d 7d4d 8c3b
00000280: ca3a 293d bba9 a03d 3cfd 873d ab15 8c3d
00000290: b8b1 023c f42b 813d cb57 c73d 8d62 6d3c
000002a0: f0d7 a73d 830c e93c b770 873c 1436 b23d
000002b0: 7361 443d b9e1 363d 509c ab3c 7594 d23b
000002c0: 38bb 323c 7a84 943d 240c 7c3d 32fc bc3d
000002d0: 91f5 823d 275a 8b3d 3a2d 8f3d e914 b53d
000002e0: e6c8 5d3d 3942 af3d b62c be3d 4b27 0f3d
000002f0: a751 823d ab07 653d 02aa 3b3d 0d01 873d
00000300: e856 d93d 4cea ec3d 0e25 d53d acda a83d
00000310: ca2c c43d 34db a03d 8495 9e3d 200c db3d
00000320: fbb5 633d e326 513d cc76 d13d 7daa ba3d
00000330: a6d4 963d e4f6 e93d 07ce 943d c157 ce3d
00000340: 0ab3 ec3d da01 b23d 7e78 873d a98e 503d
00000350: e068 983d a720 a23d da45 9b3d 9093 d93d
00000360: 0eb2 fd3d f1fa 343d be27 8f3d 5498 cd3d
00000370: 12d6 023e 5cd0 c13d 80e7 e73d e54e 883d
00000380: 61ba 5a3d b58c 5a3d ddfd 263d 91cf dd3d
00000390: a5dc f83d 1260 f73d d10a ab3d 5cc2 f83d
000003a0: 9631 ff3d 0f49 b83d 74a7 a43d 3a85 613d
000003b0: b28a b93d f4bc 933d ec1a 833d 2f93 bd3d
000003c0: 8a71 ea3d 624b e53d 8bfe 9c3d 2282 013e
000003d0: 0f28 c13d f19c f53d e37d ec3d ca6e 8f3d
000003e0: 0e3f 953d 0cd1 2d3d ec24 013e 9f97 f63d
000003f0: b60e cd3d fe8c c33d 0c16 aa3c 5a1d 623d
-0.008905769 -0.029176863 0.0005973441 -0.06136195 -0.058922004 -0.04497105 0.1144814 0.009413619
-0.03996153 -0.0057997056 -0.03714935 0.004569963 -0.0026425368 -0.038791403 0.08092704 -0.015504726
0.0029650286 0.014176465 -0.14579667 -0.011099474 -0.15336384 -0.0293698 0.09277694 -0.037046626
-0.10334993 -0.06945554 -0.010686036 -0.120797716 -0.026940795 0.025168892 -0.0014866579 0.052332636
0.02955822 0.0771514 0.07415284 0.019366778 0.02163014 -0.03266553 -0.0963946 -0.0253939
-0.045004155 -0.110212974 0.029885326 0.050473306 0.030568883 -0.0008023684 -0.0024928972 0.06130302
-0.07248266 0.04893848 0.11502088 -0.06214632 -0.018077081 0.040695507 -0.034522075 -0.007034028
-0.011324889 0.055618912 -0.03413055 -0.045122508 -0.028308474 -0.05131566 -0.021150941 0.064298324
0.036477163 0.042995505 -0.015173383 -0.042600833 -0.025852034 0.020594088 0.056238364 0.04378078
0.013598799 0.08662733 0.08153743 0.03342213 0.028016753 -0.0038434768 0.0644987 0.07748147
0.084660895 0.052929573 0.0920143 0.026811756 0.07928449 0.06824607 0.054522164 0.041953616
0.06780053 0.061248302 0.0047583417 -0.026533287 0.046335723 -0.015033955 0.07478733 0.077020876
0.055432815 0.059148118 -0.039964158 0.041056998 -0.026173325 0.041866403 0.015787493 -0.051166397
-0.034753658 0.022035034 0.049647506 0.06341918 0.08376717 0.050572373 0.03267237 0.027591381
0.029702228 0.025223397 -0.03609475 -9.7072654e-05 -0.0353186 -0.0054195244 -0.011584336 0.034918834
0.059432678 0.016028015 0.044311594 0.023041021 0.049814615 0.058299106 0.05742704 0.07397501
0.0936933 0.031889223 0.045372017 0.06870248 0.0949835 0.0074868007 0.007886522 0.016504453
0.075732395 0.034527075 0.07903357 0.020648843 0.055288803 0.011500216 0.083145745 0.072039776
0.03743575 0.08279872 0.022238808 0.08906245 0.009847396 0.051558185 0.05465684 0.0068391487
0.036873937 0.065839894 0.046849497 0.03138246 0.018861348 0.050554156 0.076820016 0.0042816983
0.04131583 0.078448735 0.066400975 0.0684007 0.007976942 0.063072115 0.09733542 0.014488828
0.08195484 0.028448349 0.016533239 0.08701721 0.047944497 0.04464886 0.020948559 0.006426389
0.010908894 0.072518304 0.061535016 0.0922779 0.06394494 0.068043046 0.06991048 0.08841879
0.05414667 0.08557553 0.09285872 0.034949582 0.0636323 0.055915516 0.04581643 0.06591997
0.10612279 0.11568126 0.10407458 0.08244833 0.09578855 0.0785431 0.077433616 0.10695672
0.055593472 0.051062476 0.10227737 0.09114549 0.07364778 0.11424044 0.07265859 0.100753315
0.115575865 0.086917594 0.06614779 0.0509173 0.07441878 0.07916384 0.075816825 0.106238484
0.12387477 0.04418463 0.06990002 0.1003882 0.12776974 0.094635695 0.11323452 0.06655673
0.0534004 0.053356845 0.040769447 0.10830606 0.121514596 0.12078871 0.083516724 0.12146446
0.1246063 0.0899831 0.08039752 0.055058695 0.09059657 0.07213774 0.06401619 0.09256589
0.11447437 0.11196019 0.07665738 0.12647298 0.09431469 0.11992825 0.115474485 0.07003553
0.07287417 0.04243569 0.12611741 0.12040638 0.100125715 0.095483765 0.020762466 0.055203773

hidden_layer1.bias f4 [64]
00000000: 4c7d 523e c80b 1b3e b060 423f 7dab ac3e
00000010: 4ae9 ce3d ff34 123e c0f9 dabd 2478 043f
00000020: 6166 2abe f040 e0bd 0797 913e cb94 9d3e
00000030: 5f86 363f d9b4 3bbe f141 623f 6072 49bd
00000040: 7171 113f 2348 8bbd d0bb 24be 3040 97be
00000050: a504 76be a064 b93e 2e73 00bf 2d3e 773e
00000060: c2be e03e cc6e 9ebe 7b50 ebbc ea02 6d3e
00000070: edfb 6d3f eb62 443d fea6 13be 9bf9 4abe
00000080: 1cfb ab3d 06b3 343f daca e2be 37b0 933e
00000090: 5aa6 813d 60e4 85be 0c53 b6be 0c7e 643e
000000a0: 14bf 8e3e 6b9b 683c ef61 8dbe aa15 393e
000000b0: fb5d 33be 38db 9fbe cb21 a63e cce2 0fbf
000000c0: e653 87be c22f 3cbd d152 453f c5d4 bdbe
000000d0: 4107 303e cb82 48be aea1 213e d74f 03bf
000000e0: 1699 7e3e f801 0b3c 87be 6d3e f265 113e
000000f0: e33f edbc 7eba 6bbe 3479 87be 587f 693e
0.2055561 0.15141213 0.75928783 0.33724585 0.1010309 0.14278029 -0.10692167 0.5174582
-0.16640617 -0.10949886 0.28435537 0.30777583 0.71298784 -0.18330707 0.8838187 -0.049181342
0.5681372 -0.06800868 -0.1608727 -0.2954116 -0.24025209 0.36209583 -0.5017575 0.24144812
0.43895537 -0.30943906 -0.0287249 0.23145643 0.92962533 0.047945898 -0.14419171 -0.1982178
0.08397505 0.7058567 -0.44295388 0.2884538 0.06330557 -0.261508 -0.35610235 0.22313708
0.27880156 0.014197211 -0.2761378 0.1807467 -0.1751632 -0.31221938 0.32447657 -0.5620544
-0.26431197 -0.045943983 0.7707949 -0.37076393 0.17190267 -0.19581144 0.15784332 -0.512937
0.24863085 0.008484356 0.23217212 0.14199045 -0.028961128 -0.2302036 -0.26459658 0.22802484

hidden_layer2.weight f4 [32, 64]
00000000: 01df c8bc 42cb 7d3d 8300 cd3e 33bf 0cbe
00000010: 60e4 5f3d 8625 e13d a0ae eabe 35b6 fbbd
00000020: c76d 673d dfa7 9e3e 93ec b43d 73eb 843e
00000030: 974c 35be e696 563e a105 213f e31e 04bd
00000040: b184 193e fc41 50be 92ae 1d3e 6572 983d
00000050: b0bf eb3d 6e2c 183d 7431 ab3d 12a0 10bc
00000060: 6fa0 bb3d feaf 023d 3b12 673e c2a6 293e
00000070: 3440 873e 81a7 87be e0be 6e3e a1f2 afbc
00000080: 5be6 a43c 18b5 043e 903e c93a 70f9 493e
00000090: ab66 df3c 7e9d 3ebe ffbd 473e 2d41 ed3d
000000a0: c83e bc3d 638c 773d 3896 543e 0908 a43f
000000b0: d5df 883c 4833 b7be 355d b23d f66f 6a3e
000000c0: 7aa5 aa3d 3f83 52be 89d9 f43e d315 3ebd
000000d0: a75a 4e3e 8819 01be 4647 cf3d d466 343e
000000e0: 6c96 55bd 7ef3 7c3e 47b0 ab3d 68de d2bd
000000f0: 92b8 67be 2b19 b43d 0355 fb3d 5322 cd3d
00000100: cb85 933d 4daa 57bd d090 143e 55b4 2c3e
00000110: d132 e83d 2e68 b73d 9953 9f3b d9d4 223e
00000120: 7a4e 13be 870f 4cbd 0239 9a3d 907d 03bd
00000130: 0abb c83d 4b10 783c 5ab1 0f3f d82d b7bc
00000140: fd3b 9f3c 685c d43d c236 c2bc 1760 72be
00000150: e800 2c3d abba 1bbd 36c6 573e 481f cf3d
00000160: 18e6 06be 2ae6 d0bc 9fcf 933c 9329 a93d
00000170: b58b d7bb 1e4c 993c 903b 153e 09dc 1f3e
00000180: 6aac 1f3e 9a8b 43bb 620c cbbd 66cb fa3b
00000190: 30fd 983d 2329 a53d 93c8 c5bd 6f22 a2bd
000001a0: 6263 b4bd 533f 153d 20fd 9fbd 25d4 8cbe
000001b0: 77e4 093e 4d6a 30bd 8969 773e 8271 95bc
000001c0: 3430 063e 79a3 95bd 7336 4dbc 294e e13d
000001d0: 62a1 c03d 9093 39bd df6f 033e bc47 0e3d
000001e0: 17ce cb3d d378 2c3d 80e9 863d add7 553d
000001f0: a6f8 ba3d 8402 2a3d 17c4 ffbd ef6d 9d3d
00000200: a3d1 863c a455 163d 9767 3cbe fd00 81be
00000210: 9ad0 813d e140 963c b88b 38bc b96b 163e
00000220: b372 5e3e e63a 08be 3e0f 573e 5ec0 d63c
00000230: b799 29be d8fb b5bd 2823 7ebe e7cc 8fbc
00000240: e1e5 953d 39df e7bd e73c a0bd 3535 933e
00000250: b75e a33d 7692 9d3d 72ec 5b3e b56d fdbc
00000260: 943d 333e ff8c e43d 6884 2f3f 79ce be3d
00000270: 967b 8abe 4b58 06be 5eb6 01be 5589 f5bc
00000280: 1d5e 3b3d b8c5 58be 52e1 b6be 143a 9db9
00000290: 6aff d2bc f57b 783e 744a 103e f5bc d63d
000002a0: 568e 833e 379d 8d3c 9783 cb3d d942 d73e
000002b0: 4f38 d53d d38e a43e f296 0bbb 3f33 d8bd
000002c0: c940 e73d e0bc 443e 44c0 db3c fca1 f53e
000002d0: 9b00 9939 dec7 a83e 1330 6f3e db4c a23e
000002e0: c572 7abb 84f7 0dbd a5d2 90bc 1122 b1be
000002f0: dd5d 83be f9e8 023e ae26 1b3e df41 653c
00000300: 1e8e f63c 5026 37bd 19a2 c4bd d393 79bd
00000310: 9b52 34be 357b ee3c c483 813e 25f3 403e
00000320: 7a56 1a3e 071d eebd 6f6d febc c430 ffbd
00000330: 1b4c 29bf 92f3 9d3d 8175 21bf babb d83c
00000340: cf4e 863b a342 4a3e 6e12 b43d 7b07 023f
00000350: 5a38 383e 373e 4abd 51d1 893e b5dd 95be
00000360: 0bd4 223e ab22 debc 277c cf3d c4a0 86bd
00000370: ebf6 3cbe db4f d03d bc9e 21be df8d 9bbd
00000380: 3b20 eebe b3b3 19be 14b0 f13d 3670 c5bd
00000390: 58a4 c5bd cca0 a53e 4daa e13d 297f 5abd
000003a0: dfa3 273d 93ea cdbe 0852 8c3b a0b4 593f
000003b0: 54bf ca3d cdd4 30bd 2e92 1bbe 7091 bdbe
000003c0: f745 b73d 3af9 8e3e 03e8 46bf f8c1 3f3a
000003d0: c5c0 06bd b73c 0e3e 3052 a9bd 89f3 b83d
000003e0: 8889 223d d27f df3d 8b00 bfbd 8af9 3b3e
000003f0: a5ae 113e dd9c 133e 7a78 17be 16b2 99bd
-0.024520399 0.06196142 0.40039453 -0.13744812 0.054661155 0.10993485 -0.45836353 -0.122906126
0.056501176 0.3098745 0.088341855 0.25960883 -0.17704998 0.20956 0.62899214 -0.03225602
0.14992024 -0.20337671 0.15398625 0.07443694 0.11511171 0.037151746 0.08359042 -0.008827226
0.0916146 0.03190612 0.22565548 0.1656752 0.2641617 -0.26494983 0.23315 -0.021478
0.020129373 0.12959707 0.0015353728 0.19724059 0.027270636 -0.18614766 0.19506072 0.11584697
0.09191662 0.060436618 0.20760429 1.2814952 0.016708294 -0.35781312 0.08709184 0.22894272
0.083323434 -0.20557879 0.47822216 -0.046407532 0.20151769 -0.12607396 0.10121016 0.17617351
-0.052145407 0.2470226 0.083832316 -0.10296327 -0.22629002 0.08793863 0.12272074 0.100163125
0.07203253 -0.052652646 0.14508367 0.16865666 0.113378175 0.089554176 0.0048622605 0.15901507
-0.14385405 -0.049819496 0.075304046 -0.032102168 0.098013 0.015140603 0.5612999 -0.022360727
0.019437784 0.103691876 -0.023707751 -0.23669468 0.04199305 -0.038019817 0.21071705 0.10113388
-0.13173711 -0.025500376 0.018043337 0.08259883 -0.0065779337 0.018713053 0.14573503 0.1561128
0.15593114 -0.0029837848 -0.09914471 0.0076536415 0.07470167 0.08064487 -0.09657397 -0.07916724
-0.08808018 0.036437344 -0.07811952 -0.27505603 0.13466059 -0.043070126 0.24161352 -0.018242601
0.13104326 -0.073065706 -0.012525189 0.11001236 0.09405781 -0.045306742 0.12835644 0.03473638
0.09951418 0.042107414 0.06587505 0.052207638 0.09129457 0.041506305 -0.12488573 0.07686984
0.016457384 0.036702767 -0.18398891 -0.25196066 0.06338616 0.018341484 -0.01126378 0.1468953
0.21723442 -0.13303718 0.21001908 0.026214775 -0.16562544 -0.08885926 -0.24818099 -0.01755376
0.073192365 -0.11321873 -0.07824116 0.2875153 0.0797705 0.07693951 0.21476915 -0.030936101
0.17503959 0.11159705 0.6856141 0.09316725 -0.27047414 -0.13119619 -0.12667224 -0.029972712
0.04574405 -0.21169174 -0.3571878 -0.00029988645 -0.025756557 0.24266036 0.14090902 0.104852594
0.2569453 0.01728688 0.09937208 0.42043188 0.10411131 0.32140216 -0.0021299687 -0.105566494
0.11291654 0.19212675 0.026825078 0.47975147 0.00029182885 0.32964987 0.23358183 0.3169926
-0.003821538 -0.034659877 -0.017678568 -0.34596303 -0.2565755 0.12784185 0.15151474 0.013992756
0.030097064 -0.044714272 -0.0960123 -0.06093199 -0.17609636 0.029111484 0.25295842 0.18842752
0.1507205 -0.1162663 -0.031058041 -0.12460473 -0.6613175 0.07712473 -0.6306992 0.026456703
0.00409875 0.19751982 0.08792578 0.50792664 0.17990246 -0.04937574 0.26917508 -0.29270712
0.159012 -0.02711614 0.10131102 -0.06573632 -0.18453567 0.10171481 -0.15783209 -0.07595419
-0.46508965 -0.15009956 0.11801162 -0.09640543 -0.09650487 0.3234924 0.110188104 -0.053343926
0.040927764 -0.40218028 0.00428224 0.85041237 0.09899774 -0.043171693 -0.15192482 -0.37025023
0.089488916 0.2792452 -0.7769777 0.00073149754 -0.032898683 0.13890348 -0.08267629 0.09030826
0.03968194 0.10913052 -0.093262754 0.1835691 0.14226778 0.14415307 -0.14792052 -0.0750467

hidden_layer2.bias f4 [32]
00000000: 1704 c23c 768a d33e d0ad 06bf 3863 d8be
00000010: d313 513e e4c2 823d 6804 acbe 6b7a b93e
00000020: 2ae8 90be 2824 0abe 352d 25bf 68e3 bc3e
00000030: 0209 87be 70cd 13be d9d3 eb3e 6c7b 403f
00000040: 297e df3e 3475 1a3f 7ea7 c43e db2a 4b3f
00000050: 6729 453e 8047 af3e 2929 49be 6946 6bbe
00000060: 38d3 02bf 38ca b13e 5ba8 d43e 3d8a 1fbe
00000070: afa0 debd 3406 7d3e de12 8d3e 9d48 0a3f
0.02368359 0.41316575 -0.52608967 -0.42263198 0.20417719 0.06384829 -0.33597112 0.3622621
-0.28302127 -0.13490355 -0.64522105 0.36892247 -0.2637406 -0.14433837 0.46060064 0.75188327
0.4365094 0.6033509 0.38409036 0.7936227 0.19254075 0.34234238 -0.19644608 -0.22976078
-0.51103544 0.34724593 0.41534695 -0.15580077 -0.10870492 0.24709398 0.27553457 0.5401705

hidden_layer3.weight f4 [16, 32]
00000000: 2959 dd3d 12d3 f33d 5841 313e 42cb 68bd
00000010: 089b 7d3d 9b2c 503d 4e46 dbbd a760 bf3b
00000020: c5c7 0c3e ab75 2fbe 830d 20bd d977 f33d
00000030: 4bcc dbbd 1e64 a0be 8fcc 0540 3f7d 513e
00000040: ae2c bd3d 4c5b de3d 080a 863d 34ab 43bc
00000050: 3b58 bb3e cced babe 0b24 64bf 6506 ab3d
00000060: 6c18 84be 641f 3a3e deb0 2a3e f253 c0bd
00000070: becf c03b 7165 cdbe 505b 393e ea4e ff3e
00000080: 3531 d0bd a429 b2bb dfc6 3abb b317 993e
00000090: c294 40bb ee83 983d e11d 1f3e 7786 25be
000000a0: a40a 16bc 20d7 3a3e 5551 f23d 3735 213d
000000b0: 6465 5c3e c54f 923e 5386 96bf 178a d4be
000000c0: 49f0 69be f664 7e3e 1a03 aebc edf8 0c3e
000000d0: bd35 80be eec4 673e dafc 233f 47a9 313e
000000e0: a257 a83e 06c7 d03d 39c3 9bbb 3c06 473d
000000f0: 39b1 5c3f eba8 ad3e e7f0 5d3d 83e9 44be
00000100: d500 e3bd 096d 283e 7b6a 1d3e a1fc 00be
00000110: eb25 9a3d d599 7dbe e8d0 2cbd 06de 883d
00000120: 3ec5 8fbd d9ae 11be b9bd bb3d f9f5 f4bd
00000130: dabc 0e3e 961d 85be f5c0 ba3e 94cb b93e
00000140: bfd7 ed3e b218 8f3e 0c50 593d 58fa fd3d
00000150: e5ae c13e 880d 19be 5e86 51bf 8934 9fbc
00000160: 8514 e83c db11 41be 3a9e 923d 880b 9dbc
00000170: 6d5c 4cbf 3d3d b13a d6e5 113d 80fe 00be
00000180: 2df4 633d 55b5 12bd f54b 2e3e e4ac b43e
00000190: 975f e1bd 11e1 68be 067d 583e 3c2d 9abe
000001a0: ec8d 653e 637b c63e 5b6e 7cbe 8e5e 70be
000001b0: c385 233d 6f7e 173f 34eb 95bf 8ef6 06bd
000001c0: c703 89be 1872 47bc 143e dcbe a751 043e
000001d0: 8ccf 76bf 0049 753e ccda 2c3f 4929 8b3e
000001e0: d695 2a3f 63db 1bbe e02b b63d f69e 8b3e
000001f0: d516 db3b bf5c 233f afcd 153e dc87 07bf
00000200: 6de1 273e fdf3 943d 54dc 04be ea0e 8abf
00000210: a6e8 4bbd 919e b4bc 783d 533c 270d cdbd
00000220: 57b6 1d3e 2276 1f3d 9a23 2c3e 5740 953c
00000230: 40bc 8cbd be39 e9be 0ff7 ae3f f042 c03f
00000240: f9bd 39bd 9980 d93d 9530 0e3e 3732 12ba
00000250: 1758 d7bd 820b 803e 2992 38bf 2c84 9a3d
00000260: 31d6 e9be 6e36 98bc dace c5bd 7ce1 233c
00000270: 2dd8 febe f40c 793e 052f 1d3e 5e34 803e
00000280: 0fcd 46be 625a fbbd 4181 373c c87e 9e3c
00000290: 61cc 6bbe 202d 2a3e 8102 6b3d 8b1c 093d
000002a0: def9 4abd 5e6f 373f 2bc9 423d 441c 2dbe
000002b0: 6c38 1cbf bbcd 9c3e e641 c23d 496a 1fbe
000002c0: 07af fd3e 9ecf 0d3e d2b0 193e 85f7 a43e
000002d0: 519c 2cbf c3e9 f33e 3219 d8bf 5ff4 c6be
000002e0: 85ff afbe 8ee8 043e bf09 843e f7aa 92be
000002f0: f4b5 e2be 454c 673e 88de 7b3d 27ea 1b3f
00000300: 7f72 38bb 9e78 21be 55e5 9bbd 0f3f 533c
00000310: 7029 6cbe da73 0cbd cc78 c0bd aec1 843d
00000320: 754e 01be f24d d4be 0e16 7f3d 3776 41bd
00000330: 62c9 a1be 947a 06bf 726a 513f f1d0 303e
00000340: 561c 173e ca2b eabd 2725 cabc bfd6 583e
00000350: beb9 8dbe 799f e93e b356 2dbf e333 513e
00000360: 0c86 a13e 5ca1 253e 50e8 0f3e 241d 623e
00000370: a460 a93e 2da7 22bf 734a 373c 8bcc b63e
00000380: a42c d33d 5bf7 40bd 324b 893d 984a 013e
00000390: 4474 543e 4df3 dabd 9336 043c f6d7 1dbe
000003a0: 55b0 093e fe50 9a3e a6d4 103e a1a9 d33d
000003b0: 2c73 813e 4bfc bd3e f617 40bf 034a e2be
000003c0: d36a 8cbe c724 6a3e a50f 80be 5c50 ba3d
000003d0: 84e0 e8be 747b 073e 041d c93e 2388 74bd
000003e0: 08f0 543e a1b2 a2bd f8ae b53d e170 9a3e
000003f0: 790f 773f 9773 9a3e 2d7f 0abe 303f a6be
0.108080216 0.11905493 0.17310083 -0.056834467 0.061915427 0.05082379 -0.10706769 0.0058403793
0.13748081 -0.1713473 -0.039075386 0.118880935 -0.10732325 -0.31326383 2.0906103 0.20457934
0.092370376 0.10857257 0.06544882 -0.0119426735 0.36590752 -0.3650955 -0.891175 0.08350829
-0.25799882 0.18176037 0.16669032 -0.09391011 0.00588414 -0.40116456 0.18101239 0.49864894
-0.101656355 -0.005437093 -0.0028499884 0.29900894 -0.0029385542 0.074470386 0.15538742 -0.16164576
-0.00915781 0.18246126 0.11831919 0.03935739 0.21523052 0.28576484 -1.1759742 -0.41511604
-0.22845568 0.24843201 -0.021241713 0.13766833 -0.25041 0.22633716 0.64057696 0.1734973
0.3287936 0.10194211 -0.004753497 0.04858993 0.8620792 0.33917937 0.05418482 -0.19229703
-0.11084143 0.16447844 0.1537265 -0.1259637 0.075267635 -0.24765714 -0.042191416 0.066829726
-0.07020043 -0.14226855 0.09167046 -0.11960978 0.13939229 -0.25999135 0.3647534 0.3628813
0.46453664 0.2794853 0.053054854 0.12401265 0.37828746 -0.14946568 -0.81845653 -0.01943423
0.028330097 -0.18854468 0.071590856 -0.019170538 -0.7982853 0.0013522279 0.03561958 -0.12597084
0.055652786 -0.035817463 0.17021163 0.35288155 -0.110045604 -0.22742106 0.21141443 -0.30112636
0.2241742 0.38766012 -0.24651472 -0.2347357 0.039922487 0.591773 -1.1712403 -0.032949977
-0.26760694 -0.012173198 -0.43016112 0.12921773 -0.9641044 0.23953629 0.6752136 0.27179936
0.6663488 -0.15220408 0.08895087 0.27269715 0.0066860714 0.63813394 0.14629243 -0.5294168
0.16394587 0.072730996 -0.12974674 -1.0785801 -0.049782418 -0.022048267 0.012893073 -0.10012274
0.15401588 0.03893102 0.16810456 0.018219156 -0.06871843 -0.45551866 1.3669146 1.5020428
-0.045347188 0.10620231 0.1388572 -0.00055769406 -0.10514849 0.2500878 -0.7209802 0.07544741
-0.45671228 -0.018580642 -0.096585944 0.01000249 -0.49774304 0.24321347 0.15349968 0.25039953
-0.19414161 -0.122730985 0.01120025 0.019347563 -0.23027183 0.16618776 0.057375435 0.033474486
-0.0495547 0.7165431 0.04755513 -0.16905314 -0.6102359 0.3062571 0.094852254 -0.15567888
0.49547598 0.13848731 0.15008858 0.32220092 -0.6742602 0.47639284 -1.6882689 -0.38858315
-0.34374633 0.12979338 0.25788686 -0.2864606 -0.44279444 0.22587688 0.06149152 0.60904163
-0.0028144417 -0.15768668 -0.07612101 0.012893452 -0.23062682 -0.034290172 -0.0939804 0.06482254
-0.12627585 -0.41465718 0.062276892 -0.04723188 -0.31598955 -0.5253079 0.8180305 0.17267205
0.14756903 -0.11434133 -0.024675919 0.21175669 -0.27680773 0.4562948 -0.6771042 0.2042995
0.31547582 0.16174835 0.14053464 0.22081429 0.33081543 -0.6353634 0.011187184 0.3570293
0.10311249 -0.047110897 0.067037955 0.12626112 0.20747477 -0.10690937 0.008069652 -0.15414414
0.13446172 0.30139917 0.14143619 0.103350885 0.25283182 0.37106547 -0.7503656 -0.4419709
-0.2742525 0.22865592 -0.25011936 0.090973586 -0.45483792 0.13230687 0.3927995 -0.059700143
0.2079469 -0.07944227 0.08871263 0.30164245 0.96507984 0.30166313 -0.13525076 -0.32470083

hidden_layer3.bias f4 [16]
00000000: ce54 d13e 01a3 73be 8e38 8f3e 5799 a9be
00000010: d087 003f 6646 ce3e c061 aa3e 886f c2be
00000020: 6e38 ef3e 3b44 cdbe fc6c 453e 7382 ef3e
00000030: 5349 42be 1cb4 5d3e c868 443f c18d f73e
0.40885013 -0.2379265 0.27972835 -0.33124802 0.50207233 0.40288085 0.33277702 -0.37975717
0.4672274 -0.40091118 0.19279855 0.46779212 -0.18973283 0.21650738 0.76722383 0.48350337

out_layer.weight f4 [5, 16]
00000000: b382 153e 56d4 43be e0b3 2a3f 7461 ccbe
00000010: 50cc 493e 13c0 e23f 0ddb ad3e de8f aabe
00000020: 1c67 993e 2261 51bd 61ac 66bd 4ecd d73d
00000030: 1cc7 bebd 0e88 cbbd 4d52 813f 60db 9d3e
00000040: 4276 dd3d 499d b0bd b2a4 443e 7322 5ebe
00000050: 5646 9d3e 1fa2 203e a98a 6cbe 5586 9fba
00000060: dfa8 913e 68a9 10bf d119 473e 7125 4b3f
00000070: 4b26 b5be 0ec6 513e d5bd 603f 3c8e 883d
00000080: f431 883e c62e 053b 6a1b a93e 58f5 40bf
00000090: 3c40 cfbd 28f6 bb3f 0e86 a23e 04f6 53be
000000a0: e4dc e53c 1eda 3e3d 97a0 b6bd bc87 653f
000000b0: 3b04 41be a117 6e3e 0c98 8d3f 310d a73e
000000c0: 7e6b 9f3e eaf8 50be a005 063f 17ac 84be
000000d0: 7a29 0e3d 8913 e23d 05ec a63e 837a 6fbe
000000e0: 1b9a f6bd 768e aabe be03 863c 4083 a8bf
000000f0: de61 45bc d397 5d3e e513 803f 93ea 883e
00000100: 0a31 9f3e 56bd 84be 9623 f33e baef 84be
00000110: ba26 f1bc ebe2 ae3f aab5 f63e bc07 7a3d
00000120: 399b 4c3c 5269 e5be 6058 8c3e d0f3 45be
00000130: 6ae7 8ebe e260 84be dc82 823f 9a63 833d
0.14600639 -0.19123968 0.6668072 -0.399181 0.19706845 1.7714866 0.33956185 -0.33312887
0.2996148 -0.051118024 -0.056316737 0.10537206 -0.09315321 -0.0993806 1.0103241 0.30831432
0.108135715 -0.0862375 0.19203451 -0.21692829 0.30717725 0.15686844 -0.2309977 -0.0012170771
0.2844915 -0.56508493 0.19443442 0.79354006 -0.35380778 0.20485708 0.8778966 0.06667754
0.2660061 0.0020322069 0.33028728 -0.75374365 -0.101196736 1.4684496 0.317429 -0.20699316
0.02805943 0.04659473 -0.08917349 0.8966024 -0.1884927 0.23251201 1.1062026 0.32627252
0.31136698 -0.20407453 0.52352333 -0.25912544 0.034707524 0.11038882 0.32601944 -0.23386578
-0.12041112 -0.33311814 0.016359206 -1.3165054 -0.012047259 0.21639948 1.0006071 0.26741466
0.310921 -0.25925702 0.47488087 -0.25964147 -0.029437412 1.3663 0.48185474 0.061042532
0.01248818 -0.44806916 0.27411175 -0.19331288 -0.2791093 -0.25855166 1.0196185 0.06415482

out_layer.bias f4 [5]
00000000: 8b1e 1f3f 4437 a33e 0d69 abbd 2a7b e63e
00000010: 505b ecbd
0.6215598 0.31878102 -0.08369646 0.45015842 -0.11540854
