models/DQNtoggle_param3.pth (torch, 110633 bytes, 8 tensors)

hidden_layer1.weight f4 [64, 378]
000000 a6 f4 28 bd 50 70 a5 3b 34 8e bf 3c 84 4e f3 bc
       -0.04124894 0.005048789 0.023383237 -0.029700525
000010 f4 36 21 3d 46 7a 0c 3d 20 9e ea 3c 48 a5 10 bc
       0.039359048 0.034296297 0.028639853 -0.008828469
000020 2c a2 13 3d 58 23 5b 3c 20 73 47 3c 78 f3 3e 3d
       0.03604333 0.013375126 0.012173444 0.04661891
000030 b0 69 27 3d 20 d5 27 bd 90 c7 2d bc 9c 33 f4 3c
       0.040872276 -0.040974736 -0.010606661 0.029809766
000040 76 d2 33 bd a8 da 00 3d 18 a8 47 3c 06 16 06 bd
       -0.043901883 0.031458527 0.012186073 -0.032735847
000050 30 32 8d bb 24 5f 8c bc 4c 26 5a bc ee 62 14 3d
       -0.0043089613 -0.01713521 -0.013314795 0.03622716
000060 12 90 43 bd 88 30 34 3c b4 39 1c bd 48 a6 64 bc
       -0.047744818 0.010997899 -0.038140967 -0.01395566
000070 bd 70 fc bc 51 30 1b bd c4 cd 45 3d 8c ad 44 bc
       -0.030815477 -0.037887875 0.048291937 -0.012004267
000080 18 40 70 3c 4c 26 34 3d 14 eb 1f bd 80 5e 32 3c
       0.014663719 0.043981835 -0.039042547 0.010886788
000090 f8 74 1d 3c ca 28 4c bd 32 35 51 bd 08 c4 2b 3c
       0.009610407 -0.049843587 -0.05107612 0.010483749
0000a0 f4 c5 6d bc 4a 0a 4c 3d 30 db 7a 3b c0 c3 28 3a
       -0.014512528 0.0498145 0.0038277619 0.00064378604
0000b0 57 f0 2d bd 28 3a f3 3c a2 1d 0b 3d 60 2c be 3c
       -0.042465534 0.029690817 0.033963807 0.023214519
0000c0 c4 f6 e2 3c e0 f7 db bb be 30 0e 3d 22 4c 40 3d
       0.027705558 -0.0067128986 0.034714453 0.046947606
0000d0 26 b2 30 3d d2 66 31 3d 98 f4 77 bc b8 10 01 3c
       0.043138646 0.043310948 -0.015133999 0.007877521
0000e0 8c 41 2d 3d d7 cb 38 bd c0 da 57 bc e0 93 a8 3c
       0.04229884 -0.04511627 -0.013174713 0.020578325
0000f0 d4 63 21 bd 22 a1 08 3d 7c f0 9b 3c 90 0a cc bb
       -0.039401844 0.033356793 0.01903557 -0.006226845
000100 dc 0f 2d bc e0 82 3d bc e4 9a 36 3d 40 08 cd 3c
       -0.010562863 -0.011566848 0.04458131 0.025028348
000110 08 05 8c bb e0 b8 9a ba fc 5e 9e 3c af 02 29 bd
       -0.0042730607 -0.0011804365 0.019332401 -0.041262325
000120 10 0a 3a 3b 7e c6 0e bd 88 7d 34 3d 0e a4 15 3d
       0.0028387345 -0.034857266 0.04406503 0.036533408
000130 80 38 73 3b 85 b1 f0 bc c4 1a 67 bc fc 91 19 bd
       0.0037112534 -0.029381523 -0.0141055025 -0.037492737
000140 60 54 f2 ba 28 17 de 3c c7 8d ed bc c8 59 47 bc
       -0.001848828 0.027110651 -0.028998269 -0.012167402
000150 80 2b 37 bc 40 8d a4 3a e2 10 32 bd 51 99 e3 bc
       -0.011179805 0.0012554303 -0.043473132 -0.027783068
000160 96 7d 91 bc 30 b7 9a 3c f3 92 e2 bc f8 a5 4f 3d
       -0.01776008 0.018886179 -0.027657961 0.05069539
000170 9f 8c ce bc f8 c6 02 bc d0 06 19 bd b7 d4 ae bc
       -0.025213538 -0.007982008 -0.037360013 -0.021341665
000180 8e e9 42 bd 23 f2 3e bd 40 07 b0 3c a0 7a ab 3b
       -0.047586016 -0.04661764 0.021487832 0.005233124
000190 f3 5c 52 bd 40 76 45 3c d0 85 e3 bc c8 e1 16 3d
       -0.051358175 0.012052119 -0.027773768 0.036836416
0001a0 1c e1 4f 3d 46 31 11 bd ec de 8f 3c ec e1 a7 3c
       0.05075179 -0.03544738 0.017562352 0.02049347
0001b0 a4 fd 1d 3c b9 c4 45 bd 80 32 52 3c 18 b5 eb 3b
       0.009642992 -0.048283312 0.012829423 0.007193219
0001c0 e0 1e 95 3c d0 c8 49 bd 80 00 00 bd 6c 02 ea bc
       0.018203199 -0.049263775 -0.031250477 -0.028565608
0001d0 7a 93 2c 3d b4 b9 cb 3c 42 87 12 bd 38 d2 c7 3c
       0.042132832 0.024868824 -0.035773523 0.024392232
0001e0 12 89 4f 3d 80 67 e9 bb e8 ac 1b bc 00 f8 16 bd
       0.05066783 -0.007122934 -0.009501673 -0.036857605
0001f0 19 46 cb bc c8 df 53 3c c8 c4 a4 3c 42 17 09 3d
       -0.024813699 0.012931772 0.020113364 0.033469446
000200 de cb 00 3d 70 e8 0d 3d 5c 8d af 3c 10 37 59 3c
       0.031444423 0.034645498 0.02142971 0.013257757
000210 54 75 50 3d 24 5b f4 3c 92 b1 9f bc 80 1b fb 3c
       0.050893143 0.029828615 -0.019493852 0.030652761
000220 98 22 9c 3c a4 44 81 bc b0 4a 8e 3c ba c2 d8 bc
       0.019059464 -0.0157798 0.017369598 -0.02646004
000230 d4 08 4c 3d 2c b0 96 bc 50 e8 47 3d 0a 83 20 bd
       0.049813107 -0.018394552 0.048805535 -0.03918747
000240 f0 d5 72 bb 7c b9 af 3c d8 26 5d bc 1c 57 23 bd
       -0.0037053786 0.02145075 -0.013498031 -0.039877996
000250 bc 93 0c 3d 40 56 f0 3a 10 ce 89 3b 70 ed 88 bb
       0.034320578 0.0018336251 0.004205473 -0.0041786954
000260 60 d0 e8 3a dc e6 a5 3c 00 0d 32 3d 6a 7f 85 bc
       0.0017762296 0.020251684 0.04346943 -0.016296107
000270 a8 2f 3c 3d 70 ee 77 3b 1a 52 18 3d 50 a4 83 bb
       0.045943886 0.0037831329 0.037187673 -0.0040173903
000280 69 3a 3d bd da 8d 27 3d 78 fc 63 3c a0 4f 99 ba
       -0.046198282 0.040906765 0.013915174 -0.0011696704
000290 ac 7c b1 3c e4 98 7d bc b8 6c 2d bc d8 13 f5 3b
       0.021665893 -0.0154783465 -0.010585003 0.007479172
0002a0 fd 24 fd bc 02 84 27 3d a7 eb 1e bd 86 42 c5 bc
       -0.030901426 0.040897377 -0.038798954 -0.024079572
0002b0 bc db 80 3c d4 23 29 3d e6 19 e7 bc 7d a9 d5 bc
       0.015729778 0.041293934 -0.028210592 -0.026081795
0002c0 08 8d 57 3c 12 48 36 3d e0 b8 3b 3d ec e1 18 bd
       0.013156183 0.044502325 0.045830607 -0.03732483
0002d0 58 d4 fd bc 9d f3 45 bd 50 c7 03 3c 20 77 0a 3d
       -0.030985042 -0.04832803 0.008043125 0.033805013
0002e0 2f e1 e2 bc b6 fa 28 3d f8 92 a1 bc 04 63 e0 3c
       -0.027695267 0.04125472 -0.0197234 0.027390964
0002f0 6d 22 ac bc f0 e2 b1 3c 88 99 f0 3c bc 23 1f 3c
       -0.02101251 0.021714658 0.029370084 0.00971311
000300 1d f5 d5 bc 60 d3 27 3d 75 df e1 bc 88 46 93 bc
       -0.026117856 0.040973067 -0.027572373 -0.017977968
000310 ed 2f 25 bd 5d bd 15 bd fa 85 3c 3d de ee 87 bc
       -0.04032891 -0.036557544 0.046026208 -0.016593393
000320 aa 37 e0 bc 50 bf f5 bb a8 76 6e 3c 48 08 93 3b
       -0.027370293 -0.007499613 0.014554657 0.004487071
000330 48 6e 93 3c 54 48 0f bd 28 61 f6 3c 6c e1 07 3c
       0.017996922 -0.034981087 0.030075625 0.008293491
000340 77 8d 22 bd 3a 20 12 3d 9b 46 ed bc c8 80 83 3c
       -0.039685693 0.035675265 -0.028964331 0.016052619
000350 cc 54 df bc a1 0d 1a bd 68 6b 26 3d 40 e8 24 ba
       -0.027262114 -0.037610654 0.040629774 -0.00062907115
000360 6f e9 47 bd f4 12 96 3c b4 0b b7 bc 68 15 4b bc
       -0.048806604 0.018319584 -0.022344448 -0.01239524
000370 5a 79 45 bd 60 89 ba 3a 67 57 3b bd b1 5b 07 bd
       -0.048211433 0.0014231615 -0.04573765 -0.033046428
000380 50 6a 3c 3c 5c d1 c9 3c 2e 1f 32 3d 32 e2 f9 bc
       0.011499956 0.024635963 0.043486767 -0.030503366
000390 14 92 ce 3c 0c c7 4d bd ac d7 3f bc d6 82 2c 3d
       0.02521614 -0.050238654 -0.011709135 0.042116962
0003a0 64 cc a0 3c c4 4d 35 bd 4e 10 52 bd c8 64 42 3d
       0.019628711 -0.044263616 -0.05128508 0.047459394
0003b0 d0 83 35 3d 34 80 47 bd 18 3e b8 3c eb 3f e6 bc
       0.04431516 -0.04870625 0.022490546 -0.02810665
0003c0 bd d7 f8 bc 80 90 1c ba 20 77 80 ba d0 7d 23 bc
       -0.03037631 -0.000597246 -0.0009801127 -0.0099787265
0003d0 e4 97 9c bc ee 6a 18 3d f3 d6 42 bd 76 be 42 bd
       -0.019115396 0.03721135 -0.047568273 -0.04754492
0003e0 fe 7e ab bc 0a 48 23 bd 3c 67 0b bc 30 8f 22 3d
       -0.020934578 -0.039863624 -0.0085085 0.039687335
0003f0 a0 8b c6 3c fb 79 16 bd a9 90 1e bd 6a d9 29 3d
       0.0242365 -0.036737423 -0.038712177 0.041467108

hidden_layer1.bias f4 [64]
000000 88 18 d2 bb 00 b1 b8 3a 40 16 fc bb 02 d5 f5 bc
       -0.0064116158 0.0014090836 -0.007693082 -0.030008797
000010 98 89 c3 3c f4 37 21 3c c0 cd 4a 3b d4 c5 0a 3c
       0.02386932 0.00984 0.003094539 0.008470017
000020 26 0c 2c 3d 48 82 f9 3b 7a fa d7 bc a6 07 bc bc
       0.042003773 0.0076144077 -0.026364554 -0.022952866
000030 40 c2 0f bc 2c a1 43 3d 42 e4 07 bd 64 6a 0c bd
       -0.00877434 0.047761127 -0.033176668 -0.03428115
000040 38 8f 43 bd e0 3f c8 3a e4 de 5e bc 74 84 07 bc
       -0.047744006 0.0015277825 -0.013602946 -0.008271325
000050 76 9f 01 3d ca cb 3d bd e0 d9 02 3d d6 73 02 3d
       0.031646214 -0.046336927 0.031946063 0.03184875
000060 00 f8 eb b8 02 23 45 3d 1c 4d be 3c 66 bd 16 bd
       -0.00011251867 0.04812909 0.023230128 -0.03680172
000070 68 8f a0 3c 40 10 61 bb c8 85 e0 3c 5b 20 4e bd
       0.019599631 -0.003434196 0.027407542 -0.050323825
000080 7c 19 69 bc 38 8b e8 bb 10 60 3b 3c 7f ee f0 bc
       -0.014227267 -0.0070966743 0.011436477 -0.029410599
000090 7a f2 06 bd dc 7d a7 3c 08 93 50 3c 46 2e 0c 3d
       -0.032946087 0.020445757 0.0127303675 0.034223817
0000a0 64 50 a1 3c 60 2b a3 3a 48 7f f3 3c cc 7b cb 3c
       0.019691654 0.001244884 0.029723778 0.024839304
0000b0 51 f8 be bc 00 4f 62 3c 80 8d d6 39 54 22 b5 bc
       -0.023311766 0.01381278 0.00040922686 -0.022111095
0000c0 12 c6 27 3d d0 fe 4d 3d dc d7 3a 3d 28 c3 c9 3c
       0.04096038 0.050291836 0.045616016 0.02462919
0000d0 84 87 b7 3c e0 83 14 bc 39 a7 2c bd 48 3d 9a 3c
       0.022403486 -0.009064645 -0.042151663 0.01882805
0000e0 a0 49 09 3d 40 4f e3 ba a7 a0 fe bc 68 95 e6 bb
       0.03351748 -0.0017342344 -0.031082464 -0.0070368536
0000f0 58 30 3c 3d c0 b2 aa ba c9 88 c6 bc 00 40 dc 3b
       0.04594454 -0.0013023242 -0.024235146 0.0067214966

hidden_layer2.weight f4 [32, 64]
000000 20 24 01 bd fa 11 94 3d a8 2a 77 bd 1a c9 82 bd
       -0.031528592 0.07229991 -0.060343415 -0.06386013
000010 e0 96 c9 3c f0 37 f0 bc 88 b0 b1 bc 14 63 b5 3d
       0.024608076 -0.029323548 -0.021690622 0.08856788
000020 36 7c 84 3d 36 3a ad bd d0 e2 ab 3d 60 ce d3 bb
       0.06469004 -0.084583685 0.083928704 -0.006463811
000030 f0 a6 80 bc 4c 5d 9f bd e0 6c c2 3b e6 a8 d7 bd
       -0.015704602 -0.07781467 0.005933389 -0.10530262
000040 c0 95 95 bb f6 a1 f3 bd de 7b ae bd 64 c5 79 3d
       -0.0045649707 -0.11896126 -0.085197195 0.060979262
000050 88 c1 98 bc 48 b8 5d bd c0 23 99 bb 88 07 b7 bc
       -0.01864697 -0.054130822 -0.004673451 -0.022342458
000060 70 3c 90 3d a8 7c bc 3d 1a c0 be 3d 00 5a 4d ba
       0.070427775 0.09203464 0.09313984 -0.00078335404
000070 80 d8 4a 3c 36 93 a8 bd d0 83 11 3c 58 1b c1 bd
       0.012380719 -0.08231203 0.008881524 -0.094290435
000080 f4 2b 72 bd d6 04 83 3d ac 52 3e bd f0 0e 8f 3d
       -0.05912395 0.06397407 -0.04646556 0.06985271
000090 54 0b e0 bd ae e3 bd 3d ac 2b 97 bd 00 f8 24 bc
       -0.10939661 0.09271942 -0.073813766 -0.010068893
0000a0 b8 d7 75 bd b8 33 0c 3d e8 76 f2 bc b8 6a a6 3c
       -0.06002018 0.03422901 -0.029597715 0.02031456
0000b0 d0 af 28 bc 7a 94 e3 3d 14 5f 1c 3d d4 10 db 3d
       -0.010295823 0.11112304 0.03817661 0.10696569
0000c0 da 1e eb 3d a8 b5 54 bd bc b7 87 bd d6 b7 96 3d
       0.11480494 -0.051931053 -0.066268414 0.07359283
0000d0 60 c9 2e 3c 80 ff 41 3c c4 f1 c7 bd 88 00 8c bc
       0.010668129 0.011840701 -0.0976291 -0.017090097
0000e0 00 f4 4b 3d 4a 48 db bd 04 bf 58 bd 28 fc e5 bc
       0.049793243 -0.107071474 -0.05291654 -0.028074339
0000f0 a6 77 b1 3d d0 16 e9 3c f0 e1 e3 bd a4 8e 42 3d
       0.08665399 0.02845326 -0.111270785 0.047499314
000100 10 a8 fb 3d 24 30 cb bd 64 45 02 3d e2 93 a4 3d
       0.12287915 -0.099212915 0.031804457 0.08036019
000110 78 39 7e 3d 2e 53 b3 3d 04 08 17 bd 60 06 9e 3b
       0.062066525 0.087561 -0.03687288 0.0048225373
000120 78 7c 2a bd 80 22 c3 3b f8 89 ff bd 50 ed 39 bd
       -0.04162261 0.0059550405 -0.12477487 -0.045392334
000130 20 03 a2 3d 34 47 e0 3d 00 37 ef 3c d0 c4 a3 bd
       0.07910752 0.10951081 0.02920103 -0.079965234
000140 0a 08 fe bd 00 ef cd 3b 94 c4 e4 3d 34 26 bf 3d
       -0.12403877 0.0062845945 0.11170307 0.093334585
000150 dc dd 0d 3d 70 93 b2 3c 00 ba bb bd 9e 8a bf bd
       0.03463541 0.02179882 -0.09166336 -0.09352611
000160 2e 81 f9 3d 90 96 b9 3c 46 1e 97 3d 8e 41 fe 3d
       0.12182842 0.022654802 0.07378821 0.12414847
000170 00 f9 21 bb f8 ab 12 bd 20 48 82 3b 14 3b 53 bd
       -0.0024715066 -0.035808533 0.003975883 -0.051570013
000180 74 f1 2d 3d 14 9d 52 3d 5c a3 de 3d 80 27 f1 3a
       0.042466596 0.051419333 0.10871002 0.0018398613
000190 2e 48 ab bd d8 c4 95 bc 5c db f2 bd e8 6d cb 3d
       -0.083633766 -0.018282339 -0.11858246 0.09933072
0001a0 76 fa e9 3d 44 4d 9d 3d d8 c3 f2 3d d0 88 ee bd
       0.11424725 0.07680753 0.118537605 -0.11647189
0001b0 5e ea e4 3d 7e 08 f3 bd 38 6c b3 bd f2 24 b3 3d
       0.111775145 -0.11866854 -0.087608755 0.08747281
0001c0 0a 0f e6 3d 26 3e e2 bd 80 a0 0f 3c b0 bb 7b bd
       0.11233337 -0.1104701 0.0087662935 -0.06145829
0001d0 aa 74 dc bd 28 4c 4c 3d f0 ac ee 3c 9c 5e c2 bd
       -0.107644394 0.049877316 0.029135197 -0.094907016
0001e0 be 04 98 3d e0 f8 4b bc 66 fa b8 3d 26 b9 e5 3d
       0.074227795 -0.012449473 0.09032135 0.11216955
0001f0 22 de e0 bd 28 70 9b bc 40 77 ea 3b 60 c3 7e 3c
       -0.109798685 -0.018974379 0.007155329 0.015549511
000200 be 5f ac 3d da 28 d6 3d cc ea 71 bd 30 cc d4 bd
       0.08416699 0.104570106 -0.05906181 -0.10390508
000210 34 65 ba bd e8 59 c8 3d 64 02 eb 3d 88 89 fa 3d
       -0.09101334 0.09782773 0.11475065 0.12233263
000220 ac 04 4a 3d 32 15 a4 bd 08 3d 49 bd e0 ad b5 3d
       0.04932086 -0.08011855 -0.04913047 0.08871055
000230 70 fc 21 bd 10 81 b2 bc 94 0a 14 bd 90 ea af bc
       -0.039547384 -0.021790057 -0.0361429 -0.021474153
000240 10 5e a1 3d 58 ba b2 3c 9e 9a 8b bd 20 fd 9e 3c
       0.07879269 0.021817371 -0.068166 0.019407809
000250 5c bd d5 bd e4 4a 80 bd b4 03 4a bd 10 6e ce bd
       -0.10436508 -0.06264284 -0.049319938 -0.100795865
000260 82 6d de bd 10 e9 9d bd 80 63 0f 3c 30 20 c6 bc
       -0.10860731 -0.07710469 0.00875175 -0.02418527
000270 20 be 87 3b fc 10 cc bd 88 94 a7 3d 40 11 dd 3b
       0.0041425377 -0.09964177 0.08182627 0.006746441
000280 78 d8 74 3d 18 e0 95 bd 3a 2e 8d bd 60 0a eb bb
       0.059776753 -0.07318133 -0.06893583 -0.0071728677
000290 b8 1d 13 bd 78 b3 65 bd ac 16 40 3d 6a 95 b5 3d
       -0.035917014 -0.056079358 0.04689662 0.08866389
0002a0 a0 72 03 3d 20 aa 35 bd 80 06 b9 3c d2 9b f0 bd
       0.032091737 -0.044351697 0.022586107 -0.1174847
0002b0 1c 4e 38 3d 92 2f db bd 82 f0 bc bd 80 43 50 bd
       0.044996366 -0.10702433 -0.09225561 -0.050845623
0002c0 b0 7d 81 3d e0 cb 30 3c 44 ab d8 bd 80 56 13 3d
       0.06322801 0.010790795 -0.10579541 0.035971165
0002d0 64 9a b0 bd 84 cd 8f bd c6 8e c8 3d 00 66 23 3d
       -0.08623198 -0.07021621 0.09792857 0.039892197
0002e0 60 7a ee bc 1c 71 c9 3d 70 15 2f 3d 28 db 80 3d
       -0.029111087 0.09836027 0.042745054 0.06291801
0002f0 88 2f 81 bd e8 3c f4 bc ae 0a 93 bd 00 a2 f6 bc
       -0.06307894 -0.029814199 -0.07179771 -0.030106544
000300 6c 3d c1 bd 60 8c ac bc 4e 7a ce bd 5c 73 81 bd
       -0.094355434 -0.02106303 -0.100819215 -0.06320831
000310 f8 7a 94 bd 54 d7 f9 3d 16 7a 87 bd 20 25 1f bd
       -0.07250017 0.12199274 -0.06615083 -0.038853765
000320 28 74 5e bd 70 ae e7 bd f0 52 36 3c d8 7c ec 3d
       -0.054309994 -0.11312568 0.011128172 0.115472496
000330 ce cd c1 3d 42 6e 85 3d b8 49 cf bc 78 e1 ee 3d
       0.09463082 0.06515171 -0.025303707 0.116640985
000340 cc 92 bd 3d 50 47 36 3d e8 8f fc 3c c0 e7 41 3c
       0.09256515 0.044501603 0.030830339 0.011835039
000350 aa b3 e5 bd e8 38 d8 bd 00 ec 0a 39 b8 d6 b1 bd
       -0.11215909 -0.10557729 0.00013248622 -0.086835325
000360 82 36 fb bd 40 f2 51 bc b4 a3 43 bd 64 11 39 bd
       -0.12266256 -0.012814105 -0.04776354 -0.0451826
000370 d8 9c 5f 3d 00 4c be bc 98 af b3 bc e8 ac 8e bc
       0.054592937 -0.023229599 -0.021934316 -0.017416432
000380 68 c4 fe bd a4 b1 c9 bd c8 6a 87 3d b8 ad d2 bc
       -0.12439805 -0.098483354 0.06612164 -0.025717601
000390 cc d7 1a 3d d4 70 1f bd 84 64 fe 3d 98 de a4 bc
       0.037803456 -0.03892596 0.124215156 -0.020125672
0003a0 9e 6a 9d bd 24 96 03 bd 7c af 72 3d f8 76 64 bd
       -0.07686351 -0.032125607 0.059249386 -0.05577752
0003b0 00 9c d2 39 24 32 a1 bd 10 24 f0 bd 7a 05 83 3d
       0.0004017055 -0.07870892 -0.117256284 0.06397529
0003c0 88 12 1c 3d f8 ba 91 bc 64 17 8b 3d d4 ab ce bd
       0.03810361 -0.017789349 0.06791571 -0.10091367
0003d0 28 11 c2 3d b8 ca f9 3c 44 9a 79 bd 9c 8b 62 3d
       0.094759285 0.030492172 -0.060938135 0.055308923
0003e0 94 2e ac 3d 10 85 1b 3c 90 89 21 3c ea 6c d9 bd
       0.084073216 0.009492174 0.009859458 -0.10616477
0003f0 40 cf 6c 3d 34 54 48 3d 7c 08 14 3d 84 a3 12 bd
       0.057814837 0.048908427 0.036140904 -0.035800472

hidden_layer2.bias f4 [32]
000000 80 b3 4b bd d0 f8 f0 bd 9c f6 9c bd 74 de cf bd
       -0.04973173 -0.11766207 -0.076642245 -0.101498514
000010 fc 46 88 bd c0 44 b0 bc 3c a7 22 3d b0 6c a3 3d
       -0.06654164 -0.021517158 0.03971027 0.07979715
000020 68 97 3d 3d e2 08 bd 3d fc 3e 85 3d a8 94 ac 3c
       0.04628697 0.0923021 0.06506154 0.021066979
000030 d4 36 47 3d 1e 61 96 3d 40 2a 01 bc e4 8e 6e bd
       0.048636273 0.073427424 -0.007883608 -0.05824174
000040 b0 f5 6a bc 26 9f ae bd a8 58 e0 bc 8e 0a dc 3d
       -0.014340803 -0.08526449 -0.027386025 0.10744201
000050 d2 8f 97 3d c8 2d 41 bd 40 c8 e9 bc 60 28 3d bd
       0.074004784 -0.0471628 -0.02853787 -0.046181083
000060 5c a5 b9 3d ba e9 f3 bd 2a 86 a0 bd b8 7e 9b 3d
       0.09064743 -0.11909814 -0.0783809 0.07592529
000070 6c 5d fe bd 1c 65 ec bd 6c b7 65 3d 78 de 82 3c
       -0.124201626 -0.115427226 0.056083128 0.015975222

hidden_layer3.weight f4 [16, 32]
000000 f7 5e 16 be b0 f8 2e bd 7c 2f 0e bd f8 a6 63 bd
       -0.14684664 -0.042717636 -0.034713253 -0.055579156
000010 8a a1 a2 bd ee 55 bc 3d 50 b2 0b be 45 17 2e 3e
       -0.079409674 0.09196077 -0.1364224 0.17001064
000020 26 c5 c0 3d b0 e4 55 bc ce ba 01 be e8 32 7c 3d
       0.09412603 -0.013055012 -0.12668917 0.061571985
000030 5d ed 2a 3e 5c 70 83 3d 40 e7 6c bc ae 65 23 be
       0.1669211 0.06417915 -0.014459431 -0.15956756
000040 c5 36 0c 3e d6 43 9f 3d c6 5b c8 3d c0 c1 5b bb
       0.13692768 0.077766106 0.097831294 -0.0033532232
000050 02 f3 f0 3d 58 7e 3f bd 43 d3 1b 3e 80 35 20 bd
       0.117651 -0.04675135 0.15217309 -0.03911352
000060 d8 4d 17 be c0 69 ba 3c f8 44 a5 bc ff f6 0f 3e
       -0.14775789 0.022755504 -0.020174488 0.14059065
000070 9f 03 18 be b4 18 d7 bd b1 98 1b 3e 18 d7 fe bc
       -0.14845131 -0.105027586 0.15194966 -0.031108424
000080 d2 55 f8 3d 38 89 f4 bc c0 72 20 3b 3e 51 da bd
       0.12125744 -0.029850587 0.0024482459 -0.10660027
000090 54 47 60 3d 54 1b 7e bd f9 27 15 3e a0 e2 f4 bc
       0.054755524 -0.06203778 0.1456603 -0.02989322
0000a0 cc 3a 87 bd be cf c2 bd 74 be 17 bd 3e fc 2c be
       -0.066030115 -0.0951228 -0.037046865 -0.16893098
0000b0 98 a0 3b 3d 9e f0 ee 3d 06 49 f2 3d be 76 a3 3d
       0.04580745 0.11666988 0.11830334 0.07981633
0000c0 80 f5 c2 bb 9d 52 06 be 34 14 04 bd f8 bf 40 bd
       -0.005949676 -0.13117452 -0.03224583 -0.047058076
0000d0 74 78 2b bd e4 92 2b be 6e fe e0 bd c8 bd 26 3d
       -0.04186292 -0.16755253 -0.109860286 0.040708333
0000e0 55 89 2e 3e f2 78 a8 3d c8 c8 c3 bc 7e 96 c6 bd
       0.17044576 0.082261935 -0.02389945 -0.09696673
0000f0 ec 0b b5 bd af 24 33 3e 66 ca d8 3d 56 d4 f1 3d
       -0.088401645 0.17494462 0.105854794 0.11808078
000100 53 58 1f 3e 80 12 b6 3b f0 b0 5a 3c 50 16 b3 3c
       0.15561037 0.0055564046 0.013347849 0.021861225
000110 34 5b 1f bd 70 1e 1f 3d 52 76 a4 bd 31 20 20 3e
       -0.038905337 0.038847387 -0.0803038 0.1563728
000120 5c b5 1d bd ba 09 17 be f7 96 db bd 08 1b 99 bc
       -0.038503036 -0.14749804 -0.10722154 -0.018689647
000130 b8 56 86 bc 40 89 be 3c a0 29 7f 3c 9e 86 ce bd
       -0.016398773 0.023258805 0.015573889 -0.1008427
000140 8f 9b 16 be c2 3a e6 3d 16 b0 a6 3d ca 44 83 3d
       -0.14707778 0.11241676 0.081390545 0.06409605
000150 92 9b ab 3d 8a da bf 3d ef 27 26 3e 00 70 36 bb
       0.08379282 0.09367855 0.16226171 -0.0027837753
000160 50 e0 b7 3c e6 fd ca 3d 10 93 5e bd a0 7c f1 bb
       0.022445828 0.099117085 -0.05433947 -0.007369593
000170 cf 35 9b bd 53 c4 aa bd 08 c1 02 be 3a b4 56 bd
       -0.075786225 -0.08338227 -0.12768948 -0.05241797
000180 1f 20 03 be 9c ab 17 be d8 1c 9c 3c 66 7a f8 bd
       -0.12805222 -0.14811558 0.019056723 -0.12132721
000190 80 9c 51 3b 3c b6 64 3d e0 a4 13 bc 1a 2a c2 3d
       0.003198415 0.055837855 -0.009011477 0.094806865
0001a0 c8 ab b8 bc 98 42 34 be 46 2e ed 3d e8 06 23 bd
       -0.02254285 -0.17603528 0.115810916 -0.03980151
0001b0 ed 0d 1a be 40 61 81 bc c6 85 81 bd 00 6d d6 bb
       -0.15044375 -0.015793443 -0.063243434 -0.0065437555
0001c0 11 16 2a 3e cb 69 06 be 0e 3b d1 3d 00 ce ed bc
       0.1660998 -0.13126294 0.10216342 -0.029028893
0001d0 6d b1 9e bd fc ba 74 bd e2 00 a1 3d 1e 42 d8 bd
       -0.07748685 -0.059748635 0.078614965 -0.10559486
0001e0 08 d3 b8 3c a3 5a 03 3e 12 64 da bd d2 4d f1 3d
       0.022561565 0.12827544 -0.10663618 0.11782421
0001f0 67 3f 06 3e 22 4a e7 3d bf 70 24 3e 0c 46 18 3d
       0.13110124 0.112934366 0.16058634 0.037176177
000200 07 28 22 be 94 c3 50 bd c6 b8 b5 3d 46 c5 8f 3d
       -0.15835582 -0.050967768 0.08873133 0.07020049
000210 e5 50 2d 3e 99 b3 a1 bd 18 06 25 3d 00 de 1d 3c
       0.1692539 -0.07895584 0.040289015 0.009635448
000220 2c 38 40 3d 50 24 9f bc f6 09 75 bd ac 49 df bd
       0.04692857 -0.019426495 -0.059823953 -0.10902724
000230 21 25 30 3e 3e 9b da 3d 00 76 7e 3a ee 99 25 be
       0.17201664 0.10674141 0.00097069144 -0.16172001
000240 3c e9 27 be 20 f8 1c be 60 b7 37 bc 88 eb 19 bd
       -0.16397566 -0.15329027 -0.011213154 -0.037578136
000250 b5 ab 26 be 7c c0 37 3d 20 fc 34 bd e0 af e3 bb
       -0.16276439 0.0448613 -0.044185758 -0.006948456
000260 a0 87 f7 bc 1f 31 1b be 10 b8 3d 3c c0 7d 42 3d
       -0.030216038 -0.15155457 0.011579528 0.047483206
000270 66 e0 9b 3d 78 3e 63 3d 60 7b bf bc 43 68 04 be
       0.0761116 0.055479497 -0.02337426 -0.12930398
000280 f1 fa 9a bd 8f bb 04 be a6 c7 aa 3d 50 a9 ab bc
       -0.075673945 -0.12962173 0.08338861 -0.020954758
000290 c2 f9 a1 bd 9d e0 13 3e e8 aa 12 be 58 c0 1a bd
       -0.07908966 0.14441152 -0.14323008 -0.03778109
0002a0 d6 d2 a2 3d f4 e2 f7 bd b3 c3 05 3e 36 2c 20 be
       0.0795037 -0.12103835 0.13062935 -0.15641865
0002b0 d0 28 43 bd 29 e7 1f 3e 20 6f c2 bd f0 9c fa bc
       -0.047646344 0.15615524 -0.09493852 -0.030592412
0002c0 ae 8f 84 3d d8 69 89 3d 62 3b e6 bd ec f8 1c be
       0.06472717 0.06709641 -0.11241795 -0.15329331
0002d0 57 47 a6 bd 32 d5 fa bd a8 d2 94 3d d2 55 cf bd
       -0.08119076 -0.12247695 0.07266742 -0.10123791
0002e0 50 3b 1b be 52 c5 ac 3d 92 b9 5f bd 4c 64 47 bd
       -0.15159345 0.08436073 -0.054620333 -0.048679635
0002f0 d8 19 99 bd d9 a0 28 be 6b db 26 be f9 5c 1d 3e
       -0.074756324 -0.16467609 -0.16294639 0.15367498
000300 60 aa 5d 3c ce 11 ee 3d 91 c9 02 be 5b 60 08 3e
       0.01352939 0.1162449 -0.12772204 0.13318007
000310 ce 11 db 3d 2e 1b 9d 3d e6 14 64 bd 60 40 ca bc
       0.10696755 0.076712 -0.055683993 -0.0246889
000320 3a fc f7 3d b8 82 72 3d 4f 85 22 3e 81 45 1a be
       0.12108655 0.059206694 0.15871166 -0.15065576
000330 e5 98 07 be 8e 66 28 be dc 1d 6b 3d e0 02 2d be
       -0.13241918 -0.16445372 0.057401523 -0.16895628
000340 bb db 14 be 38 52 26 bd b8 0d e1 3c 80 b4 cc 3a
       -0.14536946 -0.040605754 0.027472362 0.0015617758
000350 3a 04 a2 3d 52 00 cc 3d 2a 41 a9 3d 88 07 8d 3d
       0.079109624 0.099609986 0.08264382 0.06886202
000360 53 e6 21 3e d4 f3 2e bd f4 44 b3 bd d8 5e 67 bd
       0.15810518 -0.042713 -0.08753386 -0.056486934
000370 40 1a 57 bb 2c 32 34 bd 44 ba 73 3d cf e9 20 be
       -0.0032822043 -0.04399316 0.05950381 -0.15714191
000380 40 70 90 3d c2 fb ba 3d 1c e3 02 be 9a de dd 3d
       0.0705266 0.0913005 -0.12781948 0.108334735
000390 8c 1d 2f bd f6 61 9f 3d 70 0a 1a be 64 4d 94 bd
       -0.042752787 0.077823564 -0.15043044 -0.072413236
0003a0 90 ed 28 3c 52 30 58 bd c0 fa 5a 3b 88 e3 46 3d
       0.010310546 -0.052780457 0.0033413619 0.048556834
0003b0 4c d7 34 be ad e4 b4 bd 4b 1c 10 3e 70 bb 64 3d
       -0.17660254 -0.08832679 0.14073293 0.055842817
0003c0 92 11 ca 3d 90 12 90 bc 4b ec 1d be 40 c4 49 3d
       0.098666325 -0.017586976 -0.1542217 0.049259424
0003d0 98 1b f3 bc f0 49 01 3d 09 f9 2d be 1c 62 45 3d
       -0.029676244 0.031564653 -0.1698953 0.048189268
0003e0 98 f2 62 3d d2 b9 22 be 35 9a 25 3e a0 83 52 3c
       0.055407137 -0.15891197 0.16172107 0.012848765
0003f0 3f e7 16 3e 28 b4 b7 bd 6b 8e 22 3e 16 2f 9e bd
       0.14736651 -0.08969909 0.1587464 -0.07723825

hidden_layer3.bias f4 [16]
000000 60 8c 94 3b 4e b2 c1 bd 3c 46 ad bd b8 74 16 3d
       0.0045333356 -0.09457837 -0.08460662 0.036732405
000010 3c 61 0f be e2 12 e9 3d 10 a0 a7 bc b5 e4 11 3e
       -0.14001936 0.11380555 -0.020462066 0.14247401
000020 40 75 49 3b 9e db ed 3d e6 84 8c bd 37 17 27 be
       0.0030740052 0.11614154 -0.06861286 -0.1631745
000030 82 39 1f be c6 6a 99 3d f7 47 12 be 97 93 c7 bd
       -0.15549281 0.074910685 -0.14285265 -0.097449474

out_layer.weight f4 [5, 16]
000000 24 df a8 bd b0 87 36 bd cc 89 db 3d 52 3d 51 be
       -0.08245686 -0.044562995 0.10719642 -0.20433548
000010 84 d5 73 3e 20 9c 0b bc e4 29 f2 bd c0 6d 35 bc
       0.23811918 -0.00852111 -0.11824396 -0.01107353
000020 8c d4 46 be 04 0f f9 bd f0 76 da 3d 70 41 e1 3c
       -0.19417018 -0.12161067 0.10667217 0.027497023
000030 80 da 28 3e 0c 64 fa 3d 38 53 13 bd 92 e4 76 3e
       0.16489601 0.12226114 -0.035968035 0.2411063
000040 58 5a 10 3d 30 e5 7e 3d 00 78 1c bb 8c fe cb 3d
       0.03524241 0.06223029 -0.0023875237 0.0996066
000050 38 28 57 3e b8 3e f6 3d 5e 04 2e be 60 f8 19 be
       0.21011436 0.120236814 -0.16993853 -0.15036154
000060 96 42 25 be 30 bb ea 3d f0 b0 4b 3d c4 9f be 3d
       -0.16138682 0.114614844 0.049729288 0.093078166
000070 4c 34 24 3e 2a ef 37 be 70 48 d4 3c 74 25 ff 3d
       0.16035575 -0.17962328 0.025913447 0.124583155
000080 36 91 66 3e dc 9d d4 3d 40 31 27 3d ca 89 78 3e
       0.22516331 0.10381672 0.040818453 0.24271312
000090 98 3c b8 bd ba 50 3b 3e 50 8d e9 bc 76 4a 5a be
       -0.08995932 0.18292513 -0.028509766 -0.21317467
0000a0 a4 d4 0a be 80 5b 5c 3c 8e 1c 3d 3e 1c 23 ef 3d
       -0.13557678 0.01344955 0.18467924 0.116766185
0000b0 4a 76 67 be 00 59 93 bb 28 6d 39 bd 84 f9 d9 3d
       -0.22603717 -0.0044966936 -0.045270115 0.106432945
0000c0 5e 21 7e 3e 00 b0 21 3b 80 b1 41 bb a4 db c5 bd
       0.24817416 0.0024671555 -0.002955526 -0.09661034
0000d0 d4 ab 12 3e 28 9d 39 bd b4 77 38 be 76 e7 66 be
       0.1432336 -0.04531589 -0.18014413 -0.22549233
0000e0 b8 1d d0 3d 70 4a 91 bd 78 18 68 3e bc 6f 2b 3e
       0.101619184 -0.07094276 0.22665584 0.16741842
0000f0 a2 fe 4b be ea 8a 40 3e 26 2c 73 be 30 99 7a 3e
       -0.19921353 0.18802992 -0.2374731 0.24472499
000100 50 27 fc 3d 68 2a dc 3d 30 29 8c bc 00 2a f2 3a
       0.12312186 0.10750276 -0.017109483 0.0018475652
000110 50 ad a7 3d 58 08 7c 3e a8 8a 26 3d 84 c7 e1 bd
       0.081873536 0.24612558 0.040659577 -0.11024383
000120 82 87 62 3e 6e 3e 0b 3e 38 7a 63 be d0 9a 3c 3d
       0.22122005 0.13598034 -0.22214592 0.04604608
000130 80 58 16 bb 0e 75 47 3e 82 b6 6b 3e b8 b5 35 3d
       -0.0022940934 0.19478247 0.2301884 0.044362754

out_layer.bias f4 [5]
000000 70 54 e7 bc e0 95 14 3e 58 79 f6 bd 40 49 e1 bd
       -0.028238505 0.14510298 -0.12034863 -0.110002995
000010 4e 07 44 3e
       0.19143412
