models/DQNtoggle_param3.pth (torch, 110633 bytes, 8 tensors)

hidden_layer1.weight f4 [64, 378]
0	0x3d5f90e8	0.054581553
1	0x3da1c0cd	0.07898102
2	0xbd8fb1bc	-0.07016322
3	0x3d82b38b	0.06381901
4	0x3d9aa4e5	0.075509824
5	0x3d86b5c7	0.0657764
6	0xbb565908	-0.0032706875
7	0x3d2fe272	0.042940564
8	0xbc1d29a2	-0.009592446
9	0x3dbff644	0.09373143
10	0xbc83c3ce	-0.016084578
11	0x3e26af63	0.16277842
12	0x3cdfdc87	0.027326835
13	0x3dded905	0.10881237
14	0xbdbbd018	-0.0917055
15	0x3b55d99d	0.0032630928
16	0xbd2e2f2d	-0.04252546
17	0x3c9b785c	0.01897829
18	0x3caf1bb9	0.021375524
19	0xbd4da287	-0.050203826
20	0x3e18c200	0.14917755
21	0xbc96f58d	-0.018427635
22	0xbe210ad4	-0.15726787
23	0x3cb7e269	0.022446828
24	0xbd79a7d7	-0.06095108
25	0xbe30c589	-0.17262854
26	0xbe53ffac	-0.20703
27	0xbe4b67ff	-0.1986389
28	0x3c8758db	0.016521862
29	0xbaff95c1	-0.0019499586
30	0x3be6f3a6	0.007048088
31	0x3cadf564	0.021235175
32	0xbd89dbba	-0.06731363
33	0x3d3f5910	0.046715796
34	0xbcc3f78c	-0.02392175
35	0xbd6a66ed	-0.057227064
36	0x3d844ae3	0.06459596
37	0x3c0c925d	0.008579818
38	0xbd834d12	-0.06411184
39	0xbccf7b60	-0.025327384
40	0xbdd4bfd7	-0.10388153
41	0xbddebc36	-0.10875742
42	0xbd9eb605	-0.07749561
43	0x3dc474fd	0.09592626
44	0x3d413a62	0.04717482
45	0x3d720a7c	0.05909203
46	0xbe049b07	-0.12949763
47	0xbdc76e81	-0.09737874
48	0xbcd1787e	-0.02557015
49	0x3cf6d95e	0.030132946
50	0xbd19333d	-0.03740238
51	0xbc62d2f5	-0.013844241
52	0x3d9faa2e	0.07796131
53	0xbc339987	-0.010961897
54	0x3d321ce5	0.043484587
55	0x3c95d119	0.018288182
56	0x3d2d4a28	0.04230705
57	0xbc62fb68	-0.013853885
58	0x3c9a1178	0.018807158
59	0xbcf64e03	-0.030066496
60	0xbd17a072	-0.037018247
61	0xbd7976e2	-0.06090439
62	0xbd35841c	-0.044315442
63	0xbd24bd65	-0.040219683
64	0xbcf396cf	-0.029734997
65	0xbd7c2f38	-0.06156847
66	0xbd90e1ad	-0.07074294
67	0xbc2e4ae8	-0.010637976
68	0xbdb1e046	-0.08685355
69	0xbde13976	-0.10997288
70	0x3d7481d5	0.05969413
71	0x3db362ac	0.087590545
72	0x3d2cc88f	0.042183455
73	0x3dd6016e	0.104494914
74	0x3cec8a51	0.028874548
75	0x3d396ce7	0.045269873
76	0x3bd3b6c8	0.006460998
77	0xbd9bb47d	-0.07602785
78	0xbd0ac3d3	-0.03387816
79	0xbbdc26fd	-0.006718515
80	0x3d12a425	0.03580107
81	0xbcf239ae	-0.02956852
82	0xbc456808	-0.012048729
83	0x3ce362a7	0.027757002
84	0xbea66687	-0.32500097
85	0xbea7c71a	-0.3276909
86	0xbea0b5a5	-0.31388584
87	0xbeaaa4b3	-0.3332878
88	0xbea436b4	-0.32072985
89	0xbea17c8e	-0.3154034
90	0xbead5aa8	-0.33858228
91	0x3d6975ef	0.056997236
92	0x3d9625a8	0.07331401
93	0x3d6b4b05	0.05744459
94	0x3ceada78	0.028668627
95	0x3be2a3f8	0.0069165193
96	0x3d24440b	0.040103953
97	0xbc6c6f18	-0.014430784
98	0x3d58dadf	0.052943107
99	0x3cc29286	0.023751508
100	0xbc498b84	-0.0123013295
101	0xbd46b1ba	-0.048509337
102	0xbcca7b4d	-0.024716998
103	0xbc1455e2	-0.009053679
104	0xbd26ffa5	-0.040771145
105	0x3dc22483	0.0947962
106	0x3d23ccd9	0.03999028
107	0x3d401af0	0.04690069
108	0x3d262df2	0.04057116
109	0xbc2fc5a7	-0.010728276
110	0x3da97260	0.082737684
111	0x3d3c0a13	0.045908045
112	0x3d978856	0.07399051
113	0x3e058ba7	0.13041554
114	0x3dbcbb8e	0.09215461
115	0x3d1a3897	0.037651625
116	0x3da789fc	0.08180615
117	0x3c847c8b	0.016172668
118	0x3b826da5	0.003980356
119	0xbd402b5f	-0.046916362
120	0xbc30c51b	-0.010789181
121	0xbc073819	-0.008253121
122	0x3a3caf82	0.00071977836
123	0xbbd4e1a8	-0.006496627
124	0xbd524382	-0.05133391
125	0xbca693ee	-0.02033421
126	0xbc9b673c	-0.018970124
127	0x3d2b6b96	0.04185065
128	0x3d1821b9	0.037141535
129	0x3cc5f4b0	0.024164528
130	0xbcf41d02	-0.029798988
131	0xbd1d000f	-0.038330134
132	0xbc56564b	-0.013082097
133	0xbc193ba3	-0.009352597
134	0xbc393373	-0.01130377
135	0xbcca15cf	-0.024668602
136	0x3d3ff53b	0.04686473
137	0xbca609d3	-0.020268356
138	0x3d4c823f	0.0499289
139	0xba9ca88e	-0.0011952089
140	0x3cf67fef	0.0300903
141	0xbc7c82f5	-0.015412082
142	0x3c9e0319	0.019288586
143	0x3d247777	0.040152993
144	0xbc9eaddb	-0.01937001
145	0xbd1c1a0d	-0.03811078
146	0xbc34eb51	-0.011042432
147	0x3b872ebd	0.0041254447
148	0x3b0667ee	0.0020508724
149	0xbcc41898	-0.023937508
150	0xbccd1abf	-0.025037168
151	0xbd236184	-0.03988792
152	0x3d0ea3a4	0.03482403
153	0x3cd80428	0.02636917
154	0xbaaa347d	-0.0012985613
155	0x3bdd0d96	0.0067460043
156	0x3cc2d1ea	0.023781735
157	0x3d0daf45	0.03459098
158	0x3c3b9cce	0.011450959
159	0x3d1d6705	0.038428325
160	0x3cfd37ad	0.030910337
161	0x3d2da8e3	0.04239739
162	0x3d423b18	0.047419637
163	0x3d4c12a9	0.049822483
164	0xbc769ce4	-0.015052054
165	0x3d1dca66	0.0385231
166	0xbc9607ef	-0.01831433
167	0x3ccd55e0	0.025065362
168	0xbcd98bad	-0.02655586
169	0xbae4284a	-0.0017407027
170	0x3d0ff59f	0.035146352
171	0xbc7504db	-0.014954771
172	0xbcba86fc	-0.022769444
173	0xba3f147c	-0.0007289124
174	0x3d4dadfb	0.05021475
175	0xbce07e60	-0.02740401
176	0xbcd51e96	-0.026015561
177	0x3d0fe51c	0.035130605
178	0x3c2f166d	0.010686499
179	0xbc2bcec7	-0.010486311
180	0xbd0654ed	-0.032795835
181	0xbb78f363	-0.0037986867
182	0x3c56d538	0.013112359
183	0x3d4d229e	0.05008184
184	0xbc991281	-0.018685581
185	0x3bdca53b	0.006733564
186	0xbc0a61d9	-0.00844618
187	0xbcdfd923	-0.027325219
188	0x3d23f574	0.040029004
189	0x3cac7d53	0.021055853
190	0xbb015789	-0.0019736013
191	0xbd303bdb	-0.043025833
192	0x3d18c7f4	0.037300065
193	0x3d099064	0.033584967
194	0xbd3dcea3	-0.046339642
195	0x3cce6f0c	0.025199436
196	0x3a8e8cb7	0.0010875677
197	0xbbe8128d	-0.0070822896
198	0xbc147fe8	-0.009063698
199	0xbc20c21f	-0.009811907
200	0x3c556fd0	0.013027146
201	0x3c95a833	0.01826868
202	0x3cab9d26	0.020948958
203	0xbd20c779	-0.039252732
204	0xbd33b5d4	-0.043874577
205	0xbd24e0c7	-0.040253427
206	0xbd1fb86a	-0.03899423
207	0x3c595956	0.013265928
208	0x3ce513e2	0.027963582
209	0x3af7ec6c	0.0018915064
210	0x3d232b08	0.03983596
211	0xbd1b5a8e	-0.037928157
212	0x3abecbf0	0.0014556628
213	0xbcda1a82	-0.026623968
214	0x3cd583ec	0.026063882
215	0xbcafa153	-0.02143923
216	0x3bc8f0dd	0.0061322288
217	0x3c814fd4	0.015785135
218	0x3ccf2cd5	0.025289932
219	0xbcd4f517	-0.025995774
220	0x3b9903cf	0.0046696435
221	0x3cc98a6e	0.024602141
222	0x3ccea830	0.025226682
223	0x3d315d58	0.04330191
224	0x3cb20039	0.021728622
225	0x3bbe23e0	0.0058026165
226	0x3c9b9d5a	0.01899593
227	0x3d1f43ae	0.038882904
228	0xbbee69b2	-0.0072757835
229	0xb9cfccef	-0.00039634804
230	0x3d34cfdf	0.044143554
231	0x3d041c8e	0.032253794
232	0xbd0eb256	-0.034838043
233	0xbbdc8432	-0.006729626
234	0xbd08edcf	-0.033429917
235	0xbd3116b3	-0.04323454
236	0xbd0dcb36	-0.034617625
237	0xbb4a5b89	-0.0030877313
238	0xbcf995b2	-0.030466888
239	0x3bc8e061	0.0061302637
240	0x3c519694	0.012792248
241	0xbccb6e50	-0.024832875
242	0xba9fdcb4	-0.0012196512
243	0x3cd2cd4e	0.025732663
244	0x3bbba766	0.0057267426
245	0x3c9452c2	0.018105868
246	0x3cb4cd36	0.022070508
247	0xbca1189b	-0.019665053
248	0x3cb73999	0.022366332
249	0xbd3b836e	-0.045779638
250	0xbbc46c27	-0.005994338
251	0xbd3072ff	-0.04307842
252	0x3bc2bfa9	0.005943258
253	0xbd3762c5	-0.04477193
254	0xbaa7436c	-0.0012761182
255	0xbb9bdb5e	-0.004756375

hidden_layer1.bias f4 [64]
0	0x3e981b4a	0.2970832
1	0xbd79a9d1	-0.060952965
2	0x3f03b8b6	0.5145372
3	0xb9f28f13	-0.00046264436
4	0x3f11941b	0.56866616
5	0x3f28c9c3	0.65932864
6	0x3e7a8e9e	0.24468467
7	0xbe8374dd	-0.25675097
8	0xbd395c81	-0.045254234
9	0x3db38474	0.08765498
10	0xbdfd63bb	-0.12372538
11	0x3ea42f48	0.32067323
12	0xbeaab2c7	-0.3333952
13	0x3e429c6c	0.19004983
14	0x3dd8c23c	0.10583922
15	0xbdd70ccb	-0.10500487
16	0x3e0cda68	0.1375519
17	0xbc4b2c61	-0.0124007175
18	0x3e1a8b5d	0.15092225
19	0x3e0637fa	0.13107291
20	0x3e981108	0.29700494
21	0x3e48c2dd	0.19605584
22	0x3de04743	0.10951092
23	0xbdd60f63	-0.104521535
24	0xbec74d1d	-0.3892602
25	0x3d5d3854	0.054008797
26	0x3fa5230e	1.2901323
27	0x3ea987f3	0.33111534
28	0xbde8e316	-0.11371438
29	0x3d83064b	0.06397685
30	0xbbef88c9	-0.0073100072
31	0xbe62e746	-0.22158536
32	0xbca4185e	-0.02003115
33	0x3e6b6691	0.22988345
34	0x3ec4f012	0.3846441
35	0xbe31c8f5	-0.17361815
36	0x3d2fa0f0	0.04287809
37	0xbd543135	-0.05180474
38	0x3eb11f8c	0.3459438
39	0x3e311f04	0.17296988
40	0xbe752615	-0.23940308
41	0xbe31ac9d	-0.17351003
42	0x3f44bd39	0.7685123
43	0xbe707ef0	-0.23485923
44	0xbe6d5ca7	-0.23179875
45	0x3f1eeda9	0.6208139
46	0x3e9b42a8	0.30324292
47	0xbd860749	-0.06544358
48	0x3a9db4b4	0.0012032003
49	0x3ec77b2b	0.38961157
50	0xbeccb87d	-0.39984503
51	0x3e1d6f45	0.15374477
52	0xbcc2f8cf	-0.023800282
53	0x3f704953	0.93861884
54	0x3f08537e	0.532524
55	0xbc0ebcf9	-0.008712047
56	0x3eb3370e	0.3500294
57	0xbe881ab6	-0.2658288
58	0x3dfe22a4	0.12408951
59	0xbe4c8c42	-0.19975379
60	0x3e1c771a	0.15279809
61	0x3dc359f8	0.095386446
62	0x3d32d7fb	0.043663006
63	0xbeb991a8	-0.3624394

hidden_layer2.weight f4 [32, 64]
0	0x3eca5fd3	0.39526233
1	0xbc5fd7f9	-0.013662332
2	0x3da6fba0	0.081534624
3	0xbd352f0f	-0.04423433
4	0x3d874373	0.06604662
5	0xbdd672e0	-0.104711294
6	0x3d0c28b0	0.03421849
7	0x3d8d6787	0.06904512
8	0x3e2b0657	0.16701637
9	0x3da61ff5	0.08111564
10	0xbdceb9d5	-0.100940384
11	0xbee76133	-0.45191345
12	0x3e252223	0.16126303
13	0x3e18cc29	0.14921631
14	0x3e3b09d2	0.18265465
15	0x3edfd096	0.43713826
16	0xbe8705ac	-0.26371515
17	0x3e19c2a0	0.1501565
18	0xbd34cc65	-0.04414024
19	0x3ed5bde6	0.41746444
20	0xbce2bfbc	-0.027679317
21	0x3d19a7a2	0.037513383
22	0xbec3cc0f	-0.38241622
23	0xbe033646	-0.12813672
24	0x3e1500d0	0.14551091
25	0xbf1db981	-0.6161118
26	0x3e7e7c1e	0.24852034
27	0x3eae3288	0.34022927
28	0x3dd9eadc	0.10640499
29	0xbe272545	-0.16322811
30	0xbedcb51e	-0.4310693
31	0x3daec6e0	0.08534026
32	0x3dddc038	0.108276784
33	0x3daac099	0.08337516
34	0x3e8daa4a	0.27668983
35	0xbd076e74	-0.03306432
36	0xbd001105	-0.03126623
37	0xbd8fb78c	-0.07017431
38	0x3dcd9318	0.100378215
39	0x3dc67e7a	0.09692092
40	0xbeafc47c	-0.34329593
41	0xbcc29e01	-0.023756983
42	0xbe1f2638	-0.15541923
43	0xbcdfeb65	-0.027333925
44	0xbc327618	-0.010892414
45	0x3e88930d	0.2667469
46	0x3d99fdba	0.075190976
47	0x3f322ba4	0.6959784
48	0x3ca016c2	0.019542102
49	0xbcc0fe76	-0.023558836
50	0xbd1caa72	-0.038248487
51	0x3e0f5ba2	0.13999799
52	0xbcadd65b	-0.021220377
53	0xbe6a3a89	-0.22873892
54	0x3e9059dd	0.2819356
55	0x3edefa41	0.43550304
56	0x3e4a0de6	0.19731864
57	0x3da38012	0.07983412
58	0x3db663d9	0.08905763
59	0x3cc55068	0.024086192
60	0xbd5264cd	-0.051365662
61	0x3da05845	0.07829336
62	0x3dfa3b0d	0.12218294
63	0xbcc3ab15	-0.02388529
64	0xbe698085	-0.22802933
65	0x3cbfb062	0.023399536
66	0xbe2b0202	-0.16699985
67	0xbcedb103	-0.02901507
68	0x3de23c98	0.110467136
69	0x3e398b80	0.18119621
70	0xbe3aa99c	-0.18228763
71	0x3e08a00f	0.13342308
72	0x3e0a0e83	0.13482098
73	0xbebb4709	-0.36577633
74	0xbe40857d	-0.18800922
75	0x3e5a95e4	0.21346241
76	0x3aea3a40	0.0017870143
77	0x3dbfafeb	0.093597256
78	0x3c6deeb1	0.0145222405
79	0x3e3f7b00	0.18699265
80	0xbe60c780	-0.21951103
81	0xbdcd98de	-0.10038923
82	0xbda9ba84	-0.08287528
83	0x3e1e09c1	0.15433408
84	0xbd841d4d	-0.06450901
85	0x3ccf1de9	0.025282817
86	0x3e8203b9	0.25393465
87	0x3de252a8	0.11050922
88	0xbca7f345	-0.020501742
89	0x3e2d7210	0.16938043
90	0x3e8e7401	0.2782288
91	0x3cfbc437	0.030733211
92	0xbcabb515	-0.02096037
93	0xbeb8348f	-0.359776
94	0xbe029b5c	-0.12754577
95	0x3e057a0f	0.13034843
96	0xbdd2c783	-0.1029196
97	0xbdd8637a	-0.10565849
98	0x3e5fc2a2	0.2185159
99	0xbd832b54	-0.064047486
100	0xbe5498eb	-0.20761459
101	0x3c11a058	0.008888327
102	0x3df95cba	0.12175889
103	0x3d687782	0.056754597
104	0x3e23ae54	0.1598447
105	0x3d3ae146	0.045624994
106	0x3d2a7579	0.041615937
107	0xbd3c5c6c	-0.045986578
108	0xbd201a8f	-0.03908783
109	0xbe5f0717	-0.21780048
110	0xbe29830a	-0.16553894
111	0x3de00f6a	0.1094044
112	0xbce6bfdb	-0.028167656
113	0xbdaee96a	-0.08540614
114	0xbb6f7e97	-0.003654396
115	0x3d856803	0.06513979
116	0xbe0589ca	-0.13040844
117	0x3d17ffd1	0.0371092
118	0x3dd52bed	0.10408769
119	0x3f06d125	0.5266288
120	0x3d3c5612	0.04598052
121	0x3e887583	0.26652154
122	0xbd3a960b	-0.04555325
123	0x3db40ff6	0.08792107
124	0x3e80a43a	0.25125295
125	0xbc2f8c18	-0.010714553
126	0xbddbaa29	-0.10725815
127	0xbe2ae1dc	-0.16687721
128	0xbdf43590	-0.11924279
129	0xbe0fafe3	-0.14031939
130	0x3efaf793	0.4901701
131	0xbc221337	-0.0098922765
132	0x3d377206	0.044786476
133	0x3ba880b5	0.005142296
134	0x3db7753e	0.08957909
135	0xbdc3f835	-0.09568826
136	0xbd907f7f	-0.07055568
137	0xbdbab452	-0.091164246
138	0xbdb58bdc	-0.08864567
139	0x3e93bb53	0.28853855
140	0xbd42ca98	-0.04755649
141	0x3dced6bf	0.10099553
142	0x3e0f60c6	0.1400176
143	0xbed6bf98	-0.4194305
144	0x3e2862e5	0.16443975
145	0x3df27bb4	0.11840001
146	0x3d4b2be8	0.04960242
147	0xbe9b566c	-0.30339372
148	0xbd5ad53d	-0.053426016
149	0x3c2a83c1	0.010407389
150	0x3e1fb666	0.15596923
151	0x3e31f694	0.17379218
152	0xbe6d0baf	-0.23148988
153	0x3e87f68b	0.26555285
154	0x3ac8db9a	0.0015324235
155	0x3e2ddcc1	0.16978742
156	0x3c832df2	0.01601312
157	0xbe7412d5	-0.23835309
158	0xbe4c96ab	-0.1997935
159	0xbb49c7b6	-0.0030789203
160	0x3e05ff28	0.13085616
161	0xbd30c1b2	-0.043153472
162	0x3e143267	0.14472352
163	0xbdabbb0a	-0.08385284
164	0x3d27cd6d	0.040967394
165	0xbcf1f6ff	-0.029536722
166	0x3db2fa51	0.0873915
167	0x3cbe98a5	0.023266146
168	0x3e8b9d77	0.27268574
169	0xbe13c870	-0.1443193
170	0x3d91cfdd	0.07119725
171	0xbdff1a20	-0.12456155
172	0x3d8ae3ee	0.067817554
173	0x3e8bd157	0.2730815
174	0x3c1cc342	0.009568037
175	0x3e3994bd	0.18123145
176	0xbdd519b6	-0.104052946
177	0xbc5575e4	-0.013028596
178	0xbec3cb64	-0.38241112
179	0x3e7d7188	0.2475034
180	0x3dfda941	0.12385798
181	0xbead7809	-0.33880642
182	0x3e4c7a54	0.1996854
183	0x3e08e051	0.1336682
184	0xbc027df7	-0.007964603
185	0xbdbecd28	-0.09316474
186	0x3e9f3ee4	0.3110267
187	0x3d9ba2dc	0.07599422
188	0xbd38b3b4	-0.045093253
189	0x3de9316a	0.11386378
190	0xbd9cb097	-0.07650869
191	0xbe04fdb7	-0.1298741
192	0x3dfd7ae3	0.123769544
193	0x3dd48654	0.103771836
194	0xbdea5e72	-0.11443795
195	0x3dbe46a7	0.092908196
196	0x3e1d581e	0.15365645
197	0x3e366cda	0.17814961
198	0x3d8f2157	0.06988781
199	0xbdb104ec	-0.08643517
200	0xbe3e03a9	-0.18556084
201	0xbd8c0944	-0.06837705
202	0x3dc08b73	0.09401598
203	0x3e165fda	0.14685002
204	0x3d0831c6	0.033250593
205	0xbd99358e	-0.07480918
206	0xbd77d6aa	-0.060507454
207	0x3edd2ce7	0.4319832
208	0xbdf9af41	-0.1219163
209	0xbe24eece	-0.16106722
210	0x3e258ca1	0.16166927
211	0x3e55d1af	0.20880769
212	0x3d608a4f	0.0548194
213	0x3dbac32b	0.091192566
214	0xbf154022	-0.58300984
215	0xbe202c8b	-0.15641992
216	0xbdc017d2	-0.09379543
217	0xbe87a902	-0.2649613
218	0x3e690095	0.22754128
219	0x3e2f1c49	0.17100634
220	0x3d7b2681	0.061316017
221	0xbdba828c	-0.09106931
222	0xbf017f19	-0.5058456
223	0x3e02918d	0.12750836
224	0xbe89d0a3	-0.2691699
225	0xbf0392ca	-0.5139586
226	0x3e7486b6	0.23879513
227	0xbdb9de15	-0.09075562
228	0x3e2d478e	0.16921827
229	0x3e321cf3	0.17393856
230	0x3df7418f	0.12073051
231	0x3dbc42b9	0.09192414
232	0x3de854c8	0.11344296
233	0x3ddc2a6e	0.1075028
234	0x3e473e6b	0.19457404
235	0x3b929333	0.004473114
236	0xbe5fc22d	-0.21851416
237	0xbd9491e1	-0.07254387
238	0x3e56c600	0.20973969
239	0x3e15ba04	0.1462174
240	0x3e388e91	0.18023135
241	0x3da35c57	0.07976597
242	0x3e83ed08	0.25766778
243	0x3d7a1e8f	0.0610643
244	0x3eadbcb5	0.33933035
245	0xbe241a6f	-0.16025709
246	0xbde000e5	-0.109376706
247	0xbe0a44d4	-0.13502818
248	0x3e92c859	0.28668478
249	0xbe83496f	-0.25641963
250	0x3e039751	0.12850691
251	0x3e85898c	0.26081502
252	0x3e6e03a6	0.2324358
253	0x3dce90c3	0.10086205
254	0x3cdc5410	0.026895553
255	0xbda30dea	-0.07961638

hidden_layer2.bias f4 [32]
0	0x3f1748c9	0.59095436
1	0xbeb1c156	-0.34717816
2	0x3f287ac4	0.65812325
3	0x3eb53090	0.35388613
4	0x3f4208f5	0.7579492
5	0xbe79d9c2	-0.24399474
6	0xbdd7b410	-0.10532391
7	0x3cb96051	0.022628935
8	0x3edfde75	0.4372441
9	0xbec2d996	-0.3805663
10	0x3e2ee88f	0.17080902
11	0x3e5b49c9	0.21414866
12	0x3f15b0f8	0.5847316
13	0x3d3fe51f	0.046849366
14	0x3cdf1736	0.027232748
15	0x3f150c45	0.58221847
16	0x3f6846a1	0.9073277
17	0xbde6fa76	-0.112782404
18	0x3edd656c	0.4324144
19	0x3e47ebb3	0.19523506
20	0xbe647d6a	-0.22313467
21	0xbe3bc0d8	-0.18335283
22	0xbe512147	-0.2042285
23	0x3d0abd8d	0.033872176
24	0x3d6b0908	0.05738166
25	0x3d4c6dd3	0.049909424
26	0xbb546b06	-0.0032412424
27	0x3e520bc1	0.20512296
28	0xbd60199f	-0.054711934
29	0x3e10b529	0.14131607
30	0x3e88913f	0.26673314
31	0xbdd0666b	-0.10175785

hidden_layer3.weight f4 [16, 32]
0	0x3d8c1cee	0.068414554
1	0x3e877f09	0.26464108
2	0xbe80e8da	-0.25177652
3	0xbdb4f9e2	-0.08836724
4	0xbd6ee3db	-0.05832277
5	0xbe724489	-0.23658957
6	0x3e964598	0.2934997
7	0x3cec074a	0.02881207
8	0xbda92611	-0.08259214
9	0x3db98855	0.090592064
10	0x3def9b1c	0.11699507
11	0xbc35f188	-0.011104949
12	0x3d328e56	0.043592773
13	0xbd8a78a8	-0.067612946
14	0xbde48380	-0.11157894
15	0x3b900462	0.0043950537
16	0xbe86ab21	-0.26302436
17	0x3d804e80	0.06264973
18	0xbe4bf0ce	-0.19916078
19	0x3df40b07	0.11916166
20	0x3e67d6f5	0.22640593
21	0xbdb391f2	-0.08768071
22	0x3e647adc	0.22312492
23	0xbe11dd6c	-0.14244622
24	0x3cd5c1bb	0.026093354
25	0xb9bff73a	-0.00036614557
26	0x3c5fc46c	0.0136576705
27	0x3c4ce526	0.012505805
28	0x3df418f7	0.11918824
29	0x3e0db710	0.13839364
30	0xbe3b9a19	-0.18320502
31	0xbc14f119	-0.009090685
32	0xbdaea0b6	-0.08526747
33	0x3e5fc84a	0.21853748
34	0xbf08a2e3	-0.53373545
35	0x3e87bf20	0.26513004
36	0x3ec0d898	0.37665248
37	0x3e494921	0.19656803
38	0x3ef5602a	0.4792493
39	0x3dd87dbb	0.10570856
40	0xbf1e4c08	-0.61834764
41	0x3d9f89c4	0.077899486
42	0xbe6fe6e0	-0.23427916
43	0xbe9d7604	-0.307541
44	0x3e3cb320	0.18427706
45	0x3e0522e7	0.13001595
46	0xbdb6139b	-0.08890458
47	0xbf0c03c5	-0.5469325
48	0xbe9f3f77	-0.31103107
49	0xbc92bd32	-0.017912481
50	0x3e171a15	0.14756043
51	0x3a96907a	0.0011487149
52	0x3e70038d	0.23438855
53	0x3e9e25b9	0.30888155
54	0x3eea89b5	0.45808187
55	0x3ec7902e	0.38977188
56	0x3e1a238a	0.1505262
57	0xbe035c6d	-0.12828226
58	0xbeba2dda	-0.36363107
59	0xbf7e81f7	-0.9941706
60	0x3eaab263	0.33339223
61	0xbdb1d956	-0.08684032
62	0x3e95299d	0.2913331
63	0xbb52bf15	-0.003215735
64	0xbc408979	-0.011751526
65	0xbe09a691	-0.13442446
66	0x3e38d953	0.18051653
67	0x3e8020f4	0.2502514
68	0x3db35689	0.0875674
69	0x3e2ce728	0.16885054
70	0xbea2faf9	-0.31832102
71	0xbe8c5890	-0.27411318
72	0x3c1c5669	0.009542086
73	0x3e1a2365	0.15052564
74	0x3e119a8c	0.14219111
75	0x3dce8ef2	0.100858584
76	0x3e41678e	0.18887159
77	0xbe62ae92	-0.22136906
78	0x3e3916e6	0.18075141
79	0x3e494f7b	0.19659226
80	0x3edd7709	0.4325488
81	0x3dd285ea	0.10279448
82	0x3e2d3267	0.16913758
83	0x3e452267	0.19251405
84	0xbe6e12fa	-0.23249426
85	0xbecdfe3a	-0.40233022
86	0xbe47a28e	-0.19495603
87	0xbc565d6e	-0.013083799
88	0xbe8d18dd	-0.27558032
89	0x3df2634c	0.118353456
90	0x3e4b8fe2	0.19879106
91	0x3db14f21	0.08657671
92	0xbd4fee5f	-0.050764438
93	0x3e51fba7	0.20506154
94	0x3e67c629	0.22634186
95	0xbd19518a	-0.037431277
96	0x3e5bb774	0.214567
97	0xbdc041b3	-0.09387531
98	0x3f0d4f90	0.5519953
99	0x3e10fbcf	0.14158557
100	0x3e09c1dc	0.13452858
101	0x3cc1ab33	0.023641204
102	0xbea918cd	-0.33026734
103	0xbc102385	-0.008797531
104	0x3e204fe1	0.15655471
105	0xbe075550	-0.13216138
106	0x3e1c8002	0.15283206
107	0xbcfbc4bd	-0.03073346
108	0x3da530c5	0.08065943
109	0xbed5fce7	-0.41794512
110	0x3d17033c	0.03686832
111	0x3e39e3c0	0.18153286
112	0x3e9b7a6c	0.30366838
113	0x3bd1b240	0.006399423
114	0x3e9d32fb	0.30702958
115	0x3cd85b67	0.026410772
116	0xbdd55978	-0.104174554
117	0xbeb8ce0e	-0.36094707
118	0x3ce87528	0.028376177
119	0xbe3cad44	-0.1842547
120	0xbe794eb5	-0.2434643
121	0xbe04802a	-0.12939516
122	0x3df64842	0.12025501
123	0xbba83fe6	-0.0051345704
124	0xbd2eb602	-0.042654045
125	0x3d2743be	0.04083609
126	0x3e6bbe2b	0.23021762
127	0xbdbcdae6	-0.09221439
128	0x3e3539c1	0.17697813
129	0x3e1f089a	0.15530625
130	0xbf3a47aa	-0.727656
131	0x3e9d4455	0.30716196
132	0xbe2a8994	-0.16654044
133	0xbda27166	-0.07931785
134	0x3f26a202	0.65090954
135	0x3e8e5e3e	0.27806276
136	0xbf06fb75	-0.5272744
137	0xbd19aea7	-0.037520077
138	0x3d3d5534	0.046223834
139	0xbe26c7f4	-0.16287214
140	0xbd8e1e34	-0.069393545
141	0x3f026c84	0.5094683
142	0xbdabe9e5	-0.08394221
143	0xbff47f53	-1.9101356
144	0xbfa52424	-1.2901654
145	0xbd824522	-0.06360842
146	0x3e9042da	0.28176004
147	0xbe56822e	-0.20948097
148	0x3dc2a66a	0.09504397
149	0x3f2e52a7	0.6809487
150	0x3ef0cb84	0.4703027
151	0x3df4c048	0.11950737
152	0x3ec9db7e	0.39425272
153	0xbeb2f1d6	-0.3495013
154	0xbf993d45	-1.1971823
155	0xbe8f7d83	-0.28025445
156	0x3e810566	0.2519943
157	0xbd1fb419	-0.038990114
158	0xbe393fd6	-0.18090758
159	0x3e915c7b	0.2839087
160	0xbd8b6898	-0.06807059
161	0xbb9e26d8	-0.004826408
162	0xbee36427	-0.44412348
163	0x3c2827c3	0.010263386
164	0x3e76085f	0.24026631
165	0x3e911034	0.28332675
166	0x3f3ef77a	0.7459637
167	0x3e940035	0.28906408
168	0xbf914d80	-1.1351776
169	0xbe5a93da	-0.21345463
170	0xbd854e30	-0.06509054
171	0xbf1df3e8	-0.61700296
172	0x3e06ccce	0.13164064
173	0x3ecc4e92	0.39903694
174	0xbe9185c6	-0.28422374
175	0xbeeef8e4	-0.46674263
176	0xbea66bf0	-0.32504225
177	0x3cdbe95a	0.02684467
178	0x3e8fe61e	0.28105253
179	0xbe481b03	-0.19541554
180	0x3e0b97e1	0.13632156
181	0xbe9be78f	-0.30450103
182	0x3eee1969	0.4650376
183	0x3e81bf27	0.2534115
184	0x3e4f5915	0.20248826
185	0xbe6967e5	-0.22793539
186	0xbf6f3750	-0.93443775
187	0xbea466e3	-0.32109746
188	0x3e83d370	0.25747252
189	0xbe1a480d	-0.15066548
190	0x3cffcf4d	0.031226778
191	0x3e458b43	0.19291405
192	0x3dc9a2ba	0.09845491
193	0x3c288204	0.010284904
194	0x3e091d47	0.13390075
195	0x3d256276	0.040377103
196	0x3dad8339	0.08472294
197	0xbd722c04	-0.059124008
198	0x3df6ef05	0.12057308
199	0xbe19b2ec	-0.1500966
200	0x3d717e1b	0.058958154
201	0xbe3e8b5e	-0.18607852
202	0xbc7d902c	-0.015476268
203	0xbc896285	-0.01677061
204	0x3bdfbe17	0.0068280804
205	0x3d47ae1d	0.04875003
206	0x3dcb734b	0.099341
207	0xbcf67d6c	-0.030089103
208	0xbebe7964	-0.3720199
209	0xbdd43d32	-0.103632346
210	0xbcffd012	-0.031227145
211	0xbbc6d468	-0.0060678013
212	0xbd411b1d	-0.047144998
213	0xbd8870ef	-0.066621654
214	0xbe42f9d3	-0.19040613
215	0x3df612e2	0.1201532
216	0xbdcbc15d	-0.099489905
217	0x3c25cd68	0.010119773
218	0x3dfc9b7d	0.123343445
219	0xbe3923e6	-0.180801
220	0x3d4d2bcc	0.050090596
221	0xbd259684	-0.040426746
222	0xbe1ea7f4	-0.15493757
223	0xbdb3f880	-0.08787632
224	0x3da0102f	0.07815587
225	0xbde98ddf	-0.11404013
226	0x3e8740d5	0.2641665
227	0xbc911802	-0.017711643
228	0x3e11d5d7	0.1424173
229	0xbc13fd8d	-0.009032619
230	0xbf03b373	-0.5144569
231	0x3e3f6944	0.186925
232	0x3f0b709b	0.544687
233	0xbdd7cc16	-0.10536973
234	0xbd908864	-0.070572644
235	0x3d036fe7	0.03208914
236	0x3e102b62	0.14079049
237	0xbd59c9d1	-0.053170983
238	0xbb959e6c	-0.0045660045
239	0xbb8ee896	-0.0043612225
240	0x3ec3ff34	0.38280642
241	0xbe5b970a	-0.21444336
242	0xbddaec45	-0.10689596
243	0x3d03f5da	0.032216884
244	0xbd8c85b3	-0.068614386
245	0xbe5ace89	-0.2136785
246	0xbebfa998	-0.37434077
247	0x3e5ec1eb	0.21753661
248	0x3d045dd8	0.03231606
249	0xbcdb0921	-0.026737751
250	0x3dd74dce	0.10512887
251	0xbea64b4a	-0.32479316
252	0x3e4b00d6	0.19824538
253	0x3e238695	0.15969308
254	0x3d255af2	0.040369935
255	0x3d87e6e3	0.06635835

hidden_layer3.bias f4 [16]
0	0x3e5f0ae4	0.21781498
1	0xbdedb9cf	-0.11607706
2	0x3e23212a	0.1593062
3	0x3f0ae0f0	0.5424948
4	0xbe0da1af	-0.13831209
5	0x3bb5b95e	0.005545779
6	0xbdc008ef	-0.09376704
7	0x3f1adfbb	0.60497636
8	0x3ea97f8b	0.3310512
9	0x3f9fdf6b	1.2490057
10	0xbbfd5508	-0.007731084
11	0x3e9a1096	0.3009078
12	0x3f059af4	0.52189565
13	0xbe19391a	-0.14963189
14	0x3e20fc04	0.15721136
15	0x3e9c4ae8	0.305259

out_layer.weight f4 [5, 16]
0	0xbbed356a	-0.0072390335
1	0xbe493d6c	-0.19652337
2	0x3eb0bb68	0.3451798
3	0x3ee2afdf	0.44274804
4	0xbf3ed77f	-0.7454757
5	0xbf7143b0	-0.9424391
6	0xbd810300	-0.062994
7	0x3ecf259d	0.40458384
8	0x3d1d90f0	0.0384683
9	0xbe0581c8	-0.13037789
10	0xbf16e408	-0.589417
11	0x3dbe0029	0.09277374
12	0x3f65097d	0.894676
13	0x3e0cdaa3	0.13755278
14	0xbeb366e0	-0.35039425
15	0x3ee6c8fe	0.4507522
16	0x3e412c96	0.18864664
17	0x3bfc3259	0.0076964316
18	0x3d17f002	0.037094124
19	0x3e20d660	0.15706778
20	0xbf685774	-0.9075844
21	0xbe8b3566	-0.27189177
22	0xbe4c5537	-0.19954382
23	0x3f156508	0.58357286
24	0x3e1b5e51	0.15172698
25	0x3ead6411	0.33865407
26	0xbe474b75	-0.19462378
27	0x3eba6ad6	0.36409634
28	0x3eaf8ec0	0.34288597
29	0xbe27f0f5	-0.16400512
30	0xbf844914	-1.0334802
31	0xbcab3586	-0.020899545
32	0xbde82d5f	-0.11336779
33	0xbe7343fc	-0.23756403
34	0x3ea29a0f	0.31758162
35	0xbda34902	-0.079729095
36	0xbf1e986d	-0.61951333
37	0xbf699ae6	-0.9125198
38	0x3e31fb33	0.17380981
39	0x3f1682f9	0.587936
40	0x3e942890	0.28937197
41	0xbe21a4c1	-0.15785505
42	0xbeb6d0d0	-0.35706186
43	0x3eaadea7	0.33372995
44	0x3f8f5847	1.1198815
45	0x3da01a0a	0.078174666
46	0xbeca8ae8	-0.39559102
47	0x3cc713d0	0.02430144
48	0xbe3d7615	-0.18502076
49	0xbf208e17	-0.6271681
50	0x3e8a112c	0.26966226
51	0x3e05e529	0.13075699
52	0xbef16407	-0.47146627
53	0xbed05c71	-0.40695527
54	0xbba88e07	-0.005143884
55	0x3ec624c4	0.38699925
56	0x3eb706a1	0.35747245
57	0x3dc21e78	0.09478468
58	0xbe7a3492	-0.24434116
59	0x3d747baf	0.059688266
60	0x3f76f8ed	0.9647358
61	0x3eded092	0.43518502
62	0xbed365f1	-0.41288713
63	0x3ebc860e	0.36821026
64	0x3b659c1f	0.0035035682
65	0xbe539ead	-0.20665999
66	0x3ebfd65c	0.3746823
67	0x3e14e2e3	0.14539675
68	0xbf786df1	-0.9704276
69	0xbf20983c	-0.6273229
70	0x3e39139c	0.18073887
71	0x3ec44504	0.38333905
72	0x3dbec6b3	0.093152426
73	0xbe384c50	-0.17997861
74	0xbee0e2d5	-0.4392306
75	0x3dfd37f1	0.123641856
76	0x3f984337	1.1895512
77	0x3e8d4565	0.27592006
78	0xbedd73b3	-0.43252334
79	0x3d1d0ac5	0.03834035

out_layer.bias f4 [5]
0	0x3ea7ed35	0.32798162
1	0x3f2fdb8c	0.68694377
2	0xbe2de5b6	-0.16982159
3	0x3ec2be54	0.38035834
4	0x3ea81afe	0.32833093
